logs/rsl_rl/arm_t_reach_ik/2025-10-15_21-11-59/model_500.pt (torch, 978530 bytes, 42 tensors)

std f4 [6]
000000 34 99 55 3f fe 71 17 3f ac aa 85 3f 54 b2 b1 3f
       0.83436894 0.59158313 1.044271 1.3882546
000010 93 e0 95 3f d2 3d b8 3f
       1.170916 1.4393866

actor.0.weight f4 [256, 25]
000000 3a 49 9f 3d 9f 95 fc bd b0 0b 94 3d 09 d3 d3 3e
       0.07777639 -0.123332255 0.07228792 0.41371945
000010 de 08 db be 84 ec 1d 3f 61 c4 a8 be 83 f9 b5 bd
       -0.42780203 0.6168902 -0.32962325 -0.08885481
000020 ac d9 b9 3e 4c 91 84 be ea 60 20 3f 5e 72 b5 3e
       0.36298883 -0.25892103 0.6264788 0.35438818
000030 64 09 43 3c 03 35 91 be 36 ea 38 3e 97 9e c6 3e
       0.011904094 -0.28360757 0.18058094 0.3879287
000040 55 e1 31 be cc 4c 14 bf dd 91 6e 3f e8 4c b0 be
       -0.17371114 -0.5792968 0.9319132 -0.34433675
000050 4b 73 0f be 7a 60 44 be 5a 52 27 3e cb f9 3e 3d
       -0.14008825 -0.19177428 0.16340008 0.04662494
000060 2d 1b 91 3e 30 70 e9 3c 41 14 3a bf f5 ef 0d be
       0.28341046 0.028495878 -0.72687155 -0.13861068
000070 04 cf 93 3e 49 39 fa bd 93 d1 ff 3e 51 54 3e bd
       0.28868878 -0.122179575 0.4996458 -0.04646713
000080 e1 28 91 3f b7 5f 08 bf 69 26 76 3e bb 46 f1 bd
       1.13406 -0.5327105 0.2403809 -0.11781069
000090 dd dd c7 3d 56 97 75 3e dc 4f 10 be c4 bb e8 be
       0.09759114 0.23983511 -0.14092964 -0.45455754
0000a0 4a 89 73 3e 2f aa a0 3e 92 1c 33 be f8 ad c3 bd
       0.2378284 0.3137984 -0.17491367 -0.09554666
0000b0 d8 cb 85 3e e8 c6 30 3e 67 59 01 3e d2 7a 57 be
       0.26132083 0.17263377 0.1263176 -0.21042946
0000c0 be fd 1a be 2b b1 c1 3c 75 2b c8 be 08 5c ad be
       -0.15135857 0.02364405 -0.39095655 -0.33859277
0000d0 f5 b5 ff 3e 56 a2 26 3e 9b b7 d1 3d f7 a8 80 3e
       0.4994351 0.16272864 0.10240098 0.2512891
0000e0 14 fd e3 3e 23 38 9a 3e 25 3d d0 3d 54 99 f1 be
       0.4452902 0.30120954 0.101679124 -0.47187293
0000f0 74 91 9d be aa b9 75 be f9 4b 8f be 44 32 cb be
       -0.30775034 -0.23996606 -0.2798765 -0.39686787
000100 45 03 9b be 38 3c d1 3c 46 4a 5c 3f 5f b1 9f be
       -0.30275932 0.02554141 0.8605083 -0.3119001
000110 01 7c 33 bf ac 9b 5f be a9 28 ba 3e 9d d8 46 3d
       -0.7011109 -0.21836728 0.36359146 0.048546422
000120 8c f2 0d 3e d9 fe 3f be f4 be 4e 3c 61 95 ea be
       0.13862056 -0.1874956 0.012618769 -0.45817092
000130 c4 8a 82 be 73 59 17 3f ee 4f 9f 3d 8f 66 56 bd
       -0.25496495 0.59120864 0.07778917 -0.0523439
000140 82 9a 52 be 4d cf 9e 3e f0 de 2e be 52 c4 36 bf
       -0.20566753 0.31017533 -0.17077231 -0.7139331
000150 e5 35 80 be a6 b3 3f be 93 d2 83 3d 3d 16 04 bf
       -0.25041118 -0.18720874 0.06436648 -0.5159643
000160 f7 6d b5 3e a4 f1 a5 bd 3a d9 43 3e d7 e5 ec 3d
       0.3543546 -0.0810273 0.19125834 0.11567276
000170 c2 e0 06 3f 92 7a 22 3f fe 48 20 3e 5d 78 8e bd
       0.52686703 0.6346828 0.15652844 -0.06956551
000180 df 8b 90 3e e8 88 2e 3c 99 db 20 3f e4 2f 4e be
       0.28231713 0.010652758 0.6283508 -0.20135456
000190 a1 7c b0 be e1 8d db be de 3b 75 3f 6e 46 18 bf
       -0.34470084 -0.42881683 0.95794475 -0.5948247
0001a0 15 ff 24 be d2 24 9e bf 3e c3 cd bd 97 8e 1c 3d
       -0.16112931 -1.2354987 -0.10047005 0.03822192
0001b0 d4 aa 85 bc 1a b1 1e be c9 5a 23 3e 1f 99 13 bb
       -0.016316809 -0.15497246 0.159526 -0.0022521687
0001c0 25 ec 67 be 99 0d 93 3d 78 0d ae be d6 ee 2f bf
       -0.22648676 0.07180328 -0.3399465 -0.6872381
0001d0 3a 2f 73 3e 9a 16 82 bf 2d 89 0a bf f7 27 d4 3d
       0.23748484 -1.0163147 -0.54115564 0.10359185
0001e0 27 39 be be 08 0f a2 bd e1 41 c2 3d f9 a6 50 3e
       -0.3715298 -0.07913023 0.09485222 0.20376195
0001f0 16 7b c6 bd 8c 50 16 3f 3d c3 e8 be 1a 30 a1 3e
       -0.096914455 0.58716655 -0.45461455 0.3148201
000200 0d 61 2e 3f 46 f4 d7 be ad 9a 8d bc 73 12 20 be
       0.6811684 -0.42178553 -0.01728567 -0.15632038
000210 5c 1c b4 be aa 25 b5 3e 53 07 16 3e 0e c7 d0 be
       -0.35177886 0.35380298 0.14651231 -0.40776867
000220 e9 cb 07 bf a4 5e d8 be 46 54 a3 3e f5 bc ad 3e
       -0.5304552 -0.42259705 0.31900233 0.33933225
000230 c6 d2 52 be 2c c7 a3 be 91 4a c5 bd 86 64 46 be
       -0.20588216 -0.31987894 -0.09633363 -0.19374284
000240 e1 32 9c 3e 71 9f d9 3e 4a b1 c4 be e5 c6 d0 3d
       0.30507568 0.42504457 -0.3841651 0.10194186
000250 08 77 b1 3e 44 ae 82 be 20 b8 e1 3e 8e bf 93 bf
       0.34661126 -0.2552358 0.4408579 -1.1542833
000260 a9 0b 83 3f ff 14 79 be bf 3b d4 3e 28 ee bb be
       1.0237933 -0.24324416 0.41451833 -0.36705136
000270 f3 ef 28 3f 2e 0f b7 be 72 fe 8e 3e fe 38 28 be
       0.65991133 -0.3575377 0.279285 -0.16427991
000280 e6 e9 df 3d 0f d2 ad 3e 5a 71 1c 3e ab e3 22 3e
       0.109332845 0.33949324 0.15277615 0.15907161
000290 6c 39 de 3d a5 b4 0a bf 88 1a 3b be f5 cc fc 3e
       0.10850796 -0.5418189 -0.1827184 0.4937512
0002a0 89 23 85 3e 34 e9 12 bc 89 05 7d be 05 f0 9c be
       0.26003674 -0.008966733 -0.24709143 -0.3065187
0002b0 23 37 bc be d4 31 fe 3d 62 48 23 be 44 87 9c be
       -0.36760816 0.12411848 -0.1594558 -0.3057195
0002c0 d1 21 81 be ff 3d 9a 3f 26 e1 96 3f 1b ad 02 bf
       -0.25221112 1.205017 1.178746 -0.5104539
0002d0 b3 c6 f8 be f2 1e 00 be 33 71 f3 3d 4e 50 86 be
       -0.48589095 -0.12511805 0.118868254 -0.26233143
0002e0 92 80 42 bc 4a 4f bd 3d 3d 88 fd 3d e8 ed 36 be
       -0.011871474 0.09243639 0.12379501 -0.17864192
0002f0 25 fd 5c bd ca 9a 0f 3f 15 2c 16 bf 45 ba 80 be
       -0.053952355 0.56095564 -0.58661014 -0.25142112
000300 c2 cb cd be 5a e2 0a 3f 20 a6 29 be 44 b1 c4 3d
       -0.40194517 0.54251635 -0.16567278 0.09604123
000310 82 ec d8 3d 4d 1d 85 3e 9e 20 04 3f b4 bf 3e 3d
       0.10591985 0.25998917 0.5161227 0.04656954
000320 5e 1b 6d be 26 6d ae be 75 64 52 3f 32 85 2a 3d
       -0.23154971 -0.3406765 0.82184535 0.04163093
000330 36 3e 0b bf b3 f5 fb 3d 57 0e 28 ba 39 af dd be
       -0.543918 0.12302723 -0.0006410828 -0.43297747
000340 2f ae 16 bf 72 81 3c be 3b 09 1f bd 35 06 3b bc
       -0.58859533 -0.18408754 -0.038827162 -0.011415054
000350 18 4d 86 be d4 ed 48 be 15 46 6e be f7 45 3c 3d
       -0.26230693 -0.19621974 -0.23268922 0.04596516
000360 49 a1 8e be 7c dc da be 6a d2 7a 3f c9 5c 67 be
       -0.27857426 -0.4274634 0.97977316 -0.22593988
000370 d4 84 24 bf a5 fd 85 bd 59 4a 4b 3c 04 39 35 bd
       -0.6426518 -0.065425195 0.012407863 -0.044243827
000380 e8 f6 a2 bd f9 fe aa 3e 67 07 cd be 53 a3 41 3f
       -0.0795725 0.33397654 -0.4004471 0.7563984
000390 01 ac 13 bf 60 0a 18 be 60 27 dd bd 2c 69 23 be
       -0.5768433 -0.14847708 -0.10798526 -0.15958089
0003a0 c1 98 29 be c1 2a d1 3d de 73 dd 3d 17 f8 1a be
       -0.16562177 0.10213233 0.108131155 -0.15133701
0003b0 e8 37 ae be 18 17 47 bf 43 76 c5 be 76 72 b5 3d
       -0.34027028 -0.77769613 -0.3856679 0.08859722
0003c0 59 f3 d0 be 71 e6 2f bf a4 d2 6f bd a9 27 e3 3e
       -0.4081066 -0.68711 -0.058550492 0.44366196
0003d0 78 c3 bf be 4c 63 ae be a8 59 7d 3d 14 00 a7 3d
       -0.37453818 -0.34060133 0.06185308 0.08154312
0003e0 b2 30 6f 3e 3c 9b 03 3e b0 e6 0c 3e e1 e3 45 bf
       0.2335842 0.12852186 0.13759875 -0.7730084
0003f0 b7 46 72 3f 8e 92 20 bf 34 ed b4 be c7 e2 48 bf
       0.9463915 -0.62723625 -0.35337222 -0.78471035

actor.0.bias f4 [256]
000000 44 78 bc bf 1e 1c a3 bf 02 ea 8c bf 40 a6 c8 bf
       -1.4724202 -1.2742956 -1.1008914 -1.5675735
000010 00 9b 82 bf a3 e3 a7 bf 53 c7 aa 3b 03 ff 58 bf
       -1.0203552 -1.3116344 0.0052117496 -0.84764117
000020 f9 15 80 bf 67 91 23 bf f8 e2 95 bf c4 5f 34 bf
       -1.0006706 -0.6389374 -1.170989 -0.70458627
000030 02 07 22 bf e4 cd 84 bf 97 3c 44 bf 65 eb 03 c0
       -0.63291943 -1.0375333 -0.7665495 -2.0612423
000040 00 81 c4 bf 07 fb 84 bf a9 fe c0 bf e7 72 74 bf
       -1.5351868 -1.0389107 -1.5077716 -0.9548783
000050 05 43 a3 bf 3f 20 a5 bf 2b c6 84 bf c0 82 c5 bf
       -1.2754828 -1.2900466 -1.0372976 -1.5430527
000060 23 75 1b bf 5a 7b 8c bf 97 04 d3 bf 78 21 5e bf
       -0.6072561 -1.0975144 -1.6485776 -0.8676982
000070 4d 31 9e bf eb 62 81 bf 65 ac ae bf b0 2c 55 bf
       -1.2358795 -1.0108312 -1.3646361 -0.8327131
000080 49 dd 96 bf 72 61 9e bf 6b a1 63 bf 01 5b 65 bf
       -1.1786281 -1.2373488 -0.8891818 -0.89591986
000090 82 b6 80 bf d3 07 76 bf 1d 1f 76 bf 98 bb ab bf
       -1.0055697 -0.9610569 -0.96141225 -1.3416624
0000a0 84 0f 9b bf 95 f0 86 bf 4d c5 80 bf bb b5 96 bf
       -1.211411 -1.054217 -1.0060211 -1.177421
0000b0 2a 58 a5 bf f6 97 e0 bf e0 59 67 bf 64 80 cb bf
       -1.291753 -1.7546375 -0.90371513 -1.5898557
0000c0 54 f2 a3 bf 06 de 98 bf 43 30 a4 bf 15 3e 6b bf
       -1.2808328 -1.1942756 -1.2827228 -0.91891605
0000d0 ac 37 86 bf 59 a0 b0 bf 60 9e 87 bf eb b1 bd bf
       -1.048574 -1.3798934 -1.0595207 -1.4819921
0000e0 15 f9 1b bf 28 4a cc bf ae 5e 79 bf af d6 91 bf
       -0.60926944 -1.5960131 -0.97410095 -1.1393641
0000f0 42 b3 7c bf c5 ba 64 bf e6 09 b0 bf 55 64 89 bf
       -0.98711026 -0.8934749 -1.3753021 -1.0733744
000100 72 23 5a bf 99 d8 35 bf 7d 64 23 bf 3b 88 96 bf
       -0.85210335 -0.71033627 -0.6382521 -1.1760324
000110 a1 2f 8f bf 20 0f 83 bf 79 d3 95 bf 7d 5c 97 bf
       -1.118641 -1.0238991 -1.1705161 -1.18251
000120 55 c1 66 bf 7b 17 a1 bf b9 01 6b bf 8a 3c 74 bf
       -0.9013875 -1.2585291 -0.91799504 -0.95404875
000130 ee 8d a6 bf 21 30 95 bf d3 57 b6 bf e6 bf cd bf
       -1.3012064 -1.1655313 -1.4245552 -1.6074188
000140 4b e9 91 bf 98 87 01 be 85 33 d5 bf 42 e4 a7 bf
       -1.139932 -0.12649381 -1.6656348 -1.3116534
000150 a7 37 80 bf 81 99 63 bf 9f 08 48 bf 5f 26 b8 bf
       -1.0016984 -0.88906103 -0.78138155 -1.438671
000160 d8 cc 0f bf c9 d6 a0 bf 44 81 8a bf f1 ef 8f bf
       -0.5617194 -1.2565547 -1.0820699 -1.1245099
000170 22 52 ae bf 09 d1 6a bf 3d 02 7c bf 94 94 8d bf
       -1.3618815 -0.9172521 -0.98440915 -1.1060967
000180 6d da 80 be 02 0f 9f bf f1 65 b3 bc dd dc 80 bf
       -0.25166646 -1.2426455 -0.021899195 -1.0067402
000190 d9 a8 7f bf 5d 60 83 bf 3e 8e 97 bf b4 dc 8d bf
       -0.99867016 -1.0263783 -1.1840284 -1.1082978
0001a0 db 5d c4 bf 26 f4 51 bf 13 78 9e bf 10 25 67 bf
       -1.5341142 -0.82013166 -1.2380394 -0.9029093
0001b0 38 9f 69 bf f0 2c ac bf 71 25 7f bf 10 f7 1c bf
       -0.91258574 -1.3451214 -0.99666506 -0.6131449
0001c0 8d 06 a3 bf 35 c2 8b bf 91 2b 47 bf de a3 66 bf
       -1.2736374 -1.0918642 -0.7780085 -0.9009379
0001d0 3c 2f 9a bf 2b b7 9a bf 44 19 7a bf 1c 1a aa bf
       -1.2045665 -1.2087148 -0.976948 -1.3289218
0001e0 4e 42 57 bf 39 16 d6 bf 06 e2 4b bf 5e 39 a4 bf
       -0.8408555 -1.6725532 -0.7964176 -1.2830007
0001f0 fa 86 92 bf a6 83 76 bf 6c 98 81 bf ff c6 d9 3d
       -1.1447442 -0.9629463 -1.012464 0.106336586
000200 28 83 7b bf c7 12 b1 bf fd f0 9c bf 23 1c 58 bf
       -0.98247004 -1.3833855 -1.2261044 -0.84417933
000210 6a eb 7c bf 9d 11 b1 bf 81 2f 90 bf c8 74 cd bf
       -0.98796713 -1.38335 -1.1264497 -1.6051264
000220 67 00 85 bf 8a f7 6e bf 4f 57 92 bf 66 00 35 be
       -1.0390748 -0.93346465 -1.1432894 -0.17675933
000230 74 0b 94 be 7f bb b2 bf 7c fd 3b bf 58 5c 2b bf
       -0.28914988 -1.3963469 -0.7343366 -0.6693778
000240 12 85 9a bf 2f 94 ac bf ff b5 b5 bf 99 32 c5 bf
       -1.207186 -1.3482722 -1.4196166 -1.5406066
000250 1e 9c 89 bf 40 bf 92 bf a0 a2 8e bf 15 43 b3 bf
       -1.0750768 -1.1464615 -1.1143379 -1.4004847
000260 6b 65 7d be 7e 13 98 bf 05 3b 8b bf 83 ee b7 bf
       -0.24745719 -1.1880949 -1.0877386 -1.4369663
000270 4b 6c a3 bf de 94 9e bf 30 99 b0 bf 06 10 87 bf
       -1.2767423 -1.2389181 -1.3796749 -1.0551765
000280 01 ee 53 bf 24 91 b6 bf 8e 99 4d bf 95 15 d4 bf
       -0.8278504 -1.4263043 -0.8031243 -1.6569086
000290 74 de dc bf e8 0c 25 bf 66 8c b5 bf 53 97 37 bf
       -1.7255387 -0.6447282 -1.4183471 -0.7171528
0002a0 97 34 ad bf 9a 20 94 bf d2 f6 d6 bf eb b6 7c bf
       -1.3531674 -1.1572449 -1.6794074 -0.9871661
0002b0 e0 3f ac bf 9c bd ae be f9 41 0d bf 67 53 6a bf
       -1.3456993 -0.34129035 -0.5517879 -0.9153351
0002c0 1c 33 88 bf 0d 9d 99 3d 9d e4 bc bf ef c0 4b bf
       -1.0640597 0.07500658 -1.4757267 -0.7959127
0002d0 31 84 c2 bf 44 ea a6 bf 8a f4 8e bf 8c d2 4e bf
       -1.5196592 -1.3040242 -1.1168377 -0.8079002
0002e0 81 ef 9f bf 1c 15 58 bf 28 7c c5 bf 7e 0c 9f bf
       -1.2494966 -0.8440721 -1.5428514 -1.2425687
0002f0 cc df a3 bf d5 dc 85 bf ae 4a 36 bf c0 14 80 bf
       -1.2802672 -1.0458018 -0.712077 -1.0006332
000300 84 e4 86 bf 98 4f 8e bf 7c 86 a3 bf 70 ec 8e bf
       -1.0538487 -1.111804 -1.2775416 -1.1165905
000310 7f c0 8f bf 01 6d b6 bf d3 dc 9c bf 2e da af bf
       -1.123062 -1.4252015 -1.225489 -1.3738458
000320 bc 57 87 bf 1b fa 85 bf 2f 58 a6 bf 1d f0 08 bf
       -1.057365 -1.0466951 -1.2995661 -0.53491384
000330 12 ea a0 bf b6 e6 b1 bf ca 0c a2 bf 55 3a bb bf
       -1.2571433 -1.3898532 -1.2660153 -1.4627177
000340 ed f0 c4 bf 27 4c cf bf 69 ae 88 bf dd 73 92 bf
       -1.5386025 -1.6195115 -1.0678226 -1.1441609
000350 31 ae 31 bf 8c ef 84 bf d2 ad 72 bf 7b 6f 18 bf
       -0.6940642 -1.0385604 -0.9479648 -0.59545106
000360 68 17 91 bf 28 47 83 bf a6 17 8a bf a4 be a4 bf
       -1.1335268 -1.025609 -1.0788467 -1.2870679
000370 4d ce ab bf 88 9b ac bf 79 0c 9a bf 41 1f a5 bf
       -1.3422333 -1.3484964 -1.2035056 -1.2900163
000380 f5 94 aa bf c8 d0 bd bf 38 af c0 bf 70 d9 41 bf
       -1.3326708 -1.482934 -1.5053473 -0.7572241
000390 50 5a bc bf 2e cb 84 bf 03 12 a7 bf 7c 60 89 bf
       -1.4715061 -1.0374506 -1.3052372 -1.073257
0003a0 47 d2 8b bf 23 71 82 bf 6a c3 5a bf 59 b0 de bf
       -1.0923547 -1.0190777 -0.8545443 -1.7397567
0003b0 e3 12 7a bf ea 28 4c bf 67 84 54 bf e9 a6 81 bf
       -0.9768507 -0.7974993 -0.8301453 -1.0129062
0003c0 b6 11 b2 bf c6 af c3 bf f1 bd 95 bf 3a 2e 83 bf
       -1.3911655 -1.5288017 -1.169859 -1.0248482
0003d0 30 3f 7d bf a0 ca f7 be af cd 92 bf d9 92 a2 bf
       -0.9892454 -0.48396778 -1.146902 -1.2701064
0003e0 5e 79 53 bf 00 f7 99 bf 7b 67 aa bf 65 08 8d bf
       -0.82607067 -1.2028503 -1.331283 -1.1018187
0003f0 4b c2 8a bf 52 61 6c bf f8 3e bd bf cd 72 98 bf
       -1.0840544 -0.92336 -1.4784842 -1.1910034

actor.2.weight f4 [128, 256]
000000 35 f8 da be 7f c9 06 bf 7a 1b 86 3e 9a 50 d1 3e
       -0.42767492 -0.5265121 0.26192838 0.40881807
000010 32 84 ca bd a6 38 5a bf 53 18 5c be 82 10 e3 bd
       -0.098884955 -0.8524269 -0.21493654 -0.11087133
000020 9c 16 33 bf 66 ba 09 be 29 5f 3f 3d 7e ac 7f 3e
       -0.69956374 -0.13450012 0.04672161 0.24968144
000030 ff 39 c2 3e c3 f2 32 3e 9c 1b 7c be 79 2a aa be
       0.37934873 0.17475419 -0.24619907 -0.3323553
000040 59 80 bb 3e 0a 65 34 3e 94 5a a7 3e 52 2c 52 3e
       0.3662136 0.17616668 0.32686293 0.2052472
000050 e1 bd 7f be 4e 3a 52 bf 55 f1 a1 be 1b 73 fa 3d
       -0.24974777 -0.82120216 -0.31629434 0.12228986
000060 19 31 48 3e df bb db be 2d 60 fb 3b 76 d0 ee bc
       0.1954998 -0.42916772 0.007671377 -0.029152136
000070 6f 8a 64 3e cc ec d1 bd 5f 87 8a be 2c 42 d1 bd
       0.22318433 -0.102502435 -0.27056405 -0.102176994
000080 b5 25 54 3e 1e e3 70 3e 4c e5 24 bf 18 b2 17 3f
       0.20717509 0.23524138 -0.6441238 0.59256124
000090 cb 99 a7 be 32 33 ab be a9 27 36 3f 44 27 9d bf
       -0.32734522 -0.33437496 0.71154267 -1.2277608
0000a0 17 da dc be 72 cc 72 3d 90 bb 86 bf 3e 69 c3 bd
       -0.4313514 0.059277005 -1.052599 -0.09541558
0000b0 d8 72 04 3f b2 6a 32 3f d3 85 0a be 7e 4d d8 3b
       0.5173774 0.69694054 -0.13527612 0.0066010347
0000c0 1c d9 5d be 32 e8 bf be 91 f5 c0 3d 12 18 27 3e
       -0.21664852 -0.37481838 0.09421838 0.16317776
0000d0 f3 24 7f ba ba bb 47 3f 2c 5f 85 bd 8e 78 24 bd
       -0.0009732984 0.78020823 -0.06512293 -0.040154032
0000e0 ca be 0e bf 55 54 15 bf 5b e8 79 bf 09 e9 4f 3e
       -0.5575987 -0.58331805 -0.9762017 0.2030374
0000f0 da f2 b0 be bd 1c 97 3e f9 c1 ed 3e b9 21 8e 3e
       -0.3456028 0.29514113 0.46437052 0.27760103
000100 6a 5b 8c bf 31 ff 3b 3f 08 db 65 3d 97 e5 fa 3d
       -1.0965397 0.73436266 0.056117088 0.12250822
000110 79 79 bc 3e a1 4e a0 be c9 8c a7 3c e8 3f 3b bf
       0.36811426 -0.3130999 0.020452874 -0.7314439
000120 23 7c ec be 83 aa 57 bd 31 b2 cb be 92 df 8c 3e
       -0.4618846 -0.052652847 -0.39784387 0.2751432
000130 99 b7 8c bf 0e c8 7d 3f 42 4f 8f 3e cf ba 99 bf
       -1.099353 0.99133384 0.27990156 -1.2010134
000140 2b 56 ff 3b 0e 0a 29 be c6 f2 92 be ad d2 f1 3c
       0.0077922544 -0.16507742 -0.28700846 0.029519403
000150 4b 3d f8 3e 81 20 69 3e ee 7b 0e 3e 31 b8 80 3d
       0.48484263 0.22766306 0.13914463 0.06285132
000160 8b 38 65 3e 38 99 f7 bc 7b d3 61 be e5 74 14 3e
       0.2238485 -0.030224428 -0.2205333 0.14497717
000170 4d 93 40 bd f1 e2 c5 be d6 3a 8f 3e d2 4c 1d bf
       -0.047015477 -0.38649705 0.27974576 -0.61445343
000180 11 6a 3d 3f 50 f9 87 3c 70 74 6e bf 79 1a 9d 3e
       0.7398997 0.016598374 -0.9314642 0.3068426
000190 27 8d f9 be 9c 2d 24 bf d0 22 84 bf 2c 14 a3 3e
       -0.48740503 -0.64132094 -1.0323124 0.31851327
0001a0 57 c7 28 bf f9 ee ad be e9 99 c9 bd 0c 67 c8 be
       -0.6592917 -0.33971384 -0.09843809 -0.3914112
0001b0 66 ac 94 3e 6a 03 33 bf 6a 28 52 bf 2b 9b 81 bd
       0.2903778 -0.69927084 -0.82092917 -0.06328424
0001c0 2f 33 16 bf 90 87 c8 3e 4c 82 40 be d4 a6 94 bf
       -0.5867185 0.39165926 -0.18799704 -1.1613412
0001d0 6e 41 9f 3d d1 8d e9 be 59 46 14 bf 6c 5c 20 bf
       0.077761516 -0.4561601 -0.5791984 -0.62641025
0001e0 ee 8b 31 3e 72 55 07 3f 38 d4 d2 3d b1 0a d1 be
       0.17338535 0.52864754 0.10294384 -0.4082847
0001f0 69 cf 4c 3d 9a 06 43 bd 14 d0 c4 be 99 5b 72 be
       0.05000249 -0.047613718 -0.3844 -0.23667754
000200 ab e4 0e be a9 b6 ce be d3 21 48 bf ba 11 2f bf
       -0.13954417 -0.40373734 -0.7817661 -0.68386424
000210 33 df a6 be 98 c5 ff 3e c7 3c 8c bf 6d e8 2c 3e
       -0.32592162 0.4995544 -1.0956048 0.16885538
000220 cd 25 83 be c7 ec 74 3e 0e e9 d8 3c 7c db b5 bf
       -0.25614777 0.23918448 0.026478317 -1.4207606
000230 c1 ce d9 3e 49 93 4a bf 4d 7c 25 3e 59 61 fe 3e
       0.42540553 -0.7913099 0.16160698 0.49683645
000240 17 29 0a bd a9 4e 84 3e e2 19 d2 bd fd 24 a9 bf
       -0.033730593 0.25841263 -0.10258843 -1.3214413
000250 88 04 a6 3d 35 17 1b bf b7 55 13 bf 36 5b ee be
       0.08106333 -0.60582286 -0.57552665 -0.46553963
000260 06 a5 d9 3c e8 47 ed be 3b 11 85 3e 39 34 97 3e
       0.026567947 -0.46343923 0.25989708 0.2953203
000270 1b 9e 78 bf 0c 78 49 3f c7 89 98 3e 5d d4 16 3e
       -0.9711625 0.786988 0.29792616 0.14729448
000280 82 cd f9 be d4 0b ce be 12 54 b0 be 63 4e 9b 3d
       -0.48789603 -0.402434 -0.3443914 0.075833105
000290 31 e8 0c 3f 74 a7 ce be c7 22 91 be f7 39 0e be
       0.55041796 -0.40362132 -0.28346846 -0.138893
0002a0 2c 8e 0f 3e 9b 93 8c bf cd eb 8d bf ed 30 73 3e
       0.14019078 -1.0982546 -1.1087586 0.23749132
0002b0 40 7e 94 bf 58 ef 5c 3e bc 4d 9c 3e dc c3 bb be
       -1.1601028 0.21575677 0.30528057 -0.36672866
0002c0 d0 b0 a9 bf 62 fc 0c be 44 d8 a3 be 56 48 4b 3e
       -1.3257084 -0.13768151 -0.32000935 0.19851813
0002d0 a9 a6 07 3f d1 77 0b be 5a 0d 23 3f 72 1d af bf
       0.5298868 -0.13619925 0.6369225 -1.3680861
0002e0 82 65 01 3e 7c df 6d 3d fa d2 1d be 3d 9a ce 3d
       0.12636378 0.05807446 -0.15412512 0.10088012
0002f0 f5 57 38 3e 34 7b 48 bc 81 16 24 3f 14 cf 05 bf
       0.18002303 -0.012236405 0.6409684 -0.522691
000300 95 eb a2 be f8 ee 9b bc 2b 64 2f bf 9a 19 b1 be
       -0.3182036 -0.019034848 -0.6851222 -0.34589845
000310 84 23 89 bf 7c fc b6 be 0f 6a 8e bf ad 7c 51 bf
       -1.0713964 -0.35739505 -1.1126117 -0.81830865
000320 af 45 0f 3e 5b 12 18 3e 01 b8 04 3f e8 3e ef be
       0.13991426 0.14850752 0.5184327 -0.4672768
000330 cc ec 2b bf 52 4f 13 bf fc c8 fc bd 70 d5 82 bf
       -0.671582 -0.5754291 -0.12343022 -1.0221386
000340 01 75 ba be d1 c6 2c bf 65 4e 90 be 1c a1 ff 3e
       -0.36417392 -0.6749087 -0.2818481 0.49927604
000350 b1 60 6d bf b1 8e 5d 3e ef 74 09 3e 89 a2 e3 be
       -0.92725664 0.21636464 0.13423513 -0.44459942
000360 79 8d 52 be 96 e3 b0 3e 0d 17 88 be ec 02 1b be
       -0.2056178 0.34548634 -0.26580086 -0.15137833
000370 10 b6 91 3e 92 eb 27 3d 2b 71 b2 bf 68 23 fb 3e
       0.28459215 0.04099614 -1.3940786 0.4905045
000380 13 5f cd be 97 7d a9 be a6 27 aa be ce d7 20 be
       -0.40111598 -0.3310363 -0.33233374 -0.15707323
000390 79 b0 e4 bd fd 5b 3d bf 6a 32 a2 bf 35 aa 39 bf
       -0.11166472 -0.7396849 -1.2671635 -0.7252534
0003a0 4b 0b 73 bf ca 4a 88 bb be 44 da be 9f ef ce bf
       -0.94939107 -0.004159306 -0.4263057 -1.6166877
0003b0 2f 66 00 3f 09 07 d6 bd f0 94 80 3e eb 08 d0 bc
       0.5015592 -0.104505606 0.2511363 -0.025394877
0003c0 ce 75 29 bf 33 dd c9 be f9 26 88 be 33 29 91 3e
       -0.6619538 -0.39426574 -0.26592234 0.28351745
0003d0 f3 76 00 3f 67 06 d2 be c7 7c 07 bf c3 35 4f 3e
       0.501815 -0.4102051 -0.5292477 0.20235352
0003e0 96 f0 98 bf 63 55 88 be 68 fe 6e be aa 5a 40 3e
       -1.1948421 -0.26627645 -0.23339236 0.18784586
0003f0 05 8c 04 be 94 6f b0 be 18 d3 c3 be 8a b9 34 bf
       -0.12944038 -0.34460127 -0.3824699 -0.7059561

actor.2.bias f4 [128]
000000 26 fb 35 3d 91 44 63 be ce cc 44 be 81 8e 92 be
       0.044428967 -0.22194125 -0.19218752 -0.28624347
000010 d5 c5 73 3e d8 90 f6 bc 6f ef ac 3e 2a 4c b4 be
       0.23805936 -0.030098364 0.33776423 -0.3521436
000020 da 0c a0 bc 27 3a 9f bd a8 ad 8b be c7 28 00 bf
       -0.019537378 -0.077747636 -0.27280927 -0.5006222
000030 61 f9 a8 3d 9b 47 1d be cc 3e 69 be 5b 78 0f bd
       0.0825069 -0.15359347 -0.22777861 -0.03502689
000040 68 a6 c6 bd d9 7e 9a be 5b 07 e7 3c 01 e5 5e 3f
       -0.09699708 -0.30174902 0.02820175 0.8706818
000050 4c 0a 1c be d2 4f 95 3e 6c c1 1a be 6c 97 94 be
       -0.15238303 0.2916246 -0.15112847 -0.29021776
000060 41 ad e3 3e f4 e1 66 3e b7 f2 7b be e4 e1 00 3e
       0.4446812 0.22547132 -0.24604307 0.1258617
000070 14 8e de bd 4b ff ed be 82 ef e6 3d ec 1a 09 3e
       -0.10866943 -0.46483836 0.11276151 0.13389176
000080 23 f1 f0 3c 88 8b 80 be 1f fe d1 3d 35 c8 a4 be
       0.029411858 -0.25106454 0.10253548 -0.32183996
000090 42 2a 8e be d1 99 c1 3d 91 d1 a3 3d 2c 9b 02 3e
       -0.27766615 0.09453166 0.07998956 0.12754506
0000a0 f5 99 7e 3d f4 4b a8 be 2d 46 b8 be 27 c7 e3 3e
       0.062158544 -0.32870448 -0.3599104 0.4448788
0000b0 aa ff 8e 3e 5b 42 82 be 7b 74 ee 3e 8b b3 ba be
       0.2792943 -0.2544125 0.46573243 -0.36465105
0000c0 7d 31 49 be af c1 bf 3f 0a c2 1e 3d d2 64 3b 3e
       -0.19647785 1.4980983 0.03875927 0.18300179
0000d0 02 4b 16 be 4e 2f 37 be a3 2b 4a 3e 0b c5 09 bf
       -0.1467705 -0.17889139 0.19743209 -0.5381629
0000e0 6c 99 e5 3d a0 b5 ae bd 8d ec c8 be e9 4a 63 be
       0.112109035 -0.08530736 -0.39242974 -0.22196545
0000f0 24 48 69 be f3 a0 60 be 72 d4 31 bd a3 49 a2 be
       -0.22781426 -0.21936397 -0.043415494 -0.31696805
000100 f0 23 aa b9 af 10 18 3d 4b e6 a9 bd dc a7 90 bd
       -0.00032451702 0.037125286 -0.08295878 -0.07063267
000110 22 4f f1 3e 36 1a 8d 3f 46 ac ce 3d 6c ef 38 3f
       0.47130686 1.1023624 0.10091452 0.7224033
000120 76 4d 17 be e5 bb 0d 3f 05 df 5d bd c6 05 13 bd
       -0.14775643 0.5536483 -0.054167766 -0.035894178
000130 b2 7f 71 bd af a0 a8 be dd 09 4a bc 11 f8 19 bf
       -0.05895967 -0.32935092 -0.012331453 -0.60144144
000140 1f a1 57 be 7f ca 0a 3f c5 8a 88 be 66 c6 ab 3e
       -0.21057557 0.54215235 -0.26668373 0.33549803
000150 49 0b 85 3e b0 92 09 3e cf 5c 1a bd 6a f9 4c 3e
       0.25985172 0.13434863 -0.037686165 0.20017019
000160 d7 73 8d 3d c5 7f ab bd 5e 7a 15 bd 48 63 c3 be
       0.0690686 -0.083739795 -0.03649365 -0.38161683
000170 73 56 b7 be b0 0a 8c be 17 db 33 be 80 c3 a0 be
       -0.35808143 -0.27351904 -0.17564045 -0.31399155
000180 d2 fa 42 3e 13 85 cf 3d 50 49 d1 3d 92 a4 21 3f
       0.19040993 0.10132804 0.102190614 0.6314174
000190 d1 e9 3f 3e ac ee 05 be 10 de 43 be cd 26 3d 3e
       0.18741538 -0.13079327 -0.19127679 0.18471833
0001a0 1e b3 28 bd 27 4c 2c 3f f5 30 b6 be 2d 99 87 3d
       -0.041186444 0.673037 -0.35584226 0.06621013
0001b0 e2 5f b9 be c3 39 99 3e 6b 74 48 3e ee db 53 be
       -0.36205965 0.2992688 0.1957566 -0.20689365
0001c0 26 a6 cf be e5 8e db be 46 81 85 bd 77 d8 92 3e
       -0.4055645 -0.42882457 -0.065187976 0.28680775
0001d0 21 6d b8 be 7f 61 23 3d c8 9c 0e bf bc e4 10 be
       -0.3602076 0.0398879 -0.5570798 -0.14149755
0001e0 7b 02 3a 3f 53 25 8a bd 91 b8 e8 3e bb 98 d7 be
       0.72660035 -0.067454 0.45453313 -0.42108712
0001f0 8f a5 dc 3e 52 65 57 3f d8 f8 84 3d 80 8c 92 be
       0.4309506 0.8413898 0.06492776 -0.28622818

actor.4.weight f4 [6, 128]
000000 2b d8 03 be 3c 1a be 3e 76 14 31 be 18 5a 16 3e
       -0.1287543 0.3712939 -0.17292961 0.14682806
000010 01 6c 8e 3e 76 60 8b bd 83 84 23 bd 6e 4a 29 bf
       0.27816775 -0.06805508 -0.039921295 -0.66129196
000020 42 50 aa bd a9 fc 67 3d a8 6b 05 3e bd 0b 21 be
       -0.08316089 0.05663744 0.13029349 -0.15727134
000030 00 dc 4d bd 9a 9a 84 3e 93 62 84 be 9c 2d 3b bf
       -0.050258636 0.25899202 -0.25856456 -0.7311647
000040 c8 b2 2d 3e dc 5b b7 be f1 eb b7 be 4c 18 a4 bd
       0.16962731 -0.3581227 -0.35922197 -0.08012447
000050 0b d3 16 be e4 50 1e 3d 7b 3b ff 3d c1 d9 84 bd
       -0.14728944 0.038651362 0.12462517 -0.06486846
000060 a6 2c 09 3e d6 fa bd 3d b1 d1 f2 3d 18 09 ed 3d
       0.13395938 0.09276359 0.11856402 0.11574
000070 37 8f 29 bd 3d 73 68 3c d4 23 8c 3d 4b d0 a2 3e
       -0.041396346 0.014187631 0.06842771 0.3179954
000080 39 00 26 be 5f e7 4b bd 31 87 fd bc 01 29 06 3e
       -0.16211022 -0.0497812 -0.030948253 0.13101579
000090 74 39 5c be ee 89 96 bd 7d 5f b4 3e 2e bc bf bd
       -0.21506292 -0.07350527 0.35229102 -0.09362064
0000a0 46 84 51 bd 09 75 2c 3d c6 12 11 3e 03 e5 62 bd
       -0.051151536 0.0421038 0.14167318 -0.055394184
0000b0 0d 14 ac 3d 3d 53 2d be 37 29 ae bd d4 af 2e bc
       0.08402262 -0.16926284 -0.08503955 -0.010662038
0000c0 27 2f ce bd 72 62 97 bc 1a cf ab 3d 8b 15 28 bb
       -0.10067587 -0.01847956 0.08389111 -0.0025647606
0000d0 ae 16 65 be c0 84 cb 3d d1 0e 06 be 4b a0 32 bf
       -0.22371933 0.099374294 -0.1309159 -0.6977584
0000e0 cb 59 c6 3e df 4b 7b 3e fe 08 1a be db 4a 3f be
       0.38740382 0.24540661 -0.15042493 -0.18680899
0000f0 97 9f 34 be 71 5e 00 3e 8b 2d da bd cb 17 38 3c
       -0.17639004 0.12536027 -0.10653218 0.011236141
000100 54 7a b5 3d 8e ae 04 3d 35 c0 36 3e 1c 9b b6 be
       0.08861223 0.03239303 0.17846759 -0.35665214
000110 85 9b e0 3c d6 83 26 be 7e fc 04 3c 24 3d bc bd
       0.027417907 -0.16261229 0.008116839 -0.09191349
000120 26 57 8e 3d 7b f7 08 3d 23 5a 1e be 9f 40 4b bd
       0.06950216 0.03343914 -0.15464072 -0.049622174
000130 51 6a 1e be 0d 03 79 be cf c1 3a be 3d b3 56 3e
       -0.15470244 -0.2431757 -0.18237995 0.20966811
000140 34 d0 80 3c 91 29 b0 bd fa ce 0b 3e 40 69 4e be
       0.015724279 -0.08601678 0.13653174 -0.20157337
000150 81 80 d9 3d e6 43 54 3d 22 c5 a7 bd d0 d2 d4 bd
       0.10620213 0.051822565 -0.08191897 -0.10391772
000160 ef ee eb bd 52 81 dd 3c 78 07 09 3e 48 31 21 be
       -0.11520182 0.027039204 0.13381755 -0.15741456
000170 da 04 7e be 7f b2 5d bd 31 db 29 be 94 08 96 bd
       -0.24806538 -0.054125305 -0.16587521 -0.07325855
000180 a8 2c 03 bf 81 3b 4c 3d 04 f6 4c 3e d1 04 5a 3d
       -0.51240015 0.049861435 0.20015723 0.05322725
000190 2c 54 00 3d 46 eb 1e 3f f8 98 e0 3e f1 eb 81 bd
       0.031330273 0.6207775 0.43866706 -0.063438304
0001a0 37 82 e6 bd bc 35 d9 3b 53 a2 23 3e 84 31 a0 3d
       -0.11255305 0.00662872 0.1597989 0.07821944
0001b0 0c a2 70 be 45 51 72 3e a3 de 84 3d 21 b5 97 3e
       -0.23499316 0.23663814 0.06487777 0.29630378
0001c0 a5 56 38 be de ca 29 3f 65 a3 a8 be 87 13 ff 3d
       -0.18001802 0.66325176 -0.3293716 0.124548964
0001d0 6f d6 f7 bc 0f c8 00 be e7 36 a6 3d 34 1c 06 3c
       -0.030253617 -0.12576316 0.081159405 0.008185435
0001e0 e7 89 86 3d f3 d6 24 bb b9 a6 e2 bd 34 62 30 bd
       0.065692715 -0.0025152534 -0.11066956 -0.043062404
0001f0 5f 5c 34 3d 3b 4f b8 3d a1 fd a3 3d 1e a9 ec bd
       0.044033404 0.08999487 0.0800736 -0.11555694
000200 19 cc 25 bc fc 8e a6 3c 7f f9 9d be 39 4f 73 3d
       -0.010119461 0.020331852 -0.30854413 0.059401724
000210 e2 ce c3 3d 64 84 85 bc 29 01 45 3c 87 cd 68 be
       0.09560944 -0.01629848 0.012024202 -0.22734652
000220 ad 0d a4 3b c7 90 fa 3c c7 03 24 3f ad 67 3a 3e
       0.005006513 0.030586613 0.64068264 0.18203612
000230 f0 8d 90 bd ce 7e 3c bd 7d 2f 68 be ec 9f 8d be
       -0.070583224 -0.046019368 -0.22674365 -0.27661073
000240 92 b0 e3 3c 63 95 bb 3c 6f 43 ef 3d 5f 45 3c bd
       0.027794156 0.022898382 0.11682784 -0.045964595
000250 03 f6 bf 3d fe 2a 12 3e 6e 0f 25 3d 10 71 b5 3c
       0.09373095 0.14274213 0.040297918 0.022148639
000260 93 f7 29 bb 9a 3d 18 bd 49 28 aa be cb 6a 02 3e
       -0.002593492 -0.037168123 -0.3323386 0.12736051
000270 55 36 6c bd f3 c6 38 3e 70 6d 81 bd 09 1f b4 be
       -0.057669003 0.18044643 -0.06319702 -0.35179928
000280 af d7 ff 3c 5b e5 88 bc 3c 55 0c bd 8c b5 f7 3d
       0.031230776 -0.016710928 -0.034260973 0.12095174
000290 b6 a2 be be 81 a7 d6 be da 26 4a 3d ee f0 f2 bd
       -0.37233514 -0.4192467 0.049353458 -0.1186236
0002a0 1e 83 28 bd 31 d9 81 be 3f 0c 86 bd 79 3c 29 3e
       -0.041140668 -0.25361016 -0.065453045 0.16526975
0002b0 49 54 bc bc 85 0f f5 3c a0 78 e5 bb 35 50 7c 3e
       -0.022989409 0.029914627 -0.007002905 0.24639972
0002c0 e5 50 1e bf 9d 00 80 3b fe e9 a4 bd a5 8f 1c 3e
       -0.61842185 0.003906323 -0.08052443 0.15289171
0002d0 88 7d ae 3d d3 23 82 bc e0 fa 83 bd 35 ed 57 bd
       0.08520037 -0.015886223 -0.06444335 -0.052716453
0002e0 1e 47 f3 bc ea 03 1a be b3 81 cf 3d 28 57 e8 3e
       -0.029696997 -0.15040556 0.1013216 0.45378995
0002f0 1b 12 65 ba 1a 72 cd 3d cf de b8 3e 97 64 13 bd
       -0.00087383547 0.10031529 0.3610749 -0.0359846
000300 3f 9b a0 bd b2 dd 9e bd c1 95 fe bd 5e 3b c5 be
       -0.07842111 -0.07757129 -0.12430907 -0.38521856
000310 1e 52 b8 3d 49 1f 79 bd ed 46 8b be c7 3e c0 bd
       0.090000376 -0.06082085 -0.2720255 -0.09386974
000320 ee f1 84 3e 25 10 92 3d 91 c6 20 be bd 4e 88 bc
       0.25965828 0.071319856 -0.15700747 -0.016639108
000330 4b 1a 60 3e ea 08 22 3d cd c0 61 3d 4f 22 3d 3e
       0.2188503 0.039559282 0.05511551 0.18470119
000340 1c bd 94 bd 85 4b 8c bd 41 f6 85 3e 7b d7 99 bb
       -0.07262632 -0.06850342 0.2616444 -0.0046948767
000350 18 85 bc 3c 9a 46 45 3e 32 97 e0 be d3 6a e7 3c
       0.023012683 0.19265214 -0.43865353 0.02824918
000360 16 2f 43 be 03 e9 cc 3c 73 73 b0 bd 2c f4 44 3e
       -0.1906093 0.025013452 -0.0861577 0.19233769
000370 55 64 d1 bd 7e 0a 63 3e c5 be 0f be df 20 01 be
       -0.10224215 0.22171971 -0.14037617 -0.12610196
000380 1e c4 87 be f3 1b d8 3d 57 96 80 3d 8a 4f a9 ba
       -0.26516813 0.10552206 0.06278675 -0.0012917381
000390 67 3b ff bd 7b 3a 49 3e 9c 92 9e bc 88 b0 b8 3d
       -0.12462502 0.19651215 -0.019357018 0.09018046
0003a0 5d af ae bd 72 12 10 3d 5f 3a 14 3a 71 e2 f2 3a
       -0.08529542 0.03517384 0.000565445 0.001853062
0003b0 bb e7 5e 3e 77 c0 6e be 0d 51 a8 bd d8 b3 11 3d
       0.21768086 -0.23315607 -0.08218584 0.035571903
0003c0 25 35 9f bd 85 72 e9 3e e6 5c d2 be 8d 93 49 3c
       -0.077738084 0.45595184 -0.410865 0.012303245
0003d0 4a 51 22 bb 45 68 6a 3d 7f c3 a8 3d ed ce 48 be
       -0.002476769 0.057228345 0.08240413 -0.19610186
0003e0 25 26 e1 bd 48 ea 91 3e b8 8e 0a 3e 71 8c 83 3d
       -0.109936036 0.28499055 0.13531005 0.064232714
0003f0 b4 15 ad 3c f2 e9 88 bd a7 2c 37 be 76 5e d1 3e
       0.021128513 -0.066852465 -0.17888127 0.4089238

actor.4.bias f4 [6]
000000 0b 2f 0b 3f 19 68 77 bd 46 8b 76 be 8f 18 0e 3d
       0.54368657 -0.06040201 -0.24076566 0.03469139
000010 b8 a8 4c 3e bf 12 85 3e
       0.19986236 0.25990865

critic.0.weight f4 [256, 25]
000000 ff 40 f3 be 2e d0 81 bf e1 49 b2 be 00 b5 5e 3d
       -0.47510526 -1.0141656 -0.3482199 0.054371834
000010 6d 20 de 3e d4 49 03 bf 1e f8 e1 3c 57 15 9f 3b
       0.43384114 -0.5128453 0.027584132 0.004854839
000020 35 38 3c 3d b5 ae b3 b9 c6 57 8f bc 35 cd 95 bb
       0.04595204 -0.00034271707 -0.017497908 -0.0045715817
000030 e8 88 28 be 91 92 ba be 8e 15 01 3f f4 31 5a bf
       -0.16458476 -0.36439946 0.50423515 -0.8523247
000040 66 1d 00 3f b9 dc 17 3f 4d d5 77 3e 08 14 b2 3b
       0.5004486 0.5932117 0.24202462 0.005434517
000050 1d df aa bb 3d 51 07 bc 17 ee c8 3a f1 05 b3 bc
       -0.0052145855 -0.008259115 0.0015329745 -0.021853419
000060 e1 3d a6 bc d1 c0 dd bc 3a 4f 9a be c5 4f 71 3e
       -0.020293178 -0.027069481 -0.3013857 0.23565586
000070 ac 12 4f 3d 90 98 63 be 82 cf d5 3d a9 d7 0b 3c
       0.050554916 -0.22226167 0.104399696 0.008535304
000080 55 36 16 3a 13 4c 37 bb d1 0c eb 3b 3f 60 22 3c
       0.0005730142 -0.0027968928 0.0071731587 0.009910642
000090 39 a2 80 bc 64 0a a5 3d 08 b5 42 be 5f 18 67 3e
       -0.015702354 0.080586225 -0.1901437 0.2256789
0000a0 b9 99 80 3f 2a 6c dc 3e de d1 b2 3e 77 9b 3b 3f
       1.0046912 0.43051273 0.3492574 0.73284096
0000b0 29 eb 69 3b 0f 24 97 bc 09 08 59 3b 48 9f da ba
       0.0035693145 -0.018449811 0.0033116362 -0.001667955
0000c0 54 13 61 3c a7 d1 95 bc 55 d9 dc 3b 8b 35 cb 3f
       0.013737518 -0.018288447 0.006739775 1.5875715
0000d0 50 a8 bc bf a9 46 4b 3f 4d 76 a9 bc 85 1c ad bb
       -1.4738865 0.79404694 -0.020686293 -0.005282941
0000e0 9c da 0d bb 68 40 6e 3c 91 1f e5 bb 7b 77 b1 3b
       -0.0021645194 0.014541723 -0.0069922884 0.0054158545
0000f0 1c b6 b9 3b 5d 38 a5 3a 4c 88 01 bd 9e 44 02 bc
       0.005667461 0.0012605299 -0.031624123 -0.00795093
000100 9f bf 43 3f 39 23 42 3c e5 bc 69 3d 5d 11 72 bc
       0.76464266 0.011849218 0.05706491 -0.014774648
000110 c6 ae f3 bb 1c e8 02 3b 5e a1 97 3a 76 56 e7 bb
       -0.007436606 0.0019974774 0.0011568477 -0.0070598675
000120 83 5f 90 3b 77 b3 63 bb 12 5d 50 bb 1d 36 c2 3f
       0.004405917 -0.003474442 -0.0031793755 1.5172764
000130 8e 09 89 3e 2f f3 93 3e f7 64 63 3d 29 99 c0 be
       0.26765102 0.28896472 0.05551621 -0.37616852
000140 b9 78 0a 3c 57 bf 8b bc 26 35 2d bc c3 cb 13 3c
       0.008451634 -0.017059011 -0.010571754 0.009020749
000150 8a 76 7f 3b 64 eb 45 bc ee 19 78 3c f8 cc 5d be
       0.0038980567 -0.012080047 0.015142901 -0.2166022
000160 ae 39 03 c0 a9 8b 80 bd 73 04 2c bd 5a 84 3d 3d
       -2.0503955 -0.06276638 -0.04199643 0.0462688
000170 af 76 91 bd 8a 3a 45 3c 08 bb 1c ba 50 d5 63 3c
       -0.07102715 0.012037883 -0.00059787976 0.013905838
000180 56 1f 26 bb 14 46 33 bc 63 20 dc 3b 70 79 a6 3b
       -0.0025348268 -0.010942001 0.006717728 0.0050803944
000190 d6 4f a9 be 23 e9 83 3f 5b 55 6e bf 24 e6 aa 3f
       -0.33068722 1.0305523 -0.9309899 1.3351483
0001a0 31 2f fe 3d 50 44 2d bc d8 26 3d 3c e9 d2 4d 3c
       0.12411345 -0.010575369 0.011544906 0.012562492
0001b0 03 20 e2 3a 7a 90 d4 3a b5 87 93 bb 2f 4e 2a bc
       0.0017251972 0.0016217374 -0.0045022615 -0.010394617
0001c0 13 a8 90 3d 12 57 14 3e 55 d4 ac 3f b3 a7 00 bf
       0.070633076 0.1448634 1.3502299 -0.5025589
0001d0 1b 79 3b be a2 c0 ab 3e 8e d1 b2 3d 75 be 53 bc
       -0.18307917 0.33545405 0.08731376 -0.012923826
0001e0 09 b2 12 3c cc 71 8b 3b 0e d9 65 3c d0 ab b6 bb
       0.00895358 0.004255509 0.014028801 -0.005574681
0001f0 b0 0e cc bb 36 82 3a bf c8 e4 80 3e 9b 94 a6 3d
       -0.006227337 -0.72854936 0.25174546 0.08133813
000200 f4 a2 e9 3e 1d 56 90 3f 2f c0 4e 3b 5f 6a 26 3c
       0.45632136 1.127628 0.0031547656 0.010157197
000210 ce 3d 5c bb c5 3f a6 3b ad fa 62 bc 25 c3 4c bc
       -0.0033606174 0.00507352 -0.013853711 -0.012497698
000220 4f 79 41 3c 7a 65 b3 bd 63 f3 95 3c 54 04 a1 be
       0.011808707 -0.087595895 0.018304532 -0.31448615
000230 47 01 86 3f 2c e1 f3 be 8e 8d 85 bf 4b af f2 be
       1.046914 -0.4763273 -1.0433824 -0.47399363
000240 e6 d0 1a 3c f8 78 95 bc 7c 38 a4 3b f7 68 b4 3a
       0.009449219 -0.018246159 0.0050116163 0.0013764192
000250 28 e5 a7 3b 99 ef 9f bb de 2b 87 bd 1e ca 94 be
       0.005123753 -0.004880857 -0.06600164 -0.29060453
000260 0b 5c 2d bd e4 55 8c bf 22 36 ce 3e f5 e5 22 be
       -0.042324107 -1.0963712 0.40275675 -0.15908034
000270 63 5c 77 bb b0 fc 38 bd 9f 48 0f 3d 6f bc ea bc
       -0.0037744276 -0.045162857 0.034981366 -0.028654305
000280 98 c3 39 3c 2c 67 62 bb b0 94 de bd f9 f8 42 3e
       0.011338137 -0.0034546359 -0.10868204 0.19040288
000290 da 8d 0d be 58 e5 4a 3e 65 2f 3f 3f 43 30 d3 be
       -0.13823643 0.1981405 0.74681693 -0.41247758
0002a0 b6 db f4 be 01 8c 10 bc 66 57 ae 37 d7 9b 96 bb
       -0.47823876 -0.008822442 2.0783114e-05 -0.0045962143
0002b0 b3 d5 1f bb 75 f3 e3 ba d4 3d 1e 3c ab 9f 50 bf
       -0.002438885 -0.0017391281 0.009658296 -0.81493634
0002c0 e4 61 1c be be 33 5a 3e 68 ce 18 be c0 71 fe 3e
       -0.15271717 0.213088 -0.14922488 0.4969616
0002d0 61 8b 51 bf 13 12 b7 3c 24 aa 7d 3a cc 67 fb bb
       -0.818533 0.022347486 0.0009676537 -0.0076722857
0002e0 1b f4 aa ba 4b e8 8b bc 21 e1 5b 3b ca 19 c2 3e
       -0.001304272 -0.01707854 0.0033550935 0.379103
0002f0 09 f0 80 be 27 c4 03 3e 3d f8 2f 3f ad c5 e2 3e
       -0.25183132 0.12867795 0.68738157 0.4429144
000300 9b 61 dd bd 01 82 94 be 56 c3 2f 3c 2f 73 bc bc
       -0.108096324 -0.29005435 0.010727724 -0.023004143
000310 67 46 2c ba 7e 61 9c bc 51 01 80 bb 97 b6 86 3b
       -0.000657177 -0.019089457 -0.003906407 0.004111122
000320 0e a3 2b be 4a 3b e8 be 18 7b 25 be 08 c8 35 be
       -0.16761419 -0.45357734 -0.16160238 -0.17752087
000330 18 82 70 3e 50 cf 8a 3e cc ab 56 3c a0 bd d8 3b
       0.23487127 0.27111292 0.013102483 0.006614402
000340 31 f9 89 3c ee 4b 04 3c 9d a7 c4 bb f9 9b 22 3b
       0.016842457 0.008074744 -0.0060014264 0.0024812205
000350 c9 fa 89 bd f9 69 89 3d 49 09 e8 be a4 db 8b bf
       -0.067372866 0.06709666 -0.45319584 -1.0926404
000360 7a 5d 81 be 08 7a 85 3f f1 1b 83 3f 39 48 79 bc
       -0.2526663 1.0427866 1.0242902 -0.015214973
000370 9f 1f f9 3b 49 d9 8d bb f3 fe 59 bc a3 fc 85 3a
       0.0076026465 -0.004328881 -0.013305414 0.0010222386
000380 38 62 4c bc aa fb ab 3e 18 1a 38 3f 24 5e b0 3c
       -0.012474589 0.33590442 0.71914816 0.021529265
000390 96 33 90 3f 13 01 06 bf 8e f4 86 3e b9 6d 31 bc
       1.1265743 -0.5234539 0.26358455 -0.010829383
0003a0 11 24 13 3c dc 20 8b bc fc 91 4c ba 5c 42 87 3c
       0.008980767 -0.016983442 -0.0007803736 0.016511135
0003b0 b7 9e 29 bc d7 6f 01 3e 40 b1 aa bd eb 39 ae 3d
       -0.010352782 0.1264032 -0.08334589 0.08507141
0003c0 30 c1 cd 3e 08 12 5a 3f 4d 9c 0f bf 1c 63 6e bf
       0.40186453 0.85183764 -0.5609787 -0.9311998
0003d0 cd 53 7a 3a 51 8f 1d bc 7d 5d aa 3c 6b 83 6d 3a
       0.00095492305 -0.009616689 0.020796532 0.00090604153
0003e0 8a 08 84 3a 56 f1 da 39 cc 1f ca 3d 8f ce f0 be
       0.0010073346 0.0004176001 0.09869346 -0.47032592
0003f0 67 89 e6 3e 4e ac 24 bf 2f 49 0f 3f c2 ab 45 3c
       0.45026705 -0.64325416 0.55971044 0.012064876

critic.0.bias f4 [256]
000000 9c f5 82 bf af 47 e3 bf 94 d3 49 bf fc 28 71 be
       -1.0231204 -1.7756251 -0.7883847 -0.2355079
000010 70 32 79 bf b6 10 78 bf ce 4e 00 c0 b9 a6 d4 bf
       -0.97342587 -0.969005 -2.0048099 -1.661338
000020 d5 69 22 bf 67 a9 26 3e bb 2c 0f c0 42 3a 01 c0
       -0.63442737 0.1627556 -2.2371051 -2.0191808
000030 13 ad 6e bf a6 56 04 c0 a0 1a ec bf 0f ff c3 be
       -0.9323284 -2.0677886 -1.8445625 -0.38280532
000040 3c 2b c0 bf 97 a5 a8 be 33 fe 94 3e f4 25 32 bf
       -1.5013194 -0.32938835 0.2910019 -0.6958916
000050 10 74 eb bf 20 ad 98 be 72 28 c3 bf 16 df c6 be
       -1.8394794 -0.29819584 -1.5246718 -0.38842076
000060 ae f0 12 bf eb 2c de bf 05 be b5 bf 28 44 b6 bf
       -0.573985 -1.7357458 -1.4198614 -1.423955
000070 cd ed 04 bf b4 0f 04 c0 1f 67 5a bf 99 88 34 3c
       -0.51925355 -2.0634584 -0.853136 0.011018896
000080 9d 7a eb bf f3 d7 a7 bf 19 34 c2 bf 59 69 ea bf
       -1.8396794 -1.3112777 -1.5172149 -1.83134
000090 54 af c2 bf 4a ab e9 bf 66 af 7c be 2e 5d 37 bf
       -1.5209756 -1.8255398 -0.24676284 -0.71626556
0000a0 1b aa 94 bf 4d 67 e5 3c 3b 7d b1 3e df c8 e5 bf
       -1.1614412 0.02800336 0.34665856 -1.7951926
0000b0 84 fc a5 bf d4 11 9a bf 98 e8 c6 bf f7 6f a7 bf
       -1.2967687 -1.2036691 -1.5539732 -1.3081044
0000c0 65 df 02 bf 0a d0 f1 bf 46 92 40 3d 0f 57 a8 bf
       -0.51122123 -1.8891613 0.047014497 -1.3151568
0000d0 09 ea 7d bf 53 18 fc bf b3 84 c8 bf d3 c8 8f bf
       -0.99185234 -1.9694923 -1.5665497 -1.1233162
0000e0 df 5d e0 bf 5f 2b 83 bf 2b 44 eb bf f3 2d bf bf
       -1.7528647 -1.0247611 -1.8380178 -1.4935898
0000f0 bc a7 b1 bf 40 78 07 c0 eb 1c af 3f 3d ec d7 bf
       -1.3879313 -2.1167145 1.36807 -1.6868969
000100 f3 e7 a9 bf b9 7e 14 c0 a2 1d fd bf ed 56 a3 bf
       -1.327391 -2.3202345 -1.9774668 -1.2760903
000110 b0 5c 1d bf b7 62 d0 bf 07 d2 c1 bf 71 03 b1 bf
       -0.61469555 -1.6280125 -1.514222 -1.3829175
000120 be 61 91 bf e9 67 9b bf 38 80 c4 bf e5 15 0c c0
       -1.1357954 -1.2141086 -1.5351629 -2.1888363
000130 ad e4 40 3f 0a e8 d1 bf 89 7b e1 bf 01 d6 89 bf
       0.7534893 -1.6398938 -1.7615825 -1.0768434
000140 db 8a c9 bf 21 e8 3f bf fb 5a a5 bf 4b ee 65 bf
       -1.57455 -0.74963576 -1.291839 -0.8981673
000150 47 61 97 bf 07 fe c3 bf cc 0f bc bf be d2 40 bf
       -1.1826562 -1.5311898 -1.4692321 -0.7532157
000160 9b a8 8e bf 99 44 b3 3f 50 02 88 bf 31 69 d0 bf
       -1.1145204 1.4005309 -1.0625706 -1.6282102
000170 98 ca ea bf dd 7e d9 bf 52 c9 53 be 69 21 a8 bf
       -1.8343077 -1.6991841 -0.20682266 -1.3135196
000180 af bc 84 bf 4e c4 e2 bf e5 7d d0 bf fd 70 bb bf
       -1.0370082 -1.7716157 -1.628842 -1.4643856
000190 3d e1 3a bd 6a 85 7b 3f a9 0e bc bf de d1 d8 bf
       -0.04562496 0.9825045 -1.4691974 -1.6939046
0001a0 ea 5a 28 3f 42 f6 d4 bf 97 0e 36 bf 95 9a ac 3d
       0.65763724 -1.6637652 -0.7111601 0.08427922
0001b0 70 0d 97 bf 90 3c c8 bf 50 e4 ea bf 38 eb 0c c0
       -1.1800976 -1.5643482 -1.8350925 -2.2018566
0001c0 1a 59 fa bf 89 f2 7e bf 63 8f dd be bd 88 98 bf
       -1.9558442 -0.9958883 -0.43273458 -1.1916729
0001d0 ac 69 ba bf b2 99 ea bf 79 3a fa bf 2f a9 f4 bf
       -1.4563498 -1.8328154 -1.9549094 -1.9114131
0001e0 da ab b3 bf d9 e9 88 bf 7d e8 02 c0 af e8 d4 bf
       -1.403682 -1.0696365 -2.04544 -1.6633509
0001f0 ab 83 d6 bf 3c 42 a4 bf 73 17 c3 bf 21 83 b1 bf
       -1.6758932 -1.2832713 -1.5241531 -1.3868142
000200 81 0d 88 3f 0b 97 30 bf 12 dd 99 bf 5c 1e c4 bf
       1.0629121 -0.68980473 -1.202059 -1.5321765
000210 d2 34 e2 bf 20 38 b5 be bf 6f b7 be 6b 07 07 c0
       -1.767237 -0.35394382 -0.35827443 -2.1098278
000220 8c 24 0e c0 62 75 06 c0 fe 9f d6 bf 7a d3 c9 bf
       -2.2209806 -2.1009145 -1.6767576 -1.5767663
000230 a3 a2 49 bf 65 50 8d be 51 63 df bf ad 44 76 bf
       -0.7876379 -0.276004 -1.7452184 -0.9619854
000240 cf 9e ab bf 81 8b 6a 3d cd 61 02 c0 92 d6 c8 bf
       -1.340784 0.057261948 -2.0372193 -1.5690482
000250 ba b4 0c c0 dc 94 bc bf 8a f6 0d c0 33 2c 85 bf
       -2.1985307 -1.4732928 -2.2181726 -1.0404114
000260 e2 0e 85 bf 63 b7 d4 bf 76 73 6a bf c9 d6 d7 bf
       -1.0395167 -1.6618465 -0.9158243 -1.6862422
000270 e1 30 96 be 88 e2 05 c0 43 0a d0 bf 0f 30 92 bf
       -0.29334167 -2.0919514 -1.6253132 -1.1420916
000280 36 d0 72 bf 6b 87 8e bf 82 63 ab bf 58 df e5 bf
       -0.94848955 -1.1135076 -1.3389742 -1.7958784
000290 73 c6 fa bf fd df 0d c0 3c aa 8d 3f fc d8 c5 bf
       -1.9591812 -2.2167962 1.1067576 -1.5456843
0002a0 f6 ca f1 bf 42 08 5f bf 2a c7 c5 bf 16 14 00 c0
       -1.8890064 -0.87121975 -1.5451405 -2.001226
0002b0 cb 3b ac bf 63 11 c9 bf 14 61 bc bf 93 0c 66 bf
       -1.3455747 -1.5708431 -1.4717126 -0.89862937
0002c0 49 ac 71 bf 12 27 aa bf 92 4d b3 bf 22 3e ab bf
       -0.9440351 -1.3293173 -1.4008048 -1.3378336
0002d0 c8 f5 01 c0 93 7d a4 3e 1f 59 76 bf 18 c0 d4 bf
       -2.0306263 0.32127056 -0.9622974 -1.6621122
0002e0 0c e3 b1 bf 96 f1 a6 bf da 08 1e be 4b 04 fc bf
       -1.3897414 -1.3042476 -0.15433064 -1.968881
0002f0 3c 13 62 be 91 bb e7 bf 43 8f 83 bf 3e 3a 9f bf
       -0.2207765 -1.8104116 -1.0278095 -1.2439649
000300 21 35 59 bf ce f0 ad bf 54 ff e3 bf 64 2a 9c be
       -0.84846693 -1.3589113 -1.7812295 -0.3050109
000310 ca 0c 5f bf db 96 92 3e bf 5f ba bf be 00 c4 bf
       -0.8712889 0.2863072 -1.4560469 -1.5312726
000320 35 fb fb bf 30 b6 f1 bf ab 39 f6 bf d4 14 e7 bf
       -1.9686037 -1.8883724 -1.9236349 -1.8053231
000330 1e 1d 9f bf d5 5c 89 bf 9a 59 76 3e 72 fb 7b bf
       -1.2430761 -1.0731455 0.24057618 -0.9843055
000340 b0 fd ff be dd 31 d5 bf b3 9a 83 bf 79 87 64 3f
       -0.49998236 -1.6655842 -1.0281585 0.89269215
000350 09 fe 82 bf 6f 03 6e bf f7 8a 8a bf 59 31 aa bf
       -1.0233775 -0.9297399 -1.0823659 -1.329631
000360 6d c5 07 c0 48 a8 f8 be 07 4e 99 bf ff cd 5e 3f
       -2.121425 -0.48565888 -1.1976937 0.87033075
000370 c1 39 cd bf 09 ae bb bf c0 d7 c9 bf 4a 13 cd bf
       -1.603325 -1.4662486 -1.5768967 -1.6021512
000380 38 98 a4 bf a5 14 e7 bf 8b db d9 bf 49 ee be bf
       -1.2858953 -1.8053175 -1.7020124 -1.4916469
000390 46 ea de bf af cc fe bf 03 df 18 be 9d ca 68 bf
       -1.7415245 -1.9906214 -0.14928822 -0.90934163
0003a0 f1 43 38 bf 40 2c 57 bf ff 9d a8 bf 56 22 f5 bf
       -0.7197867 -0.84051895 -1.3173217 -1.9151103
0003b0 d3 bc b5 bd 44 1b 03 c0 2d 2c f3 bf b7 de 80 bf
       -0.08873906 -2.0485392 -1.8997856 -1.0067967
0003c0 eb 1c 9b bf 4f e5 9c bf 7d f6 b6 bf a4 d9 12 c0
       -1.21182 -1.225748 -1.4293972 -2.2945337
0003d0 48 9f 1b bf eb af da bf 7c a3 ba 3f 5e 50 0c c0
       -0.6078992 -1.7084936 1.4581141 -2.1924052
0003e0 5c fa ca bf 8e ce 69 bf c4 d4 b7 be c4 48 1c c0
       -1.5857654 -0.913308 -0.35904515 -2.4419413
0003f0 32 9f f6 be d9 e8 a2 bf 0f 69 8c bf c1 18 7a bf
       -0.4816833 -1.272731 -1.0969561 -0.9769402
