logs/rsl_rl/arm_t_reach_ik/2025-10-15_21-11-59/model_0.pt (torch, 978146 bytes, 42 tensors)

std f4 [6]
00000000: ca0b 9a3e 726a 9a3e 874a 9a3e 45de 993e
00000010: f777 993e a3c0 993e
0.3008712 0.30159336 0.30134985 0.3005239 0.29974338 0.30029783

actor.0.weight f4 [256, 25]
00000000: 7532 153e 010e 283e afe9 66bd a677 3a3e
00000010: 61ed 2fbd 4386 293d 40cd d3bd 2dab de3d
00000020: 4651 433e 3632 06be 3a0c 3c3e b731 343d
00000030: c434 093e cb45 c93c b994 bd3d 5986 81bc
00000040: 08e6 0f3e 03e5 313d 189d a1bd bf62 323d
00000050: 5164 c9bd e677 2bbd fd50 99bd 13e7 eb3d
00000060: 58ae 17be 17ff adbd 2329 30bd a91e debd
00000070: 0bdb bf3b e461 40be a50b 2e3e 0b4a 2cbe
00000080: 8282 0f3e 32f9 e83c 5392 53bd 03d2 ff3d
00000090: f172 143d 48f7 213e 2c38 cf3c 8e34 94bd
000000a0: bad8 6d3d b7e3 7bbd d25c 8c3d 1736 583e
000000b0: 2a4a f33d 22bd b6bd 34e9 df3d 7eac 433d
000000c0: 46b5 d23d 4a34 05be 0f94 50be 56c7 87bd
000000d0: b05d 10be 7c74 233e 8fc8 8f3d e206 9e3d
000000e0: f7e6 783d d2e2 9ebc f357 093e b51b 24be
000000f0: df72 2b3c c737 06be 057c 7b3d b33b 82bd
00000100: 2304 4e3d affb 2fbd 6537 2b3e 7301 e2bd
00000110: f702 07be e9dd dabd 42d5 393e f2a8 813d
00000120: 154b 493e b71f 20be b7a7 3cbe 72f4 29be
00000130: 50cb 07be fe47 703d e44c 9e3d dbd2 2a3e
00000140: f2a8 c1bd b020 14be 5b90 e53d c5a5 92bd
00000150: e341 173e 2a9c 7dbd 5091 033e 1e61 1ebe
00000160: 201b cdbd cfd9 cc3c 12fe 4d3d 094e e1bc
00000170: 1f50 cb3d 1892 0f3e e42a 0fbe fae1 fcbd
00000180: 81f4 3d3e cfee 80bd 8fc2 30bd 0184 30be
00000190: 474f dabd ec7e 893d f53a c2bc c9d5 0dbe
000001a0: f5f9 363c c9f5 16be 4e08 25be 2f50 c7bd
000001b0: e5bc 35be 9332 04be b397 603e ce60 a73c
000001c0: 8813 8d3d 8cc4 39be e75c 05be c9b5 44bd
000001d0: fdfa 6a3c 4a29 38be 799f a3bd f813 ecbd
000001e0: 60f7 7f3b 2c8e 9ebd 33dd a0bc 5779 09be
000001f0: 6060 19be c19f e4bd cc0c 5dbd 1425 2cbe
00000200: abd6 223e 6a19 e2bc 1a30 2a3e 2559 973d
00000210: d117 31be 347c 123e 6e93 66bd 8ac3 84bd
00000220: 7e37 30be b164 56be f69a 433d 6c9f 84bd
00000230: a822 973d 8ac2 21be d84d 283e 008f 01be
00000240: 6746 0bbd 9671 073d aa22 df3d 23f2 263e
00000250: 7e71 333e 5c87 0dbe 624c 373d b6d1 bfbd
00000260: 9c93 0dbc 62e6 0fbe 3f33 343e afe6 18be
00000270: bb1f cc3d 44d5 763d 776a 733d 1028 e8bd
00000280: 5313 273e 3f36 693d 60b0 903c 2ced 45be
00000290: dd19 c13d 730f 06bd d039 a5bd 433f 433e
000002a0: 5a60 523d 8f24 cbbd 6157 cebd 1f6b 47bb
000002b0: a226 d43d a7a3 2abd 5b2a dbbd b46e 91bd
000002c0: e384 2bbe 9667 7b3d 699e 193e 68c5 2ebe
000002d0: d610 2b3d 637d c63d 4d64 0d3d 69ee 91bd
000002e0: 16d4 c83d d642 df3d ff46 913d 5dff 33bd
000002f0: fefb 86bd 3427 0e3d e233 0cbd 9994 15bd
00000300: 18f1 fc3d 56c4 233e f22d d8bc 81ce 62bd
00000310: 412e be3c e91b 3dbb 170f 513d 8461 303d
00000320: 4c5f 3dbe fd6b a4bd 34b9 2b3e 9b3d a03d
00000330: ba69 5abc 2a73 03be 3998 f3bd bd55 2fbe
00000340: e84c 82bd d649 843d d889 003e a1d0 d43d
00000350: 101b 1fbe e1cb e7bd 916a 5dbc e4fb 333e
00000360: 90ed bb3c 7804 07bd f646 b53d 85e1 97bd
00000370: ba86 0fbe fb9f 1e3e b90b 9fbd b45c 26bd
00000380: 4673 3fbe 336e 0b3e 3d72 203e c05c ac3d
00000390: 1cee 0ebe b3ef 44be 634b 2abe 0cc0 0b3e
000003a0: fc7a a43d 1956 2f3e aee8 f83d d320 423d
000003b0: d2c7 063c e7b4 17be 082b 33be d1b1 2ebe
000003c0: de8b 9d3d 5d9e 98bd 6cc6 51bd d975 03be
000003d0: 9322 65bd a6da 1cbe c406 ffbd b4e4 9d3d
000003e0: d7c5 3fbd 38c7 de3d 80aa 89bd 380b 02be
000003f0: 7952 d0bc d342 f5bd 7abc 5dbd c037 47be
0.14570029 0.16411592 -0.0563752 0.18209705 -0.04295099 0.041387808 -0.10341883 0.10872493
0.19073972 -0.13105091 0.18364039 0.043992724 0.13399035 0.024569413 0.09256882 -0.015811132
0.14052594 0.043431293 -0.078912914 0.043551203 -0.09833587 -0.04186239 -0.074861504 0.11518683
-0.148126 -0.0849592 -0.04300798 -0.10845692 0.0058549694 -0.18787342 0.1699663 -0.1682512
0.14014629 0.028439138 -0.051653218 0.124912284 0.03624243 0.15816987 0.02529534 -0.072365865
0.058068015 -0.061496463 0.068536416 0.21114384 0.1187938 -0.08922793 0.10933152 0.047771923
0.102884814 -0.13008228 -0.2036898 -0.06629817 -0.14098239 0.15962404 0.070206754 0.077161565
0.06076714 -0.019395266 0.13412456 -0.16026194 0.010464399 -0.13107215 0.06139757 -0.06359043
0.050296914 -0.042964634 0.1672035 -0.11035433 -0.13184725 -0.10686857 0.18147758 0.06331052
0.19657548 -0.15637098 -0.18423353 -0.16597155 -0.13261151 0.058662407 0.077295095 0.16681997
-0.09456052 -0.14465594 0.11209174 -0.07160524 0.14771228 -0.061916508 0.12848401 -0.15466735
-0.10014939 0.025006203 0.05029113 -0.02750303 0.09927391 0.14020574 -0.13981205 -0.12347789
0.18550302 -0.06295549 -0.043154296 -0.17237855 -0.10659652 0.067136616 -0.023709754 -0.13851084
0.011167993 -0.14742197 -0.16116449 -0.09732091 -0.17747839 -0.12909918 0.21932869 0.020431902
0.06888491 -0.18141383 -0.1302372 -0.048024926 0.014342067 -0.179845 -0.07989401 -0.11527246
0.003905736 -0.07741961 -0.019636726 -0.13425194 -0.1497817 -0.11163283 -0.053967282 -0.16811019
0.15902202 -0.027600009 0.16619912 0.0739005 -0.17294241 0.14305192 -0.056292944 -0.064826086
-0.17208669 -0.20936848 0.047755204 -0.0647572 0.07379657 -0.15796867 0.16435945 -0.12652206
-0.034002688 0.03306731 0.108952835 0.16303305 0.17523763 -0.13821167 0.04475058 -0.09366171
-0.00864115 -0.14052728 0.17597674 -0.14931749 0.099669896 0.06026198 0.059427705 -0.11335766
0.16315965 0.0569365 0.017662227 -0.19328755 0.09428761 -0.032729577 -0.080676675 0.19067101
0.05136142 -0.099190824 -0.1007526 -0.003042884 0.10358931 -0.041659977 -0.10701438 -0.07101193
-0.16749911 0.061378084 0.15001835 -0.17067492 0.041764103 0.09691884 0.034519482 -0.07125551
0.09806077 0.1090142 0.070936196 -0.043944705 -0.065910324 0.034705356 -0.034229167 -0.036518667
0.123506725 0.15992865 -0.026389096 -0.05537272 0.023215415 -0.0028855747 0.05103978 0.04306175
-0.18493384 -0.0802841 0.16769868 0.0782425 -0.013330871 -0.128369 -0.118942685 -0.1712255
-0.06362325 0.064593956 0.12552583 0.10391355 -0.15537667 -0.11318184 -0.013514177 0.17576557
0.022940427 -0.032963246 0.08851425 -0.07416061 -0.14016238 0.15490715 -0.07765908 -0.040615752
-0.18696317 0.13616256 0.15668578 0.08416128 -0.13958019 -0.19232063 -0.1663032 0.13647479
0.0803127 0.17122687 0.12153755 0.047394585 0.008226352 -0.14815103 -0.17496884 -0.17060019
0.07692693 -0.074520804 -0.05121462 -0.12837924 -0.055941176 -0.15317783 -0.12452462 0.07709637
-0.046819534 0.10877842 -0.067219734 -0.12699592 -0.025429951 -0.11975636 -0.054134823 -0.1945486

actor.0.bias f4 [256]
00000000: 5e1c 523d 81a3 25be 815d d33d 6731 b9bd
00000010: e852 433d 2aec ee3b 4301 0d3e 9d33 49bd
00000020: b40c b1bd 86fe 6bbd 785b a63b eb8e febd
00000030: f34f f53d 7f1c cabd da4d 6f3c bc5a 27be
00000040: 0332 3cbd 75cc 81bd c9cc c4bd e788 e83d
00000050: c817 3fbe f6ce 93bc 9447 ccbc 67d5 fbbd
00000060: 07b6 0d3e 310f f63d 1da9 523d fdd5 7c3b
00000070: 1b59 ce3d 5104 ccbd 9a65 34be ec4c 4b3e
00000080: 1e30 b2bd 06b9 8c3c 1c52 8cbc 09da 123e
00000090: 3c97 423e 1799 1abe 6335 cabc 9488 29be
000000a0: 0edf d73d b847 213e a6bc c7bd c112 203c
000000b0: fbf9 32bd cad7 a8bd 50f3 143e 7f4f 60be
000000c0: 3a8d 38bd 85d2 a1bc 44fd 49be 0876 6c3d
000000d0: 4708 cc3d 0363 2fbe d77b 583d 64b5 1fbd
000000e0: 8279 1e3e 8eb8 54be b4a3 133e ebde b8bd
000000f0: 8df9 293e 4509 ccbd da84 8b3c 26e6 1a3d
00000100: ce52 e53d 7bb0 9e3d cbf4 ca3d 2e07 4dbd
00000110: 1153 1fbe 0444 a1bb 4b2c 283e b2e5 203e
00000120: 07c9 05be 9605 e23d 6972 a13d 315b 87bd
00000130: 8144 c23d 043f fbbb e344 8e3c 1415 20be
00000140: 8fe2 3ebd b0bc 2a3e 1c4d c13d ec6e 2abe
00000150: dc94 9fbc b3f9 f13d 5eb6 d4bd 9be1 81bd
00000160: e071 c03d 0d42 1a3e d311 353e 322f 0ebe
00000170: 6c13 50be 225e e93d 7fa2 30bd 07e4 303e
00000180: 3d65 ea3d 79f2 b3bd 6628 0e3d 1236 7d3d
00000190: 0058 abbd ac5a 353e 306f 89ba ad63 a0bd
000001a0: c134 3ebe 766a 013e e38c 4ebe 9ac6 0d3e
000001b0: 0e6f a4bd 490a 4bbd aa15 823c 200f 363e
000001c0: 2422 21be f76a 15be 6ba6 e23d 62d5 cdbd
000001d0: a735 c4bd d2a8 ce3d 6e1e e2bd 6d94 a93d
000001e0: 8af0 c5bd 110f fb3d f679 433e 5a13 293c
000001f0: 9154 bcbd d97e b23d 8360 5f3d 9dc3 9a3a
00000200: 0414 2b3e 3762 aebc 74e1 253d 1614 7bbd
00000210: a578 3abd 72f1 18bd f9e7 b8bb 8b24 733d
00000220: 66b2 043e 8461 d83d f72b c2bd 46d8 2c3e
00000230: b2b9 0c3e c288 143d 1251 203c d843 01be
00000240: 05de 06be 6747 9dbc f0e4 2bbe 5aec 723d
00000250: 5439 48be 9a7d 40be f6dc c9bd df1a cc3d
00000260: 6653 093e 92bf 36be 58f3 21be 1332 4d3c
00000270: cda3 13bd 0b3f 34be 3349 d03c 5d04 46be
00000280: 3ad5 cbbc 5a99 6c3d 5cb8 233e b19f 3bbe
00000290: 9cfd 0e3e 50fd ff3b ea50 173e 14fd 383e
000002a0: c3cb 94bd 7d00 51bd 0249 a0bd 2d4b 053e
000002b0: 6dc7 dcbd 6af9 fb3d 1a44 8a3d 4819 233e
000002c0: dd8f 113e 228f 103e 11a6 2abe e4a5 d5bd
000002d0: 877c 26be a514 a83d 9fba ea3c cf50 283d
000002e0: 9cb6 2a3d 706f afbc 5c48 3c3d a807 eabd
000002f0: 94e1 e23d 6c53 39be 3b7e 5bbe dd8e 253d
00000300: 5409 2b3e e02e b8bd 4d4a 2b3e 9168 a9bd
00000310: a29d 23be 5967 7fbd 70db bd3d ad58 1cbe
00000320: 88da 283e ddfd e4bd c6ae cfbd 66cf c0bd
00000330: 54e0 3ebe b82c 3c3e a644 fabd 4530 e3bd
00000340: 70fa bdbd c666 123e 32aa aa3d e1b6 5c3d
00000350: eee8 7abd 1ce9 7b3d 21ee 083d d7a0 103e
00000360: 9012 193d ec89 113e c43c 143e f26f 913c
00000370: bd82 46be 2462 37bc e702 39be c3a3 833c
00000380: 03ca ffbc 4a87 153e 5404 25be 5d38 3ebe
00000390: e3e2 a53d 3306 ee3d 7ca3 3cbd 7ad0 103d
000003a0: a371 0b3e c124 7ebc 5692 95bd 66e3 ad3d
000003b0: cd77 353e 184f 12bd 3905 dc3d daf8 9a3b
000003c0: f831 59bd a0f4 11bd b9e8 50be d497 6b3d
000003d0: 6eb5 04be b98a 3fbe b66d f4bc c8f6 e5bd
000003e0: 5890 08be 1e3a 87bd cc12 1dbd 17ac 033d
000003f0: cacd a2bb 8700 15bd 53d6 703c 7528 15be
0.051296584 -0.16175653 0.10320569 -0.09042626 0.047686487 0.0072913365 0.13770013 -0.049121488
-0.08645001 -0.05761578 0.005076822 -0.12429603 0.1197814 -0.098687164 0.014605964 -0.16343206
-0.045946132 -0.06337825 -0.09609372 0.11354237 -0.18661416 -0.018043023 -0.024936475 -0.12296563
0.13838969 0.12014616 0.05143081 0.0038579695 0.10075589 -0.09961761 -0.17616883 0.19853562
-0.08700584 0.01717807 -0.017128997 0.14340986 0.19003004 -0.15097462 -0.02468366 -0.16556007
0.10540591 0.15750015 -0.09752779 0.009770096 -0.04369543 -0.082442835 0.14545941 -0.21905325
-0.04505656 -0.019753704 -0.1972552 0.05772975 0.09962516 -0.17127614 0.052852478 -0.038991347
0.15476039 -0.20773527 0.14417917 -0.09026893 0.16599102 -0.099627055 0.017031122 0.037817143
0.11197434 0.07748505 0.09909972 -0.050055675 -0.15559031 -0.004921438 0.16423146 0.15712622
-0.13064967 0.11036222 0.0788315 -0.0660919 0.09485722 -0.007667424 0.017366832 -0.1563304
-0.04660278 0.16673541 0.094385356 -0.16643876 -0.019480161 0.118152045 -0.10386346 -0.06341859
0.0939672 0.15064259 0.1768258 -0.13885191 -0.20319909 0.113949075 -0.04312372 0.17274486
0.11445091 -0.08786482 0.034706496 0.061819144 -0.08366394 0.1771037 -0.0010485407 -0.07831512
-0.18574812 0.12638268 -0.20170932 0.13845292 -0.080289945 -0.049570356 0.01587947 0.17779207
-0.1573568 -0.14591585 0.11066898 -0.10050465 -0.09580546 0.10090794 -0.1104096 0.08280263
-0.0966502 0.12258733 0.19089493 0.010319555 -0.09195817 0.087156005 0.0545354 0.0011807565
0.16706854 -0.021287067 0.040498212 -0.061298452 -0.04552521 -0.037339635 -0.0056428877 0.059361022
0.12958679 0.10565475 -0.09481042 0.16879377 0.13742712 0.036263235 0.009784954 -0.12623537
-0.13170631 -0.019199086 -0.16786551 0.059307434 -0.19553119 -0.18797913 -0.09856598 0.09966063
0.1341072 -0.17846516 -0.15815485 0.012524146 -0.036044884 -0.17602174 0.02542553 -0.19337602
-0.024881948 0.057763435 0.15988296 -0.18322636 0.13963932 0.0078121796 0.1477696 0.18065292
-0.07265427 -0.051025856 -0.07826425 0.13016959 -0.10780225 0.12303431 0.067512706 0.15927613
0.14215036 0.14117101 -0.16664912 -0.10432032 -0.16258441 0.08207063 0.028653441 0.04109269
0.041678056 -0.021415442 0.045967445 -0.114272416 0.11078182 -0.18098229 -0.21434872 0.04041945
0.16702777 -0.08993316 0.16727562 -0.082718976 -0.15978101 -0.06235442 0.0927037 -0.15268202
0.16489613 -0.11181233 -0.10140757 -0.09414558 -0.18640262 0.18376434 -0.12220125 -0.11093191
-0.09276283 0.14297017 0.083332434 0.053885344 -0.061257295 0.061501607 0.033430222 0.14123856
0.03737122 0.1421277 0.14476305 0.017753575 -0.1938581 -0.011192832 -0.18067513 0.016069299
-0.031224256 0.1460239 -0.16114932 -0.18576188 0.08099916 0.11622276 -0.04605435 0.03535507
0.13617568 -0.0155116925 -0.07303302 0.084906384 0.17721482 -0.03571996 0.10743184 0.0047293724
-0.05302617 -0.035633683 -0.20401277 0.05751784 -0.12959835 -0.18705262 -0.02983747 -0.112287104
-0.13336313 -0.06602882 -0.038348004 0.03214654 -0.0049683796 -0.036377456 0.014699536 -0.14566214

actor.2.weight f4 [128, 256]
00000000: 01e6 513d 5e38 053d 2361 233d a7dc 18bd
00000010: 3d8d 2d3d 1776 ea3b 3f25 7cbd 8572 633d
00000020: 4923 02bc 87c8 983c 75ee 373d 4d86 1d3d
00000030: 534f 443d f377 48bd bda7 6d3d 7eb3 7c3c
00000040: fcbf 793c 2b1a 3dbd a1a5 b6bc fc39 753d
00000050: 0349 063d 3f6d 513d 2727 5b3c f6be 16bd
00000060: 40ac 93ba 15a2 91bc ffe8 33bd d6b6 c73c
00000070: 813d 503d 61e9 4dbd d300 86bd 13f1 363c
00000080: 96c9 ffbc 21c1 0cbd cad6 bbbc 5d18 a9bb
00000090: ebff 6ebc 5320 4b3d d064 283d 8b7a fa3c
000000a0: f971 aabc d7a8 d7ba cff9 2f3d f455 c1bb
000000b0: b8d8 6cbd 1431 023c 5d19 1a3d f4e5 00bc
000000c0: 67c7 bfbc 0ba3 6138 e158 3b3d 47cf 603d
000000d0: e232 59bd 5dd6 763d c576 db3c 9ece 453c
000000e0: 0b28 febc 9ddd 13bd 764d 773d 4e54 f93c
000000f0: ea32 12bc 6eb4 3fbb bf74 2d3d 0e9a f3bb
00000100: 8f2d e03c 20fb 15bc a89e 8a3c aa2e 5e3c
00000110: bd41 10bd 799a c6bb 72a9 b73b 4d96 8cbd
00000120: 15e5 dfbb 8a76 2fbc 88d6 4e3d 70b4 9f3c
00000130: 0be3 3dbd f267 b7bc 240a 793d 0f01 2abb
00000140: b052 843d 9caa 5a3b 3529 133d 9b93 a7bc
00000150: 1150 7f3d d379 5c3c 9e3c 18bc 536f 433d
00000160: 63e1 e53c bd5e 1dbd bf54 b8bb e098 613d
00000170: 56ae d93c 097a e3bc 719c 3cbd dc91 18bd
00000180: 5e73 303d f79b 813c 6541 4fbd adf2 87bc
00000190: a3ce 443c af15 79bd f847 673d 92ba 8dbb
000001a0: 98d0 c8bc 8da8 143c f2fd 063d 2d6f 4e3c
000001b0: e17f 763d a0e0 e93c 5338 15bc 61f6 193c
000001c0: 4ac9 bd3c a560 00bd 3e36 2abd 87cb 31bc
000001d0: 090b abbc b454 65bd cf5e a23c 146e b7bc
000001e0: 4be5 873d 1786 b13c 8c4b f63c c073 e13c
000001f0: 0b50 bc3c 0952 f03c 8853 473d 4b3a 6abc
00000200: 8779 b0bc b0b7 cfba 4a50 09bd 12dc b239
00000210: 412e be3a 0ca2 1a3d 7d1c 96bd bb9c e33c
00000220: 3624 fabc 2c96 33bd 54a6 24bd 5077 f13b
00000230: 8406 f03c 1e68 76bd fe31 9f3c 7cd5 723d
00000240: 5ab1 1bbd c864 863c 494f 82bc 8a41 c63b
00000250: 00d4 fb3c f680 40bd 50ae 1cbb 0fe5 673d
00000260: dc7f 963c aa6c 50bd 60e9 ce3a 19d6 4c3c
00000270: 13b2 ad3c f2e7 b73c 1431 0bbc fb70 f8bc
00000280: 1941 f33c 3fdc cbbc a63d aabc e69c 283d
00000290: fa38 e6bc ae86 95bb 0007 25bd fb64 54bd
000002a0: 1e95 133d e0a3 1abd faac 0abd c6aa 05bc
000002b0: 4649 9f3b c0e1 4b3d fb6d 483d b9e7 d1bb
000002c0: f413 57bd 2651 5b3c 9805 a7bb 4f7d 893d
000002d0: d319 dcbc 9fca 89bd 86cb 0a3d f991 a5bc
000002e0: ed58 af3c 37c4 bb3b 76e5 0e3d 75dd 0a3d
000002f0: faab 67bd a900 7cbd e826 873d c480 643d
00000300: 8c56 b5bc 977d 8d3d b9d0 433c a6a2 7bbc
00000310: 7b3e 3dbd 04a6 dfbc 82da 433d 77ff 4ebd
00000320: a4e3 1cbd 96e2 6e3d fc14 0bbd 2b1e 8c3d
00000330: d768 303d bc1a 113d d0ea dc3c 5f3d a8bb
00000340: 67c0 f53c 44f4 1e3c 20db 22bd 8001 83bd
00000350: 7790 58bd b7b9 86bb f54a 623c 327b 46bd
00000360: 8c2d 513c 0355 eb3c 9072 0d3d 3d1f 53bc
00000370: d07f 423d a949 3dbd be26 433d 9ad8 6abd
00000380: 8cdc c8bb d281 4fbc ad02 8cbd a1ee 81bd
00000390: 98eb 0ebd ea72 4ebd 89b0 1a3d 47cf 98bb
000003a0: 221b 37bd 2ba3 acbb b9de 1dbd f958 efbb
000003b0: ac52 643d 9933 7abd 73d9 48bd 2717 3f3c
000003c0: 2502 6f3d 2f0b 89bd 8618 e83c 0477 863d
000003d0: 2ac2 a63a 2f65 02bd 43fe 993c 9b67 3c3d
000003e0: 396b 29bc a29d 3ebd 14d0 c8bb 106f 20bd
000003f0: 4e26 58bd 23d3 183d 5d96 4f3d 3a5d 173d
0.05124474 0.03252446 0.03988756 -0.037319805 0.042371023 0.0071551907 -0.06155896 0.055529136
-0.007942983 0.018650306 0.044905145 0.038458157 0.047927212 -0.048942517 0.058021296 0.015423654
0.015243527 -0.046167534 -0.022295775 0.05986975 0.032784473 0.051129576 0.013376034 -0.03680321
-0.0011266544 -0.017777482 -0.043923374 0.024379175 0.050839905 -0.050271396 -0.06543126 0.011165875
-0.031224053 -0.03436387 -0.022929568 -0.005160375 -0.014587383 0.049591374 0.041111767 0.030576011
-0.0208063 -0.0016453516 0.042962845 -0.005900139 -0.057823867 0.007946271 0.037621845 -0.007867325
-0.023410512 5.3796026e-05 0.04573906 0.054885175 -0.05302704 0.060263027 0.026790032 0.012073187
-0.031024953 -0.03610002 0.060376607 0.030435707 -0.008923272 -0.0029251832 0.042347666 -0.0074341362
0.027365474 -0.009154111 0.016921356 0.01356093 -0.035218943 -0.006060895 0.0056049163 -0.06864605
-0.0068327286 -0.010709414 0.05049756 0.019495219 -0.046359103 -0.022388432 0.060800686 -0.0025940572
0.06461084 0.0033365851 0.03592797 -0.020456126 0.062332217 0.0134567795 -0.009291796 0.04771359
0.028061574 -0.038420428 -0.005625337 0.055077434 0.026572388 -0.027768152 -0.04604763 -0.037248477
0.043078773 0.01582144 -0.050599474 -0.016595209 0.012012157 -0.060811695 0.05646512 -0.0043252194
-0.024513528 0.009073389 0.032957025 0.012599749 0.06018055 0.028549492 -0.009107667 0.00939712
0.023167271 -0.031342167 -0.041555636 -0.010851747 -0.020879285 -0.055988982 0.019820599 -0.022391357
0.06635531 0.021670384 0.03006532 0.027521014 0.022987386 0.029335992 0.048663646 -0.014296125
-0.021542324 -0.001584759 -0.033523835 0.0003411477 0.0014509634 0.037752196 -0.073296525 0.027784696
-0.030534845 -0.043844387 -0.040197685 0.0073689595 0.029299982 -0.060157888 0.019433018 0.059285626
-0.038010933 0.016405478 -0.015906947 0.0060502933 0.030740738 -0.046997987 -0.002390761 0.05661493
0.018371515 -0.05088488 0.0015786104 0.012502217 0.021203076 0.022449467 -0.008495588 -0.03032731
0.029694127 -0.024885295 -0.02078135 0.041165255 -0.02810334 -0.004563174 -0.04028988 -0.051854115
0.03603088 -0.03775394 -0.03385637 -0.008158391 0.00486103 0.04977584 0.04893301 -0.0064057973
-0.052509263 0.0133860465 -0.0050971024 0.06713354 -0.026867783 -0.067281 0.0338855 -0.020211207
0.021404708 0.0057301777 0.0348868 0.033902604 -0.056560494 -0.061524067 0.06599218 0.055786863
-0.022135995 0.0690872 0.011951619 -0.015358603 -0.046202164 -0.027300842 0.047815807 -0.0505366
-0.038303033 0.058321558 -0.03395556 0.068416916 0.043068733 0.035425887 0.026967436 -0.005134269
0.029998971 0.009701792 -0.039759755 -0.063967705 -0.052872147 -0.0041114944 0.013811816 -0.048457332
0.012767207 0.02872706 0.034533083 -0.012885866 0.047485173 -0.046212826 0.04764437 -0.057335474
-0.006129807 -0.012665229 -0.06836448 -0.06344343 -0.03489265 -0.05040256 0.037766013 -0.0046633813
-0.04470361 -0.0052684746 -0.038542483 -0.0073043075 0.055742905 -0.061084364 -0.0490355 0.011663235
0.058351655 -0.06691586 0.028332006 0.06565669 0.001272266 -0.031834777 0.018798 0.045997243
-0.010340505 -0.04653705 -0.0061283205 -0.039168417 -0.052770905 0.03731073 0.050680507 0.036954142

actor.2.bias f4 [128]
00000000: 0558 b2bc 16c2 4ebd ce60 493d 1dae 9abc
00000010: acdf 363d 8c44 483d a13f 5cbd ed45 dbbc
00000020: d7e6 1abd a82c 5cbd 53ad 5ebd 4629 383d
00000030: 4d2e 273c ca1d 073d 38a3 31bd 193a f4bc
00000040: 3198 65bd 93bd 9d3c 49dd 38bd 0ac6 c1bc
00000050: f9d8 87bc 8d71 27bd 1315 0c3d 1fe2 19bd
00000060: 93c0 3f3d bfad 31bd 37be e8bc 376f 523d
00000070: a643 99bc 3c0d 2abd 3399 b43b 5aad 443d
00000080: 0006 853b bb9e b83c 7308 1e3b 617c 32bd
00000090: 9be1 833c 5052 cebc ffe9 1a3d da93 b73c
000000a0: 3b05 cbbc 9917 613c cc26 423d 19fd ecbc
000000b0: 7d91 3e3c 881a 413c 45e8 6e3d b698 28bd
000000c0: dd90 ebbc bce7 fe3b 3bd9 40bd bfbe 1abd
000000d0: 0090 61bd 9047 cabc e931 ab3c a091 063d
000000e0: 63b9 363d 2943 65bd f9af ae3c 56b2 803d
000000f0: c41c a4bc be6a 353d eeea 57bd 9d45 6c3d
00000100: 2b51 d93c 4342 e4bb 32c5 12bd e17a 2e3d
00000110: 7aef 62bd a51a 913b 419a 0f3c 646e 7bbd
00000120: 8bb7 f23b 8437 983c 4bd1 fb3c c234 f63c
00000130: 3b62 f13c 9605 b23c f99f 243b b9c9 3cbd
00000140: d670 e0bb 7c5b afbb ee0c 0abd 58f8 533d
00000150: 29e1 123d 8121 843d 3307 453d 4b86 35bc
00000160: 3877 e7bc f318 7a3c 639c 28b8 2b46 9dbc
00000170: 01a8 4fbd 1c70 54bd d903 ee3c dca2 58bd
00000180: 7de5 693d f732 d4ba 2f90 573c 7ee4 413d
00000190: 3b4a 743c b00c 033d bfe7 8f3c 9268 3c3d
000001a0: ab51 863c 991e 9eb9 6ed6 40bd efc9 73bd
000001b0: ad85 81bd 2e05 6f3d 8bcb f03c 8cbe fb3a
000001c0: 8380 52bd d6b2 95bc f212 b03b 9d81 00bd
000001d0: a683 d9bc 3e8b 823b 096b a9bc fe2d 39bd
000001e0: 6bd3 dfbc d48d 1d3d cb11 54bd 1504 e33c
000001f0: c9db f13c d116 dc3c 209d 0dbd 1a21 1d3d
-0.021770487 -0.050478064 0.049164586 -0.018881852 0.044646904 0.048893496 -0.05377162 -0.026766742
-0.037817802 -0.053753525 -0.054364514 0.044961236 0.01020391 0.032987393 -0.04336855 -0.02981286
-0.056053344 0.019255435 -0.04513291 -0.023654003 -0.016582953 -0.040879775 0.034199785 -0.03756916
0.046814512 -0.043378588 -0.028411014 0.051375594 -0.018709015 -0.041516528 0.005511427 0.048016883
0.004059553 0.022536626 0.0024113923 -0.04357565 0.016098788 -0.025185734 0.037820812 0.022409368
-0.024782768 0.013738536 0.04740028 -0.02892928 0.011631367 0.011786111 0.05832698 -0.04116126
-0.0287556 0.0077790897 -0.047082167 -0.037779566 -0.05506897 -0.024692327 0.020897822 0.032853723
0.044610392 -0.055972252 0.021324145 0.06284015 -0.020033248 0.04429125 -0.05271428 0.057683576
0.026527962 -0.006965907 -0.03583259 0.042597655 -0.055404164 0.004428225 0.008764804 -0.061384574
0.007407134 0.01858116 0.030739447 0.030054454 0.029465785 0.02173118 0.0025119765 -0.046090815
-0.0068493886 -0.005351482 -0.033703737 0.05175051 0.03585926 0.06451703 0.04810257 -0.011079381
-0.02825509 0.015264737 -4.0199968e-05 -0.019198498 -0.05069733 -0.05186473 0.02905457 -0.05288969
0.057103623 -0.0016189505 0.013156935 0.047337048 0.014910276 0.03199452 0.01756656 0.045998164
0.016396364 -0.00030158905 -0.047079496 -0.05951875 -0.06324325 0.05835455 0.029393932 0.0019206568
-0.05139209 -0.018273752 0.005373352 -0.03137361 -0.026552033 0.003983884 -0.020680921 -0.045209877
-0.027322492 0.038465336 -0.05177478 0.027711907 0.029523747 0.026866348 -0.034573674 0.038361646

actor.4.weight f4 [6, 128]
00000000: 53b2 b13c 5a0f 4d3d b495 fa3c 6889 4d3b
00000010: 2483 49bd 1c02 c83c 022b 55bc 4df1 b63a
00000020: f0dd 1a3d 3638 9ebd 50d7 9cbd c1bf c8bb
00000030: 6b53 db3b 92db 213d 00bd d83b d93d 85bc
00000040: 1b0a 223c 51fc 543d ab16 74bd f9ce f13c
00000050: a635 67bd 668f 6f3d 6cae a1bb 795b a7bd
00000060: c3c9 d63c fa8f 3fbd d8d0 173c 20ec c3bb
00000070: cbbc 953c 0ce5 823d 80f6 443d 030c ad3d
00000080: bc4c e5bc 10ce d1bc 20ea 63bb dcc6 713d
00000090: 079f cdbc 3c6a 863d 8c01 713d bb14 8b3d
000000a0: d084 0b3d 99ea acbb ebc9 8c3d 2253 95bc
000000b0: 0a14 2b3d df13 48bd a866 bb3c a641 dfbd
000000c0: 6760 29bd 3f0c 46bd 2bc1 b3bc f2c2 40bd
000000d0: 6ad5 113c c408 4b3d c997 393d fd4f 8c3d
000000e0: e99a 6cbc af79 c5bb ab2e 91ba d57f e03c
000000f0: c6ae cabb c8be cdbc 80dc 053c 5ba5 3dbd
00000100: 75fd 3f3d 7425 813c a289 583d 9410 4cbd
00000110: 72d8 38bd 6a61 9fbd ab5c 7b3d 9e49 55bd
00000120: d11d ce3c 1eab 7f3d 34d2 693d 5c8d 473d
00000130: 6301 0bbb 19a5 61bd ed8e 92bd dc98 2bbd
00000140: d949 0e3b a208 7d3d b81d 5abd 8777 64bd
00000150: ef60 8a3d 4ee1 fb39 201c 7bbd d098 883d
00000160: 34c8 e43b e14d 16bd c870 0b3c e7e3 a3bd
00000170: 6082 18bd 4392 7f3d 82aa f73c 6c88 3abd
00000180: 342c df3c ff74 dfbc e54a 4fbd 7244 85bd
00000190: 000a 8c3d f330 f93c e01f 74bd eb3b 64bd
000001a0: fae1 653c ca50 6cbd 5f64 183d 8adf 76bd
000001b0: 0ea9 403c 3562 c03c dd6f cabc 6672 c23c
000001c0: d8fd 2ebd 2ab0 79bd 7c74 bd3c 5bf9 80bc
000001d0: 6faf 3a3c 6c08 99bb 8974 6cbd 36e5 a9bb
000001e0: b6d3 1e3d d286 84bb 0696 eabc 259a 6dbd
000001f0: 6fe1 5f3d dae7 92bd a9f3 0cbc c9c0 1bbd
00000200: aedb 6e3c ceb4 7f3b d3a6 f63b 8b5f 22bd
00000210: 7685 4fbd 4e55 abbd dee4 8d3d 6503 a53c
00000220: 9db5 58bc 9286 5e3c e28a 24bd 28e6 513d
00000230: 1fde b4bc 35df 093d e826 12bd 725c 853d
00000240: 2bec bd3b 58d0 12bc 8442 d2bc 3cb8 cdbb
00000250: a69b 06bc a44d 40bd df23 0e3d ce83 983d
00000260: 4e71 283b f2f1 573c 611d d43c 5931 98bd
00000270: 8a9f 8e3d 488b 623c ec29 2c3d d135 0abd
00000280: 19c0 76bd 153f 16bd a240 0e3d c815 0fbd
00000290: d370 28bc 913a 39bc 9abf b1bc b2af 7fbd
000002a0: 4034 603d 3b4d 773c 74ba 9b3d 4d09 723d
000002b0: 8f09 3e3a 5b8b 44bd 4173 103c 1aff 953c
000002c0: c1dd adbd 1aa0 a83c ba87 8ebd a379 b43d
000002d0: 99be 813c b703 44bc f479 023d 86cb 013d
000002e0: c123 9ebc 9cbb 35bd fca1 3d3d ad33 eabc
000002f0: fcd8 00bc 5b77 473c 7a42 6bbd 9b68 8cbd
00000300: 151d 80bd 4267 9abd 3113 80bd 04d7 873d
00000310: 294f 093d d256 9abd 83d0 3abd e74d 803c
00000320: eea1 ea3b 94c0 8b3d f99f 363d c732 01bd
00000330: 68e7 d9bc 74af 0fbd 08a3 6dbd 56dc 1d3d
00000340: a940 d6bc c3b2 d8bb bf0c 7b3d 14a2 a3bc
00000350: 9331 80bd 620c 263b f9d3 64bd fd17 3a3d
00000360: e81c 823c 7bf8 17bd 0952 933c 0f17 82bc
00000370: 8c6f 423c 3e6c 7f3d e1e7 81bc f3ff 70bd
00000380: f8ab 85bc b60a 1d3d 9faf 2c3d 6e4a 80bd
00000390: 1ba5 af3c 14f9 54bd 37b2 a43d 1e1d a5bd
000003a0: 9639 d63c 317b a63d 10a3 4ebd b86f 48bc
000003b0: 7efe c43b 1210 063d 9b45 b93c 31f3 a83c
000003c0: 6e93 15bd 93d0 4e3d 5e86 913d 4911 863d
000003d0: aa41 793d 24f2 333c f50f c8bd 7f2b 36bd
000003e0: ad77 9b3c b664 113b 55e2 dfbc e2fd 80bd
000003f0: 9f0d 2cbc 6d9d 1abd c792 7f3d 277b 0c3d
0.021691477 0.05006347 0.030588962 0.0031362418 -0.04919733 0.024415068 -0.013010742 0.0013957411
0.037809312 -0.07725565 -0.07658255 -0.0061263745 0.006693294 0.03951604 0.0066143274 -0.016264843
0.009890105 0.05199844 -0.05959193 0.029517638 -0.056447648 0.058486365 -0.004934123 -0.08171744
0.026219254 -0.046768166 0.009266101 -0.005979076 0.0182785 0.063913435 0.048086643 0.08449557
-0.027990691 -0.025610954 -0.0034777 0.059027538 -0.025100244 0.06563231 0.058839366 0.067910634
0.034062207 -0.0052769897 0.0687445 -0.018228117 0.041767158 -0.048847076 0.022876099 -0.10901193
-0.041351702 -0.048351523 -0.021942696 -0.047060914 0.0089009795 0.049568906 0.04531077 0.06851194
-0.01444123 -0.0060264687 -0.001107653 0.027404705 -0.0061853854 -0.025115386 0.008170247 -0.046300273
0.046872575 0.01576493 0.052865632 -0.049820498 -0.045128293 -0.07782252 0.061367672 -0.05207216
0.025160702 0.06241905 0.05708523 0.048718795 -0.0021210543 -0.05508909 -0.07156167 -0.041893825
0.0021711497 0.06177581 -0.053251 -0.055778053 0.0675677 0.00048042316 -0.06130612 0.06669772
0.006981874 -0.036695365 0.008510776 -0.08002453 -0.03723371 0.062395345 0.030232672 -0.04554026
0.027242757 -0.027277468 -0.050608534 -0.065071955 0.06837845 0.030418849 -0.05960071 -0.055721205
0.014030928 -0.057694234 0.037205096 -0.060271777 0.011759056 0.023484329 -0.024711544 0.02373619
-0.042722553 -0.06095902 0.023126833 -0.015743902 0.011394366 -0.0046701934 -0.057728324 -0.005184795
0.038776122 -0.004044392 -0.02863599 -0.05800833 0.05465835 -0.071731284 -0.008603015 -0.03802565
0.014578743 0.003901768 0.007527211 -0.039641898 -0.050664388 -0.0836588 0.069284186 0.02014322
-0.013226894 0.013581889 -0.04017151 0.051244885 -0.022078572 0.033660132 -0.035681635 0.06511773
0.0057959757 -0.008960806 -0.025666483 -0.006278066 -0.00821582 -0.046949044 0.034702178 0.07447015
0.00257023 0.013180243 0.025892915 -0.07431287 0.069640234 0.013827153 0.042032167 -0.03374273
-0.060241792 -0.036681253 0.034729607 -0.03493288 -0.010280806 -0.011305467 -0.021697808 -0.062423415
0.05473733 0.015094097 0.076039225 0.0590909 0.0007249349 -0.047984462 0.008816541 0.018310118
-0.08489562 0.020584155 -0.069594815 0.08812263 0.015837954 -0.011963776 0.031854585 0.031688236
-0.019304158 -0.04436837 0.04629706 -0.028589094 -0.007864233 0.012174453 -0.057436444 -0.068558894
-0.06255547 -0.07539226 -0.062536605 0.06632808 0.03352276 -0.07536091 -0.04560901 0.015662147
0.007160417 0.06823841 0.044586156 -0.031542566 -0.0265996 -0.035079435 -0.058016807 0.038540207
-0.02615388 -0.006613107 0.061291452 -0.019974746 -0.062594555 0.002533697 -0.055866215 0.045433033
0.015882924 -0.037102204 0.017983453 -0.015880136 0.011867415 0.062359087 -0.015857639 -0.058837842
-0.016317353 0.038340293 0.042159673 -0.06264196 0.021441033 -0.051995352 0.08041804 -0.08062194
0.026150506 0.08128966 -0.050448477 -0.012233667 0.006011783 0.03273017 0.022616198 0.020623775
-0.036517553 0.05049188 0.07105707 0.06546266 0.060853638 0.010983024 -0.097686686 -0.044475075
0.018977964 0.0022185273 -0.027329603 -0.06298424 -0.010501294 -0.03774779 0.062395837 0.034297135

actor.4.bias f4 [6]
00000000: 505a 9bbd 9596 563c c2f3 86bd 407b 83bd
00000010: 64fd 293d c392 223d
-0.07585585 0.013097425 -0.06589462 -0.064199924 0.041501418 0.039690744

critic.0.weight f4 [256, 25]
00000000: 3230 a4bc 4b8b e03d 3735 1e3e f3db 193c
00000010: 50f3 b33d 0f1a 433e 96f1 acbd 2b72 09bd
00000020: 8448 e43c a375 b63d fe83 013e ce87 8dbd
00000030: 2c29 e23d ed6d c63c eaec 1fbe 4a95 99bd
00000040: 8ee7 efbc 77b4 47be 1d7b 473d 0523 92bd
00000050: 360a bebd ac78 393d 7141 14bd d43d 0b3e
00000060: f07d 333c 03ea 03bd 8e74 183e f403 b4bd
00000070: ecb5 233e 1c2a d33b 7b44 023e 5c55 ff3d
00000080: 737f b7bd 430a 1ebd 2a0e 72bb 41cb b03d
00000090: 1d17 36bd 3ac6 3bbd 30f9 a6bb ef7f 65bd
000000a0: a026 263e e227 413e dc2d d2bd c7a4 363e
000000b0: 67a5 383e ebe6 0abe c106 1f3d 0143 2ebe
000000c0: 5e36 35be 9031 f93d 295e 18bd ba6b eebd
000000d0: 41b8 84bd 3392 47bd 6cf5 0bbe 3f8e a73d
000000e0: c143 923d a210 633d c722 56bd 212a ebbd
000000f0: 58f5 9fbd 875d 763d e939 f8bd 473f 113e
00000100: b54f 90bd cba0 c7bd 91b2 2d3d 93d3 3dbe
00000110: 8350 473e d0a2 2a3e a2cf 37be fdee 15be
00000120: d7dc 3a3e a36e efbd 8e3a 3ebd 0c78 9cbd
00000130: 2bf2 efbd 3c14 c13d 2d12 013e 5f0b a63d
00000140: 0c34 a53a 499e 0c3e 6b4c 12be 1886 11bd
00000150: 9faa d13d 61cd e43d c258 97bc a0c5 f5bd
00000160: d48b d13d 1827 133e e055 1bbe d80c 40be
00000170: 44b8 04be b93a 9437 28ba d3b8 c4aa 3ebe
00000180: de82 16be 1814 f5bd e756 583d 2500 e0bd
00000190: c630 b8bc bc9d 333e 9a5d c3bd 2786 d5bd
000001a0: 8243 f63d 1e9d b9bd 2280 00be 3b60 4f3d
000001b0: fc53 8ab9 5eda 05be 1c80 263e f268 77bc
000001c0: ca90 143e f9ad 19be 1e6d 4bbd c095 923d
000001d0: 4a30 ac3d 5079 163e 21b2 10be 2c2e 72bd
000001e0: 97ae fbbd f416 1a3e 5859 e63d be96 07be
000001f0: 72cc 0d3d 32c0 09be d2a1 49bd 8985 903b
00000200: 7b06 303e 1aad 2a3e 1c5f 1fbe c69d 1fbe
00000210: 9b93 a73c 0130 403e 2ba0 353e 3dc1 293e
00000220: e84a ff3d d69a 35bd dc96 ed3d 97cd b23d
00000230: 723c 263e d2e8 edbd d2d1 29be 6dbd 903d
00000240: 89cc 713d 3e48 2ebe 02bd b0bd 4936 193e
00000250: ec9f 013d b88d b33d 0a7b 08be 63be 1dbd
00000260: 73f9 ce3c 349b 36be b280 44be 7513 193e
00000270: dfe8 3b3e 1a0f 403e d2dc 30be 26ec 31bc
00000280: ec5f c7bc da05 7cbd e4d2 39be aacc 3abe
00000290: 716b 14be 9801 073e a228 193d 0305 0a3e
000002a0: d1f5 e73d 989f 2abe adc9 153e ff28 133e
000002b0: 40de 2bbe e5bf 0a3e 7cd6 bbbc e9e3 36be
000002c0: c3c2 a13d 11d9 9a3d 0b8c 443e 6652 033e
000002d0: cec3 91bd f832 47bc 260f 903d e5c8 1c3e
000002e0: b764 f73c 8ef5 12be 6b06 4b3e 3c35 fe3c
000002f0: 27b1 d23d 847e 803d 591d 1a3e 69da 073d
00000300: af59 53be 4d3c fe3d 04d3 183e 5022 7abd
00000310: 0ea2 693d 25a0 44be 9456 983d c3f1 f13c
00000320: 8195 59bd 9918 d93d 3a37 cf3c 60f1 273e
00000330: 5ae8 433e a903 b9bd 1188 de3d 13b9 14bd
00000340: 1cec 8a3d fc79 bdbd 7439 0b3e d282 23be
00000350: da7e 493e e02f 313e cae7 5a3d a7c3 0dbe
00000360: b8db 343d 2847 80bd b50e 373e 16c9 5f3d
00000370: e8bb a3bd e2b7 12be 1bc1 f6bc 1f97 45bd
00000380: d35c 45be 85e3 1fbe a998 8a3d 1583 2e3e
00000390: 41e6 443e d8c1 1cba d279 123e ee8f 3ebd
000003a0: b959 403e 8754 44be e096 2f3e dbfd e1bd
000003b0: 9ef2 7c3d deff 52bd 5007 033e f539 19bd
000003c0: f879 31be 520f 523e 7bfc 29be 33f7 24be
000003d0: e407 073e fea4 313e 071e e93d f766 0c3e
000003e0: 5ede da3c 8cae 50bd d652 813d 806f b63b
000003f0: c07e 7f3d a85b a4bd 3f13 49bd 3a8e 09bd
-0.020042513 0.10964068 0.15449987 0.009390819 0.087866426 0.1905291 -0.08444516 -0.033556145
0.02786661 0.08909156 0.12648007 -0.06910668 0.11043009 0.024222339 -0.1561772 -0.07499178
-0.029285219 -0.19502436 0.048701394 -0.07135586 -0.09279291 0.045281097 -0.036195222 0.13597804
0.010955319 -0.032205593 0.14888212 -0.087898165 0.15987366 0.006444229 0.12721436 0.12467453
-0.08959856 -0.038584005 -0.0036934712 0.086325176 -0.044455636 -0.04584334 -0.0050956234 -0.05603021
0.16225672 0.1886287 -0.10262653 0.17836295 0.18031846 -0.1356465 0.0388248 -0.17017747
-0.1769652 0.121676564 -0.037199173 -0.11641641 -0.06480456 -0.04872341 -0.1366784 0.08181428
0.07141829 0.055435784 -0.05227926 -0.11482645 -0.078104675 0.06014779 -0.121204205 0.14184295
-0.07046453 -0.09747466 0.042406622 -0.1853774 0.19464307 0.1666367 -0.179503 -0.14641948
0.18248306 -0.11691024 -0.04644256 -0.076400846 -0.11716112 0.094276875 0.1260459 0.081076376
0.0012604012 0.13732256 -0.14286964 -0.035528272 0.102376215 0.111719854 -0.01847494 -0.120005846
0.10231748 0.14370382 -0.15169477 -0.187549 -0.12960917 1.767032e-05 -0.00010095938 -0.1861983
-0.1469836 -0.11966723 0.05281725 -0.109375276 -0.022484194 0.1754064 -0.095393375 -0.10425978
0.12024595 -0.09063171 -0.12548879 0.050628882 -0.00026383984 -0.13071582 0.16259807 -0.0151007045
0.14508358 -0.15007772 -0.04966461 0.07157469 0.08407648 0.14694715 -0.14130451 -0.059126064
-0.1228916 0.15047818 0.1124751 -0.13241097 0.034618802 -0.13452223 -0.04922659 0.00441045
0.17189972 0.16667596 -0.15563625 -0.1558753 0.020456126 0.18768312 0.1773688 0.16577621
0.12465459 -0.044337116 0.1160104 0.087306194 0.16233996 -0.116166726 -0.16583946 0.0706738
0.05903295 -0.17019746 -0.086298004 0.14962114 0.031646654 0.08767265 -0.13328186 -0.038511645
0.025265431 -0.17832643 -0.19189718 0.14948829 0.18350552 0.18755761 -0.17271736 -0.010859525
-0.024337731 -0.061529018 -0.18146855 -0.18242136 -0.1449411 0.13184202 0.037392266 0.13478474
0.11326183 -0.16662443 0.14627714 0.14371108 -0.16784 0.13549764 -0.022929423 -0.17860378
0.07898476 0.075609334 0.19194047 0.12824401 -0.07117425 -0.012158148 0.07034139 0.1531101
0.030199392 -0.14351484 0.19826667 0.031031244 0.102876954 0.06274131 0.15050258 0.033167277
-0.2063968 0.12413845 0.14924246 -0.06106788 0.057039313 -0.19201715 0.074383885 0.029534226
-0.053121094 0.10600395 0.025294889 0.16400671 0.19131604 -0.09033901 0.10865796 -0.036309313
0.067833155 -0.09251782 0.13596135 -0.15967873 0.19677296 0.17303419 0.053443708 -0.13844167
0.044154853 -0.06263572 0.17876704 0.05463513 -0.07994825 -0.14327958 -0.030121377 -0.048239823
-0.19273691 -0.15614136 0.06767399 0.17042191 0.1922846 -0.00059798127 0.14304283 -0.04652398
0.18784226 -0.1917287 0.17147398 -0.11034747 0.061754815 -0.051513545 0.12795758 -0.037408788
-0.17331684 0.20513657 -0.1660022 -0.16109924 0.13186604 0.17348096 0.113826804 0.13711153
0.026717361 -0.05094771 0.06314628 0.005567491 0.062376738 -0.080252945 -0.04909062 -0.033582903

critic.0.bias f4 [256]
00000000: 1be7 f13d c00b 32be 7ff6 49be 8c23 2e3e
00000010: 9fe9 28be 6e60 0abe 042e 5a3d 3450 3abe
00000020: d239 9e3d 2a91 3a3e 58f0 85bd 1b9f cc3d
00000030: da80 993d 6dc4 1fbe 4299 ee3c 8089 d73c
00000040: adff 76bd 751d 27be a2cf 383e c316 c03d
00000050: 57aa 363e 23e2 3abe 5fee 773d 7f1f 0fbe
00000060: 380f d8bd 2ddb 04be fef4 2e3d 9357 01be
00000070: 665e a7bd ba88 08be 8c84 d03d 2a74 933d
00000080: 7065 38be 27ae a4bd 488c e9bd 4b90 3f3d
00000090: 2622 47be cf11 19be e58f 2a3e af5d 3bbe
000000a0: 5b3f 923d 1cee a73c 6175 853d 78bb acbc
000000b0: f0ef 323e 18f7 043e f251 373e bda9 e8bc
000000c0: 98a9 203e 6150 19bd 3ee0 0f3e 1a1a cdbd
000000d0: f820 3a3e 6381 fc3d e8bf 49be 5dcb 273e
000000e0: 6ade 563d 3242 67bd 5204 09be d49e 15bd
000000f0: 877d 82bd 7e4a 0cbe 154e e33d ec90 70bc
00000100: 0a60 09be 8a10 4cbe d36f 0c3e f5f0 24be
00000110: 1cff fc3d 1fe8 5abd 0944 dc3d ebe2 8ebd
00000120: 98b8 153e c3f6 f03d 735d 143e e649 1b3d
00000130: dbb2 eb3d 7673 243e 56c9 25be c9c7 14bd
00000140: 4c5f 1d3e 6927 2bbe eb39 c2bc 8dc3 933b
00000150: 0cef 2cbe 4d72 23be defe e23d 3c22 43bd
00000160: a251 21be f9d1 283e a29c b93d 6808 383e
00000170: 26e2 fbbd 48de 54bd 5e62 253d 9d5c 48be
00000180: 0dad 973b 72eb fdbc 8875 dc3d b0ef c6bd
00000190: 82b0 a2bd 95bb 233e 6f2f b6bd 2091 b1bd
000001a0: ebbb de3d 8d84 9e3d 4fa8 6b3d 0f45 a83d
000001b0: ae4e 27bd 8228 1dbe 49ad 5abd 9cd3 2dbd
000001c0: b4eb c43d fcbd c5bd a6d8 12bd d72f 243e
000001d0: 8061 d6bc 35b0 b5bc 149e c8bd 4329 44bd
000001e0: faef 54bd fb22 f03d 74e6 48be ec21 fcbd
000001f0: 35f0 7bbc ae76 44be 375d ffbd df6b 063c
00000200: 56a7 433e e51f acbc bb33 e7bb 416d 0f3e
00000210: 5c21 71bd 4c06 3b3e e3ff 8cbc a7cb 8fbd
00000220: 559f 03be 2d39 17be a24b f7bd 1a36 6bbd
00000230: a0a9 26bb efd0 df3d fe6c 933d 90c6 c23d
00000240: 21ed d93c 0950 fe3d cd87 0bbe c637 9bbd
00000250: e9ed 4bbd a5ab ac3d 3ad7 cdba 6e8a 1a3e
00000260: 1009 cc3d 7c42 313e af8a e63b 1f7f 45be
00000270: dcaf bc3d 7cea 2dbe b415 adbb 6b99 333e
00000280: 2d45 8dbc 8488 b1bd a465 263e 2c1e 5abd
00000290: 2da9 b53d 1f8c 2c3e 01df 913d 590c d63d
000002a0: 42b1 51be a833 9bbd 1f5b 0bbd bc64 333e
000002b0: f442 223d d9a1 16be 3011 1dbd 794d a5bb
000002c0: 228b 633d 2d49 2abe d2f3 393e 7436 2abe
000002d0: 39c5 2bbe 4066 183e db67 183d 66f2 cdbb
000002e0: a053 2ebe 241d 3f3e 0c16 763d 4679 aebc
000002f0: d929 37bd 0bf9 b03c e644 ff3d e19b 27be
00000300: 444d 53bd bec1 3ebc a877 1e3e 1257 b5bc
00000310: 7cf0 0e3e 2fe5 353e 3456 b33d 431d 08be
00000320: 233a e0bd 81eb 4d3b 1b67 57bd 2de4 223e
00000330: f601 913d 3986 35bb 372f 193e e735 443e
00000340: ad03 ccbd 715e 013e 52bf 0cbd c900 423e
00000350: 46f0 c33c 73a4 273d 79e1 46be b479 fa3d
00000360: 5db8 f83c 32ca 453c 1d84 533d 84d7 083e
00000370: 4d8c c2bd 4ada 3c3e 25d3 843d 51a4 5e3d
00000380: 7446 2d3e b8f8 01bd 20ba eabc 8352 0f3e
00000390: e458 8cbd b7da cd3c 5d32 293e 18c2 e63d
000003a0: 75e2 403e f0b8 ce3d c23b 1f3e d536 033e
000003b0: d650 403e 90e9 a0bd 3ddd 03be 9555 d63c
000003c0: 5022 b03d c749 32be 8e32 6fbd 8944 b83d
000003d0: d7c6 60bd 6586 81bd 6be1 de3d 804e 0cbd
000003e0: 269a 65bd ffe6 09be 6fef 333c e054 45bd
000003f0: 4777 9fbd 9a17 5cbd e8db b4bd 7922 d1bc
0.11811658 -0.17387295 -0.19722937 0.17005748 -0.1649537 -0.13513348 0.05326654 -0.18194658
0.07725872 0.18219438 -0.065399826 0.099912845 0.074952796 -0.15602274 0.029125813 0.026310682
-0.060302425 -0.1631983 0.18047956 0.093793415 0.17838417 -0.18250327 0.060530063 -0.13976859
-0.10549778 -0.12974234 0.04271411 -0.12631063 -0.08172302 -0.13333407 0.10181531 0.07199891
-0.18007445 -0.080410294 -0.1140371 0.046768468 -0.1944662 -0.149482 0.16656454 -0.18297456
0.0714099 0.020499282 0.06516529 -0.021085486 0.17474341 0.12984884 0.17902353 -0.02840125
0.15689695 -0.03743017 0.14050385 -0.10014744 0.18176639 0.12329366 -0.19702113 0.1638617
0.052458204 -0.056459613 -0.13380554 -0.036528423 -0.06371599 -0.13700292 0.11098877 -0.01468299
-0.13415542 -0.19928184 0.13714533 -0.16107543 0.12353346 -0.053444024 0.10755164 -0.06976875
0.14621198 0.11765816 0.14488773 0.037912272 0.11508723 0.1605967 -0.16190085 -0.036323342
0.15368384 -0.16714253 -0.023709258 0.0045093955 -0.16888064 -0.15961571 0.11083768 -0.04764007
-0.15753797 0.16486348 0.090630785 0.17971957 -0.12298994 -0.051969796 0.040377013 -0.19566579
0.0046287836 -0.030996058 0.10764605 -0.097136855 -0.079438224 0.15989526 -0.08895766 -0.086702585
0.10875686 0.07740126 0.05753356 0.08216297 -0.04084652 -0.15347484 -0.053387914 -0.042438135
0.09615269 -0.09655377 -0.035851143 0.16033874 -0.026169538 -0.022178749 -0.09795776 -0.047890913
-0.051986672 0.11725422 -0.19619161 -0.123111576 -0.015377094 -0.19185898 -0.12468951 0.008204429
0.19106802 -0.021011302 -0.0070557273 0.14006521 -0.058869705 0.18264121 -0.01721186 -0.070212655
-0.12853749 -0.14767905 -0.12074973 -0.057424642 -0.0025430694 0.10928523 0.07198523 0.09510529
0.02660233 0.12417609 -0.13626023 -0.07578997 -0.049787436 0.08431176 -0.0015704401 0.15091869
0.09962666 0.17310518 0.0070355753 -0.19286774 0.0921323 -0.1698398 -0.005282128 0.17538993
-0.0172449 -0.086686164 0.1624971 -0.05325143 0.08870158 0.16850327 0.07122613 0.10451574
-0.20477775 -0.07578212 -0.034022447 0.17518896 0.039614633 -0.14710177 -0.03834647 -0.005044636
0.05555261 -0.16629477 0.18159416 -0.16622335 -0.16774453 0.14882755 0.03720842 -0.0062849997
-0.17024088 0.1866346 0.06007962 -0.021298062 -0.044717643 0.021603128 0.12464313 -0.16368057
-0.051587358 -0.011642871 0.15475333 -0.022136245 0.13958925 0.17763208 0.08756676 -0.13292412
-0.10948589 0.003142089 -0.052588563 0.15907355 0.07080452 -0.002769841 0.14959417 0.19161187
-0.099616386 0.12633683 -0.034362145 0.18945612 0.023918282 0.040928315 -0.19421948 0.12230244
0.030361349 0.012072133 0.051639665 0.13363463 -0.094994165 0.18442646 0.06485585 0.054355923
0.16921407 -0.031731337 -0.028653204 0.1399632 -0.06852892 0.025128705 0.16523118 0.11267489
0.18836387 0.10093868 0.1555014 0.12813886 0.18780836 -0.078570485 -0.12877364 0.026163856
0.086002946 -0.17410956 -0.058397822 0.08997447 -0.05487713 -0.06324462 0.10882839 -0.03425455
-0.05605521 -0.13467024 0.010982378 -0.048176646 -0.07786422 -0.053733446 -0.08831006 -0.025529133

critic.2.weight f4 [128, 256]
00000000: 724e 683d 1cc7 1dbc ed93 d6bc 24da 8fbc
00000010: 5b23 d7bc 6757 0abd 2d15 50bd ec71 313d
00000020: 3158 1dbd 630c 123d 6095 2d3d 432f ec3c
00000030: 7f4f f13c 95cf fe3c 864c 53bd 33fc 63bd
00000040: b568 70bd 0cc1 453c 827d c63c 6ac5 843c
00000050: 823b 1cbd 150d 8bbc 4991 18bc de6b 353d
00000060: a949 a23c 965a c1bc 88bb 11bd 47c6 67bd
00000070: 88a8 19bc fc44 193d 910d 20bc 13fc 053d
00000080: cf05 74bb 7384 f7bc 2e64 d23c 88d5 073d
00000090: 6bf7 6e3d 1b93 34bd 4722 75bc 9cf4 643d
000000a0: ce42 c23b c2a6 463d 1006 ef3c b0ba 963c
000000b0: ebe2 3dbd 6a8b 8e3d d3a6 84bc cdf9 76bd
000000c0: 5267 33bd f4cd 193c 377d 7d3d 725d 243d
000000d0: b999 efbb 27a3 053d 9d8c 7cbc 6cec 1ebc
000000e0: beeb 3cba 92d2 523d 023a 43bd f73a d6bc
000000f0: e60f f9bb 93b6 c1bc f9a3 69bc fb2c fabc
00000100: de25 943c 229e 8bbd a9c2 883a 5f4a 853c
00000110: d148 3f3d bd54 243c e74a 113c f27b 00bd
00000120: 60be 69bd 485a d1bc 098d bb3b cc6e ff3b
00000130: 7d59 4bbd 8c9f 753b 4918 c6ba c268 e83c
00000140: 1bf1 3b3d 464d be3b 0c76 63bc a54c 1f3d
00000150: 0ac2 1f3d a44f 45bd 6c11 5e3d 9776 26bc
00000160: aabc 5b3d 5bf7 303d a1da 37bd 0514 4e3d
00000170: e52a 80bd ec55 323d 4eef 39bd 3101 2e3b
00000180: eb44 0b3d 4a68 1c3d 41df 2d3c 4c05 29bc
00000190: 8682 43bd f24b 6c3d 4525 333d 0de7 2cbd
000001a0: ffc6 abbc 6c00 60bd 5da0 e13c 19cb 5fbd
000001b0: 216c 3dbd 6309 07bd 19a8 0b3d 42e8 78bd
000001c0: 0124 d03c 738a 81bd 9dd9 9c3b 4d08 4f3c
000001d0: b939 38bd da4a 64ba ddee 683d 0b2b 54bd
000001e0: c5bb b5bc 46d6 fbba e1d4 34bd 1db0 ed3c
000001f0: cb91 30bd a1bd 333d b0a4 f43b 67f1 61bc
00000200: a110 37bd bbbc b13b 8b51 093d 87af 4e3d
00000210: e86f 2dbd 5266 533c d737 3abd b2b1 60bd
00000220: e4df e0ba 3a32 3fbd d571 e23c c4b3 083d
00000230: 89ad 5cbb 734d 55ba 00b1 c2bc fc23 203c
00000240: 7f05 5d3d c00a 7abd ab8e a03c 41ad 653d
00000250: 1e19 723d 4b6d 32bd 2aa1 babb 71a6 76bb
00000260: 7417 503d 49aa fbbc 0568 70bd c86d acbc
00000270: fab5 063d 417e 683d 172e 21bd ae20 4dbd
00000280: 8e4f 633d 3a43 273d c67c dc3c 7018 743a
00000290: cbe2 6dbd 12ab 003d e091 81bd 5999 f1bc
000002a0: 4085 6abd 4e0b 2f3d 70b0 763d 1b5c 263d
000002b0: 03c1 3a3d f83a 273c fff4 c53c 4fe6 df3b
000002c0: 596b 493c 82f5 6f3d b99d 603c 50dd f8bc
000002d0: ee63 d6bb 2551 883d cf4c 9f3c c9d3 fdbc
000002e0: 2509 68bd 4743 563c 29b4 f3bc d226 3c3d
000002f0: 6644 42bc 03ae 23bc 6a41 213d 4eb9 6ebd
00000300: 950a c2bc 7a2c 523d 14ba 593b c92e fabc
00000310: 891b 2ebc 1bfe 05bd 4a69 80bd 5020 52bd
00000320: c3f8 3139 d5a8 1f3d 0a42 86bd e1d1 bd3c
00000330: 988f 1e3c f1f1 10bd eba8 6cbc a3c4 39bd
00000340: e740 7dbd f9c3 f43c a553 0fbb c671 3f3d
00000350: d418 023b 9d20 1dbd 9c37 83bd d80c 88bd
00000360: 1e5f 57bd 1c04 73bc c10c 323a 9d99 49bd
00000370: 724b 11bd 35ad 353d 4ec9 ab3c 5c4d 1a3b
00000380: 0e5e 503c 948d 0d3d e852 3ebd 1541 5dbd
00000390: 6855 303d 8057 2b3c d4f3 633d b9c4 e9ba
000003a0: b85b 66bd 7baa 2dbd 1b6f 873c 5d35 fbbc
000003b0: bea7 1ebc 1891 d03c 6894 72bd dad7 d8bc
000003c0: cf9c c4bb 4b3e 863c bedf 073d ede6 d5bc
000003d0: 9dc5 03bd 4ad3 22bc 9f40 8fbc cec5 5cbc
000003e0: f616 9abc 6266 b4bc 267e 2a3b f471 1b3d
000003f0: 82b8 66bd 7a4a 6dbd 2341 64bd bc77 56bd
0.056715436 -0.009629991 -0.026193583 -0.017560072 -0.026261976 -0.03377476 -0.050801445 0.043321535
-0.038414184 0.035656344 0.042378783 0.02883113 0.029456852 0.031104842 -0.05158665 -0.055660438
-0.058693606 0.012069952 0.024229769 0.016207416 -0.03814269 -0.016974011 -0.009311982 0.044292323
0.019810515 -0.023602765 -0.035579234 -0.056585576 -0.00937856 0.037419304 -0.0097688595 0.0327111
-0.0037234908 -0.030214524 0.025682535 0.033162624 0.058341425 -0.044085603 -0.014961786 0.05589734
0.005928374 0.048498876 0.029177696 0.018399566 -0.046358984 0.06960185 -0.01619283 -0.060296822
-0.043799706 0.009387482 0.061886992 0.04012818 -0.0073120263 0.032626297 -0.015414384 -0.009699922
-0.0007206759 0.051470347 -0.047662742 -0.026151164 -0.007600772 -0.023646628 -0.0142602855 -0.030539026
0.018084463 -0.06817271 0.001043399 0.016270814 0.046700303 0.010029969 0.008867956 -0.031368203
-0.05706632 -0.025555745 0.0057236 0.0077951904 -0.04964589 0.003747913 -0.0015113439 0.028370265
0.045884233 0.0058075516 -0.013883125 0.038891453 0.03900341 -0.048171654 0.054215834 -0.01016011
0.05364672 0.043204647 -0.044886235 0.05031206 -0.062581815 0.043538973 -0.045394234 0.0026551003
0.034001272 0.038185395 0.01061231 -0.010316204 -0.0477319 0.057689615 0.043736715 -0.042212535
-0.020968912 -0.054687902 0.027542287 -0.05463705 -0.046245698 -0.032967936 0.034095857 -0.060768373
0.025407793 -0.06325235 0.0047866837 0.012636256 -0.044976924 -0.00087086635 0.056868423 -0.05179886
-0.022184262 -0.0019213639 -0.04414833 0.029014641 -0.04310779 0.043882016 0.0074659213 -0.013790465
-0.044693593 0.0054241098 0.03352503 0.050460365 -0.04234305 0.012902813 -0.04546341 -0.054856963
-0.0017156568 -0.04667876 0.02764217 0.033374563 -0.003367277 -0.0008136846 -0.02376604 0.009774204
0.05396032 -0.06104541 0.01959928 0.05607343 0.059105985 -0.04356126 -0.005695482 -0.0037635828
0.050803617 -0.030720847 -0.05869295 -0.021048442 0.03288839 0.05676103 -0.039350595 -0.050079994
0.05549579 0.040835597 0.026914965 0.0009311503 -0.058077615 0.031413145 -0.063266516 -0.029492067
-0.057255983 0.04273539 0.060226858 0.040615182 0.045594227 0.01020693 0.024164675 0.006832875
0.01229366 0.058583744 0.013709479 -0.030378968 -0.0065426743 0.06656102 0.019445805 -0.030984776
-0.056649346 0.013077564 -0.029748993 0.04593546 -0.011857128 -0.009990218 0.039369024 -0.05828219
-0.023686687 0.051311947 0.0033222483 -0.030539887 -0.010626682 -0.032713037 -0.06270082 -0.051300347
0.00016972706 0.03897937 -0.06555565 0.023171367 0.00967779 -0.035386983 -0.01444457 -0.045353543
-0.061829474 0.029878603 -0.0021869924 0.046739362 0.0019851224 -0.03836118 -0.06407091 -0.06643075
-0.052580945 -0.014832523 0.00067920616 -0.049218763 -0.03547234 0.044354636 0.020970013 0.0023544645
0.012717737 0.034558848 -0.046465784 -0.054017145 0.0430502 0.010457873 0.055652454 -0.0017835117
-0.056239814 -0.04239891 0.016532471 -0.030665094 -0.009683548 0.025459811 -0.059223562 -0.026470114
-0.0060001384 0.016387125 0.03317236 -0.02611109 -0.03217088 -0.009938071 -0.017486868 -0.013474895
-0.018809777 -0.022021476 0.0026015132 0.03795047 -0.056328304 -0.057932355 -0.05572618 -0.05236028
