logs/rsl_rl/arm_t_reach_ik/2025-10-13_15-33-23/model_2000.pt (torch, 505506 bytes, 42 tensors)

std f4 [6]
000000 80 62 9f 3f e0 8e 83 3f fc 79 c2 3f 6a c1 c9 3f
       1.2451935 1.0277977 1.5193477 1.576215
000010 8c 7e d5 3f 76 1b ce 3f
       1.6679244 1.610213

actor.0.weight f4 [128, 25]
000000 59 83 8f bd 95 e9 72 3d 27 3f a1 3c 7f 58 dd bb
       -0.070074745 0.059304792 0.019683434 -0.0067549343
000010 42 e8 15 3b 89 b0 50 3b 75 69 bb 3c 1a f9 ae 3c
       0.0022874032 0.0031843504 0.022877434 0.021359015
000020 ec 10 d7 3c c5 66 1f 3d c0 0d 65 bc 34 d2 db bb
       0.026253186 0.038916368 -0.013980329 -0.006708408
000030 99 aa fb 3a e9 bf 4e 3d 30 6a 93 3c 44 7c 9f 3c
       0.0019200622 0.05047599 0.01799497 0.019468434
000040 66 45 f0 3c 3f 28 87 bd 16 86 36 bd 0c a0 16 bc
       0.029329967 -0.06599473 -0.044561468 -0.009193432
000050 c5 97 08 bc fd b6 0c 3c 97 f5 89 bc 40 3f f3 ba
       -0.008336966 0.00858855 -0.01684074 -0.0018558279
000060 21 76 56 3a 4e 9f 2b 3f 70 8c ce be f7 56 32 3e
       0.0008181055 0.67039955 -0.4034152 0.17415987
000070 ea 96 16 3c bd 48 af bf 70 55 30 bf 59 02 99 3e
       0.009191254 -1.3694073 -0.6888037 0.29884604
000080 f3 02 0b 3e cf 64 33 be d6 2b 61 be ce db bd be
       0.13575344 -0.17518924 -0.21989378 -0.3708176
000090 9d 1d db 3c 73 36 ce bd c7 f1 d4 3d a0 bc 81 bc
       0.02674752 -0.10068979 0.10397678 -0.015837014
0000a0 80 b9 84 3f a9 60 12 40 53 b1 1c c0 e7 ca 1c 40
       1.036911 2.2871497 -2.448323 2.4498842
0000b0 54 60 0e be 3d a2 48 3e 14 4f b6 3c 26 33 ea be
       -0.13903934 0.19593139 0.022254504 -0.45742148
0000c0 ae eb 66 3e 10 d7 6b bf d1 be b3 3c cd 45 5f 3d
       0.22550842 -0.92125034 0.021941574 0.054509927
0000d0 9b 18 c2 3b c2 0d d6 bb a7 10 04 3c 8c e6 82 3a
       0.0059233434 -0.006532402 0.008060611 0.0009986921
0000e0 9d f6 2c bc 5d d3 ef bb 38 2a 97 bb 1c 4b e9 3c
       -0.010556844 -0.0073188976 -0.004613187 0.028478198
0000f0 67 10 54 bc 89 73 53 bc 4c b3 96 bc 89 47 c0 bc
       -0.012943364 -0.012905964 -0.018396042 -0.02347161
000100 04 1a 4c bc 73 1d 3a 3c 94 a2 98 3c 30 a2 af bc
       -0.0124573745 0.01135956 0.01863221 -0.021439642
000110 df 4f d7 3c 85 60 5f 3c df 6d bc bb 99 52 d3 bb
       0.026283203 0.013633852 -0.0057504023 -0.0064490554
000120 e6 39 02 3c 09 5d ea bb 31 44 d4 3b e2 ad 4c bf
       0.007948374 -0.007152204 0.0064778556 -0.79952824
000130 b3 4e 6a 3f 78 30 85 bf 2d c4 fa be 2f 5f 86 3f
       0.91526335 -1.0405416 -0.48977795 1.0497798
000140 53 89 8d 3f fd 21 48 be e5 23 09 3f d5 10 52 bf
       1.1057533 -0.19544216 0.53570396 -0.82056934
000150 01 6b 01 3f 12 90 b9 3e c8 fa 9a 3e 1e 13 a8 be
       0.505539 0.3624273 0.30269456 -0.32827085
000160 7d ff 88 3e 74 0f 34 3f 67 93 a1 bf 1d 87 cb bf
       0.26757422 0.7033608 -1.2623109 -1.5900608
000170 c0 b3 32 bf c7 1f 6d 3e 7f 6e d0 bc 4c a6 40 be
       -0.69805527 0.23156653 -0.025443314 -0.18813437
000180 88 37 45 be 3f 2a 3e be cc 13 83 bc 01 82 3b bf
       -0.19259465 -0.18570803 -0.01600065 -0.73245245
000190 32 a9 21 bd 68 a0 9a 3e d9 bc c0 3c 17 47 f4 bc
       -0.039467998 0.30200505 0.02352755 -0.029819055
0001a0 df 86 37 3f b5 42 a3 3e 1b d9 f0 3d 7d 87 d4 be
       0.7169017 0.3188683 0.117601596 -0.4150962
0001b0 00 77 c1 be 1f 30 db be 7c e1 cd 3d 02 8e 76 be
       -0.37786102 -0.4281015 0.10052773 -0.24077609
0001c0 6e fe ba 3e 64 f6 73 be 33 ae ff bd 08 8b c5 3e
       0.3652224 -0.2382446 -0.12484398 0.38582635
0001d0 2d 1a c3 3d 3e 22 0a 3e d3 f5 85 3e 3b 7f 9c 3e
       0.09526477 0.13489625 0.26164111 0.3056582
0001e0 e0 09 12 3f eb b0 b1 bd c0 ce 81 3e 88 a3 51 3f
       0.5704632 -0.086763225 0.2535305 0.81890154
0001f0 9a 26 01 be 46 e9 5b bf ec fe 90 3d 08 7c f0 be
       -0.12612382 -0.8590282 0.070798725 -0.46969628
000200 73 41 d0 3e 66 ef 90 3f d5 72 7d 3f 7b da 83 3e
       0.40674934 1.1323059 0.99003345 0.25752625
000210 4f 6c b1 be c7 04 57 bd 91 62 40 bd 0d d2 b8 be
       -0.34652945 -0.05249479 -0.046969 -0.36097756
000220 62 71 b3 3e 66 63 9c be d3 a4 32 be 06 48 58 be
       0.35047442 -0.30544585 -0.17445688 -0.21121225
000230 02 26 c9 be 1b 77 d1 3f 58 ff c3 3f 87 2c e4 3f
       -0.3928681 1.6364473 1.53123 1.7826089
000240 05 12 77 be 92 f1 d8 be 08 72 8e bd 72 14 bb 3e
       -0.24127968 -0.42371804 -0.069553435 0.36539036
000250 fc b8 81 3e 04 01 13 3f 7f 7d 38 3e 06 08 01 c0
       0.25336444 0.57423425 0.18016623 -2.0161147
000260 55 0c 0a 40 8e 64 7b bf db 75 91 be 47 ff 49 bf
       2.1570027 -0.9820031 -0.2841023 -0.7890515
000270 56 63 5e 3d 2b a5 9d be b0 6e 1e 3f 9d 29 05 bf
       0.054293953 -0.30790076 0.61887646 -0.5201662
000280 70 da 00 3e 39 3d 60 be b2 7d a0 3c 20 77 55 bd
       0.12583327 -0.21898355 0.019591186 -0.05211556
000290 f3 32 80 bf f6 dc 96 3f 06 cd fa bf 81 fa 11 3f
       -1.0015548 1.1786182 -1.9593818 0.57022864
0002a0 85 43 ac 3f 37 30 15 3d 12 63 97 3d aa 40 af 3d
       1.3458105 0.036422934 0.07391943 0.085572556
0002b0 a8 64 25 3f 9e ca 0b 3f f5 f0 1c 3f d8 1c 36 3d
       0.64606714 0.54606044 0.6130517 0.0444611
0002c0 22 12 dc 3d f6 29 1f ba 98 f2 2d 3c eb f7 6f 3c
       0.10745646 -0.00060716213 0.010616921 0.014646511
0002d0 6c 84 8d 3b dc 6a b5 bb 4d ce be bc 1b 6f 16 3d
       0.0043187644 -0.0055364203 -0.023291731 0.036727052
0002e0 8f 56 a6 bc db 7f 3a 3d 60 27 20 bd 73 69 39 3d
       -0.020304946 0.04553209 -0.03910005 0.04526658
0002f0 17 50 8c bd 8d 35 71 bd 80 37 c0 bc f4 c6 58 3c
       -0.068512134 -0.05888896 -0.023463964 0.013231028
000300 f3 da e7 bd 2c d7 d1 3c 4f 92 97 bc e0 e0 4d 3c
       -0.11321058 0.025615297 -0.018502383 0.012565821
000310 58 79 79 3c ff 5f d8 3b ab 16 02 3c 6d c9 ef 3a
       0.0152266845 0.0066032405 0.007939975 0.0018294282
000320 5a bc c2 3b ff 49 91 3d 8e 1c f5 ba 7e 66 8c 3b
       0.0059428634 0.07094192 -0.0018700527 0.004284679
000330 6e be 9f 3b b6 32 37 3b ed 73 b4 bb b9 94 ab bc
       0.004874996 0.002795381 -0.0055069835 -0.02094494
000340 f1 d5 f2 3b 20 0d 5c 3c 1f b8 f2 ba 16 a0 7e bc
       0.0074107577 0.013430864 -0.0018518007 -0.015541097
000350 15 d6 b6 bb 38 eb 16 3c 41 9f e6 3c f3 87 87 3c
       -0.00557972 0.009211354 0.02815211 0.016544318
000360 89 59 6a 3d cc 8a c4 bd 48 f0 99 bc e2 eb 70 bb
       0.057214294 -0.09596786 -0.018791333 -0.003676169
000370 a9 9a 82 bc 49 e2 8e 3b 9b bb 70 3b e0 d5 6f 3a
       -0.015942888 0.0043604714 0.0036732915 0.00091489963
000380 c4 ce aa b9 1d 70 c4 be ff 2a 40 bf 51 37 b2 be
       -0.0003257898 -0.38366786 -0.75065607 -0.34807828
000390 fc 97 91 bf 05 78 34 bf 02 ea eb 3e 43 30 0a 3e
       -1.1374507 -0.70495635 0.4607697 0.13494973
0003a0 8e c1 83 3e 3c 9a c3 3c 78 ee 61 3e f2 53 92 be
       0.25733608 0.023877256 0.22063625 -0.2857967
0003b0 b2 41 b7 bd 17 87 8f bd 3b 93 66 3d 3c 48 0b 3f
       -0.08948077 -0.07008188 0.056292754 0.54407096
0003c0 b4 de 1b 3f ac 9f bb bc f6 01 34 3e 7f 2c 0c 3f
       0.60886693 -0.022903286 0.17578873 0.54755396
0003d0 09 6c 02 3e 44 4f f7 bd a8 82 2d 3d e8 63 42 3e
       0.12736525 -0.120756656 0.04236093 0.18983424
0003e0 bd a8 a2 3e 3e 0a ec be 79 d6 dc bc ba 65 82 3c
       0.31769362 -0.46101564 -0.026957737 0.015917648
0003f0 8c 8e fd bc 9d d7 42 3c c4 45 88 3c 72 71 6c 3c
       -0.03095176 0.0118922265 0.01663483 0.014431344

actor.0.bias f4 [128]
000000 04 47 05 bc 3c d0 56 c0 09 9b 83 bb 77 c1 0c c0
       -0.008134607 -3.3564596 -0.0040162844 -2.1993082
000010 a9 cf de bf 16 e3 3c c0 43 8e b9 bf 36 f3 34 3d
       -1.7407123 -2.9513602 -1.449654 0.044177257
000020 0d 9a b9 3c 73 5e e9 bf 95 65 7a bb ab 3a 5c bd
       0.022656465 -1.8231949 -0.003820752 -0.053766888
000030 15 bf 59 c0 f4 d1 ce c0 1f 52 81 bf c1 d8 06 bd
       -3.4022877 -6.463129 -1.0103186 -0.032921556
000040 90 64 21 c0 7a ac 29 c0 84 14 81 bc f2 9b 3b c0
       -2.5217628 -2.6511521 -0.015756853 -2.9313931
000050 1a f4 24 bf ca c6 b7 bc 06 30 d2 bf 2d 41 30 c0
       -0.6443497 -0.022433657 -1.6420906 -2.753978
000060 87 ac 88 bc 78 77 ab c0 da fd a4 c0 4e f6 34 bd
       -0.01668383 -5.3583336 -5.1559877 -0.044180207
000070 e2 23 a7 c0 f9 de 5c bf 3f c5 dd bc 08 70 50 bc
       -5.22313 -0.8627773 -0.027071593 -0.012722023
000080 2d 97 25 c0 25 ee ab bc 6b 43 e1 be 16 3a b9 bc
       -2.587352 -0.02098758 -0.43996748 -0.022610705
000090 15 8f 76 ba a2 16 3c c0 76 1c 03 bd c6 0c 59 3c
       -0.0009405476 -2.9388814 -0.032009564 0.013247674
0000a0 8b 66 89 bc de d6 c5 bc e7 0c 29 bf 18 55 93 bf
       -0.01677253 -0.024150308 -0.6603531 -1.1510344
0000b0 77 43 5e bf ec 36 c2 bb 98 70 2d c0 59 0f 98 bb
       -0.86821693 -0.0059269574 -2.7099972 -0.0046405015
0000c0 84 b8 7a bc 6f 18 9b bc 63 e3 27 bf 6e 82 95 c0
       -0.015302781 -0.01893255 -0.6558134 -4.6721716
0000d0 e9 19 1c c0 e2 6c bd bc e5 c5 b0 bf 6d 88 25 3b
       -2.4390814 -0.023123208 -1.3810393 0.0025258318
0000e0 ef 60 9a 3c 7d c8 0d bc 43 51 b3 bc aa 39 19 c0
       0.01884505 -0.008653757 -0.021889335 -2.3941445
0000f0 6f 70 80 bc d1 1f f8 bc 47 c1 98 bc d4 a4 0f c0
       -0.015678613 -0.030288609 -0.01864685 -2.2444353
000100 ca 0e a0 bf b1 f5 0f c0 0a 46 69 bc fa d8 f5 bc
       -1.2504513 -2.2493708 -0.01423789 -0.030010689
000110 2c e5 81 bc bd 51 1c bd bb b8 40 3d 88 3c 8b c0
       -0.015856348 -0.03816389 0.047051173 -4.351139
000120 9b be 22 bd 7e d7 01 c0 b7 de cb bf 80 49 b0 c0
       -0.039732557 -2.0287776 -1.5927342 -5.508972
000130 3c 1e f0 bf 20 1e 1b c0 1c c9 69 bf 44 4f 35 bb
       -1.8759227 -2.4237137 -0.91322494 -0.0027665654
000140 9c 44 47 bd f6 7b 56 c0 9c 6f c3 bb 14 e8 49 3b
       -0.048649415 -3.351316 -0.0059642326 0.0030808495
000150 da ca d8 bc 1f 4b 08 bf c0 db 89 3c 2f 67 c7 3c
       -0.026463915 -0.53239626 0.016828418 0.024341194
000160 dc 15 c8 bc e2 a5 65 c0 0c 4d 43 c0 53 13 de bf
       -0.024424486 -3.5882497 -3.0515776 -1.7349647
000170 30 0b d5 bf 7f 43 13 bf a0 1d 88 c0 ec f8 32 3d
       -1.6644039 -0.57524866 -4.2536163 0.04369442
000180 f4 9c 87 c0 2f 48 42 bc 2f be c5 c0 53 0a 39 bc
       -4.2379093 -0.01185803 -6.179466 -0.011293965
000190 14 a2 c1 3a a9 01 9c be 2c 62 09 be 40 cf 07 c0
       0.0014773034 -0.30470017 -0.13416356 -2.1220245
0001a0 74 50 cb bf d5 8b 85 bf 4b 5c c6 bf 00 2d 04 bf
       -1.5883927 -1.0433298 -1.5496916 -0.51631165
0001b0 ca 83 5a c0 a0 e4 59 3d b5 18 7d bc 7c b2 11 c0
       -3.4142938 0.05319655 -0.015447785 -2.2765188
0001c0 46 16 5f c0 be a6 8b bb e6 36 92 bf c7 8a cd bc
       -3.4857345 -0.0042618206 -1.1423004 -0.025090588
0001d0 bf 83 f4 bf 41 99 a3 c0 a0 04 67 3b b5 cc 13 3c
       -1.9102706 -5.1124578 0.003525056 0.009020974
0001e0 21 ec 8a be 40 07 38 c0 02 91 24 c0 cb b1 96 c0
       -0.27133277 -2.8754425 -2.5713506 -4.7092032
0001f0 41 08 4c bc 57 ed 01 c0 8c d9 3e c0 69 ce c3 bf
       -0.01245314 -2.030111 -2.982028 -1.5297366

actor.2.weight f4 [128, 128]
000000 ed 51 ec 3c 67 db a9 bb 02 97 78 bb 74 a5 63 bc
       0.028847659 -0.0051836255 -0.0037931805 -0.013894428
000010 29 a3 9d bb a7 99 ba 3c 05 12 eb 3c 85 45 a3 3d
       -0.00481071 0.022778345 0.028695116 0.07972244
000020 55 21 a2 3d 34 20 ad 3c 42 47 29 bc f5 37 25 bc
       0.07916514 0.02113352 -0.010331931 -0.010084142
000030 c0 19 97 bb 31 c5 4d bb cc b1 8f bc 3c 11 14 3c
       -0.004611224 -0.0031398053 -0.017540835 0.009037312
000040 59 31 af 3c 6d b2 ba 3c 98 63 9a bc 3f 3d 82 bc
       0.021385835 0.022790158 -0.018846318 -0.015898345
000050 c8 29 50 bc d4 1a 21 bd b3 b9 0b bc af ee 3f 3c
       -0.012705274 -0.039332226 -0.008528161 0.011714621
000060 4a 5e 1f bc c5 85 59 ba c5 72 f0 3a 46 f8 8a bc
       -0.00972707 -0.0008297826 0.0018344751 -0.01696409
000070 6f 83 2c bd 7e 8c 0f bc d5 1c 71 3c b8 0b bb bc
       -0.042117532 -0.008761523 0.014716347 -0.022832736
000080 4a be 82 3d 6e 7c 8b 3c 19 e9 3b 3d 27 f4 68 3c
       0.06383951 0.017027106 0.045876596 0.014218367
000090 ba 23 8f 3b fd aa f9 bc ae 8e a7 bb f3 1e ea bc
       0.0043682726 -0.030477041 -0.0051134443 -0.02857921
0000a0 a1 af 30 3d 64 f9 83 3c c4 b6 0c 3c e7 00 bb bc
       0.043136243 0.01611013 0.008588497 -0.022827579
0000b0 f7 05 a7 bc 8a 3c b6 bc 8c 40 62 bb b8 31 ea 3c
       -0.020388586 -0.022245664 -0.0034523336 0.02858816
0000c0 36 15 0a 3d c5 87 ae 3b cd 74 69 bd d5 c0 f4 3b
       0.033711635 0.0053262436 -0.056996156 0.0074692764
0000d0 d1 74 1f 3d db 9d 23 3d ad 76 d1 b8 33 44 01 bd
       0.038929764 0.039945465 -9.988002e-05 -0.03155918
0000e0 4e 6e 20 bc 30 a6 db 3b a9 2f 69 bc 68 9e c2 bc
       -0.009791924 0.0067031607 -0.0142325545 -0.023757175
0000f0 20 f0 ed 3c d9 14 ec bc 1e 0a cb 3b 80 bc b0 b9
       0.029045165 -0.028818535 0.0061962744 -0.0003370978
000100 47 9c 22 bd be e5 3e bc d7 1f ab bc ee 31 e8 3c
       -0.03969982 -0.0116514545 -0.020889206 0.02834412
000110 87 6a fd 3c 25 46 58 bb 8b 8b 2f bd 0d 75 94 3b
       0.030934585 -0.0033000794 -0.042857688 0.004530555
000120 d6 7c 39 bd 4f be ea 3a 11 96 48 3b 73 1b 34 bc
       -0.04528507 0.00179095 0.0030607025 -0.0109928725
000130 1d e1 10 3d 9f b9 52 bd 7f 7f 0b 3d 96 52 27 bc
       0.035370935 -0.051446553 0.034057137 -0.010212561
000140 f6 9e a2 bc 8f 22 17 3c c7 68 72 bc ae 3c 6e 3d
       -0.01985119 0.009224548 -0.014795489 0.058163337
000150 ec 50 18 bd e1 ad 0a bd 0a 65 9d 3d 42 e9 35 3c
       -0.037186548 -0.03385723 0.07685287 0.011102976
000160 4f 8f c1 3c f0 5b 09 3c 36 86 68 bb 61 a6 b5 bc
       0.023627905 0.008383736 -0.0035480387 -0.022174062
000170 92 c4 af bb 4f db 2a 3c 20 9b 71 bc be 92 44 3c
       -0.005364009 0.010428264 -0.014746457 0.011997877
000180 eb ba 86 3c 73 cc 23 bd 6c dc 83 bb 60 b4 34 3d
       0.016446551 -0.0399899 -0.004024079 0.04411733
000190 25 05 96 bc 35 f5 36 bd e6 7d 27 3d b1 76 82 bc
       -0.018313 -0.04466744 0.04089155 -0.015925737
0001a0 2b dc 24 bd a3 8a 95 3c a5 6a af bc 5e f2 a2 bc
       -0.04024903 0.018254584 -0.021413157 -0.01989096
0001b0 c8 37 06 3d 6a 3d c0 3d 66 45 f8 bb 77 8e b2 bc
       0.03276804 0.09386714 -0.0075766323 -0.021796448
0001c0 75 29 4f bc 93 0f bc bb 9e 92 72 bd 3f 80 ee 3c
       -0.0126441615 -0.0057391613 -0.059221856 0.029113887
0001d0 ab 28 fd 3a 47 fb 02 bc e0 2e d1 3b 1e 48 f8 3b
       0.0019314488 -0.0079944795 0.0063837618 0.0075769564
0001e0 f0 62 66 ba a5 a0 a8 bb fa d1 f6 3c 7b 4b ac bc
       -0.00087885465 -0.0051461034 0.030129422 -0.021032086
0001f0 e9 6f 77 bc 36 9f c3 bb 62 76 e4 b9 77 45 f7 bc
       -0.015102365 -0.005969907 -0.0004357575 -0.03018449
000200 f8 3b 20 bd b8 58 23 bc 29 85 35 3d d7 dc 5e bb
       -0.03911969 -0.009969883 0.044316445 -0.0034006143
000210 a9 2e 46 bc 9e 83 bc 3c 8b 7e 33 3c 3d fc 55 3d
       -0.012096086 0.023011979 0.010955463 0.052242506
000220 18 09 10 3d 35 fa 8d bc 83 07 a7 3c 71 10 e0 3c
       0.035164922 -0.017331222 0.020389324 0.02735159
000230 6b d0 bf 3b 9b 09 ac 3c 95 c0 46 bc 7d ba 2b bb
       0.005853703 0.021000674 -0.012130876 -0.0026203685
000240 86 b2 d1 bc 27 d5 18 bc df 81 0b 3d bf a0 fd 3b
       -0.025597822 -0.009328163 0.0340594 0.0077401097
000250 a1 4b ad 3b 12 31 16 bc 2a 86 71 bc 6a aa 56 bc
       0.0052885567 -0.009166973 -0.01474146 -0.013102153
000260 ba f4 55 3c c4 9b a4 3c df 34 07 3d dc bf a0 bd
       0.013058836 0.020093806 0.033009406 -0.07849094
000270 14 ee 67 bc c0 77 1b bc 1b 8d 49 3c eb 1a 09 bd
       -0.014155883 -0.009489 0.012301709 -0.033472937
000280 92 fe f2 3c 2c 2e c3 bc 81 b5 50 bc de 97 24 bd
       0.029662404 -0.023825727 -0.012738586 -0.040183894
000290 d5 43 3e 3c 1f fd a3 bc d6 3a 4d 3c 05 1c a4 3a
       0.011612852 -0.020018158 0.012526235 0.0012520558
0002a0 64 e8 d8 bc 3f 85 52 bd e3 06 c2 bc 55 ee d2 3b
       -0.026478 -0.051396605 -0.023684924 0.006437103
0002b0 83 0f 6d 3c 7b ae 9e b8 b7 42 a4 bc e9 48 3e 3c
       0.01446903 -7.5665266e-05 -0.020051343 0.011614063
0002c0 4a 87 c5 bc b9 6c 34 3c 4f 59 e1 bc 8f bc e7 3a
       -0.024112362 0.01101225 -0.027508406 0.0017680096
0002d0 15 b5 91 bb cb ce 0e bd 00 ad cd 3b 17 4f 11 3b
       -0.0044466355 -0.034865182 0.0062767267 0.0022172385
0002e0 e8 67 d4 3b 59 90 76 bd 2a dc 05 bc c7 26 af bc
       0.006482113 -0.060196254 -0.008170167 -0.021380795
0002f0 12 a9 ae 3c 47 b0 0d 3d 09 9c b3 bc 15 2d 18 bd
       0.021320853 0.03459194 -0.02192499 -0.03715237
000300 db 3d 00 bc 84 e8 53 3a 74 6d 3b 3c ff a7 ac bc
       -0.0078272475 0.0008083659 0.01143967 -0.0210762
000310 f9 88 b6 3c af d5 37 39 d5 a1 0b bd 6f e2 02 3c
       0.02228211 0.00017531843 -0.034089882 0.007988556
000320 39 aa 14 3d 54 e5 12 3c 69 78 35 bb 4b 63 41 bb
       0.03629515 0.008965809 -0.0027690178 -0.0029508646
000330 e6 e0 20 bc 69 11 03 bc cc 4d 7f bc f6 70 c9 bc
       -0.009819245 -0.007999756 -0.015582513 -0.024589997
000340 d1 6b 95 bc 4f 2f 6f bc b6 c0 8c 3c 79 18 4e bd
       -0.018239887 -0.014598682 0.017181735 -0.050316308
000350 63 36 0a bd f1 de 44 3a 94 59 7e bd 28 71 8f 3b
       -0.033743273 0.00075100275 -0.062097147 0.004377503
000360 b5 23 48 bd 2f 41 e6 3c e4 ea b1 3c fd bf 1b 3d
       -0.048862178 0.028107254 0.02171845 0.03802489
000370 c8 26 34 bb 7c 5f 12 bc da cd fb bb ac b4 fc 3b
       -0.0027488936 -0.008933898 -0.0076844515 0.0077119675
000380 55 6f e7 bc cf 93 a6 bc 33 b3 23 bb 6e 7e 05 bd
       -0.02825133 -0.020334153 -0.0024978637 -0.032591276
000390 01 c1 60 bc 27 40 c0 bb 1c 17 61 3c 80 7a 69 3c
       -0.013717891 -0.0058670226 0.01373842 0.014250398
0003a0 b4 a4 e0 bc 34 95 a4 3c d8 11 3e 3b d7 c4 05 bb
       -0.027422287 0.020090677 0.0029002335 -0.0020411515
0003b0 47 57 ce 3a 76 5d 02 bd 6a b5 1c 3d b1 37 8e bc
       0.0015742563 -0.031827413 0.038258947 -0.01736054
0003c0 39 66 54 bc 10 ff 23 bd f9 07 18 bc 8c 70 0c bc
       -0.012963825 -0.04003817 -0.009279245 -0.008571755
0003d0 15 9f 2f bb 30 62 f0 3b 7d 2e 18 3d dc 12 6d bd
       -0.00267977 0.0073359236 0.03715371 -0.057879314
0003e0 5d cb bc bc 76 da 92 bc 8f 77 a3 3c 0e 5c 93 3b
       -0.02304619 -0.017926436 0.01995447 0.0044970578
0003f0 8d 41 16 3d 6e 54 2f bc 91 66 e2 bb b8 c2 8d bb
       0.036683608 -0.010701282 -0.0069091995 -0.004326191

actor.2.bias f4 [128]
000000 b5 24 28 bd 10 82 29 bd 2b dd 5b bd 6b f8 b4 bd
       -0.04105063 -0.041383803 -0.05367772 -0.088364445
000010 ad 84 75 bd 04 ed 6a bd a9 90 0a bd 11 97 17 bd
       -0.059940983 -0.057354942 -0.033829365 -0.037009303
000020 7b 0d aa bd 43 de 69 bd 9e 8b 1c bd 65 21 87 bd
       -0.083033524 -0.05709673 -0.038219087 -0.065981664
000030 e0 fb 94 bd 69 2b 1b bd 68 b2 c5 bd 36 ed a3 bd
       -0.07274604 -0.037883196 -0.09653169 -0.08004229
000040 e3 d2 33 bd be 7a 9f bd f8 f5 63 bd 82 8d 05 bd
       -0.04390229 -0.07787083 -0.055654496 -0.032605655
000050 a7 bb a1 bd 76 48 5e bf ac c8 13 bd a2 18 57 bd
       -0.0789712 -0.86829317 -0.036080047 -0.052513726
000060 54 8e a2 bd 73 09 af 3c 52 e5 3a bd 7b 09 aa bd
       -0.07937303 0.02136681 -0.045628853 -0.083025895
000070 3a 30 b4 bd 4e 49 2b bd 43 6d 20 bd 94 c4 13 bd
       -0.08798261 -0.041817956 -0.0391667 -0.036076143
000080 38 42 23 bd 93 a3 a1 bc 09 0a f6 bc 17 4f 14 c0
       -0.039858073 -0.019731319 -0.030034082 -2.3173273
000090 2f be 61 bd 47 24 37 bd c7 fa 37 bd 25 85 4c bd
       -0.055113014 -0.04471233 -0.044916894 -0.049931664
0000a0 66 70 2a bd 14 ce 90 bd 60 66 2b bd 54 ec 83 bd
       -0.041611098 -0.07070556 -0.04184568 -0.064415604
0000b0 fe 74 0e c0 df 59 93 bd 16 22 c0 bd 40 db 75 c0
       -2.2258906 -0.07194876 -0.093815014 -3.841507
0000c0 fd 78 1a bd 27 2b 24 bd 65 3a 43 bd b2 32 59 bd
       -0.03771304 -0.040080216 -0.04766311 -0.053026862
0000d0 5d 8d 0c bd 9e e4 45 bd a8 05 2d c0 c5 d2 6d c0
       -0.034314502 -0.04831373 -2.7034702 -3.7159894
0000e0 e3 46 2b bd 07 07 d4 bf 49 c4 2e bd 0f 92 fd bc
       -0.04181565 -1.6564645 -0.04266766 -0.030953435
0000f0 a9 4c 89 bd 9a f7 ab bd 24 7a 89 bd 31 28 96 bd
       -0.06704075 -0.083968356 -0.067127496 -0.07331885
000100 e2 89 97 bd cf 54 0e bd b1 88 7a bd 00 fa 34 be
       -0.07399346 -0.03474885 -0.061165515 -0.17673492
000110 db 01 11 bd d9 dd 27 bd b5 a3 15 bd 2d a8 5d bf
       -0.03540216 -0.040983055 -0.036533076 -0.8658474
000120 eb 7d b4 bf ee 9e 56 bd e0 f0 8e bd cf e5 f6 bf
       -1.4100927 -0.05239766 -0.06979537 -1.9288882
000130 e9 46 58 bd 45 8a 8b bd 8f 5c 7b bd 97 14 30 bd
       -0.052802 -0.06813482 -0.061367568 -0.042988386
000140 fd 1e a5 bc e1 3b 1f bd d6 ce 1f bc 58 a1 1c bd
       -0.020156378 -0.038875464 -0.009753903 -0.038239807
000150 67 c6 17 bd 38 62 78 bd 67 db 94 bd bc 82 84 bd
       -0.037054446 -0.060640544 -0.0726841 -0.06470248
000160 d1 b5 87 bd 84 08 32 bd 5c 8d 6e bd f6 2c 51 bd
       -0.066264756 -0.043465152 -0.05824028 -0.05106827
000170 c6 6c 58 bd 20 5a 05 c1 cb 10 0a bd 25 05 01 bd
       -0.05283811 -8.334503 -0.03370742 -0.031499047
000180 1d 0a d2 bc 09 9f 66 bd 3d c7 9d bf 4b b6 16 bd
       -0.025639588 -0.05630401 -1.2326428 -0.036794942
000190 53 72 2f bd bf 95 2e bd bb 07 a2 3e c0 7c 76 bf
       -0.042833637 -0.042623278 0.31646523 -0.96284103
0001a0 32 af da bf f3 93 8f bd cf 46 cd bd 38 a1 35 bd
       -1.7084715 -0.07010641 -0.10023271 -0.044343203
0001b0 e1 1f e0 bf 31 c8 2b bd cb f9 c9 bc cb 95 51 bd
       -1.7509729 -0.041938964 -0.024655243 -0.051168244
0001c0 5e 97 51 bd b4 e8 1f bd b6 59 1f c0 39 2b 67 bd
       -0.051169746 -0.039040282 -2.4898505 -0.056437705
0001d0 bd b3 1e bd d4 90 76 bd e6 5f 9c bf 13 9c 8e bc
       -0.03874563 -0.060196713 -1.2216766 -0.017408406
0001e0 27 ad 51 bd fc ba 97 bd 91 e2 af bd d9 e0 49 bd
       -0.05119052 -0.07408711 -0.08588136 -0.049286697
0001f0 ed 02 39 bd 7b f0 ab bc 05 13 85 bd 24 67 7c bd
       -0.045168806 -0.020988693 -0.06497768 -0.0616218

actor.4.weight f4 [6, 128]
000000 9b 3a 0c 3c a9 cd 4f bc 00 16 78 3b 32 df 80 3c
       0.0085588945 -0.012683311 0.003785491 0.015731428
000010 8a b5 46 ba ee 28 1e 3b 40 a9 85 3a 03 ba f1 bb
       -0.0007580152 0.0024133283 0.0010197535 -0.0073769107
000020 0f ca f5 3b 9f 64 1f 3c 3d df 84 bb 94 35 52 3c
       0.007500894 0.00972858 -0.0040549324 0.012830157
000030 76 a2 11 3c d8 d0 d9 3b cd 77 f9 3b 48 03 04 bc
       0.008888831 0.0066472106 0.0076131583 -0.008057423
000040 09 96 72 3c 5e 42 53 3c 5b 96 77 3c 21 91 e6 3a
       0.014806279 0.012894241 0.015111531 0.0017590859
000050 0c 22 40 bb ff 2b cb 3d 3c b2 cb 3b 47 18 ce ba
       -0.0029317169 0.09920501 0.0062163156 -0.0015723788
000060 af b8 f3 39 53 c2 75 bc 19 ce 41 3c cf 48 21 3c
       0.00046486172 -0.014999944 0.011828923 0.009844019
000070 23 58 20 3c 60 46 06 3b d7 2b 5a bb ca 8c c5 b8
       0.009786638 0.0020488724 -0.003329029 -9.419916e-05
000080 00 2a b4 b9 0c ae a1 bb 38 26 81 3b 0a 3d 9f bd
       -0.00034363568 -0.004934078 0.0039413236 -0.07775314
000090 9d 35 01 bb e3 6d 29 3c 4e e2 fa bb ff d8 2f 3c
       -0.0019715794 0.01034114 -0.007656372 0.010732888
0000a0 f6 2c 00 3c 11 ac 99 3b a4 ef 9e 3a cc aa f7 bb
       0.0078232195 0.0046897014 0.0012125862 -0.0075582024
0000b0 cf 46 98 bd 8e 76 43 bc 55 b4 23 3d 89 cb 0f 3c
       -0.07435381 -0.011930121 0.0399669 0.008776554
0000c0 77 5e e5 3b 16 e0 c1 3b 15 95 2c bc e7 ce 0b 3c
       0.0069997865 0.0059166057 -0.010533591 0.008533216
0000d0 4b de 94 3c a6 d9 ff 3b 26 1a 65 bc 2d de e8 3c
       0.018172404 0.007807928 -0.013983285 0.028426254
0000e0 b3 67 6e 3a 1c 21 fd 3d 66 cb ce 3d 52 ed 8a 39
       0.0009094432 0.12359831 0.10097389 0.00026498229
0000f0 72 e6 21 3b 22 9f 9e bb bc 71 db 3c e2 95 d6 bb
       0.0024704007 -0.0048407475 0.026787631 -0.006548629
000100 2f f8 1f 3c f5 03 46 3d 30 30 49 bb 18 c9 f9 bd
       0.009763761 0.048343617 -0.0030698888 -0.12196559
000110 a1 5f a2 bb 0b cb f5 3b 16 80 4b 3b 70 fb 46 3e
       -0.0049552475 0.0075010112 0.0031051687 0.19431853
000120 93 73 de ba b2 1e da bb 24 db 92 3a d4 3a 10 3c
       -0.00169717 -0.006656491 0.0011204225 0.008803088
000130 84 86 12 bb 14 52 0a bc e4 a1 a0 bb e2 ad 43 3c
       -0.002235801 -0.0084424205 -0.0049021114 0.011943312
000140 6b 64 4c 3d ab 8e dc ba 85 97 21 3c 31 cf f2 3b
       0.049900454 -0.0016827186 0.009862785 0.007409953
000150 d8 5d 4d bb 45 55 2b 3c 75 47 30 3b 0e dc 0a bc
       -0.0031336453 0.010457342 0.002689806 -0.008475317
000160 38 e1 17 3c cb 06 46 3c f7 27 13 bb 6d b9 d3 ba
       0.009270005 0.0120865805 -0.002245424 -0.0016153284
000170 2d 37 26 bb b0 4d ae be a9 11 41 3d 2a 71 76 3c
       -0.0025362477 -0.34043646 0.047135983 0.015041629
000180 ac 60 21 3b 9c bc 2b 3c 78 19 13 bd 1e f3 5d 3b
       0.0024624271 0.01048198 -0.03591296 0.0033866833
000190 be 94 20 bc 68 0a 69 bb 4c b3 58 3d 88 b9 1a 3d
       -0.009801088 -0.003555918 0.052905366 0.037774593
0001a0 62 d5 95 bd 9f 7e a9 3a 3b bc c4 3c e4 85 09 3c
       -0.0731609 0.0012931413 0.024015537 0.008393738
0001b0 95 58 ca be ea 4f 24 3b bc 25 37 3c 09 a5 fd 3a
       -0.39520708 0.0025072047 0.01117843 0.0019351552
0001c0 ae 8e 11 bb 5f 80 b3 3b e9 41 70 bc 3e c1 b1 3b
       -0.0022210288 0.0054779495 -0.014664152 0.0054246476
0001d0 4b dd 26 3a e5 9b 1f 3b fc d3 a2 3d b1 b0 80 3b
       0.00063653727 0.0024354395 0.07950589 0.0039273133
0001e0 c4 14 03 3b 25 fe f7 bb 01 fb d4 bb a4 c4 28 ba
       0.002000139 -0.007568138 -0.0064996486 -0.0006437993
0001f0 ae 55 9f 3a 5b bc ad bb c8 0a 25 3c a4 72 92 3b
       0.0012156272 -0.0053019947 0.010073371 0.0044692326
000200 d0 f2 8a ba 19 77 8f bb ad ee 85 ba c1 93 af bb
       -0.0010600928 -0.004378211 -0.0010218226 -0.00535819
000210 da ac fc 3b 0f 19 51 3c 23 47 72 ba 6b bd 3b 39
       0.007711035 0.012762322 -0.00092421676 0.00017904273
000220 e7 2c 67 ba c1 45 16 3c a9 96 d7 ba 16 71 d9 3a
       -0.00088186417 0.009171904 -0.0016448098 0.0016589488
000230 96 7f 52 3b 27 ed a4 ba a2 f3 c0 3b 95 3b 04 bb
       0.0032119504 -0.0012582884 0.0058884183 -0.0020177115
000240 45 a4 5e 3b a7 fc 73 3b e4 81 28 3b b2 8b 5c 3b
       0.0033972424 0.003722945 0.0025712186 0.00336526
000250 4e 13 44 3b b2 c2 e9 bd 97 ff af 39 99 4e 9e 3b
       0.0029918733 -0.11414088 0.0003356903 0.004831147
000260 1a 60 f4 3a fc 56 82 bc 0a 1d 8e bb 56 4e a6 3b
       0.0018644363 -0.015910618 -0.004336958 0.0050752563
000270 d4 8e af 3a 8e 85 b8 ba f0 5d e9 b9 c4 bd 8c 3a
       0.0013394007 -0.0014077888 -0.00044511212 0.0010737707
000280 3e 05 e8 38 f4 29 e0 3a 3a 2e 6f 3b f8 1e f6 bc
       0.000110635985 0.0017102347 0.003649606 -0.030044064
000290 29 ce ea 3a b8 c7 72 3b 6f 83 18 3b 08 27 07 3c
       0.0017914224 0.0037045311 0.00232717 0.008249052
0002a0 00 89 9a 3a b0 84 7a ba f3 dd 00 b9 8d da 08 3c
       0.0011790097 -0.0009556515 -0.00012289714 0.008352888
0002b0 db b1 4b 3d 74 09 aa bb a1 9f cd bd fd 35 a3 3c
       0.049730163 -0.005189115 -0.100402124 0.019923205
0002c0 e8 16 e4 39 02 41 eb 3b 43 a2 b4 b9 fa e6 5a bb
       0.00043504615 0.0071793804 -0.0003445317 -0.0033401833
0002d0 26 77 96 3b 99 22 b7 bb 2d 1a 24 3d 8c 59 ab 3c
       0.0045918403 -0.005588841 0.040064026 0.020916723
0002e0 1b ae 39 3c e8 af 5d 3d 9e f4 2a 39 25 a9 8d bb
       0.011333014 0.054122835 0.0001630359 -0.004323142
0002f0 db 0d a9 bb 6f 9e 9e 3a 3c a1 ad bc 4d ad b7 bb
       -0.0051591224 0.001210166 -0.021195047 -0.005605376
000300 bc 8e d1 3a 13 4a 65 bc 08 db ba bb 81 45 e6 bc
       0.0015987973 -0.013994711 -0.00570238 -0.028109314
000310 fa 3b 9b 3a 00 57 30 3b c7 dc 43 ba 66 97 95 3d
       0.0011843436 0.0026907325 -0.0007471558 0.073042676
000320 6d 9e 76 3c 4f a0 8c bb 4e 69 b9 bb c2 47 ec bc
       0.01505242 -0.004291571 -0.0056583053 -0.02884281
000330 5c f5 18 bc bf 02 51 ba ab 66 50 3b e1 e9 c5 3a
       -0.009335842 -0.00079731265 0.0031799476 0.0015099609
000340 85 47 bc 3a 26 26 e4 bb 8a 75 0f 3b 78 18 8e 3a
       0.0014364576 -0.0069625555 0.0021890127 0.0010841032
000350 c8 d7 63 3b 5d 7d b1 3b 4a 94 7a 3a 66 01 aa 3a
       0.0034766067 0.005416556 0.000955884 0.0012970387
000360 ba 6d 12 3c 93 15 97 3a 1a 38 c2 3b 5e c0 87 3b
       0.008937294 0.0011526815 0.005927098 0.004142805
000370 23 a1 24 3b 6d 79 c4 3c fc 08 a4 3b b3 46 f3 ba
       0.002512046 0.023983682 0.005005954 -0.0018560499
000380 2c bc b8 3a df 72 1a bc f8 f2 06 be 89 28 01 3b
       0.0014094166 -0.009426801 -0.13178623 0.0019707999
000390 92 fc 52 3b 81 15 ab 3b 2b 97 7e 3e 3e f0 b3 bd
       0.0032194 0.0052210693 0.24862354 -0.08786057
0003a0 04 1d 34 3e ea a0 8a ba 75 5b 0c bd 4e 80 e3 3b
       0.17589194 -0.001057652 -0.034266908 0.0069427853
0003b0 d5 ab e7 bc f5 bd 13 bc 8b 99 1b 3b 4d 9a d7 bb
       -0.028280178 -0.009017457 0.0023742642 -0.0065796734
0003c0 d3 c1 94 ba 32 bb ee bb a6 a8 09 3c 6c fc da 3a
       -0.0011349268 -0.007285499 0.008402025 0.0016707308
0003d0 27 23 e2 39 f0 77 c5 3b 66 8d 31 be 8a 40 cc 3b
       0.0004313227 0.0060262606 -0.17339095 0.0062332796
0003e0 0c 12 26 3b 50 7b 2c bb d7 4e 64 bb 83 20 be 3b
       0.0025340347 -0.0026318617 -0.0034837031 0.0058022155
0003f0 a8 0d e6 39 5a 71 94 3b e1 ac a7 bb 39 a9 31 bb
       0.00043879193 0.004530114 -0.0051170443 -0.0027108921

actor.4.bias f4 [6]
000000 b2 1d af 3f 24 90 5e be 10 74 51 3e 9f dd 47 3f
       1.3680937 -0.21734673 0.2045443 0.7807254
000010 2a f2 56 be d9 2b c4 3e
       -0.20990816 0.38314703

critic.0.weight f4 [128, 25]
000000 a5 f6 ee 3e cd a6 a5 3e cc 7d a9 be 30 d2 00 3f
       0.4667255 0.3235382 -0.33103788 0.5032072
000010 8e 75 78 bf c8 51 4b be 2a 02 a5 bb f3 72 33 3b
       -0.97054374 -0.19855416 -0.0050356584 0.0027381747
000020 1c fe 46 bd dc 36 6c 3b 14 42 75 3a 12 ad f2 bc
       -0.04858218 0.003604344 0.00093558547 -0.029623542
000030 0f 1d 57 c0 07 1d ae bf 38 0f 70 40 8f df c6 bf
       -3.3611486 -1.3602608 3.7509289 -1.5536975
000040 fe d4 e3 bf 7a 02 03 3f 39 84 38 3e 1e 2b 73 bc
       -1.7799375 0.51175654 0.18019189 -0.014841823
000050 1c d1 e1 3c 21 2a 41 bc 45 4d c7 bb 97 7a ac bb
       0.027565531 -0.0117898295 -0.0060822093 -0.0052636373
000060 07 f2 52 3d 0e 1e 4a be 53 17 93 be 48 80 83 3e
       0.051500347 -0.19738027 -0.28728732 0.25683808
000070 13 5e 69 3e 4a 3b cc 3e 60 dc 38 3d 8f f9 5f bd
       0.22789793 0.39888984 0.04513204 -0.054681357
000080 26 b5 de 3c bb 8a b8 3c 91 e7 d2 bc 17 24 53 3d
       0.027185988 0.02252709 -0.025745185 0.05154809
000090 c7 db 59 3c 3b 06 bc be f6 75 32 bf 33 5d 83 3f
       0.013297028 -0.36723503 -0.69711244 1.0262817
0000a0 c7 11 9e bf 4e cd 98 3f 4f 2b 01 c0 13 c8 c7 3f
       -1.2349175 1.1937654 -2.0182683 1.5607933
0000b0 4b 72 e3 bc 33 de f6 3b 98 dc 44 bc 9b 89 60 bd
       -0.02776446 0.0075338124 -0.012015484 -0.05481873
0000c0 30 98 39 bc 3c dd b5 bc 93 cf 54 3d a1 42 a4 3f
       -0.011327788 -0.02220022 0.05195577 1.2832834
0000d0 ba 5f c7 bf 2a 46 bc 3f e6 06 7b 3f 3f a1 10 c0
       -1.5576088 1.4708912 0.980574 -2.2598417
0000e0 1f a5 8a bc 75 43 ad 3d 8b 7f dd bd 5b 57 3c 3d
       -0.016924439 0.08460132 -0.108153425 0.045981746
0000f0 01 85 ee 3c 83 c0 28 bd 3f a1 12 3b 8d 71 15 bd
       0.029116156 -0.04119922 0.0022373942 -0.036485244
000100 7a ed 65 3e 50 af 80 bf fe a1 4e bf 76 61 6f bf
       0.22453871 -1.0053501 -0.8071593 -0.9350809
000110 71 82 91 3f 9e f8 09 bc fd 11 5e 3c 94 74 39 ba
       1.1367933 -0.008421091 0.013554093 -0.00070745614
000120 b0 cf 13 bd 3b 8f 85 3c d6 6e cf bc 12 0c b3 3e
       -0.036086738 0.01630365 -0.025321405 0.34970146
000130 51 40 14 3e 80 10 8c be ae 56 ae 3e 31 e6 30 3f
       0.1447766 -0.27356339 0.34050506 0.69101244
000140 2d 5a f4 be e4 ca f7 3c 41 4f c8 3d eb 6b 96 3d
       -0.4772505 0.030248113 0.097807415 0.073448025
000150 46 d3 6f 3c 3d 07 95 3d 0f 36 96 bd 0b f2 07 40
       0.014637774 0.07276771 -0.073345296 2.1241481
000160 57 dc 71 bf 0a 6b bb be 97 a8 12 c0 4d 01 4d bf
       -0.94476837 -0.36605102 -2.29154 -0.8008011
000170 6b 16 05 40 28 ce f8 3f 20 86 f0 bc 2f 2c 83 3c
       2.0794933 1.9437914 -0.02936083 0.01601228
000180 30 f4 5f 3c cc 00 6f bd 68 be 00 bb ca 55 2e bd
       0.013669059 -0.05835037 -0.001964474 -0.042562284
000190 d8 54 2c 3e 37 57 89 3e cd 82 4a be d8 88 ac 3e
       0.1682924 0.26824352 -0.19776459 0.33698153
0001a0 1b 4f 2f bd a9 e6 90 bf d6 b3 06 bd 7a e3 f8 bc
       -0.04280005 -1.1320392 -0.03288635 -0.030381907
0001b0 1b 07 31 bc 2e 06 11 3c 72 cf fb 3b e5 de 06 bd
       -0.010804917 0.008851571 0.0076846415 -0.032927413
0001c0 9d 95 a0 3e 13 5c b2 3e a1 e7 50 bd d8 8d c9 bf
       0.31364146 0.34835872 -0.05100215 -1.5746412
0001d0 95 89 f0 3f 9b cd 62 40 d6 59 1b be 32 e2 60 3c
       1.8791987 3.5437992 -0.15170988 0.013725804
0001e0 e6 ef 43 bb 88 b2 53 bb 0d 01 4b 3c dd 37 1e bd
       -0.002989763 -0.0032302458 0.012390387 -0.038627494
0001f0 33 79 3b 3b b9 dc b6 be 85 e0 53 bd 11 47 29 be
       0.0028606176 -0.35715273 -0.05172779 -0.16531016
000200 43 a4 a8 be b2 d0 b8 3e 2c 0c 9e be 87 cc 5b bd
       -0.32937822 0.36096722 -0.3086866 -0.05366185
000210 b8 39 36 3d f2 5f 81 3d 73 b6 8b 3b 5e 00 6c 3c
       0.04448864 0.06317128 0.004263693 0.014404384
000220 07 3f 52 bd e1 ec f6 bf 7d b4 cb 3f 62 ac 76 3f
       -0.05132964 -1.929104 1.5914456 0.96356785
000230 9f 0f 07 40 24 82 10 40 21 c9 2a be 0f c7 54 3f
       2.1103284 2.2579432 -0.16678287 0.8311624
000240 f4 21 e2 bc 2f 3f a2 3a b4 b9 25 bd d0 83 51 3c
       -0.02760408 0.0012378449 -0.040460303 0.012787774
000250 1b a5 95 3c 9d a9 82 bc 75 d5 7f 3f 69 43 d5 bd
       0.018267205 -0.015950019 0.99935085 -0.10413248
000260 67 29 88 3e c1 73 29 bf 7e 82 b1 bf 8f eb de 3f
       0.26594087 -0.6619225 -1.3867948 1.7415637
000270 fc 18 2e bc 47 f5 34 bc 00 2b 6a 3d f7 da 2e bd
       -0.010626074 -0.011044807 0.057169914 -0.04268929
000280 17 3e df 3c 4e 17 a1 3c 72 74 09 3c e2 5f 49 be
       0.027251286 0.019664433 0.008389579 -0.19665483
000290 ea da 9b 3e 4a 22 a5 3f 6a b8 70 3f 89 de 6c 3e
       0.30440456 1.2901089 0.94031394 0.23131765
0002a0 ec 79 bf 3f a6 fb c8 bc df fa 30 3c 70 ac 65 3a
       1.4959083 -0.024534058 0.010802 0.0008761352
0002b0 72 6d b9 bb 39 b6 e2 bc 25 22 19 bd 60 61 1e bf
       -0.005658799 -0.027674781 -0.03738608 -0.6186733
0002c0 62 1d 7f 3f e6 44 6b bf 38 87 88 3f c6 b4 f2 3f
       0.9965421 -0.91902006 1.0666265 1.8961418
0002d0 b5 8b 8d bf 91 1b d4 bb 8d be 71 bc d3 47 ff 3c
       -1.105826 -0.0064730127 -0.0147549035 0.031162178
0002e0 aa aa 28 bc 63 74 26 bd e2 3b 8c bc 85 d2 3a 3f
       -0.010294596 -0.04063834 -0.017118398 0.7297748
0002f0 74 90 0c bf e5 c6 8b be 91 a9 11 40 85 f5 84 3f
       -0.5490792 -0.27300182 2.2759745 1.0387427
000300 8f 12 f1 bf 8b 28 07 c0 8d 8b f5 bc 67 3f 71 3b
       -1.8833789 -2.1118495 -0.02997377 0.0036811472
000310 94 54 fb 3c 59 66 59 3d b5 85 96 3d 76 ce c6 bb
       0.030679978 0.053076122 0.07349721 -0.0060670925
000320 fc 02 90 3e 43 d9 73 3f 6b 4d db bf fc a0 04 40
       0.28127277 0.9525339 -1.7133001 2.0723257
000330 90 a1 15 3f 57 8b b7 bf 2d 25 aa bc 4b 2a d3 3d
       0.5844965 -1.4339398 -0.02076968 0.10310801
000340 7f 75 61 be 82 a7 66 38 21 62 92 bc 8e c3 25 bd
       -0.22017477 5.4992277e-05 -0.017869057 -0.0404697
000350 b7 8b d7 be e2 9c d8 3d 31 e6 30 3f 46 7f 24 3f
       -0.4209878 0.10576798 0.69101244 0.64256704
000360 f5 c9 c2 3f e3 6e 32 3f b5 52 e6 be 21 0c 82 3d
       1.5217882 0.6970045 -0.44984975 0.0634997
000370 d7 36 92 bc f8 b2 5f 3d 7e 0b 37 bd 80 36 de bd
       -0.017848415 0.054614037 -0.044688694 -0.10850239
000380 ca b5 92 bd 46 7d 90 3d a3 80 fb be cb ee 36 3f
       -0.0716358 0.07055144 -0.4912158 0.7145812
000390 64 8b b0 bf 3a 39 4d be 0e e7 e5 bf d0 a7 52 3d
       -1.3792539 -0.20041361 -1.7961137 0.05142957
0003a0 78 89 93 bd ff 38 c4 3d 3c fc 88 3b 48 c2 e6 3c
       -0.072039545 0.09581184 0.0041804593 0.028168812
0003b0 39 5c aa bc e5 0b dc 3d d3 be 5b be b1 97 5e 3f
       -0.020795928 0.10744456 -0.21459512 0.8695021
0003c0 1a 17 f6 3e 17 85 c2 3f 81 51 db bb 28 95 2a c0
       0.480645 1.5196866 -0.0066930656 -2.6653538
0003d0 c2 7c 7d bc 8e 48 17 3a 76 f7 f1 3c 79 fb e4 bb
       -0.015471639 0.00057710044 0.029536944 -0.0069879857
0003e0 7c 7d 73 bb c0 8b 12 bc d2 1d 4b 3f 42 9a c9 3e
       -0.0037153652 -0.008944452 0.7934238 0.39375502
0003f0 c8 ea ac be 22 01 39 bf a9 3e 97 3e 2b 90 d8 be
       -0.33772874 -0.72267354 0.29539993 -0.4229749

critic.0.bias f4 [128]
000000 41 41 36 c0 e8 ee f8 c0 32 dc dd c0 f8 e3 21 c0
       -2.8477328 -7.7791634 -6.9331293 -2.529539
000010 ca 8f 39 c0 28 35 78 c0 41 06 e0 bf 4e ff 84 c0
       -2.8994012 -3.8782444 -1.7501909 -4.156165
000020 02 ef 5a c0 0a de cb bf 44 10 8e c0 80 6c bb c0
       -3.4208379 -1.5927136 -4.4394855 -5.8569946
000030 30 ed 97 c0 d5 9d 8b c0 82 ae 1c c0 cd d7 2c c0
       -4.7477036 -4.3630166 -2.448151 -2.7006714
000040 75 eb 74 c0 3d a7 af c0 de 95 64 bf 28 96 47 c0
       -3.8268712 -5.489165 -0.8929118 -3.1185398
000050 fd 30 92 c0 be 90 25 c0 03 8d 8a c0 f4 fe 86 c0
       -4.56848 -2.5869594 -4.3297133 -4.218622
000060 e7 0e 49 c0 90 31 0b c1 84 f0 04 40 27 23 49 c0
       -3.1415346 -8.6996 2.07718 -3.1427705
000070 8b a7 b7 c0 c3 86 40 c0 e7 e7 92 c0 7c e3 f2 c0
       -5.739202 -3.0082252 -4.5908084 -7.590269
000080 80 e2 92 c0 70 52 23 c0 dd de c9 c0 7c 3b ca 3f
       -4.590149 -2.5519066 -6.308455 1.5799403
000090 53 5c 03 c0 e3 f5 92 c0 7a a5 74 c0 48 e5 8e c0
       -2.05251 -4.5925155 -3.8226 -4.4654884
0000a0 8e b9 d2 c0 1d 1c 9a c0 07 87 9d c0 a7 8e 26 40
       -6.5851507 -4.815932 -4.922733 2.6024568
0000b0 e0 e2 b9 c0 1c 7d a4 c0 95 16 84 c0 d6 ec d5 bf
       -5.8089447 -5.140272 -4.1277566 -1.6712902
0000c0 b1 0e a8 c0 15 ef ba bc 40 a9 b2 c0 f1 30 2a c0
       -5.2517934 -0.022819081 -5.5831604 -2.6592371
0000d0 55 85 41 c0 21 8c f6 bf 98 a0 40 c0 36 a5 03 c1
       -3.023763 -1.9261514 -3.0098019 -8.227835
0000e0 43 ef 77 c0 83 19 a5 c0 4a 9e 48 c0 a7 42 aa c0
       -3.8739784 -5.159364 -3.1346612 -5.3206363
0000f0 28 cb 98 c0 d3 44 90 c0 86 66 8f c0 c2 51 08 c0
       -4.7747993 -4.5084014 -4.481265 -2.12999
000100 c4 24 27 bf 6e 39 16 40 ea 5c 94 c0 22 ac ff c0
       -0.65290475 2.3472552 -4.636342 -7.9897623
000110 b7 cb 19 c1 91 14 1c c0 87 f9 e5 c0 25 7c f9 c0
       -9.612235 -2.4387553 -7.18671 -7.7964044
000120 de 33 e8 c0 66 4f 22 c0 d4 63 e9 bf 18 f3 73 c0
       -7.2563314 -2.536096 -1.823359 -3.8117123
000130 fa 4c b2 bd 6c 9e 90 c0 f5 e9 62 c0 58 f3 cb c0
       -0.08706088 -4.5193386 -3.5455296 -6.373455
000140 09 f9 75 c0 04 23 45 c0 96 e0 13 c0 49 7d 15 bf
       -3.843325 -3.0802622 -2.3105826 -0.58394295
000150 3a fe 26 c0 43 a5 c6 c0 97 02 50 c0 b3 f7 25 c0
       -2.6092668 -6.2076735 -3.250158 -2.5932434
000160 d6 a8 50 c0 07 0e c0 c0 1d c7 b2 bf bc 0d 09 c0
       -3.260305 -6.0017123 -1.3967015 -2.1414633
000170 ae c9 00 c0 46 92 b9 c0 4a 9d c1 c0 e0 cd 24 bf
       -2.0123096 -5.7991056 -6.0504503 -0.6437664
000180 9a fe 3d c0 ec 92 a7 c0 3c 8d 5f c0 91 2f 24 c0
       -2.9686646 -5.236685 -3.4929953 -2.5654032
000190 2a 69 29 3f 6a 31 12 c0 83 e6 8a c0 84 4f 9c c0
       0.6617609 -2.284266 -4.3406386 -4.8847065
0001a0 38 56 2c c0 24 4e 37 c0 f7 06 f5 c0 c5 6f d8 c0
       -2.6927624 -2.8641443 -7.6571 -6.7636437
0001b0 7e 33 1b c0 83 00 da c0 3a 3f d2 c0 23 74 82 c0
       -2.4250178 -6.8125625 -6.570218 -4.076677
0001c0 12 3e f1 c0 fc c0 98 c0 bb d8 7d c0 a9 7a 50 c0
       -7.538827 -4.7735577 -3.9663532 -3.2574866
0001d0 e1 03 41 c0 e1 c3 98 c0 27 20 24 c0 b0 3d 81 c0
       -3.0158617 -4.773911 -2.5644624 -4.03878
0001e0 4a 7f fc c0 40 cd 74 c0 c1 f1 6b c0 18 1e 7a c0
       -7.890538 -3.8250275 -3.6866305 -3.9080868
0001f0 0d 84 2c c0 d6 21 de c0 99 2d 56 c0 11 31 33 c0
       -2.6955597 -6.9416304 -3.346533 -2.7998698

critic.2.weight f4 [128, 128]
000000 64 26 97 3f a5 fd cd 3f b9 81 65 3f 09 55 15 be
       1.1808591 1.6093031 0.89651066 -0.1458322
000010 d6 81 43 bf db 98 e3 bf e5 51 30 bf 1a 5f 04 bf
       -0.7636999 -1.7781023 -0.6887496 -0.51707613
000020 ac 99 86 c0 03 3b bf 3f 6e 52 90 bd fc fd b1 3f
       -4.206259 1.4939884 -0.07046972 1.3905635
000030 0e 54 67 3f c9 42 7c bf 15 4f cd be 94 8a 04 c0
       0.9036263 -0.98539406 -0.40099397 -2.0709581
000040 f7 06 de bd b2 34 a1 be 5b be f0 be 42 ca 6c 3f
       -0.10841172 -0.31485516 -0.4702023 0.9249612
000050 2f d4 8b 3f 69 a0 d3 bd 6b fa 43 3f fb da ff 3f
       1.0924128 -0.1033333 0.7655398 1.9988703
000060 09 e8 a3 3f 02 f6 92 3f bf b9 c8 c0 28 b4 9e 3f
       1.2805187 1.1481326 -6.272674 1.2398729
000070 6d cd ff 3e 58 0b f4 be 3b 0c 89 be 6c 5b 53 40
       0.49961415 -0.47664905 -0.26767144 3.302455
000080 a7 64 b0 bf 77 e1 90 3f 12 d3 03 40 00 9b 07 c0
       -1.3780717 1.1318806 2.0597577 -2.1188354
000090 6a a0 29 be f2 06 e9 3f 14 e0 bd 3e 34 6b 33 be
       -0.165651 1.8205245 0.3708502 -0.17521363
0000a0 e2 03 40 40 af b3 f9 3f 3e ef 46 be 57 ac 39 c0
       3.000237 1.950796 -0.19427201 -2.9011438
0000b0 5f 59 90 3f 12 0c 98 3e 52 70 09 3f 88 5a be be
       1.1277274 0.2969671 0.5368701 -0.37178445
0000c0 f9 5c 6f 3f 45 46 18 bf bf 15 92 3f c9 b1 55 3d
       0.9350124 -0.5948222 1.1412886 0.052171502
0000d0 c9 01 00 be 15 c0 e1 be dc 02 34 c0 db cf 3e 40
       -0.12500681 -0.4409186 -2.8126745 2.9814365
0000e0 87 58 24 40 8f fe e2 3f 5b e7 04 40 f6 64 68 bf
       2.5679033 1.7733935 2.0766208 -0.90779054
0000f0 03 bd af bf 81 ee 4f 3e 74 8d f8 bf 94 47 84 bf
       -1.3729557 0.20305826 -1.9418168 -1.0334344
000100 f0 df b7 3b ef c8 37 3e 28 d4 cb be fd 02 00 40
       0.005611412 0.17947744 -0.398103 2.0001824
000110 59 df 04 40 58 88 81 3f 73 b3 9c be 27 ff fa 3e
       2.076132 1.0119734 -0.3060566 0.4902279
000120 ac 2e 52 be b5 5e 00 3f 2d 22 5e c0 96 94 22 bf
       -0.20525616 0.5014451 -3.470836 -0.63507974
000130 94 3f 1f c0 e5 7e 99 be a1 31 e6 bf d1 ff cd bf
       -2.4882555 -0.29979625 -1.7983896 -1.6093694
000140 24 c3 be bf 28 04 9e bf 35 9a 84 3f 5d f6 aa bf
       -1.4903302 -1.2345018 1.035956 -1.3356434
000150 cc 3d bd 3f 64 7f ae bf 6b af 31 3f fa ab b5 3e
       1.4784484 -1.3632627 0.6940829 0.3548277
000160 18 b9 ad 3d 49 a9 d7 bf 38 c1 e3 bf 34 78 0b c0
       0.084825695 -1.6848537 -1.7793341 -2.1792116
000170 f8 d7 a9 bf 67 38 88 bf 5d 64 48 3e fd 7f c0 3d
       -1.3269033 -1.0642213 0.19569536 0.09399412
000180 f8 68 b8 be 7b b4 0d 3f d5 9d bc 3c 5a 23 8b bf
       -0.36017585 0.55353516 0.023024479 -1.0870163
000190 95 cc d3 be 9f 8d 56 bf e1 2b d4 3e 42 54 d8 3e
       -0.4136702 -0.83809847 0.41439727 0.42251784
0001a0 de 1f 2d bf 36 7c 79 bf 21 85 34 40 70 71 d3 3e
       -0.6762675 -0.97455156 2.8206255 0.41297483
0001b0 bd 0f 07 40 7e bd 17 3f 38 8c 2c 40 e9 b2 be be
       2.1103356 0.5927352 2.6960583 -0.37245873
0001c0 c2 4d 3e 40 de 77 53 bf f9 a7 13 c0 9d 0c 22 3f
       2.973496 -0.8260478 -2.3071272 0.63300496
0001d0 87 da d7 be 03 d0 d4 3f d0 e1 42 3f 00 92 a3 bf
       -0.4215891 1.662598 0.7612581 -1.2778931
0001e0 7a 57 da 40 99 72 7f bf a2 81 0b 40 33 66 8c 3f
       6.8231783 -0.9978424 2.1797872 1.0968689
0001f0 18 c1 4a bf a0 cd d2 3f a1 3c 3f bf bf 19 da bf
       -0.7920089 1.6469002 -0.7470189 -1.7039107
000200 7f 68 75 3f 85 7a b2 3f 8e a4 ad 3f 1e 0a d0 3d
       0.95862573 1.394364 1.3565843 0.1015818
000210 8e 2f a9 bc b9 b8 24 3f 67 76 d2 be 42 10 62 be
       -0.020652559 0.64344364 -0.4110596 -0.22076514
000220 8b a3 6e 3e 84 4e 21 bf 31 94 b5 3f f2 4b a0 3f
       0.23304574 -0.6301043 1.418585 1.2523177
000230 d0 5a 02 3f b7 2e 93 3d ea c8 72 bd ec 24 ca bf
       0.5091982 0.071866445 -0.059273638 -1.5792518
000240 78 fd 27 3f ce 82 22 3a 99 f9 57 3f c7 d3 7b 3e
       0.6562114 0.0006199301 0.8436523 0.24592505
000250 ef 86 dc be 5b c0 19 bf fe 0e 26 3e 20 04 d4 3d
       -0.43071696 -0.60059136 0.16216657 0.10352349
000260 33 4d 18 3f 88 77 85 3e 4a be 9e bf bf 5c 9b bd
       0.59492797 0.26067758 -1.2401822 -0.07586049
000270 dd 3b b3 3e 3e 0e b3 bf 81 af 5b bc b4 28 a8 3f
       0.3500661 -1.3988721 -0.013408543 1.3137422
000280 41 80 96 3e f8 63 87 bf 31 2e 35 3f 1c 46 f8 3d
       0.29394725 -1.0577383 0.7077361 0.12122747
000290 4e 75 0c 3f 70 6d 4a bf 00 bf af bf a9 0c d5 be
       0.5486649 -0.7907324 -1.3730164 -0.4161122
0002a0 f0 87 0a 3f e6 61 9f 3e a9 45 10 3e d7 48 59 bf
       0.54113674 0.31129378 0.14089073 -0.8487677
0002b0 c4 9f 98 3f 7d 1d d6 3f c6 5d 7e bf c6 3c a7 3d
       1.1923757 1.6727749 -0.99361837 0.081658885
0002c0 4f 3e 27 3f e6 74 19 bf 0f 5e cf 3e 25 08 3e bf
       0.6532945 -0.59944 0.4050145 -0.7423118
0002d0 d0 ff fc 3e fa 2c 80 bf 14 c8 6d be 6f 9f 0b 40
       0.4941392 -1.0013726 -0.23220855 2.181606
0002e0 a9 bb aa 3f 5d e1 17 40 ee 8a 35 be 01 3d 4d 3f
       1.3338519 2.37313 -0.17728779 0.8017121
0002f0 8d 8d 70 3f 71 87 72 3f 08 ad 09 40 8b 52 2a bf
       0.9396599 0.9473792 2.151186 -0.665322
000300 04 86 03 be 61 1a 98 be dc 55 8e bd fc 1d 06 40
       -0.12844092 -0.29707626 -0.0694997 2.09558
000310 bf 44 d5 3f b4 72 57 3f e5 d1 c0 be 24 92 ee 3e
       1.6661605 0.841594 -0.37660137 0.4659587
000320 60 7e 21 3e f0 f5 e5 be 1b 96 10 bf 58 7b 7c bf
       0.15770864 -0.44914198 -0.5647904 -0.9862571
000330 f2 68 ab be 13 5d 7b 3f c8 12 4a 3f 2b 74 f4 3a
       -0.33478504 0.98188895 0.7893491 0.0018650343
000340 e4 4a b7 3f 91 07 09 bf e5 60 c9 3e 09 ab 93 bf
       1.431973 -0.5352717 0.39331737 -1.1536571
000350 79 fa 6a be df 00 82 bf 30 a9 3f be 01 c3 c1 be
       -0.2294711 -1.0156516 -0.18716884 -0.3784409
000360 95 58 74 3e 3a e9 0d bf 6e bc bd 3e a2 9b fa be
       0.23861916 -0.55434 0.37057823 -0.48946863
000370 37 a9 f6 3e 84 d0 0f 3e 83 67 41 bd e0 b1 52 3d
       0.48175976 0.14044386 -0.047217857 0.051439166
000380 82 43 8d be 6f 74 fb 3e 59 9e af bf 84 9a 87 bf
       -0.27590567 0.4911227 -1.3720199 -1.059403
000390 12 89 04 3e ca 31 8c bf d5 1f 5b bf c5 9c 2d 3f
       0.12942913 -1.0952694 -0.85595447 0.67817336
0003a0 fc 3b ed bc 13 59 81 3e 5e 0e 51 3f 2d 20 fb 3f
       -0.028959267 0.2526327 0.8166255 1.9619194
0003b0 75 db 2c bf 97 b5 37 3f 61 ac 1f 3f 36 65 45 bf
       -0.67522365 0.7176146 0.62372404 -0.7710756
0003c0 ce ef 7e 3f e1 1e 5d 3f 83 ee 8c bf 2f 62 c4 bf
       0.9958466 0.8637524 -1.1010288 -1.5342463
0003d0 8a 24 90 3e 1e 28 d8 3f 20 46 84 3f 68 c1 32 3e
       0.28152877 1.6887243 1.03339 0.17456591
0003e0 e5 4c 9d 3e ab 73 27 3f f6 48 f6 be 89 d0 ce 3d
       0.30722728 0.6541087 -0.4810254 0.10098369
0003f0 a3 8a 6a 3f 9c e9 26 bf 26 7b 89 bf 17 fc 90 bf
       0.9161779 -0.6520021 -1.0740707 -1.1326932

critic.2.bias f4 [128]
000000 92 09 41 c0 1c 8b 20 c0 d0 e4 e4 bf 04 29 1e c0
       -3.0162091 -2.5084906 -1.7882328 -2.4712534
000010 a1 10 47 c0 28 01 04 c0 74 ca 1e c0 81 0e 34 c0
       -3.11039 -2.0625706 -2.4811068 -2.8133852
000020 36 43 45 c0 18 5c 2b c0 8b 8d 79 c0 d6 64 25 c0
       -3.0822272 -2.677496 -3.899264 -2.5842795
000030 8c 52 1c c0 e2 b1 f0 c0 3d dc 23 c0 4e 0d 76 c0
       -2.4425383 -7.521714 -2.5603173 -3.844562
000040 a3 ba 40 c0 c6 8b 0b c0 26 b1 58 c0 06 dc 25 c0
       -3.0113914 -2.180406 -3.3858123 -2.5915542
000050 b4 9a 63 c0 9c 13 2c c0 bd 59 3e c0 0e 91 3d c0
       -3.5563173 -2.6886969 -2.9742272 -2.9619784
000060 1b a3 48 c0 60 cd 29 c0 fe af 21 c0 45 18 35 c0
       -3.1349552 -2.65316 -2.5263667 -2.8296063
000070 5f 46 34 c0 2e 4b ed bf e0 35 4d c0 ba 30 37 c0
       -2.816795 -1.8538568 -3.2064133 -2.862349
000080 2b d5 0a c0 cb 4f 45 c0 d1 2f 05 c0 79 66 43 c0
       -2.1692607 -3.0829952 -2.0810435 -3.0531294
000090 e7 c8 17 c0 8d 6a 80 bf 22 cd 00 c0 2a c8 5d c0
       -2.371637 -1.0032517 -2.0125203 -3.465342
0000a0 e8 58 45 c0 39 04 3e c0 e3 5e 2f c0 ec 4d 3d c0
       -3.0835514 -2.9690077 -2.7401664 -2.957881
0000b0 17 58 53 c0 50 73 44 c0 b5 ee 2f c0 cf e1 3b c0
       -3.3022516 -3.069538 -2.7489445 -2.9356573
0000c0 92 c3 29 c0 b5 8e 23 c0 2f f5 20 c0 8f c8 25 c0
       -2.6525617 -2.5555851 -2.5149648 -2.5903661
0000d0 2c 9a 30 c0 ca 02 2b c0 32 b7 2e c0 be 25 5e c0
       -2.75941 -2.6720452 -2.7299314 -3.4710536
0000e0 4b 50 16 c0 97 b7 63 c0 56 31 43 c0 f2 6c 26 c0
       -2.3486507 -3.5580804 -3.0498862 -2.6003995
0000f0 eb c5 32 c0 28 32 0e c0 a3 e2 4b c0 08 c0 3a c0
       -2.79333 -2.2218113 -3.1857078 -2.9179707
000100 24 83 11 c0 d6 2e 35 c0 5d 49 31 c0 80 38 f4 bf
       -2.2736292 -2.8309836 -2.7701027 -1.9079742
000110 c2 15 19 c0 b4 c2 29 c0 5a a9 46 c0 70 53 76 bf
       -2.391953 -2.6525087 -3.1040864 -0.96221066
000120 d5 5b 49 c0 e8 82 64 c0 6f 0d 2d c0 d2 2f 49 c0
       -3.14623 -3.57049 -2.703945 -3.1435437
000130 15 97 41 c0 92 78 25 c0 49 45 12 c0 90 5a 38 c0
       -3.0248463 -2.585484 -2.2854788 -2.8805275
000140 75 12 1a c0 5f 1c c5 bf 0b 39 19 c0 a1 c6 1e c0
       -2.4073765 -1.5399283 -2.3941066 -2.4808733
000150 37 b9 1c c0 ac 8e ef bf 51 a1 19 c0 3e 7a 1d c0
       -2.4488046 -1.8715415 -2.400471 -2.460586
000160 1d 08 62 c0 ea 83 15 c0 49 a6 14 c0 3f 4c 29 c0
       -3.5317452 -2.3361764 -2.3226492 -2.6452787
000170 5e ec 53 c0 d2 b2 0b c0 11 d0 1f c0 1d c2 26 c0
       -3.3113017 -2.1827893 -2.4970744 -2.6055977
000180 f8 d5 2e c0 93 79 20 c0 8f 38 2c c0 f5 0b df c0
       -2.7318096 -2.5074203 -2.690952 -6.9702096
000190 59 c9 6d c0 d2 39 1e c0 2d 39 1f c0 1b 04 45 c0
       -3.7154143 -2.472279 -2.4878647 -3.0783756
0001a0 19 1c 4f c0 ee e7 50 c0 b7 67 0b c1 1a 71 17 c0
       -3.23609 -3.2641559 -8.712821 -2.3662782
0001b0 17 eb 19 c0 cf 7c 46 c0 eb be 36 c0 63 39 3c c0
       -2.4049737 -3.1013677 -2.8554027 -2.9410026
0001c0 99 aa be bf 59 32 31 c0 9d e0 27 c0 71 ee 17 c0
       -1.4895812 -2.768698 -2.6230843 -2.3739283
0001d0 71 6c 10 c0 3c 2e 0d c0 94 da 1c c0 21 fc 50 c0
       -2.2566187 -2.205947 -2.450841 -3.2653887
0001e0 4e 7d 5c c0 dc 49 2c c0 ad 35 23 c0 70 9a 6d c0
       -3.445148 -2.692008 -2.550151 -3.712551
0001f0 16 b2 2d c0 27 19 6a c0 c9 6a 58 c0 80 6e 3d c0
       -2.7139945 -3.6577852 -3.3815176 -2.9598694
