logs/rsl_rl/arm_t_reach_ik/2025-10-13_00-31-18/model_1500.pt (torch, 505506 bytes, 42 tensors)

std f4 [6]
00000000: 09d2 813f 7cee 4a3f 8578 a43f f7a2 b63f
00000010: 7ecb c83f 3c58 bc3f
1.0142223 0.7927015 1.284928 1.4268483 1.5687101 1.4714427

actor.0.weight f4 [128, 25]
00000000: bf25 37bd fe96 5f3c dcde 35bc 47c0 0d3c
00000010: 07c7 513c db0f e03b e1b2 31bc 4095 26b9
00000020: 7fd9 efba c9a1 81bc 9247 a7bb 5258 ce3b
00000030: 2513 02bc 5dc6 1a3d d2c3 1b3c d32a fe3b
00000040: e841 003c cd7e 2bbc a503 2d3c c76f 943b
00000050: d54b dd3a 55f5 82ba 5d4a d6bb c218 b0bb
00000060: 97e3 81ba 5e1b 723f 487e dabe 95a5 003d
00000070: 69ea 1fbd dda0 b0bf f440 e2be dc26 4a3e
00000080: aeb2 a7bc 0292 ba3e ba69 23be 2ba0 a3bd
00000090: eb91 dabd 9f33 4b3e 3419 d63c 4a30 9cbd
000000a0: 7fad 593f fd5c 1240 d749 1cc0 638a 2040
000000b0: b24c d7bd e7c4 eabd 3777 133d 8f40 aabe
000000c0: 9c9c 393e d320 46bf 8919 473d c11d aa3c
000000d0: 3299 77bc c429 643b 9e9d a83b 0110 25bc
000000e0: 3ea3 07bd 56c0 cebb 0f29 88bc 275f 8d3b
000000f0: 671a f0bb c4f3 eb3a 5b94 4abb cbcf 4cbd
00000100: 4e40 1a3c a2e0 203a ad4f 443b 60aa 943c
00000110: f569 cd3b 89db b4bb d85a a0ba 1928 763b
00000120: fe46 d6bb 70e8 903a 5533 9c3b c423 10bf
00000130: e733 a53f 7d74 85bf 1df1 9fbe 2d7a d63e
00000140: 79d9 343f 7e13 693d 5f87 b63e 4445 f7be
00000150: 7fdf e63e 8da7 993e 6c9a bb3e 0047 30be
00000160: fd66 3f38 f86e 433f f2fd 53bf 4084 c8bf
00000170: 592c 98bf 7fe4 0e3f 9946 a2be 7457 1cbf
00000180: e20b b7be c4ce 61be 9794 85be ae97 30bf
00000190: a0ef c23d cb1e 773e 8bf8 5fbc 3f8d 94bd
000001a0: 8ae8 ef3e c3ef a6bd cb31 84be 1ddc ee3d
000001b0: 176d d1be 4f6c 893e 59d9 46be eed7 0f3e
000001c0: c270 1fbd 1411 75be acc4 09bd f7dc 003e
000001d0: 7cd2 05be e427 e8bc 6aef c03b 0902 203d
000001e0: 9c63 723e a899 bd3d dc16 ef3c 2963 cb3e
000001f0: c1c6 86bd 5feb 4dbf c804 de3e bbdb 05be
00000200: 35d4 2b3e 3c01 833f 3843 573f fe0e 80bd
00000210: 39a2 13be d42f 66be ed7c 90bd 2fc1 3e3d
00000220: 160a cd3d 6657 e0bd e6d1 d93d 3f6b 82bb
00000230: d64c 08bf 4741 ba3f d2ae b43f ba89 9f3f
00000240: b21d 98be 3aa9 ccbd 8acd edbc 707b 213f
00000250: 64ec 153e dba2 373e 6998 333b dedc 27c0
00000260: 6fb6 1240 1c69 a9bf 5669 4ebd 3b4a 8ebe
00000270: 7336 513e 17e2 3fbf 8582 573f e32a 8fbd
00000280: c38d da3d cdf7 07be 0a21 b33e 6237 a2be
00000290: ca2c 1bbf bfda 903f 912a c0bf 9bd3 903f
000002a0: 96ed 673f 3f7c 053e 3606 14bd 40b8 693d
000002b0: 8b76 2e3f de18 033f 0267 073f a00f c5bc
000002c0: c914 873c c22e 75bd ad45 f63c 0e41 01bc
000002d0: 9b46 2b3c f2e6 9c3c 8ea2 283c 7440 173b
000002e0: 5519 dfbb b139 34bb cad2 8d3b c710 7dbb
000002f0: ee27 aa3c f0ed 033d a46b 843a e7be 123a
00000300: acdc 66bc 53c1 163b 619f 2bbc 2408 103a
00000310: e09d 0cbc 89ef 943a 8672 68bb a7b6 41bb
00000320: fdc6 91b9 2c44 2abd 3387 5b3c debe 43ba
00000330: c022 dcbb e57c d23b d31b 483c 54da 7b3c
00000340: 28f9 04bc 2ad1 823a c0e1 eebb 28f5 013c
00000350: 4c64 173c 896f 32bb b13d 193a 0f3b 09bc
00000360: 2dee 97bb b7a0 85bb f5c5 a23b 8ca4 a2bb
00000370: edeb e13b 035b 98bb 478b 2dbb 0263 80bb
00000380: b0fc 04bb ce17 d8be 3363 d9be 15cb bcbe
00000390: 3f56 2d3d b878 0bbe f7da 493d 0c57 9d3e
000003a0: a97a 22be 34aa e43e 27c2 89be 5520 36bf
000003b0: 5247 eebd 6a61 22be 4cf4 353e c4c4 ecbc
000003c0: 904f 963e cf03 773e ab74 863e b944 cc3e
000003d0: 919e 1fbe 0ad1 fcbd e881 c83d 6ee6 c7bd
000003e0: cbab 9c3d 2f3e 18be 9eba 103d a4ad 5b3c
000003f0: 865e debc b6be 773b 4617 a33b 049d 8fbc
-0.04471373 0.013646839 -0.011100497 0.0086517995 0.0128037995 0.0068378276 -0.010845871 -0.00015886594
-0.0018299072 -0.015824215 -0.0051049674 0.0062971497 -0.007939135 0.03778683 0.009507136 0.00775657
0.007828213 -0.010467243 0.010559951 0.0045299265 0.0016883562 -0.0009991328 -0.0065396265 -0.005374045
-0.0009909746 0.9457301 -0.4267447 0.03140791 -0.03904191 -1.3799092 -0.4419018 0.19741386
-0.020470943 0.3643952 -0.159583 -0.07989534 -0.10672363 0.1984391 0.026135065 -0.07626398
0.8503036 2.2869256 -2.4420068 2.5084465 -0.10512675 -0.114633374 0.036002364 -0.3325238
0.18126148 -0.77393836 0.048608337 0.02076614 -0.015112208 0.0034814933 0.0051457426 -0.010074616
-0.033114664 -0.0063095493 -0.01662114 0.0043143216 -0.007327366 0.0018001725 -0.003091118 -0.050002854
0.0094147455 0.00061369885 0.0029954717 0.018147647 0.0062687346 -0.0055193347 -0.0012234105 0.003756052
-0.0065392246 0.00110556 0.0047668614 -0.56304574 1.2906464 -1.0426174 -0.31238642 0.41890088
0.70644337 0.056903355 0.35650155 -0.48295033 0.4509239 0.30010644 0.36641252 -0.17214584
4.5633864e-05 0.763412 -0.82809365 -1.566536 -1.1888534 0.5581741 -0.31694487 -0.6107094
-0.35751253 -0.22051531 -0.26089928 -0.68981445 0.09518361 0.2413284 -0.013670097 -0.07253503
0.468571 -0.081512 -0.2581924 0.11663077 -0.4090354 0.26840445 -0.19418849 0.14047214
-0.038925894 -0.23932296 -0.033634827 0.12584291 -0.13068575 -0.028339334 0.0058879154 0.03906444
0.2367081 0.09257823 0.029185705 0.3972409 -0.06580878 -0.8043727 0.43363023 -0.13072102
0.1678017 1.0234752 0.8408694 -0.062528595 -0.14417352 -0.22479182 -0.07055078 0.046570953
0.10011689 -0.1095417 0.10635738 -0.00398007 -0.5324224 1.4551171 1.4115851 1.2463906
-0.29710156 -0.09993215 -0.029028673 0.63078976 0.14640957 0.17933218 0.0027404076 -2.6228557
2.2923849 -1.3235202 -0.050393425 -0.27791008 0.20430927 -0.7495436 0.8418353 -0.06990602
0.1067157 -0.13278122 0.34986144 -0.3168288 -0.6061522 1.1316756 -1.501299 1.1314577
0.905969 0.13035677 -0.036138736 0.05706048 0.6814963 0.5120982 0.5289155 -0.024055302
0.016489403 -0.059859045 0.03006252 -0.007889045 0.010453845 0.019153092 0.010292662 0.0023079189
-0.0068084397 -0.0027500207 0.0043281065 -0.0038614736 0.020770993 0.032209337 0.001010288 0.00055979047
-0.014090698 0.0023003414 -0.010475011 0.0005494377 -0.008582562 0.0011362891 -0.0035468652 -0.0029558332
-0.00027804813 -0.04156892 0.013398933 -0.0007467101 -0.0067180097 0.00642358 0.012213665 0.015371878
-0.008116044 0.0009980549 -0.007290095 0.007931985 0.009240221 -0.0027227125 0.00058456796 -0.008375897
-0.004636547 -0.0040779966 0.004967446 -0.004963463 0.0068945796 -0.0046495213 -0.002648072 -0.0039180527
-0.0020292215 -0.42205662 -0.42458495 -0.3687369 0.04231858 -0.1362027 0.049281087 0.30730474
-0.15867104 0.44661105 -0.2690594 -0.71143085 -0.11634697 -0.15857473 0.17768973 -0.028902419
0.29357576 0.24122547 0.26260886 0.3989618 -0.15587832 -0.123445585 0.09790403 -0.09760748
0.076499544 -0.14867471 0.035334222 0.013408098 -0.027144682 0.0037802882 0.0049771396 -0.017530926

actor.0.bias f4 [128]
00000000: 1b60 c8ba aeb3 44c0 40aa 22bc 8f7e 10c0
00000010: b39b dabe 576e 2cc0 6437 bdbf 5d01 f03a
00000020: a51e 093c 49ff 0fbf da62 3fbc a47a f8bb
00000030: 367a 47c0 43a5 c0c0 c8f5 3ebc 9208 f0ba
00000040: 7953 39c0 14f0 12c0 cfc8 9cb9 5a3c 0ac0
00000050: 4134 b3bf 1ae5 94bb ef67 48bf 0121 16c0
00000060: 5e15 923b e2ab 9cc0 1017 97c0 0486 ebbb
00000070: 262b 8dc0 14b0 04bf 8800 b1be a338 a03b
00000080: 6931 10c0 ae1d 24bc 1610 b5be 702c 17bc
00000090: bc11 c1b9 bfc0 11c0 37b1 b9bb 3739 c6bc
000000a0: 2802 0ebc f2a2 3cbc 1db7 8dbf b5cd a1bc
000000b0: 9a74 97bc 17ca 163c 5ed0 11c0 d6ef 41bc
000000c0: 7377 a1bb da0e 8a3b ab25 61bf 0faa 90c0
000000d0: 48ba 02c0 2d68 85bb 2bf7 b2be 4add a0bc
000000e0: 5193 2dbc 7828 26bb f0ff 88bb 638b 1ac0
000000f0: 268e 9dbb 8538 79bc e69d 35ba 9ae5 81bf
00000100: b473 89be 39e8 d8bf 8797 513c 3769 2ebc
00000110: f61e f33b 0894 ebbb 9d1a 0fbc 6d41 51c0
00000120: 134b 8b3b 6aa3 95bf 880f 16be 1196 9ec0
00000130: e1ce c1bf 3dc7 10c0 40d6 15bc 9166 55bc
00000140: 52d5 02bd 6f0d 40c0 d370 7bbc 090d 53bc
00000150: 33c9 50bb f8db d4bb ae07 8b3a 118b 16bb
00000160: 72b0 d8bb f756 5ec0 9484 2dc0 1315 c8bf
00000170: 0367 d1bf 80f2 22bf 410d 60c0 68df 47bc
00000180: 8d51 7ac0 14c5 4abb 58c6 b8c0 4674 4c3b
00000190: fb92 2f3c ec88 c1be ae91 19bb 6c8e bfbf
000001a0: 0582 a7bf 61c6 66bf d516 e43b 9bde 183c
000001b0: 9740 1ec0 ac02 40bc f685 23bc 08a0 afbf
000001c0: 0dab 44c0 89d0 c8bb f933 83bc 8c9a b1bb
000001d0: 391c e1bf 6373 8cc0 3246 75bb 58a6 eabb
000001e0: 6e05 03bc f392 0fc0 9d99 13c0 7c2f 75c0
000001f0: ca66 efb7 2b1d 5ebf 0488 13c0 2837 abbf
-0.0015287431 -3.0734668 -0.009928286 -2.2577245 -0.42696914 -2.6942346 -1.4782529 0.0018310953
0.008369123 -0.5624891 -0.011681283 -0.0075829793 -3.1168342 -6.0201735 -0.0116552785 -0.0018313101
-2.8957198 -2.2959032 -0.00029904253 -2.1599336 -1.4000322 -0.0045439126 -0.7828359 -2.3457644
0.0044581136 -4.895982 -4.7215652 -0.0071876068 -4.411517 -0.51831174 -0.34570718 0.004889564
-2.2530158 -0.010016842 -0.35363835 -0.009226903 -0.00036825042 -2.2773893 -0.0056668776 -0.024197204
-0.008667506 -0.011513459 -1.1071507 -0.01975141 -0.018488217 0.009203455 -2.2783427 -0.0118369665
-0.0049275695 0.004213196 -0.879481 -4.520759 -2.0426197 -0.0040712566 -0.349542 -0.019636769
-0.010594205 -0.002535371 -0.0041809008 -2.4147575 -0.004808205 -0.015211229 -0.0006928131 -1.0148194
-0.26846087 -1.6945869 0.012792475 -0.010645202 0.0074194623 -0.0071892776 -0.008734372 -3.2696183
0.004250893 -1.1690495 -0.14654362 -4.9558187 -1.514126 -2.2621605 -0.009145319 -0.013024942
-0.03194172 -3.00082 -0.015346724 -0.012881526 -0.0031858205 -0.006495949 0.0010607147 -0.0022971074
-0.006612831 -3.474058 -2.711217 -1.5631431 -1.6359562 -0.63651276 -3.500809 -0.01219926
-3.9112275 -0.0030940222 -5.774212 0.0031197234 0.010716195 -0.37799776 -0.002343278 -1.4965339
-1.3086554 -0.9014645 0.0069607296 0.009330417 -2.4726923 -0.011719387 -0.009980669 -1.3720713
-3.07294 -0.006128375 -0.016015993 -0.0054200348 -1.7586738 -4.3890853 -0.0037425873 -0.007160943
-0.0079969 -2.243344 -2.3062508 -3.8310232 -2.8538885e-05 -0.86763257 -2.3051767 -1.3376207

actor.2.weight f4 [128, 128]
00000000: 32e9 96bc b817 5bbc 94d2 4c3c 6e4c 073c
00000010: 803c 903c b3a3 8cbb 9b58 6ebc 34cc 9dbc
00000020: 9b08 813c d251 273c 0dc4 693c 9e67 0ebb
00000030: c98d 4c3c b462 1f3c 3ebf 38bd 55ab 20bd
00000040: e019 543c bd52 e0bb d753 e73c c699 acbc
00000050: c5ea 62bc 692b 1e3c 806b 25b9 7e2c abbc
00000060: 0c1c 48bd 0b5b ba3c 1184 61bc 249a d7bc
00000070: 5932 cebb 9a01 033d 8c0f a53b 5871 983b
00000080: 7871 d1bb 332b 14bd 37ec 06bc 783d abbc
00000090: e89e 483d fbab 89bc 0d90 d8bc 2ef5 a23c
000000a0: fca9 2c3d fb16 edbc c2ca 54bc 79c1 b83c
000000b0: 4b2b a0bc 2b52 b6bb a61e 903b b6be 53bd
000000c0: 501d ea3c 6b10 2cbd 3c19 a139 5eee 763b
000000d0: 4cb3 3e3d f0dd 42bd 237f d23c 8a12 7b3c
000000e0: 7d9b 85bc a4fd 633c 201f d03c c6d4 a03c
000000f0: 4e44 27bd 4e1a 60bc eff7 82bc 3808 1ebc
00000100: 0748 12bd 2c17 84bb fa4c 153d eca1 f7bb
00000110: 2f50 9e3c 9341 b6bc a889 1b3c c970 30bc
00000120: 009b c9bc f4dd 8ebc ac7c d7bc 8273 77bc
00000130: e505 44bc 2b0b 7bbc cbd1 5ebd 73a1 97bc
00000140: 3f93 5bba 0a37 da3c 326a 6c3c 3628 943b
00000150: 11f6 16bd c1ea 21bd d1a4 77bd f8a4 0e3d
00000160: a235 12bb 1927 1aba d235 973c ade8 abba
00000170: cb44 183c 7965 a0bc c8b1 29bd 71d0 5cbd
00000180: 2d42 1ebd 5ae1 123c 8896 93bb f8d6 033d
00000190: 8129 59bb df4d 6ebb 2a06 553d 0d8d 5c3c
000001a0: d660 3d3c dd14 84bc 2d88 043c 4bfb 073d
000001b0: bf49 e9bb 880b 9a3c 25c8 33bb b2c7 763a
000001c0: 5b39 043c abf6 903c a956 e7bc 2911 693c
000001d0: 82e3 e4bb a2b8 47bc c0b8 133b 632f 75bc
000001e0: 4916 11bb 4f81 173b 8bdf 41bb aac3 c8bb
000001f0: 238d 9bbd a271 243c fe30 42bb cd2f cfbc
00000200: ffc4 2ebc 753c 2a3a 2044 ed3b 62ad dcbb
00000210: 2a88 433c 2f59 eb3c e971 843b 5411 943b
00000220: 590a 0fbd bb41 b3bb e6fa b83c abbe e83a
00000230: 37b8 0d3b 3705 b93c 8b7d d53c cb9a 353d
00000240: 173a e2bb b243 c5bc 5570 423c 317f 54bc
00000250: e939 7ebc 3511 03bb fd9f f2bb 7a47 87bc
00000260: 0909 f2bc 2d9c a03b 067c bfbb 82c8 fa3c
00000270: 9b57 1dbb 12e0 783c a116 6b3c ba01 703c
00000280: 8472 8eba 0240 3cbc 3534 f1b9 5585 553d
00000290: 30d0 1f3c ac5e 623b c070 2c3d ce7f ed3c
000002a0: 6a9f dbbc 0747 75ba 9496 41bb b9c1 a7bc
000002b0: 0fcf 4bbc 99a5 be3b c239 9ebb 8df4 1d3c
000002c0: 3063 1fbd 28e1 11bb ba05 8d3c 4553 c33b
000002d0: c99a e2bb b3db 553c 016f a53c b049 99bc
000002e0: ad7e e03b 8188 f63c 4a7e c03c c627 a0bc
000002f0: 8c82 fdbc 4823 7dbc 8f55 81bc 157c 813c
00000300: 1487 a0bb 98fe 483b 6f5e 00bd 7698 09bd
00000310: 5fd3 72bc 6207 6e3c 8277 923c 0f9a a9ba
00000320: c5fe a33b d299 0e3b deff 02bc 0cb8 7bbc
00000330: 4f6f 89bc 1933 c9ba 9d65 1b3c 0230 243c
00000340: c65f cb3a 9584 44b9 d947 093d 8296 9b39
00000350: 8598 a0bc b780 b6bc bc42 a1bb d155 cfba
00000360: f5e2 30bd 94b6 62bc ae42 42bc f1bc 563b
00000370: 3337 433a 9110 7f3c fc00 5cbb 0654 e8bc
00000380: 68fc 74bc e46d 343d c1a6 f13a c7e2 c5b9
00000390: 9cf6 8d3c 8bbe 39ba d6bb 4f3c decb e73c
000003a0: c5e0 38bc 5aac 26bc 713f 283d 180c debb
000003b0: da66 15bc 37a7 5cbc fcf7 263d 53fd 03bb
000003c0: ae7e 0a3b 77c0 02bd d7ad 0e3d ced9 97bb
000003d0: be40 c33c 6ae7 3ebb 5a58 0fbc dea2 973c
000003e0: 69d1 83bc 420a 083c 1b44 8fbc 409b 833b
000003f0: 1ebf 8ebc 70af 2a3c 96ba e6b7 4cf9 adbb
-0.018421743 -0.013372354 0.012501378 0.008257968 0.017606974 -0.0042919754 -0.014547492 -0.01926241
0.015751174 0.010212379 0.014267934 -0.002172924 0.012484976 0.0097281225 -0.045104258 -0.039225895
0.012945622 -0.0068458007 0.02823822 -0.021069419 -0.013849919 0.0096539045 -0.00015775673 -0.020895239
-0.048854873 0.02274849 -0.013764397 -0.026318617 -0.006292623 0.03198395 0.0050372537 0.0046521835
-0.0063917004 -0.03617401 -0.008235029 -0.020903334 0.04897967 -0.01680564 -0.026435876 0.019892301
0.042154297 -0.028941622 -0.012987794 0.022553192 -0.019551894 -0.0055639944 0.004398185 -0.051695548
0.02857843 -0.042007845 0.00030727114 0.00376787 0.04655771 -0.047574937 0.02569539 0.015324244
-0.016309494 0.013915453 0.025405467 0.019632708 -0.040836625 -0.0136781465 -0.015987365 -0.009645514
-0.035713222 -0.0040310826 0.036450364 -0.0075571444 0.019325344 -0.022248065 0.009493269 -0.010769078
-0.024610043 -0.01743982 -0.026304565 -0.015103223 -0.011964296 -0.015322487 -0.054399293 -0.018509602
-0.00083761284 0.026637573 0.014429616 0.004521395 -0.03685576 -0.03953052 -0.060459916 0.034825295
-0.00223098 -0.000588046 0.01845828 -0.0013115607 0.009293745 -0.019579636 -0.04142931 -0.053909723
-0.03863733 0.008964861 -0.0045040287 0.032187432 -0.003313631 -0.0036362333 0.05200783 0.0134613635
0.011558732 -0.01612323 0.008089107 0.033198636 -0.007119387 0.018804327 -0.0027432528 0.0009413912
0.008070315 0.017695745 -0.028239565 0.014225283 -0.006985129 -0.012190016 0.002254054 -0.014964911
-0.0022138527 0.0023117845 -0.0029582705 -0.0061268406 -0.07595279 0.010036858 -0.0029631252 -0.025291348
-0.010667085 0.0006493994 0.007240787 -0.006734536 0.0119343195 0.02872905 0.0040418995 0.0045186672
-0.034921978 -0.005470482 0.022580575 0.0017757019 0.0021624693 0.022585494 0.02606084 0.044337075
-0.0069038975 -0.024080131 0.011867602 -0.012969778 -0.015516737 -0.001999927 -0.007404326 -0.016513575
-0.029545324 0.00490143 -0.005843642 0.030613188 -0.0024008516 0.015190141 0.014348657 0.014648849
-0.0010867869 -0.01148987 -0.00046006 0.05212911 0.009754226 0.0034541292 0.042099714 0.028991606
-0.026809413 -0.0009356592 -0.0029539214 -0.020478116 -0.012439503 0.0058180806 -0.0048286626 0.009640825
-0.038912952 -0.0022259448 0.017214645 0.0059608542 -0.0069154245 0.013052869 0.020194532 -0.018711895
0.0068510384 0.030094387 0.02349772 -0.019550215 -0.030946039 -0.015450306 -0.015787868 0.015806237
-0.004898915 0.0030669328 -0.03134006 -0.033592664 -0.014820903 0.014528127 0.017879251 -0.001293959
0.005004736 0.0021759165 -0.007995574 -0.015363704 -0.016776709 -0.0015350311 0.009484676 0.010021212
0.0015516214 -0.00018741407 0.033515785 0.0002967604 -0.019603977 -0.022278173 -0.0049212854 -0.0015818422
-0.043185193 -0.013837475 -0.011856718 0.0032766426 0.0007446885 0.015567915 -0.0033569923 -0.028360378
-0.014952756 0.044050112 0.0018436537 -0.0003774373 0.017329507 -0.0007085583 0.012679061 0.028295454
-0.011284058 -0.010172928 0.041076127 -0.006776344 -0.00911876 -0.0134676015 0.04076384 -0.0020140007
0.0021132636 -0.03192183 0.034833755 -0.0046341186 0.023834582 -0.0029129633 -0.008749092 0.018510278
-0.016091065 0.008303227 -0.01748853 0.00401631 -0.017425116 0.010417804 -2.7505022e-05 -0.0053092595

actor.2.bias f4 [128]
00000000: 1d4f 06bd ecc7 26bd e8a0 18bd 8747 c7bc
00000010: 4854 a2bc 69d8 9fbc 133f 5dbd 913b e2bc
00000020: 7374 60bc b83f 5cbd 64d7 c4bc 9f63 b1bc
00000030: 8bd6 49bc 88c9 3abd b116 1fbd c902 30bd
00000040: 624c 08bd 66e4 febc 3be6 47bd ca55 19bd
00000050: 47e9 aebc 4097 8fbd 2b3f 3fbd 5d70 87bd
00000060: bcb0 593a b95b 2fbd d08a 57bd 37d7 1bbd
00000070: ffe8 ddbc 2c27 99bd 43cb 83bd baeb 26bd
00000080: 0b66 7abc 6311 e9bc 8f06 a3bc 742f 06c0
00000090: 6435 97bc eefe 25bd 0bd1 18bd 998d 0dbd
000000a0: a683 2cbd 5392 6fbd 64ff 00bd 1506 f6bc
000000b0: 4e2c 00c0 c073 6abc 3707 5bbd c30c 60c0
000000c0: e385 1abd 003d 07bd f7ed 0abd f3d2 94bd
000000d0: e2bf b1bc fded 06bd 341d 0dc0 a3ad 35c0
000000e0: e526 f1bc 3525 e1be 8486 e3bc 8ab2 3cbd
000000f0: 932b ddbc a857 babc 5e85 05bd 4e08 3b3c
00000100: c391 3dbd bac4 5ebd e2a1 b4bc da67 68be
00000110: ac60 35bc 0eb5 56bc 237c 1ebd 049e 5cbe
00000120: acb7 99bf 9a35 15bc acef 56bd 3b5e d2bf
00000130: 9bcf 95bc 13f4 25bd 98dc 5ebd 385e 03bd
00000140: 011b 09bd 76ab 95bc bce0 0abd 7391 0dbd
00000150: 3bf0 22bc 0fac 20bd 754e ecbc fa3b 3bbc
00000160: 99fc 96bc 7cdb f7bb 3474 28bd 4575 e7bc
00000170: 5b27 6ebd ab86 e7c0 eb4f 80bd 3cb6 0ebd
00000180: 5545 24bd d076 26bc 22e9 2abd c188 5cbd
00000190: 158d b8bc e693 23bd a8e7 a93e 8b22 81bf
000001a0: 8d50 bdbf ceac b4bc d233 cfbb 0de4 c5bc
000001b0: b08c b7bf 4aeb 6bbd 3c3e 3dbd 6873 e6bc
000001c0: 6ac9 83bc fd2a ebbc 6d38 08c0 c99f 10bd
000001d0: 6ee1 fbbc 8804 76bd 46b9 6dbf 234c 3ebd
000001e0: 6deb 5bbd a483 44bd 9fb1 41bd 6104 30bd
000001f0: 73fb 1fbd 517f 76bd 4788 0fbd 0583 5dbc
-0.032790292 -0.040718004 -0.037262827 -0.0243261 -0.019815579 -0.019512372 -0.05401523 -0.027616294
-0.013699639 -0.053771704 -0.024028488 -0.021653948 -0.012319217 -0.04560235 -0.03884 -0.042971406
-0.03327597 -0.031114768 -0.04880355 -0.03743533 -0.02135147 -0.070112705 -0.0466911 -0.066132285
0.00083042285 -0.042812083 -0.052622616 -0.03804704 -0.02708864 -0.074781746 -0.064352535 -0.04075215
-0.015283118 -0.028450673 -0.019900588 -2.0966463 -0.018458076 -0.040526323 -0.037308734 -0.034558866
-0.042117737 -0.058489155 -0.03149356 -0.030032197 -2.0027041 -0.0143098235 -0.053473677 -3.500779
-0.03772534 -0.03301716 -0.033918347 -0.07266798 -0.021697942 -0.032941807 -2.2049074 -2.838723
-0.029437492 -0.439737 -0.027774103 -0.046068706 -0.026998317 -0.022746876 -0.032597892 0.011415554
-0.046281587 -0.05438683 -0.022049848 -0.22695866 -0.011070412 -0.01310469 -0.038692605 -0.21544653
-1.2009177 -0.009107018 -0.052474663 -1.6435007 -0.01828747 -0.04051597 -0.054409593 -0.032072276
-0.03347302 -0.018270236 -0.03390573 -0.03456254 -0.009944971 -0.039226588 -0.028846005 -0.011427874
-0.018430995 -0.0075640064 -0.041126445 -0.02825416 -0.058143 -7.235189 -0.06265243 -0.03484176
-0.040105183 -0.010160163 -0.04172624 -0.053841356 -0.02252821 -0.03993597 0.33184552 -1.0088667
-1.4790207 -0.022055056 -0.006323316 -0.024156595 -1.433981 -0.057597436 -0.04620193 -0.028131202
-0.016087253 -0.028707022 -2.128444 -0.035308633 -0.030747142 -0.060062915 -0.9286083 -0.04645933
-0.053691316 -0.047977105 -0.047288533 -0.042972926 -0.03905816 -0.060180012 -0.035042074 -0.013520007

actor.4.weight f4 [6, 128]
00000000: e310 87bb e19d 02bb 8d44 4b3b 41dd aa3b
00000010: 1d74 223b 78e1 76ba 1ec7 a9bb b23e cfbb
00000020: 2409 abba a0a2 953b bfa3 81ba c8a7 6ab9
00000030: c2e6 67b8 c2dc bcbb a848 cebb 278d 7f39
00000040: f8a7 1d3b 4768 ce39 eb9f b7bb 3f6b 6dbb
00000050: e6a6 c2bb 2638 a7bb 2916 1a3a bb52 1bbb
00000060: ee5b 7aba bf8d 0fbb f0c5 ea3a 635a 99b9
00000070: c9b8 9dbb b7cf 07b9 6000 0ab9 cbf7 723b
00000080: ad61 a83a e77f fabb d165 c73a e181 f2bd
00000090: 68d0 b7bb 2f04 c3ba de01 843b 594c 33bb
000000a0: f2e3 003c 64ca 753b 6bb1 47bb 1ce7 48bb
000000b0: f7b1 25bd 8e1a 17bb de68 0d39 0fea 7dbc
000000c0: 6b3a 22bb 756e 25bc 1236 09ba e549 f638
000000d0: fab1 27bb 6ea8 6a3a 8c8c b63a 484f eb3c
000000e0: f0bd efbb 7f4b fb3d 706e 993a 87fd b1ba
000000f0: 8376 103b 3c1b c5ba 1105 07bb abba 4bbb
00000100: 2962 07bc 3817 58bb 81f2 5bbb 04ac 07be
00000110: d739 9ebb 1e02 99bb f93a 443a eb0a 853d
00000120: 9877 f53c 15bd b1ba af0e 9bbb 08fa 0e3d
00000130: 2cc1 33bb 8404 3abb 6247 fd39 03c1 a8b9
00000140: b482 a0b9 df4a 1cbb cb56 5b3a 63c7 3f3b
00000150: 682e 45bb bf1d 31bb 6acd 3bba 53fc 1ebb
00000160: 866e 0fbb c467 57ba 7273 7dbb fdd3 deba
00000170: 28b9 0bbb c7cd a3be 0004 06ba 1b76 9839
00000180: a31e 033b 91aa 6d39 1987 80bb 8456 a6bb
00000190: 588c e7b9 581e bcbb 5e04 7b3d d426 863d
000001a0: 3532 bbbd 0ddb c73a 452e bdba bc75 31bb
000001b0: 1bbc c1be 42c1 b4ba 12ff df39 2746 b7bb
000001c0: d253 76b9 25a1 7cbb 3fcf 75bd cbda c13a
000001d0: 0701 e6b9 2565 6dba f66f 533d c8e5 38bb
000001e0: 4f6f 863a 88c3 153a fcd7 ca3a 60b3 a638
000001f0: 005c 4bbb 4e88 553c 32f0 bfba 9bc2 12bb
00000200: 2f46 80bb 6839 453a 78e1 aa3a d5d0 b539
00000210: 5753 9cbb ca64 31b9 efdb dc3b b17a d0bb
00000220: 1bdd fcba 7ddf 013b 0e79 8a3b 4670 713b
00000230: bbc7 c5b9 56db 8dbb aa02 e23b 8f1a 4e3a
00000240: 0363 b7bb f640 88bb a913 8f3b b66c 24bb
00000250: 9524 b2bb 570d 013c 0c78 ab3b b2cc f33b
00000260: 49db 4fbb 0bc2 47bb ded6 3dba 7b40 24bb
00000270: c88c 023c 3fe3 ea3a 9af0 0abb c82d 4fbb
00000280: 48ab 123a a1bc b53b 8d39 ce3a da7b 93bc
00000290: 215e f9bb f2da 793b a7aa 553a 648f ee3a
000002a0: 091d 183a 2bc4 e53b da7f c6bb 0ae5 bbba
000002b0: a6ed 383d e596 bcbb 6a36 c2ba 98d6 ecbb
000002c0: 52e8 42bb 481e 09bc 4142 e0bb 3b6f 9cba
000002d0: 0b56 2dba 927b 7ebb 7ee8 6d3d 1f33 de3c
000002e0: 59b2 263a 1921 8a3d 4778 58bb 516a 82bb
000002f0: 4105 8f3a 7ed2 0c3b bbe5 c1ba 4511 c2bb
00000300: d83a bcbb c7dc 85b9 ff16 f63a c39a f4bc
00000310: 6c6a c23a b262 dd3a 10ff 8a3b c3af ef3c
00000320: 4a7f e138 2814 4d3a ad82 81bb 6f4e 91bc
00000330: 4b68 95bb f4a3 ecbb e8d4 bebb 023f f4ba
00000340: 7ed7 4cbb 3407 afbb 10e1 233c 1e81 aaba
00000350: 71fe bd39 8bdf b33b 2d6e 44bb c4ca 9bbb
00000360: b5d3 173b 8343 e5bb d302 c8ba 4153 233b
00000370: d46e 883b c18c 67bc 0676 df3b b13f 61bb
00000380: c3a0 8639 6a61 ceba 86ad 6b3a 7dbf 833b
00000390: 36f6 98bb 2044 f6b8 fa51 833e 233d 25bd
000003a0: 6f08 053e 9579 57bb 1e0d 7c3b f19c 05bc
000003b0: bcd1 abbc 1acf b43b ef86 693b 10bf 993b
000003c0: 0a82 c93b 0e7b a1bb 6d4b a5bc 2390 19bb
000003d0: 0eee 59bb 5096 e1ba 265f 02be 2bae b33a
000003e0: dd31 81bb 4364 8f3a 7870 43ba 7f55 393a
000003f0: 0563 1ebb afd7 aa3b 3069 be37 7e80 883b
-0.004121886 -0.001993053 0.0031016201 0.005214364 0.0024788447 -0.0009417753 -0.0051812073 -0.0063246125
-0.0013048989 0.0045665056 -0.0009890719 -0.00022378482 -5.52896e-05 -0.005763621 -0.0062952824 0.00024371278
0.0024056416 0.00039369075 -0.0056037805 -0.0036227254 -0.005940306 -0.005103129 0.0005877936 -0.0023700434
-0.0009550442 -0.0021904556 0.0017911773 -0.00029249777 -0.004813288 -0.00012951983 -0.00013160845 0.0037073966
0.0012846492 -0.0076446417 0.0015212839 -0.11841179 -0.0056095608 -0.0014878566 0.004028543 -0.002735874
0.007866846 0.0037504667 -0.003047074 -0.003065533 -0.040452924 -0.00230566 0.00013485874 -0.015497698
-0.0024754058 -0.010097136 -0.00052341924 0.00011743958 -0.002558826 0.00089514896 0.0013927384 0.028724328
-0.0073163435 0.12270259 0.0011705887 -0.0013579585 0.0022043295 -0.0015038024 -0.0020602385 -0.0031086605
-0.008263149 -0.0032972824 -0.0033561292 -0.13249213 -0.0048286724 -0.004669442 0.0007485594 0.06496223
0.029964253 -0.0013560379 -0.004731975 0.034906417 -0.0027428372 -0.002838404 0.00048309105 -0.00032187262
-0.0003061496 -0.0023848338 0.000836712 0.002926313 -0.0030087475 -0.0027025787 -0.0007164093 -0.0024259284
-0.0021885945 -0.00082170614 -0.0038673547 -0.0017000433 -0.0021320079 -0.31992933 -0.00051122904 0.00029079695
0.0020007275 0.00022665622 -0.003922355 -0.0050762314 -0.00044164318 -0.005740922 0.06128346 0.065503746
-0.091404356 0.0015247777 -0.0014433345 -0.0027078232 -0.37838826 -0.0013790505 0.00042723917 -0.0055930796
-0.00023491614 -0.0038548198 -0.0600121 0.0014789937 -0.00043869784 -0.0009055904 0.051620446 -0.0028213132
0.0010256561 0.00057130354 0.0015475745 7.948908e-05 -0.0031030178 0.013032986 -0.0014643727 -0.0022393826
-0.0039146165 0.0007523508 0.0013037166 0.00034678602 -0.004770677 -0.00016917582 0.0067400853 -0.006362282
-0.0019291969 0.0019817047 0.0042258566 0.0036840602 -0.0003772358 -0.0043291254 0.0068972902 0.0007862234
-0.00559652 -0.0041581346 0.0043663573 -0.002508921 -0.00543649 0.007876716 0.0052328166 0.007440173
-0.0031716397 -0.003048065 -0.00072417955 -0.0025062847 0.007968135 0.0017920508 -0.0021200539 -0.003161298
0.0005594981 0.005546168 0.0015733704 -0.018003393 -0.007610098 0.0038124886 0.00081507344 0.0018200693
0.00058026664 0.0070119104 -0.0060577216 -0.0014335227 0.045148514 -0.0057552927 -0.0014817242 -0.00722773
-0.0029740524 -0.008369036 -0.0068438356 -0.0011935005 -0.00066122477 -0.0038830978 0.05808305 0.027123986
0.00063589733 0.06744594 -0.0033030675 -0.003979959 0.00109116 0.0021487768 -0.0014793196 -0.005922469
-0.0057443194 -0.0002553223 0.0018775164 -0.029858952 0.0014832742 0.0016890375 0.0042418316 0.029258614
0.000107525455 0.0007823133 -0.0039523453 -0.017737595 -0.004559552 -0.007221693 -0.0058237202 -0.00186345
-0.0031256373 -0.005341435 0.01000239 -0.0013008451 0.00036238463 0.005489295 -0.0029972896 -0.004754396
0.0023166959 -0.0069965734 -0.0015259631 0.002492145 0.0041636024 -0.014132679 0.0068194894 -0.0034370238
0.00025678248 -0.0015745584 0.00089903956 0.00402063 -0.0046680225 -0.00011742883 0.2564848 -0.040341508
0.12991498 -0.0032878865 0.0038459967 -0.0081550935 -0.020974033 0.0055178525 0.0035633405 0.004691966
0.006149535 -0.0049279993 -0.020177567 -0.002343186 -0.0033253464 -0.0017210934 -0.12731609 0.0013708522
-0.0039427117 0.0010939915 -0.0007455419 0.000706993 -0.0024167907 0.0052137 2.2698747e-05 0.004165708

actor.4.bias f4 [6]
00000000: 83b9 a93f 6bfe b0be 9e41 e4bc 6caa 3a3f
00000010: 08ee ab3d 4920 c73e
1.3259739 -0.34569106 -0.02786332 0.72916293 0.0839501 0.3889182

critic.0.weight f4 [128, 25]
00000000: 158a 30bf f477 6dbd ca67 463e 5789 733b
00000010: 4f81 7d3e 3623 9e3e 7fd2 883c 520f c23c
00000020: fdb0 08bd 917c 31bc 629c be3b 38e6 8abc
00000030: a3c9 e0bc 580e 36c0 9de9 3540 d65f 043f
00000040: 5ff0 09be f56f d93d 3948 933f e701 7fbc
00000050: 71c3 c6bc 7c3f 4dbc aabf cf3b 7899 6b3d
00000060: ddcb a53d 177b 43be 524c ffbe b58a 053f
00000070: d107 5cbe 96ef 423f c674 443e 42c9 15bc
00000080: f5b3 693a 8473 383c 6938 14bc b081 1fb9
00000090: d54b a23b 5368 ef3f 24e3 0cbe 691c 8a3f
000000a0: 0d6b c4bf c536 673e a4de e0bf 7aab da3f
000000b0: 454a e0bc 4a68 7abc 465e 2f3c 6d56 acbc
000000c0: 4b79 a63c 94b4 8bbc 8bdf d23d 4944 853f
000000d0: 60a4 9bbf 6ba6 c53f 65a9 393f 94f5 08c0
000000e0: 5940 a0bc e752 a93d 0ed7 98bd 2d1e f73c
000000f0: e973 27bc 8dc1 de3a 0c06 503d 846f 1bbe
00000100: d893 a23d 7bb9 8dbf f21e 72bf e8be 85bf
00000110: 8d9c 983f 3fc1 69bc e7d0 4b3b a25f 803b
00000120: 9ce3 92bb f9a4 203d 2beb 81bc 6d4c 7d3e
00000130: 0f3d 953e 9322 d4bc c8e1 4cbe e601 923e
00000140: 18ab a03e 653c 6abc 1d00 e03c cf75 f03a
00000150: 5b90 08ba 777d 05bd 3b9f bebb 604a a03f
00000160: 2ec1 e3bf 2b0f 493f 600d 1dc0 9eb0 adbf
00000170: 5ca4 0340 ae14 3040 89b2 1ebb b92e a0bb
00000180: 5dcd 35bc 413a 22bd 0a22 7a3c 72f8 01bb
00000190: 7d3f 8c3e 050a fd3e a6f3 55bf 0d0a 503f
000001a0: 6199 18bf aabc 8dbf d442 353d 3be1 083d
000001b0: f8d3 66bc 661d f43c f591 1bbc e188 3a3c
000001c0: 17b4 663d e75f 433f 3fbb 00bf 9faa d9bf
000001d0: c7a3 a53f 14d3 4740 c499 05be 43e0 b63c
000001e0: 353d 01bd 3968 89bc a2ed dabc cb15 99bc
000001f0: 3136 ca3c b177 eabe 2139 2fbe f27e 573e
00000200: 9fd9 eabe 0ca4 a2bd bff9 10bf 9548 353d
00000210: 4496 47bd 77a5 fcbb ef66 9a3c 1c11 1cbd
00000220: c348 10bd cf03 adbf 2cc1 8e3f 5a7d 503f
00000230: 8e31 db3f 5c0c ed3f 5196 50bf 2854 8d3f
00000240: 0bd5 043d e0c9 7ebc 2607 613c fe24 293d
00000250: 34d7 26bc 43ff ad3c 313e 8a3f 42ee d83c
00000260: 1d39 36be eecd 47bf 147d 04c0 12e3 ae3f
00000270: 29c6 6a3b 0049 5cbd cf58 283d ae81 753c
00000280: 6dec ab3b 47ce 5e3d 3790 583e 5775 3abd
00000290: cc2b 433e 7020 f53f 1a3e db3f cde3 19bf
000002a0: 65e9 b23f 04b7 173b 3545 483c f27b 22bc
000002b0: e51e 37ba a2e8 023d 42a0 003d 9305 5ebf
000002c0: da94 173f 4e4e e43d 60ca 12be 04c8 ca3f
000002d0: 83b2 a3bf 0ec1 323c 37aa 4d3d 71bb 87bc
000002e0: c2ab 173c b68a 443d 52ef f83c b337 903f
000002f0: f8d9 42bf 2495 923e 09ee 1640 0c43 2c3e
00000300: c2b6 00c0 19e3 01c0 0e36 bcbc 25f4 50bd
00000310: e247 623c 2d9e 78bc 8d99 eebb 4c36 4c3b
00000320: 6c61 173e 0337 9a3f e045 efbf e68c 0140
00000330: f7ea 953f 2c96 c4bf a259 09bc 0304 d43d
00000340: b5c7 cebd cc77 413c 3bef 84bc fb43 2c3b
00000350: d239 eb3d c941 3f3e 6f0e 433e 71ac f83e
00000360: 4c43 d73f f4a3 fc3e 1318 a2bd 481a ebbc
00000370: e5ae 9f3c 20a3 7d3b 86f3 ccbc 877d 9ebb
00000380: 880a 79bc ec19 00be 50ab 7bbe 1412 163e
00000390: 3a02 2fbf e910 263f e3eb d1bf c8ff 893c
000003a0: 6e68 5abd b4a0 7a3d 6c6c 243c 4b57 87bb
000003b0: 0f1a 2b3c 280c c2be be8c 45be 84e6 81bd
000003c0: ecc8 c5bd 0b30 a33f ed60 bd3f 34a5 29c0
000003d0: 6f1b 353d 1bc1 d5bc 191c 0ebc d386 0bbd
000003e0: 434a 983b ccef 423d 9967 b0be 5ce4 aa3d
000003f0: d917 823e 2c1a e7be 1f75 83be cc28 13be
-0.68960696 -0.057975724 0.1937553 0.0037160718 0.24756359 0.3088624 0.016701935 0.023688946
-0.033371914 -0.010832922 0.005816982 -0.01695548 -0.027439898 -2.8446255 2.8423836 0.51708734
-0.134706 0.10617057 1.1506416 -0.015564418 -0.024263116 -0.012527343 0.006339987 0.057519406
0.080955245 -0.19089924 -0.49862915 0.52164775 -0.21487357 0.7614683 0.1918517 -0.009142222
0.00089150603 0.01125801 -0.009046652 -0.00015211734 0.0049528875 1.8703712 -0.13758522 1.078992
-1.5345169 0.22579487 -1.7567945 1.708358 -0.027379164 -0.0152836535 0.010703629 -0.021037305
0.020321509 -0.01705388 0.10296544 1.0411464 -1.2159538 1.5441412 0.725241 -2.139989
-0.019561933 0.082677655 -0.074628934 0.030165756 -0.010220506 0.0016994938 0.050787017 -0.15179259
0.07938355 -1.1072229 -0.9457847 -1.0448885 1.1922776 -0.014267265 0.0031099857 0.0039176503
-0.0044826996 0.03921983 -0.015859207 0.24736185 0.29148147 -0.025895393 -0.20008004 0.28517073
0.31380534 -0.014296626 0.027343804 0.0018345657 -0.0005209499 -0.032590356 -0.0058173216 1.2522697
-1.7793329 0.7853877 -2.4539413 -1.3569524 2.0569067 2.7512622 -0.0024215302 -0.0048883823
-0.011096326 -0.039606337 0.015266905 -0.0019831923 0.27392188 0.49421707 -0.83574903 0.81265336
-0.5960904 -1.1073201 0.044253185 0.03341792 -0.014088623 0.029799175 -0.009495248 0.011385174
0.05632409 0.7631821 -0.50285715 -1.7005194 1.2940606 3.1222582 -0.13046938 0.022323733
-0.031552512 -0.01677333 -0.02672464 -0.01868715 0.024684044 -0.45794442 -0.17111637 0.2104452
-0.45869157 -0.07941446 -0.5663108 0.044258673 -0.04872729 -0.0077101546 0.01884791 -0.038102254
-0.03522564 -1.3516787 1.1152701 0.8144127 1.7124498 1.8519397 -0.81479365 1.1041307
0.032429736 -0.01555106 0.0137346145 0.041295044 -0.010183144 0.021239882 1.0800229 0.026480798
-0.17795224 -0.780486 -2.0701342 1.3663046 0.003582368 -0.053780556 0.04110032 0.014984531
0.00524669 0.05439594 0.21148764 -0.04552206 0.19059676 1.9150524 1.7128327 -0.6011322
1.3977476 0.0023149857 0.0122235315 -0.009917246 -0.00069854996 0.031960137 0.031402834 -0.86727256
0.59211504 0.11147748 -0.14335012 1.584229 -1.2788852 0.010910286 0.050211158 -0.016568871
0.009257259 0.047983848 0.030387554 1.1266998 -0.76113844 0.2862941 2.3582785 0.16822451
-2.0111547 -2.029486 -0.022974994 -0.051014084 0.0138110835 -0.015174431 -0.0072814883 0.0031160293
0.14783257 1.2048038 -1.8693199 2.0242248 1.171233 -1.5358329 -0.0083831865 0.10352328
-0.10096685 0.011808347 -0.016227355 0.0026285637 0.11485638 0.18677439 0.19048475 0.48569062
1.6817412 0.49343836 -0.07914748 -0.028699055 0.019492576 0.0038701966 -0.025018465 -0.0048367414
-0.015200265 -0.12509888 -0.2457707 0.14655334 -0.6836277 0.6486955 -1.6400112 0.016845599
-0.05332225 0.061188415 0.010035615 -0.004130279 0.010443225 -0.378999 -0.1929197 -0.063427955
-0.096574634 1.2749037 1.4795204 -2.6507082 0.044215616 -0.026093056 -0.008673691 -0.034064125
0.0046475246 0.04759197 -0.3445404 0.08344337 0.2540882 -0.45137155 -0.25675294 -0.14371032

critic.0.bias f4 [128]
00000000: 0f69 34c0 b72d e9c0 93c0 c5c0 49fb bfbf
00000010: 565a 57c0 5e2b 3fc0 fd98 07c0 0d46 8cc0
00000020: b5a5 45c0 46f9 6cbf bdbf 96c0 320d 9ec0
00000030: a914 8ec0 06fb 98c0 a8db 35c0 7458 05c0
00000040: 000e 90c0 7be5 8bc0 95bb 45bf 8d54 17c0
00000050: 22bc 9fc0 0e50 0dc0 7950 31c0 ba3d 82c0
00000060: 2dae 47c0 8742 09c1 038a e03f 209f 45c0
00000070: 383d 8cc0 7db5 18c0 8d02 65c0 f608 d0c0
00000080: 7274 4bc0 e29f dabf 8882 c1c0 a72d a03f
00000090: 698c 45c0 f307 50c0 3f2e 57c0 10d3 98c0
000000a0: 2618 d4c0 dc4b 97c0 5c42 8ec0 5624 1a40
000000b0: 474b 9fc0 c120 a2c0 84ef 8cc0 4e36 e2bf
000000c0: 2f1c 9bc0 396d a73c 19fa 8ac0 82db 05c0
000000d0: 8ba6 42c0 2e99 06c0 3aee 18c0 1beb 04c1
000000e0: fec8 8ac0 8171 9dc0 55c7 61c0 57ab 9cc0
000000f0: 835f acc0 4e8c 83c0 bd74 69c0 18c8 aabf
00000100: 2c11 4dbf 4c7d bd3f 3738 8cc0 e5b0 e4c0
00000110: 2a60 1ac1 d41b eebf 8b8d e5c0 7861 f0c0
00000120: 7660 c2c0 7407 10c0 8c32 01c0 30da 48c0
00000130: e658 27be 19b9 8ac0 e990 4cc0 337b b7c0
00000140: 94a0 52c0 064c 21c0 a61d 10c0 3866 993e
00000150: cea4 43c0 d280 bac0 04df 3ec0 4312 2fc0
00000160: da58 63c0 c046 aec0 3d51 cabf c667 c2bf
00000170: 7adc dfbf 2ff3 ccc0 2cfd b3c0 c0d8 adbe
00000180: 20b4 47c0 9904 bac0 96dd 1cc0 da07 16c0
00000190: 2e12 2e3f bf7e fcbf e906 82c0 b7a0 95c0
000001a0: ec79 1dc0 8f50 35c0 7c93 d7c0 6bc1 cec0
000001b0: effe 1dc0 c07d cfc0 9992 ccc0 7d4e 78c0
000001c0: 2839 e1c0 f8c0 86c0 1d84 48c0 aef7 41c0
000001d0: de13 39c0 6bbf 94c0 fa37 1bc0 6139 27c0
000001e0: bb37 e7c0 7cb1 3cc0 c8bf 7ac0 c030 2bc0
000001f0: d64e 32c0 0225 e0c0 46c9 24c0 7151 1fc0
-2.8189123 -7.2868304 -6.1797576 -1.4998561 -3.3648887 -2.987022 -2.1187127 -4.383551
-3.088239 -0.9256786 -4.7109056 -4.9391108 -4.440022 -4.7806425 -2.8415318 -2.0835238
-4.501709 -4.3717628 -0.7723935 -2.3645356 -4.9917154 -2.2080112 -2.7705367 -4.070035
-3.1200058 -8.578742 1.7542118 -3.0878372 -4.382473 -2.3860772 -3.5782807 -6.501094
-3.1789823 -1.7080042 -6.047184 1.2513932 -3.086695 -3.2504852 -3.3621976 -4.7757645
-6.627948 -4.72801 -4.4456005 2.4084678 -4.977939 -5.0664983 -4.4042377 -1.7672822
-4.8471904 0.020437824 -4.3430295 -2.0915227 -3.041415 -2.1030993 -2.3895402 -8.307399
-4.337035 -4.9201055 -3.5277913 -4.8959155 -5.386659 -4.110877 -3.6477501 -1.3342314
-0.8010433 1.4803863 -4.381862 -7.1465936 -9.648478 -1.8602242 -7.173528 -7.511898
-6.074275 -2.250455 -2.0187101 -3.138317 -0.16342506 -4.335095 -3.1963446 -5.733789
-3.291051 -2.520265 -2.2518096 0.299608 -3.0569339 -5.828225 -2.9823618 -2.7354896
-3.552298 -5.4461365 -1.5806042 -1.5187919 -1.7489159 -6.4046855 -5.624655 -0.3395443
-3.120369 -5.813061 -2.4510245 -2.3442292 0.6799649 -1.972618 -4.0633435 -4.6758685
-2.4605665 -2.833042 -6.7367535 -6.4611106 -2.468685 -6.4841003 -6.392895 -3.8797905
-7.038227 -4.2110558 -3.1330636 -3.0307422 -2.8918376 -4.6483665 -2.4252915 -2.6128771
-7.225553 -2.9483328 -3.9179554 -2.6748505 -2.7860618 -7.0045176 -2.5747848 -2.4893458

critic.2.weight f4 [128, 128]
00000000: 2468 933f 7472 9d3f 1f67 063f ea91 3abf
00000010: a8da 10c0 2a0a 20c0 cbe1 d1be f5ae 1340
00000020: 49b2 3dc0 6034 dc3e 2bd5 55be be6f 843f
00000030: 3e97 623f 6244 af3e 5d98 94bf b091 2fc0
00000040: d0fe b33e 7732 20bf 9552 e73e 4936 87bd
00000050: 5cc9 ac3f dae7 1b3f 16c7 443e a6e8 c33f
00000060: 26f7 b03f 5180 433f 2d5a 56c0 715c c13e
00000070: b53d 6fbf 4245 2fbf ce6c 1fbf 63f0 3b40
00000080: 29f4 7ebf 5f2d 743f 10d0 d83f 060c c3bf
00000090: 813e 92bd ed5b cd3f b88d dbbc bf4f 94be
000000a0: 41ab 2a40 2c87 2740 bb4f 3ebe 76a0 0ec0
000000b0: 311f 3e3f d3f4 7dbe cb61 433f bd16 96bf
000000c0: 94f1 5e3e f197 89bf 9e68 3f3f 704f 913f
000000d0: 0df9 a83e 082f 48be 4313 9ebf c835 0640
000000e0: 317e 0c40 1e7e 813f 2f52 1340 6cd6 9bbf
000000f0: 7da8 393f 7bf4 d23e 8f72 32c0 7f30 afbf
00000100: 0f64 66bf 501b 453e 2848 8abf d091 c83f
00000110: 6aa9 d83f b334 263f ed63 d83f 36ae fe3d
00000120: 0d3f 163f 367e e43e 4be0 88bf 994e 0bbf
00000130: 3ae7 2ebf 9b29 58bf 646d 06c0 ee50 ebbf
00000140: 6cec 1bbf 447d d9bd 0c43 583f f4b7 03c0
00000150: 7686 9f3f 5975 9cbb 766e e0be 7c7d 443f
00000160: e9f2 29bd 0986 9fbf babf 5bbf dfc3 1bc0
00000170: 630b 753e fbaf ccbd c954 243d 2a5c 7cbf
00000180: 61cf b0bf edbb 8f3f 26ca 2c3f e457 003f
00000190: 6be6 4cbe 59aa 1bc0 4dd9 743e 9540 a83f
000001a0: f0c7 abbe 5fbb 773f c36f 1340 c5d1 05bf
000001b0: 25d2 d73f f94c 7ebe f4b3 0340 c808 053e
000001c0: cb33 2640 3d2a 69bf e5dd f6bf 1159 3540
000001d0: e138 02be 7375 4f40 cd04 bf3f fba4 17bf
000001e0: a93a b540 de4e 53bd 1522 5d3f 4c62 ed3e
000001f0: 3afe 593e ae3a 0240 12b2 1ebe d6d3 11c0
00000200: ba2f ec3d 48a6 4e3f efac 383f 8e66 523e
00000210: fad6 10bf b8ce 4e3f 09de 85be 142d 83bf
00000220: 411c b8be f51e 7cbf 5c79 363f 6a1c 843e
00000230: 69ff 083f 045f 033f d1e3 cc3e f160 af3e
00000240: a505 5e3f cab6 a4bf aaba afbd 21c1 813f
00000250: f808 f6be 06d9 b8be bd2c 523f 96c9 9abf
00000260: ea99 0a3e 7288 433f 47b2 37bf a9cf 263f
00000270: d646 6dbe ec1f 603d a553 133e c6da 3d3f
00000280: 8cab 173e 5f96 28be 8b8b ce3e d874 a2be
00000290: 1b15 9bbe f6fd 55bf ef31 c0bf d19f 6b3e
000002a0: 8b5c c5bd 709a b93e 196a 023e d56f 5fbf
000002b0: 9b80 11be cf44 4b3f 680b 09bf a741 273b
000002c0: 4629 163f 7e2c 51bf fe72 0c3f a138 e3bf
000002d0: 1242 1ebf 3b79 5f3e b41a b3bf 74c9 0240
000002e0: 9f94 d33f c1b5 e23f a2ea 773f 0035 25bf
000002f0: 472f e93e 71d7 2d3d 8777 c73f 747d 4bbf
00000300: e2c2 0cbd 4247 303c 32db 2dbf 1afa d43f
00000310: 627b 983f 4b9b ee3c 84a1 b83e f360 97bd
00000320: e0fc 2fbb dbf5 38bf 14d4 b1bc 53f2 f3bf
00000330: 2900 b9bd b1ba 2c3d 930d 98be 30b3 52be
00000340: e3df 9a3f b82d 24bf ba4f 333f 25d4 fd3e
00000350: 3edc 3ebf 5933 ecbf 151f e93d cb9b ccbe
00000360: 500f 1d3f 1064 153f 9bb7 a0bd 87b7 52bf
00000370: c173 a6be eb49 9ebe 9d9e 29bf 9e23 af3d
00000380: b792 7abe 9ec6 c83e 18cd 7dbf 253d 3f3e
00000390: 4069 c03e e816 32bf d5e7 aa3e ad06 8f3e
000003a0: 5ee8 35bf 7f93 0d3f 3400 893e d663 923f
000003b0: c36b b63e 3201 4ebe 3fab 8c3f 427e 57bf
000003c0: 0b49 f23e 7369 843f 30ba 76be 3ad7 73bf
000003d0: 6512 8a3f 44ea ad3e 672b 283f dd76 11bf
000003e0: fd48 393f ba3d 233f 09a5 5dbe f561 3dbf
000003f0: d693 993f 8619 05bf 3e9e 87be a80d 8fbe
1.1516156 1.2300553 0.525011 -0.728789 -2.2633457 -2.5006204 -0.4099258 2.3075535
-2.9640067 0.4300871 -0.20882098 1.0346601 0.8851203 0.3423186 -1.1608998 -2.743267
0.35155344 -0.62577003 0.45180193 -0.06602151 1.349895 0.6090065 0.1921657 1.5305374
1.3825424 0.7636767 -3.349254 0.3776584 -0.9345353 -0.68465054 -0.622754 2.936547
-0.9959131 0.9538173 1.6938496 -1.5238044 -0.07140828 1.6043679 -0.026800975 -0.2896709
2.6667025 2.6176252 -0.18585102 -2.2285438 0.74266344 -0.24800424 0.76321095 -1.1725689
0.21771842 -1.0749494 0.7476901 1.1352367 0.3300251 -0.19549191 -1.2349628 2.0970325
2.195202 1.0116613 2.301891 -1.2174811 0.7252272 0.4120215 -2.788242 -1.3686675
-0.8999643 0.192487 -1.080327 1.5669498 1.6926701 0.6492416 1.6905495 0.12435572
0.5868996 0.4462754 -1.0693449 -0.54416806 -0.68321574 -0.84438485 -2.1004267 -1.8384073
-0.60907626 -0.10619596 0.84477305 -2.0581026 1.2462909 -0.004774731 -0.43834275 0.76753974
-0.041491423 -1.2462779 -0.85839427 -2.43383 0.23930125 -0.09994503 0.04011992 -0.9857813
-1.3813287 1.1229225 0.67495954 0.5013411 -0.20009772 -2.4322722 0.23911019 1.3144709
-0.33550978 0.9677028 2.3036964 -0.5227321 1.6861006 -0.2483405 2.0578585 0.12991631
2.5969112 -0.91080076 -1.9286467 2.8335612 -0.1271701 3.2415435 1.492334 -0.59236115
5.6634107 -0.051588885 0.8638013 0.46364057 0.21288386 2.0348315 -0.15497616 -2.2785544
0.115325406 0.80722475 0.72138876 0.20546934 -0.5657803 0.8078418 -0.26145962 -1.0248132
-0.35959056 -0.98484737 0.7127893 0.25802928 0.53514725 0.5131686 0.4001756 0.34253648
0.8672736 -1.2868283 -0.08580525 1.0137063 -0.48053718 -0.36103076 0.82099515 -1.2092769
0.13535276 0.76380074 -0.71756405 0.65160614 -0.23171553 0.054717943 0.14387377 0.74161947
0.14811534 -0.16463612 0.40340838 -0.3172977 -0.3028954 -0.8359064 -1.5015239 0.23010184
-0.09636792 0.3625064 0.12735786 -0.8728002 -0.14209215 0.7940187 -0.5353303 0.002552131
0.5865673 -0.81708515 0.54862964 -1.7751657 -0.61819565 0.2182359 -1.3992524 2.0435457
1.652973 1.7711717 0.96842396 -0.64533997 0.45543882 0.04244179 1.5583352 -0.794883
-0.034365542 0.010759177 -0.6791259 1.6638825 1.1912653 0.029126784 0.36060727 -0.073915385
-0.0026853606 -0.72250146 -0.021707572 -1.9058326 -0.09033234 0.04217023 -0.29697856 -0.20576167
1.2099575 -0.6413226 0.7004353 0.49575916 -0.7455481 -1.845317 0.113828816 -0.3996261
0.6135149 0.5835581 -0.0784752 -0.8231129 -0.32510188 -0.3091577 -0.6625765 0.08551715
-0.2447003 0.39214033 -0.99141073 0.18675669 0.375803 -0.695662 0.3338 0.2793478
-0.7105769 0.55303186 0.26757967 1.1436718 0.3562909 -0.20117643 1.098976 -0.8417703
0.47321352 1.034468 -0.24094462 -0.95250285 1.0786864 0.33967793 0.65691227 -0.56821996
0.72376996 0.6376606 -0.21644987 -0.73977596 1.1998241 -0.5199207 -0.26487917 -0.27940106

critic.2.bias f4 [128]
00000000: e1b8 28c0 e953 f4bf 950f cdbf ea9a 19c0
00000010: f923 2fc0 11f0 01c0 d16b f6bf d64f 17c0
00000020: 1fc7 28c0 fdd8 21c0 08b7 48c0 13b5 28c0
00000030: 0b34 f3bf da5e e0c0 7151 07c0 a0df 2bc0
00000040: aa3c 19c0 28e0 e2bf 71a0 40c0 8168 0fc0
00000050: 2a4e 3fc0 254e 15c0 fb9a 2bc0 fcde 1dc0
00000060: c4ba 22c0 bc78 f2bf eae2 f3bf aa62 11c0
00000070: 6a9e 08c0 2c31 ebbf 7bbf 20c0 6d95 10c0
00000080: 3621 0fc0 6dc9 03c0 a678 fabf 535e 0fc0
00000090: e33b ebbf 5327 6bbf cd3e b1bf 4c2e 4dc0
000000a0: 3839 1cc0 3485 23c0 12d1 12c0 7223 0ec0
000000b0: 2330 31c0 730c 25c0 c718 22c0 532d 35c0
000000c0: 6566 19c0 f47c ebbf e39d 0fc0 21bf 1ec0
000000d0: 9e13 15c0 7937 40c0 2b72 07c0 7e44 3bc0
000000e0: b2e2 fdbf 5ad6 26c0 f0c3 31c0 051d 0bc0
000000f0: c456 12c0 c07c dfbf 0f54 36c0 7cf0 27c0
00000100: ab3f e9bf f36c 01c0 94be 1ec0 135b cbbf
00000110: 9e7b 04c0 7244 22c0 5e9f 34c0 ab45 6cbf
00000120: bd93 18c0 4c6d 56c0 a3a1 03c0 b975 2ec0
00000130: 0bb6 31c0 2a87 16c0 3086 e9bf f8c9 2bc0
00000140: df68 e9bf b253 89bf 94f9 fbbf f23b c8bf
00000150: 8e5d 04c0 3228 dfbf da8d f8bf 0893 0dc0
00000160: 4a2c 38c0 3f2e 0cc0 e50b 03c0 692d 24c0
00000170: 161e 46c0 e176 fdbf 7f88 08c0 ebca 14c0
00000180: 0cc1 17c0 b670 00c0 9aee 09c0 3b30 c3c0
00000190: 322c 55c0 465e 11c0 b2d0 0cc0 934f 4bc0
000001a0: c9c7 26c0 f1e4 2ac0 e83d 01c1 f518 0ac0
000001b0: 92f7 1cc0 c68b 29c0 209a 12c0 d6b3 28c0
000001c0: da20 86bf 1f2d 06c0 a88e 0cc0 42e1 e4bf
000001d0: eeab c0bf 4f6e fabf 6e0f cabf 58a1 38c0
000001e0: af2e 25c0 7911 1ac0 40ee 26c0 a355 4dc0
000001f0: 04f3 21c0 192f 47c0 ee93 40c0 81ba 19c0
-2.636284 -1.9088107 -1.602038 -2.4000802 -2.7365706 -2.0302775 -1.9251653 -2.3642478
-2.6371534 -2.528869 -3.1361713 -2.636052 -1.9000257 -7.0115786 -2.1143458 -2.685524
-2.3943276 -1.7724657 -3.0097926 -2.2407534 -2.9891458 -2.3328946 -2.6813343 -2.466735
-2.5426493 -1.8943095 -1.9053624 -2.271647 -2.1346688 -1.8374381 -2.511687 -2.2591202
-2.236402 -2.059169 -1.9568069 -2.240132 -1.8377651 -0.9185688 -1.384729 -3.2059507
-2.4409924 -2.555005 -2.2940106 -2.2209134 -2.768563 -2.5788848 -2.5327623 -2.8308914
-2.3968747 -1.8397508 -2.2440116 -2.4804156 -2.3293223 -3.0033858 -2.1163433 -2.9260554
-1.9834807 -2.606833 -2.777584 -2.1736462 -2.2865458 -1.7459946 -2.8488805 -2.624053
-1.8222555 -2.0222747 -2.480382 -1.5887169 -2.070045 -2.5354276 -2.822227 -0.92293805
-2.3840172 -3.350421 -2.0567405 -2.7259352 -2.776736 -2.3519998 -1.8244076 -2.6842022
-1.8235129 -1.0728667 -1.968554 -1.5643294 -2.0682101 -1.7434142 -1.941829 -2.212099
-2.8777032 -2.1903226 -2.047601 -2.5652716 -3.0955863 -1.9801904 -2.133331 -2.3248851
-2.3711576 -2.0068793 -2.155188 -6.0996375 -3.3308225 -2.271379 -2.2002378 -3.1767318
-2.605944 -2.6702235 -8.077614 -2.1577733 -2.4526105 -2.649156 -2.290657 -2.6359763
-1.0478776 -2.096504 -2.196207 -1.7881243 -1.5052469 -1.9564914 -1.5785959 -2.8848476
-2.5809743 -2.4073164 -2.6082916 -3.2083519 -2.5304575 -3.1122496 -3.009029 -2.4020083

critic.4.weight f4 [1, 128]
00000000: 2ded 73bc e515 2c3c 3c46 273c 2fdb 983c
00000010: 50b7 99bc 1319 003c ef3d ccbc de73 cabb
00000020: e7ae 95bc be00 463c 09be 47bc 5156 fabb
00000030: 895f 59bc 9fe9 283d 8745 f8bc 235e 8bbc
00000040: d3a6 dcbc 2194 793c 1038 8fbc 6c8b 84bc
00000050: 5389 423c 8467 a5bc ac67 94bc c1c4 223c
00000060: 920f 6abc 428a 3e3c d844 603c 1686 c6bc
00000070: 2fc5 09bd 2253 303e 2a16 92bc 4fea 8bbc
00000080: d639 47bc d7ae 683c 6bd8 823c 63f9 723c
00000090: c84c b23c 3947 ae3d 8341 74bc a48a 833c
000000a0: 462c d7bc bac4 bfbc c83b 853c b35f 07bd
000000b0: daa9 72bc 6438 14bc 3715 8abc 84b1 22bc
000000c0: 5c1a b53b 7d18 333c dbbe 853c da56 2c3c
000000d0: 52bf 593c 1494 69bc adfa cfbc acd2 77bc
000000e0: 45b9 5e3c ce13 fd3b 9460 45bc 11a4 213c
000000f0: 50f2 93bc f46b 77bc 6a46 3c3c 2376 8d3c
00000100: 7503 543c 8b3b 54bc 6f7a 653c 97ce 86bc
00000110: 640b 263c 8329 503c 5091 c8bc ab10 b93d
00000120: c314 11bc e27c a8bc 1346 753c 4348 c23d
00000130: 8df4 3b3c ad38 143c 7c01 113e af13 783d
00000140: 56dc 773c ea4c 03bd 66ac 103c fa1e b7bc
00000150: 7a7f ab3c f4d4 973c 8268 bc3c ca2f 7d3c
00000160: 161b d8bc 872e 3c3c 36a7 cfbb 1ce9 2cbc
00000170: b116 5ebc f7bd 8a3c 5d28 883c c9e6 a93c
00000180: 5d7b 3a3c b17a 363c 5d77 293c c4c1 0d3e
00000190: 6ca0 6fbc 2d99 233c 77a2 303c 8d85 be3b
000001a0: 9472 8abc 4eee 12bd c583 453e bff2 243c
000001b0: 6959 103d 6b74 b93b d816 2b3c 4849 523c
000001c0: 0b9f 88bc 0dc5 643c c0f5 553c 582c ed3c
000001d0: 374e c2bc cb73 9a3d c9ac cfbc 4de2 9d3c
000001e0: d65f 9abc d425 a0bc 67e3 63bc e8b8 1fbc
000001f0: dd05 7dbb 8400 42bc d1d4 093b 0701 04bd
-0.01488809 0.010503267 0.010209616 0.018659202 -0.018764168 0.007818478 -0.024931876 -0.006178363
-0.018271876 0.012085138 -0.012191304 -0.0076396842 -0.013267406 0.041238423 -0.03030659 -0.017012661
-0.026935017 0.015233071 -0.017482787 -0.016179763 0.011873561 -0.020190962 -0.01811584 0.009934605
-0.014285939 0.011629643 0.013688289 -0.024233859 -0.033635315 0.17219213 -0.017832834 -0.0170795
-0.012159785 0.014201841 0.015972337 0.014829966 0.021765128 0.085096784 -0.014908197 0.01605732
-0.026266228 -0.023409236 0.016263857 -0.03305025 -0.014811004 -0.009046648 -0.01685582 -0.009930018
0.005526824 0.010931131 0.016326359 0.010518754 0.013290243 -0.014256496 -0.025388086 -0.015125912
0.013593976 0.007723308 -0.012046952 0.009865777 -0.01805988 -0.015101422 0.011491397 0.017268246
0.012940277 -0.012953649 0.014006241 -0.016455932 0.010134552 0.01270521 -0.024483353 0.09036382
-0.008855048 -0.020567361 0.01497032 0.09486439 0.01147188 0.009046716 0.14160722 0.060565647
0.015128216 -0.032055773 0.0088301655 -0.022353638 0.020934809 0.018534161 0.022999052 0.015453288
-0.026380103 0.011485702 -0.006337072 -0.0105536245 -0.013555215 0.016936285 0.01662081 0.02073993
0.011381951 0.01113765 0.0103434 0.13843447 -0.01462565 0.00998525 0.010780922 0.0058142603
-0.016900338 -0.035871796 0.19288547 0.010067641 0.03524152 0.00565963 0.010442458 0.012834854
-0.0166774 0.013962996 0.01305908 0.028951809 -0.023718936 0.07541617 -0.025350945 0.019272948
-0.018844526 -0.019549288 -0.013909197 -0.009748675 -0.003860823 -0.011840943 0.002103139 -0.032227542

exp_avg f4 [6]
00000000: 92a4 95bb 92a7 67bb 6943 4fbb c166 29bb
00000010: d5c2 4bbb aa93 313a
-0.0045667375 -0.0035347682 -0.0031625873 -0.00258486 -0.003109147 0.0006774018

exp_avg_sq f4 [6]
00000000: 89e8 0b3a 2206 8a3a 54fa ad39 5f74 9739
00000010: 1ddf 7539 c18c 8139
0.00053370796 0.0010530392 0.0003318364 0.00028887668 0.00023448137 0.00024709667
