logs/rsl_rl/arm_t_reach/2025-10-13_14-28-14/model_0.pt (torch, 505058 bytes, 42 tensors)

std f4 [6]
000000 08 1f 4d 3e ab af 4c 3e bb 08 4e 3e d0 b6 4d 3e
       0.20031369 0.19988887 0.20120518 0.20089269
000010 da bb 4d 3e 28 b0 4c 3e
       0.20091191 0.19989073

actor.0.weight f4 [128, 25]
000000 9e e5 22 3e b1 8a 1c 3e 0b 4e 70 bd b1 48 3f 3e
       0.15907905 0.15287282 -0.058668178 0.18680073
000010 4c 9a 81 bc f7 bd 30 3d 4a d9 c2 bd 4d f5 f2 3d
       -0.015820645 0.043149915 -0.09514101 0.11863194
000020 2c 70 1f 3e 99 a7 1c be 21 b8 33 3e 7e 3a 38 3d
       0.15570134 -0.15298308 0.17550708 0.044977657
000030 09 f6 08 3e b6 8b d5 3c 9e 28 d9 3d 17 f9 9f bc
       0.13375105 0.026067596 0.1060345 -0.019527955
000040 a1 15 1d 3e 07 83 79 3c 6c 31 b9 bd 12 db 6d 3d
       0.15340282 0.015228993 -0.090426296 0.05807025
000050 c3 e9 b8 bd 0d ee 40 bd 4d ea a6 bd 99 18 0d 3e
       -0.090289615 -0.047102023 -0.08150158 0.13778915
000060 f5 b4 20 be 7e fe f7 bd 18 d4 23 bd 3c b2 d9 bd
       -0.1569403 -0.121090874 -0.03999719 -0.10629699
000070 d9 6a d7 3b 32 3c 55 be 2c 30 27 3e f0 e2 1f be
       0.0065740165 -0.20823744 0.1632697 -0.15613914
000080 ea 09 0d 3e 82 7c ae 3c a6 0d a1 bd a8 66 05 3e
       0.13773313 0.021299604 -0.07863931 0.13027442
000090 ab b6 47 3d 5f 4a 2e 3e 19 70 eb 3c 7e a4 61 bd
       0.04875819 0.17020558 0.028739976 -0.055088513
0000a0 bc c6 5a 3d 24 52 77 bd fe 65 aa 3d 7b 42 33 3e
       0.053412184 -0.06038107 0.08320235 0.17505829
0000b0 63 09 09 3e ec 31 a7 bd 92 25 f2 3d 3f 2f 8b 3c
       0.13382487 -0.08163819 0.11823572 0.016990302
0000c0 39 92 d5 3d 4b 92 ea bd fe 83 4c be a4 8e c2 bd
       0.104282804 -0.114536844 -0.19972226 -0.09499863
0000d0 e8 76 0e be bf 8f 22 3e e9 00 b1 3d b7 33 90 3d
       -0.13912547 0.15875147 0.08642752 0.07041114
0000e0 22 0d 1d 3d 40 9d b4 bc cd 58 0e 3e 4c 65 1f be
       0.038342603 -0.022047639 0.13901062 -0.15565985
0000f0 34 86 a1 3c 4f 2a f0 bd e4 6e 86 3d 5d 41 96 bd
       0.019717313 -0.1172682 0.065641195 -0.07336686
000100 38 98 40 3d 84 a0 e1 bc 19 70 11 3e 6d 8c f3 bd
       0.047020167 -0.02754236 0.14202918 -0.118920185
000110 f2 8f ea bd 5c af f1 bd 2d 82 3b 3e db d3 8c 3d
       -0.11453237 -0.11801025 0.18311377 0.06876346
000120 f1 ca 36 3e 32 8b 2a be 66 ef 39 be 39 3d 12 be
       0.17850854 -0.16654661 -0.1815773 -0.14281167
000130 b4 d9 0c be 66 df b1 3d 17 35 8d 3d ce 50 36 3e
       -0.13754922 0.08685188 0.06894892 0.17804262
000140 91 00 c9 bd 29 7f ec bd 63 5e d6 3d 76 d2 8e bd
       -0.09814561 -0.115476914 0.104672216 -0.06973736
000150 bf 3b ed 3d d0 99 3c bd 6b f7 ed 3d ac 76 17 be
       0.11583661 -0.046045125 0.11619457 -0.14791363
000160 65 89 cf bd ef fd 3e 3d 7d d8 46 3d 98 22 43 bd
       -0.10133628 0.04662889 0.048546303 -0.047640413
000170 8d 45 e1 3d 3c ac 0f 3e 78 f5 06 be 47 38 c0 bd
       0.10999594 0.14030546 -0.13179576 -0.09385734
000180 92 ac 44 3e 24 25 8f bd f1 7e 95 bd d0 78 39 be
       0.19206455 -0.06989506 -0.07299603 -0.18112493
000190 c8 53 e9 bd e4 52 a2 3b ee a9 66 bb b7 32 f0 bd
       -0.11392933 0.004953729 -0.00351965 -0.11728423
0001a0 48 e0 04 3d 39 da 1c be bb 8c 29 be 11 87 bb bd
       0.032440454 -0.1531762 -0.1655759 -0.09156621
0001b0 d2 34 28 be 6c 04 07 be a6 42 49 3e a8 b2 4e 3d
       -0.164264 -0.1318528 0.1965433 0.05046335
0001c0 16 51 a8 3d e2 59 4d be 68 a4 10 be 43 4d 85 bd
       0.08218591 -0.20053819 -0.14125216 -0.06508877
0001d0 1e 21 33 3d 1b 2a 49 be 69 0b a8 bd b9 20 e0 bd
       0.043732755 -0.19644968 -0.08205301 -0.10943741
0001e0 e9 34 0c 3c a9 47 93 bd 40 3a 51 bc 33 8d 0b be
       0.008557537 -0.071914025 -0.012770236 -0.13628082
0001f0 ce 86 12 be e7 a4 f7 bd 40 ea 89 bd a1 ed 16 be
       -0.14309236 -0.120919995 -0.06734133 -0.14739086
000200 23 85 19 3e 1d 82 cc bc c3 45 50 3e 7b 9b 8f 3d
       0.14992194 -0.024964387 0.20339112 0.070120774
000210 29 0b 30 be 11 e9 00 3e 74 fb 27 bd 81 5b 9a bd
       -0.17191757 0.12588908 -0.04101129 -0.07536984
000220 70 9c 2f be 65 f4 4d be d7 c7 0e 3d 8e 32 49 bd
       -0.1714952 -0.2011276 0.03485855 -0.04912048
000230 70 bc 7d 3d 71 d9 2e be ed 4d 11 3e 5b 47 0a be
       0.061947286 -0.17075135 0.14189883 -0.13503782
000240 5a a2 29 bd 35 17 5a 3d 4c 48 db 3d 6a 29 2a 3e
       -0.041414596 0.05324479 0.10707149 0.1661736
000250 e6 7e 33 3e 9c 91 28 be f8 19 51 3d 71 ea 84 bd
       0.17528877 -0.16461796 0.051050156 -0.06490029
000260 88 1f d8 bc 37 73 1e be 67 84 45 3e 2e 8b 0a be
       -0.026382223 -0.15473638 0.19288789 -0.13529655
000270 ec 64 d3 3d ec 9e 4e 3d 2f ee 6f 3d 75 4f d5 bd
       0.10321984 0.05044453 0.05857676 -0.10415546
000280 a1 7b 28 3e 45 4a 52 3d e3 64 a5 3c 15 a0 32 be
       0.1645341 0.05134036 0.020189708 -0.17443879
000290 59 d2 9f 3d 88 66 1a bd b9 f4 c3 bd e2 cc 32 3e
       0.078037925 -0.037695438 -0.095681615 0.17460969
0002a0 f2 94 42 3d c9 4a c3 bd fb 3c be bd a2 26 88 bc
       0.047505327 -0.095357485 -0.09288975 -0.016619984
0002b0 f2 d6 e7 3d 03 e7 69 bd da 66 07 be e9 4f b4 bd
       0.113202944 -0.057105076 -0.13222829 -0.08804304
0002c0 be ef 1d be dc b3 81 3d 95 b7 08 3e cc 19 3b be
       -0.15423486 0.063331336 0.13351281 -0.1827156
0002d0 b7 94 33 3d cf a7 bc 3d e1 ec 10 3d eb 7d 9e bd
       0.043842997 0.092116944 0.035382155 -0.07738861
0002e0 f1 40 e2 3d 81 b3 bb 3d 24 18 82 3d 90 2b 2a bd
       0.11047543 0.09165097 0.06352261 -0.04154545
0002f0 da 2a 7c bd 95 32 6d 3b 09 1e 1a bd a8 4d 5c bd
       -0.061564304 0.003619348 -0.0376263 -0.053784996
000300 99 28 fe 3d 9c 49 2b 3e 37 e7 c2 bc 60 9a 48 bd
       0.12410087 0.16727298 -0.023791892 -0.04897535
000310 7a cd 81 3b 09 2f c7 bc ce 1e 40 3d 63 6e 8a 3d
       0.0039612623 -0.02431442 0.046904378 0.06759336
000320 bd 97 4b be 0c d1 a9 bd 0a c6 3d 3e a7 c6 75 3d
       -0.19882102 -0.08291826 0.18532577 0.060003903
000330 d0 76 3e bc 09 c3 ea bd 0b 78 f2 bd 26 33 45 be
       -0.011625007 -0.11462981 -0.11839303 -0.19257793
000340 13 1f 6e bd fd 40 8b 3d 6d be e3 3d 57 c4 cd 3d
       -0.058135103 0.06799505 0.11120305 0.100472145
000350 71 a8 40 be 01 e3 0c be 98 2e cf bc 2d 6b 3c 3e
       -0.18814255 -0.1375847 -0.025290772 0.1840026
000360 8a 52 22 3d 77 d8 88 bd 4a 33 8f 3d 03 17 84 bd
       0.039629497 -0.066819124 0.069922045 -0.06449702
000370 17 65 15 be 01 82 1c 3e 96 42 b9 bd 24 f5 6b bd
       -0.14589344 0.15283968 -0.090459034 -0.05760683
000380 75 58 4b be b6 e4 d0 3d 47 03 28 3e bf 3d 9f 3d
       -0.19857962 0.10199873 0.164075 0.07775449
000390 9f 02 e7 bd 8e 29 34 be 54 81 10 be 7b 2f 1f 3e
       -0.11279797 -0.17593977 -0.14111835 0.15545456
0003a0 3b c3 a0 3d 12 a9 2a 3e a9 3b db 3d 2b 6e 02 3d
       0.07849737 0.16666058 0.10704739 0.031843346
0003b0 f7 9d 2b bd 7b b0 27 be 08 14 31 be 29 83 4d be
       -0.041898694 -0.16375916 -0.17292798 -0.20069565
0003c0 1e a5 bc 3d c0 e0 bb bd e1 fa f1 bc f1 f7 03 be
       0.09211181 -0.09173727 -0.029538574 -0.12887551
0003d0 20 c4 c6 bc 6d d1 09 be a8 1b fe bd 45 41 91 3d
       -0.024263442 -0.13458796 -0.12407619 0.07092527
0003e0 7a 50 56 bd 13 a9 e5 3d 90 1e 9a bd 85 ed 06 be
       -0.052322842 0.11213889 -0.075253606 -0.13176544
0003f0 90 10 35 bd 6d 71 b5 bd 16 4b 26 bd fd 3c 3a be
       -0.04420525 -0.08859525 -0.04059895 -0.18187328

actor.0.bias f4 [128]
000000 dd 35 34 be 69 74 88 3d 0c ad b7 3d 7a be 29 3e
       -0.17598672 0.066628285 0.08968553 0.16576567
000010 92 5d 4b be 9f ae 1c 3e 72 c2 16 3e 01 d0 43 3e
       -0.19859913 0.15300988 0.14722613 0.19122316
000020 53 fb b0 3d 6b 11 ef bd 1d 22 1e 3e f5 a0 28 3e
       0.08641686 -0.11673244 0.154427 0.1646765
000030 a3 87 aa bd d8 b5 4a bd 96 cc 14 3e d4 da 12 3e
       -0.08326652 -0.049489826 0.14531168 0.14341289
000040 3d fa f5 3d d3 55 17 3e c0 83 e4 bd d8 ab 56 bd
       0.1201062 0.14778833 -0.11157942 -0.052409977
000050 09 5e aa bd 60 3a c3 3d 1e 62 23 3d ab fd 2e be
       -0.08318717 0.095326185 0.039888494 -0.17088954
000060 b9 29 15 bd fb 17 34 be 9c 42 4e be cb be 31 3e
       -0.036416743 -0.17587273 -0.20142597 0.17357938
000070 4e 27 d2 bd a2 8b b1 3d e4 b9 67 bd 63 9c 61 bd
       -0.10261403 0.08669211 -0.056573763 -0.055080783
000080 c4 4d 45 bc 4e ae 14 3e 02 92 09 bd d2 72 2d 3e
       -0.012042467 0.14519617 -0.03358651 0.16938332
000090 d6 26 e8 3d d8 ac e7 3d 59 85 3e be 6e 6a c3 bd
       0.11335532 0.11312264 -0.18605556 -0.09541784
0000a0 fc b8 33 be 38 c1 8a bd 29 86 1c bd 4a 0d 2d 3d
       -0.17551035 -0.06775135 -0.038213883 0.042249
0000b0 89 a3 2c 3e d7 6d a8 3d 78 f3 22 be 24 b4 0c be
       0.16859259 0.08224075 -0.15913188 -0.13740593
0000c0 76 c5 0d 3e 4f 56 31 3c 3a 39 33 3d b4 ba f5 bd
       0.13844857 0.0108238 0.043755747 -0.119985014
0000d0 90 02 1f bd 58 10 48 3d 82 80 14 be 77 50 04 3e
       -0.038820803 0.04884371 -0.14502147 0.1292132
0000e0 ab f5 bf 3d 6b 0a 0a be d5 72 d1 bd 5c 95 80 bd
       0.09373029 -0.13480537 -0.102269806 -0.06278488
0000f0 18 34 99 3c 33 78 a5 bd d5 6a 2f 3e c3 9e 5c be
       0.018701598 -0.08079567 0.17130597 -0.21544938
000100 4d 9f 01 be 75 13 10 be 0d 11 63 3d 16 a7 47 3c
       -0.12658425 -0.14069922 0.055436183 0.0121858325
000110 8a cd 99 bd 58 32 23 3e e2 b3 44 be b2 a7 86 3d
       -0.075099066 0.15937173 -0.19209245 0.06574954
000120 85 0f 06 be 13 73 5d bd 71 49 4e be b1 3f 18 be
       -0.13091858 -0.05406482 -0.20145203 -0.14868046
000130 e4 59 37 be 72 19 a5 3d 66 ee ad bd a4 d1 aa 3d
       -0.17905384 0.08061494 -0.084927365 0.08340767
000140 f2 bc f1 bd 30 ad 54 bd 92 14 9a 3c 7f 2a 27 3e
       -0.118036166 -0.051922977 0.018808637 0.16324805
000150 16 54 47 bd 02 95 e2 3d 72 39 b6 3c 6a 77 ec 3d
       -0.048664175 0.11063577 0.022244189 0.11546214
000160 a1 74 e9 3d 1e 7a 82 3d 1d 2f ab bd a3 21 83 bd
       0.11399198 0.06370948 -0.083585955 -0.064029
000170 f7 05 8b 3d 51 88 aa 3d eb 80 4a bc 43 31 a2 3d
       0.06788247 0.083267815 -0.012359838 0.07919552
000180 eb 8c 05 be f1 1f ca 3d 71 b7 0c bd 4d bf 14 be
       -0.13042037 0.098693736 -0.03435463 -0.145261
000190 7a 17 e2 bd 8c cc 35 be 98 7d 3d 3d 46 8c 0b be
       -0.11039634 -0.1775381 0.046262354 -0.13627729
0001a0 30 f7 92 bd dc 2a dd bc d3 6b 0d be d5 a3 87 39
       -0.071760535 -0.026997976 -0.13810663 0.0002587127
0001b0 dc 7e 12 bd d1 e1 58 3d d6 15 17 3e 46 25 f8 bd
       -0.035765514 0.05294973 0.14754423 -0.12116484
0001c0 e8 35 d1 3d d9 c5 18 bc 86 78 05 be 62 db c5 bd
       0.1021536 -0.009324514 -0.13034257 -0.096609846
0001d0 05 0d 0d 3d e2 91 3b 3d cd 5c a0 bb 9d eb dc bd
       0.034436245 0.04579342 -0.004893875 -0.10787127
0001e0 65 ff af 3d bd 89 62 3c b0 9a 50 be 96 ec 2d bd
       0.085936345 0.013826785 -0.20371509 -0.042461954
0001f0 4b c6 ab bd 08 a3 bf bd a2 74 02 be 1b ae 38 be
       -0.08387431 -0.093572676 -0.12739804 -0.18035166

actor.2.weight f4 [128, 128]
000000 5c 56 bf 3d b9 d4 c4 bd d5 d2 b2 3d e9 e7 93 bd
       0.093426436 -0.09610886 0.08731619 -0.07221968
000010 9b 1b 01 bd c5 ae 12 bd 4f db 2d bd 03 81 96 3c
       -0.031520467 -0.035811204 -0.042445477 0.018372064
000020 dc c1 4a 3d a1 4a 44 bd 77 89 03 bd a2 e6 dd 3c
       0.049501285 -0.047922734 -0.03211352 0.027087513
000030 a3 fb c0 bc 1d 6e 1b 3d 9a 89 56 3d 97 a5 26 bd
       -0.02355749 0.03794681 0.05237732 -0.040685263
000040 74 6c 35 bd 91 34 c7 3c b9 2a 0c bd a2 bd 61 bd
       -0.044292882 0.024317058 -0.03422043 -0.05511249
000050 88 9f 25 bd 62 23 60 bd 7f 9c ab 3d c1 f6 7a 3c
       -0.040435344 -0.054721244 0.08379459 0.01531762
000060 f1 87 03 3d 33 5c 16 3d c1 53 a6 bd 71 af 69 3d
       0.032112066 0.03670902 -0.081214435 0.05705208
000070 75 40 c2 3c 94 60 8a bc fd 5c a0 3d 38 52 22 bd
       0.023712376 -0.016891755 0.07830236 -0.03962919
000080 a3 c1 b0 bb 4a 72 b1 bd ab 6f 30 3d 45 f1 4f 3d
       -0.005394177 -0.08664377 0.043075245 0.050767202
000090 57 85 85 bd 5e c4 6a 3d b3 19 80 3c f8 1d 80 bd
       -0.06519573 0.057316177 0.015637254 -0.06255716
0000a0 21 55 50 3d 9b 51 23 3d 99 25 82 3c 0e 8b 93 bc
       0.050862435 0.039872747 0.015887069 -0.018010642
0000b0 3c 82 4a bd c0 f6 85 bd 48 03 8b 3d 28 72 4e 3c
       -0.049440607 -0.065412045 0.06787735 0.012600459
0000c0 f1 de 93 bd 53 63 c4 3d c7 5e 77 3d ad 62 0d bd
       -0.07220257 0.09589257 0.06039312 -0.034517933
0000d0 11 f3 b6 3c 87 f1 75 bd da ae d2 3c 37 5e a2 3d
       0.0223327 -0.06004479 0.025718141 0.07928126
0000e0 38 23 ad bd 72 d8 c8 bc ca 6f 12 bc 91 20 9a 3c
       -0.08453983 -0.024517272 -0.008937785 0.018814357
0000f0 cc 8c ae bd 90 8d 99 bd f5 c4 93 3c 24 d3 ef 3b
       -0.085229486 -0.07497704 0.018038252 0.007318871
000100 78 7a 17 bc de 23 3f ba 44 db e9 3c 8a 36 26 bc
       -0.009245507 -0.00072914164 0.028546937 -0.010144839
000110 72 7c 59 bc d5 ef 1a 3c 0c 1a 4d 3d ee 45 74 3d
       -0.013274299 0.0094565945 0.05007367 0.059637003
000120 c5 eb c6 bd 04 a0 8c bd 45 1c 51 3d a0 cb c4 bd
       -0.09712938 -0.06866458 0.05105235 -0.09609151
000130 48 f9 59 3d c0 5d c3 3c e9 fa 08 3c ba 7c 7c bd
       0.05321625 0.023848414 0.008360603 -0.061642386
000140 68 66 32 3c 78 7c cb bd 59 61 9d bd 75 ff a0 3d
       0.010888673 -0.0993585 -0.07684583 0.078612246
000150 e8 d1 01 bd f2 17 ad bd 06 1b 02 bc 60 2e 9c 3b
       -0.031694323 -0.08451833 -0.007941013 0.0047662705
000160 4b d0 24 3d 2a d9 70 bd af ea a4 3b 37 ea ae bc
       0.040237706 -0.058800854 0.0050328593 -0.021351917
000170 49 9f 6d 3d da a1 a1 3d e2 16 4d 3d ec 39 a0 bc
       0.058013234 0.07892199 0.05007065 -0.01955887
000180 fe 55 8e 3d ee ec 93 bd ec b8 31 3d 94 f9 3b bd
       0.069499955 -0.07222925 0.043389246 -0.045892313
000190 15 fa 60 3d 05 b7 9d bd b2 d8 32 3d be 46 fd bd
       0.054925997 -0.07700924 0.043663688 -0.123670086
0001a0 b5 1e 66 3d de a2 f9 3c d3 04 b7 3d 0f 4d 8b bd
       0.05618163 0.030473169 0.08936467 -0.06801807
0001b0 47 9c 10 3d ff 55 79 bd 1e 62 0f bd aa f8 f9 3c
       0.035305288 -0.060873028 -0.03500568 0.03051408
0001c0 3b 64 74 bc bf ca 88 bd 3a b2 81 bd bd cf 4d bd
       -0.014916475 -0.06679296 -0.06332822 -0.050246943
0001d0 75 f2 32 3d eb 85 ae 3d c4 eb 8f 3d 51 eb 84 3c
       0.043688256 0.085216366 0.070273906 0.016225489
0001e0 c7 24 95 bd e3 f0 a6 bd 8d 2a 86 3d 55 9c 14 bd
       -0.07282405 -0.08151414 0.06551085 -0.036281902
0001f0 38 e9 ec bc bb 55 85 bd 13 14 8f bd d4 90 a6 3c
       -0.028919801 -0.065104924 -0.06986251 0.020332731
000200 ea 22 9d bc 55 f9 8b 3c 23 c8 33 bc 4a fd 2f 3c
       -0.019181687 0.017086664 -0.010973009 0.010741541
000210 cc 09 66 bd 83 67 b9 bb 8c 9a 3f 3d 80 e4 88 3d
       -0.056161687 -0.0056580915 0.046778247 0.06684208
000220 21 9b 82 3d 45 5d 99 bd 2d 79 8b bd 51 62 a9 bc
       0.06377245 -0.07488493 -0.06810222 -0.020676764
000230 17 cf 9e bc 9a da 68 3d 25 3f b3 3d dc 0a b7 3c
       -0.019385858 0.0568491 0.08752278 0.022344045
000240 e1 2e 7e bd ea 47 06 3b 91 ed 84 3d ff 37 13 3d
       -0.062056426 0.0020489641 0.06490625 0.035942074
000250 24 f8 80 bd 7c 83 8b 39 d8 67 a2 bd 05 0d ef bc
       -0.06297329 0.0002661011 -0.07929963 -0.029181013
000260 73 6d 93 3d 84 1e cd bc 3e 4f 60 3d cd 80 8e bd
       0.0719861 -0.025038965 0.05476307 -0.069581605
000270 47 de ad 3d 38 02 28 3d 51 25 63 3d 4a 88 25 3d
       0.08489662 0.04101774 0.05545551 0.04041318
000280 ba c2 b9 ba 72 19 35 bd 88 48 45 bd 81 4a 76 bd
       -0.0014172413 -0.04421372 -0.048164874 -0.060129646
000290 4e 2e 91 3d 59 7a 2d bd fe 48 cf 3b 54 91 b3 bd
       0.0708891 -0.042353008 0.00632584 -0.087679535
0002a0 d1 7c c0 3c 74 48 93 bd ee c8 ad bd 7f 42 0e 3d
       0.023497017 -0.07191554 -0.0848559 0.034731384
0002b0 c2 70 82 bd 8c 0a 34 bb 99 6a 53 bd 09 28 9f 3d
       -0.06369163 -0.0027472107 -0.05161533 0.07771308
0002c0 68 96 a5 bd f7 29 56 3c a4 24 59 3d 8c 01 ad bd
       -0.08085328 0.013071529 0.05301346 -0.08447561
0002d0 78 66 4f 3d b2 58 6b 3d 7b 42 71 bd 66 6d 9b 3b
       0.05063483 0.057457633 -0.05890129 0.004743266
0002e0 7e ea 92 3c 91 25 88 3d 53 ea 59 3d 5a ef 82 bd
       0.01793408 0.0664779 0.053201985 -0.06393309
0002f0 b6 b0 77 bd 4e e9 a0 bd 88 c7 46 bd a3 30 a0 ba
       -0.06047126 -0.07856999 -0.04853013 -0.0012221526
000300 b7 02 97 bc 30 a5 89 3d 2b db 3d bd 9c 51 75 bd
       -0.018433912 0.0672096 -0.046351593 -0.059892282
000310 d7 22 ac bd 35 13 2e bd da 69 b2 3d 84 da cc 3c
       -0.08405083 -0.042498786 0.08711596 0.02500654
000320 1f 63 2b 39 34 e0 9d bc 86 4a 8f bd 46 c3 10 bd
       0.00016344756 -0.019271947 -0.06996636 -0.035342477
000330 8e c1 7b 3d ad 7e a0 3d 00 f6 5a 3d 3c 8c 83 3c
       0.061463885 0.078366615 0.05345726 0.01605808
000340 48 8b 0e bd 0f c0 4d bd 47 be ba 3d 72 39 7b bd
       -0.034800798 -0.05023199 0.09118324 -0.06133408
000350 ff ba 05 3d 28 11 e1 ba ae b9 86 3d 16 ad 14 3d
       0.032649036 -0.0017171251 0.06578384 0.03629788
000360 c8 6d 88 bc 95 0a 88 bd c8 5f e0 3b f5 ea 92 bd
       -0.01665391 -0.06642643 0.0068473555 -0.07173721
000370 c3 e6 cb bc 1b bb 5b 3c ae fd 35 3d 95 f8 4f bd
       -0.02489031 0.013411309 0.04443138 -0.050774176
000380 a3 5a 65 bd 05 04 c8 bd 2f 5b 9b bd 4c 63 87 3c
       -0.05599464 -0.09766392 -0.07585751 0.01652684
000390 d3 55 8b bd ad e3 b8 bc 52 65 33 bd 93 c6 27 bd
       -0.06803479 -0.022569502 -0.0437978 -0.04096086
0003a0 d2 63 91 3d e6 db 65 3d 17 8c 88 3d 78 9d ba 3d
       0.07099117 0.056117915 0.06667345 0.09112066
0003b0 c8 af 89 bd e4 e7 8f bd 7b 57 9c bd d9 2a 8c 3d
       -0.06722981 -0.070266515 -0.07633873 0.0684411
0003c0 e8 b1 66 3d 0b 34 89 3d 67 c6 95 bd 2a 45 98 bd
       0.05632201 0.066993795 -0.07313233 -0.07435067
0003d0 6c f3 a3 3d 44 8e a2 bd cd 8a 65 bd 42 1e 83 3c
       0.080054134 -0.07937291 -0.056040574 0.016005639
0003e0 f1 a2 9f bd 81 cd 76 bc 51 20 45 3d 8e aa a1 3d
       -0.077947505 -0.015063644 0.048126522 0.07893859
0003f0 10 60 82 bc 1f 9d be bd 5a 6f 51 3d 20 d0 bc 3d
       -0.015914947 -0.09307312 0.051131584 0.09219384

actor.2.bias f4 [128]
000000 af 07 97 bd 54 3a 1c 3d 5a 19 5f 3b e7 73 bf bd
       -0.073745124 0.038141564 0.003404221 -0.093482785
000010 ec 68 b0 bd 83 2c f2 3b 41 e5 c1 3c 85 ef 18 ba
       -0.08613762 0.00739056 0.023668887 -0.0005834031
000020 85 ee 0e bd 1f fc 5b 3d 32 79 6f 3b 65 cb 33 bd
       -0.03489544 0.05370724 0.0036540744 -0.043895144
000030 1c 5d 97 3d 5b 8b b8 bc c0 1b c9 bc 9c e0 e5 bb
       0.07390806 -0.022527387 -0.024549365 -0.007015301
000040 d4 08 a0 bc 97 46 9c bb 25 f8 08 bd 00 28 55 3d
       -0.01953546 -0.004769157 -0.033439774 0.0520401
000050 20 bd 1f 3b 53 cf 59 3d ff c9 2e 3c 3b 21 76 3d
       0.0024374202 0.053176235 0.010668277 0.060090285
000060 53 ed 79 bd 66 d6 36 3d b0 c6 03 3d be b4 27 3d
       -0.061017346 0.04463806 0.032171905 0.040943854
000070 12 57 3a bd fc dd 19 3c dc dc 07 bd 6d 80 0a bd
       -0.045493193 0.009391304 -0.033169612 -0.033813883
000080 2f 46 82 bc 29 0b f4 bb 22 fd 1b 3d ff 97 b3 3d
       -0.015902607 -0.0074476195 0.038083203 0.08769225
000090 84 f2 80 bc d3 f4 ab 3d 3e 4c 34 3d 62 c5 9f bd
       -0.01574064 0.08396306 0.044018023 -0.0780132
0000a0 87 96 8d 3d a4 16 8e bd 2a a4 04 bd ec ba 0b bd
       0.069134764 -0.06937912 -0.03238312 -0.03411381
0000b0 c2 ed b6 bb 55 3c b1 bd bf 3e a8 bd df e2 9b bd
       -0.005582542 -0.086540855 -0.08215093 -0.076116316
0000c0 6c fc 37 bd f9 0d 7e 3b 0a 7d 70 3d a1 07 b0 bd
       -0.044918463 0.0038765653 0.058712997 -0.08595205
0000d0 20 ab 4a 3c 7c 4e 8c 3d c4 19 cc 3c 41 f3 7f 3c
       0.012369901 0.06850907 0.02491463 0.015621961
0000e0 fd 72 ac bd 1d 9c 50 3d 6f 8c ac bc 8a 88 0a 3d
       -0.0842037 0.05093013 -0.021063058 0.03382162
0000f0 7e eb 56 bd d5 21 51 bc a6 43 56 3d d2 d1 59 bd
       -0.052470677 -0.012764414 0.05231061 -0.053178616
000100 0d 22 8b bd 3a e2 86 bc af 3f 37 3d e4 b3 67 bd
       -0.06793604 -0.016465295 0.044738468 -0.05656804
000110 6f 5e 25 3c 62 88 2a bd 73 aa 60 3c 1f 07 37 3c
       0.0100933155 -0.04163397 0.013712513 0.011171131
000120 29 e3 6e 3d 38 56 19 bd c4 56 a1 bd 2b 4a 40 3c
       0.058322106 -0.03743574 -0.07877877 0.011736433
000130 cc 98 4e 3d 4b ea 15 bd d7 33 d4 3c a1 0b a8 bd
       0.050438687 -0.036600392 0.025903625 -0.08205343
000140 9a 04 37 3d 50 8b 29 3d 98 00 a1 bd f1 09 b0 bc
       0.044682123 0.041392624 -0.078614414 -0.021489115
000150 c9 84 2a 3d 1c 18 1b 3d 61 af dd 3c 72 a3 90 bd
       0.04163054 0.03786479 0.027061166 -0.07062425
000160 13 4c 93 3d 0a 74 96 bd 04 5a a7 bb 54 e1 40 bd
       0.071922444 -0.073463514 -0.0051071662 -0.04708989
000170 c4 2b 93 bd 84 19 1f bd 03 38 94 3d f2 52 9b bd
       -0.07186082 -0.038842693 0.07237246 -0.0758418
000180 8e 14 67 3d ec 09 ad 3d 50 be 49 bd 62 8c ce 3c
       0.056416087 0.08449158 -0.04925376 0.025213424
000190 0a e3 12 bd df fd a2 bd ff 7f 9e bd be d9 65 bc
       -0.035861053 -0.07958578 -0.07739257 -0.014028965
0001a0 4b 62 6b bd af 4d 0b bc 5b f0 5b 3d c1 75 28 3d
       -0.057466786 -0.008502408 0.053696018 0.041127924
0001b0 ff db ae bd 49 c1 05 3d 8d 4f e6 bb c8 d0 10 3d
       -0.08538055 0.032655034 -0.007028526 0.03535536
0001c0 68 c5 52 3d fd 1c 9f bd 7e c0 20 bd 96 a7 17 3d
       0.051457793 -0.07769201 -0.039246075 0.037025057
0001d0 1f 8b 8a 3c 66 3b 8c bc fa e4 59 bd 12 9d 70 3c
       0.016912041 -0.017118167 -0.053196885 0.014685886
0001e0 a4 cf 10 bd b3 f9 e8 3c 61 c0 1e bd 48 67 a2 3d
       -0.03535427 0.028439378 -0.038757686 0.079298556
0001f0 5b 30 f4 3b 00 12 e7 bc 0c 10 97 bd 4f 20 b0 3d
       0.0074520535 -0.028206825 -0.073761076 0.085999124

actor.4.weight f4 [6, 128]
000000 f5 7d a1 bd 11 20 97 bd 20 bf 50 3d 38 54 13 bd
       -0.078853525 -0.07379163 0.05096352 -0.03596899
000010 8e 7d 89 3d 67 33 8b 3c fe 89 3b bd ff 11 a7 bd
       0.06713401 0.016992284 -0.045785896 -0.08157729
000020 8c 8b 70 bd c1 da b8 3d 3f 98 52 ba 00 75 53 bd
       -0.058726832 0.09026099 -0.00080335507 -0.05162525
000030 e6 3c 92 3d ec 9e d6 3c fe 61 66 3d 08 3b 55 3d
       0.07140522 0.026198827 0.056245796 0.05205825
000040 f0 ff 5f 3d eb 4c 2f 3d 3f 7f 06 3d 07 61 16 3d
       0.05468744 0.042797964 0.032836195 0.036713626
000050 81 fc 6c 3d 6b 2a 21 bd e0 88 ae bc 21 f5 0c bd
       0.057857994 -0.039347094 -0.021305501 -0.03441346
000060 a6 18 33 bd 1a 27 9d 3d 68 c0 45 3d 8e 5e 96 3d
       -0.04372468 0.07673474 0.048279196 0.073422536
000070 cc b8 12 3d d3 df 6a 3d 2f 21 2b 3d 5d 14 ad bb
       0.035820767 0.05734236 0.041779693 -0.0052819685
000080 64 63 a1 bd 26 b6 0d 3d fa 68 0e bd 54 4c 4f bd
       -0.078802854 0.03459754 -0.034768082 -0.0506099
000090 54 9f 84 3d 86 3c 9d 3d 39 9c 5c 3d f1 a7 d9 bc
       0.06475702 0.076775596 0.053859923 -0.026569339
0000a0 c8 16 14 bd 1b c1 95 3d 22 52 23 3d 94 e9 94 bb
       -0.03615454 0.073122226 0.03987325 -0.0045444462
0000b0 ed cf 85 bd 35 80 15 bd 26 c8 10 bd 41 4d 6c bd
       -0.06533799 -0.03649922 -0.035347126 -0.057690863
0000c0 1a a5 89 bd 9f 12 a7 bc b4 18 80 3d 74 89 9d 39
       -0.06720944 -0.020394621 0.06254712 0.00030047784
0000d0 56 7f 37 3d c6 cf ca 3a 09 f2 a8 bd ce bb 81 3d
       0.04479917 0.0015473298 -0.082492895 0.06334649
0000e0 2e 67 a4 3d 5e 73 40 bc 41 65 e4 3c ca 4b cd 3c
       0.080274925 -0.011746256 0.027880313 0.025060553
0000f0 11 a4 4a bd f2 1f a9 3c 24 14 34 bd a4 be 16 3d
       -0.049472872 0.020645116 -0.04396452 0.036802903
000100 b4 2e 75 bd 6f 32 35 3b 95 c5 cf bc bd 5f 54 bd
       -0.059858993 0.002764847 -0.02536277 -0.051849116
000110 de 35 91 3b 92 6d 08 bc bd fd 55 3b 3a 76 63 3b
       0.0044314703 -0.008326905 0.003265246 0.003470792
000120 34 af 8f 3d 7b 94 51 bd cb 2d 06 3d c3 3f 47 bd
       0.07015839 -0.051166993 0.032758515 -0.048644792
000130 18 43 16 3d 65 26 f5 3c 89 03 9c 3d a7 2c 08 bd
       0.03668508 0.029925535 0.07617862 -0.03324571
000140 c7 d6 21 3c 3e fd 6f bc 3b 50 8c bd d6 6d 84 bd
       0.009877867 -0.01464778 -0.0685124 -0.06466262
000150 38 b3 a5 3d 62 36 f2 ba bc 40 25 3d 72 6f b7 bd
       0.08090824 -0.0018479342 0.04034494 -0.089568034
000160 cc 58 81 3d 8f a0 73 3d c0 b3 19 3d b6 31 6b 3d
       0.06315765 0.059479292 0.03752494 0.057420455
000170 b9 30 5f bd 4a 9d 13 3c c3 8e 9e bd b5 d4 07 bb
       -0.054489825 0.009009669 -0.077420734 -0.0020726149
000180 78 63 8a 3d 70 4e 46 3d 18 46 4a 3d f5 12 2e bd
       0.067572534 0.048414648 0.049383253 -0.042498548
000190 79 cc aa bd b8 7d 84 bc 3a f7 8d 3d 89 81 7e 3d
       -0.08339781 -0.016173229 0.0693192 0.062135253
0001a0 5b 7d 94 3d 2a a9 0f 3d 92 66 b6 bb b3 27 9d bd
       0.07250472 0.035073437 -0.0055664266 -0.07673588
0001b0 43 3d c9 bb 69 0a 3f 3d f3 95 0f 3d cc 18 a9 bc
       -0.006141336 0.046640787 0.035055112 -0.020641707
0001c0 06 4f 2b bd e2 c7 51 3d 43 2f 72 3b 4e 67 e6 3b
       -0.04182341 0.051216014 0.003695444 0.007031358
0001d0 e9 6f d4 bc fc 38 23 3d 57 0e 6f bd e0 fd 6a 3d
       -0.02593227 0.039849266 -0.058363285 0.05737102
0001e0 a8 ce e4 3c 4f a0 06 bd 60 b4 14 bc 55 2d 10 bd
       0.027930573 -0.032867726 -0.009076208 -0.035199482
0001f0 be ef 85 3d 40 04 f7 bc 6b 7d a6 3d 66 69 a8 bd
       0.06539868 -0.030153394 0.0812939 -0.08223228
000200 ee dc 78 3d 63 71 b2 3c e4 b3 7d 3d c9 90 fc bc
       0.06075757 0.021782583 0.061939135 -0.030830758
000210 ed 8d 7c bd b3 2b c9 3c a2 1e 7c bd 5d 04 85 3d
       -0.06165879 0.02455697 -0.06155265 0.06494973
000220 44 d5 80 3c 23 0e 45 3d cb cd 7b 3d 5c fe a9 bc
       0.015726693 0.048109185 0.061475556 -0.02075117
000230 79 7c d6 bc f4 3b d1 bc 21 19 46 bd 38 1d a2 3c
       -0.0261824 -0.025541283 -0.04836381 0.019789323
000240 f3 fd b5 3c f8 69 5a bd 65 8a 64 3c fe 3b 9b 3d
       0.022215819 -0.053323716 0.013949011 0.07579802
000250 39 40 a6 3d ee 54 38 3d 4e 39 00 3c 17 44 09 3d
       0.08117718 0.04500287 0.0078261625 0.0335122
000260 1f 96 39 3d 7c 7b 12 bd bf 4c ce bc cc a9 85 bc
       0.045309182 -0.035762295 -0.02518308 -0.016316317
000270 f6 06 4a 3d 6a ff 90 bd 49 f5 2d 3c d2 cf 6b 3d
       0.049323045 -0.07079966 0.010617563 0.05757124
000280 c0 a7 bf 3c 7c 6f 8b bd 03 8f 60 bd 1f 0f 9d bd
       0.02339542 -0.06808373 -0.054823887 -0.076689
000290 0b b0 9d bd 19 7e 81 bd 05 87 07 bb 66 cd fb bc
       -0.07699593 -0.06322879 -0.0020679843 -0.03073759
0002a0 5b f7 b3 bd 5e 7d 95 3d 1a 5c 6c 3c ee 58 70 bd
       -0.08787414 0.072993025 0.014426256 -0.05867856
0002b0 ba 76 4e bd 20 82 62 bb 86 af 58 3d 2f a2 e1 bc
       -0.050406195 -0.0034562424 0.052901767 -0.027543155
0002c0 1a 88 10 bd eb f1 5a 3d 27 2c 09 bc 6d 89 09 bd
       -0.035286047 0.053453367 -0.008372343 -0.033578325
0002d0 80 18 80 3d a6 72 96 bd 01 d0 a9 3c 05 4c 74 bd
       0.06254673 -0.07346086 0.020729067 -0.05964281
0002e0 c4 15 0a bc 27 bc 41 bc 9a 0b 56 bd b3 af 42 bd
       -0.008428041 -0.011824644 -0.052257158 -0.04753084
0002f0 05 c1 60 3d 59 e2 a7 3d 70 35 46 3c 29 11 22 3d
       0.054871578 0.08197469 0.012097701 0.039567146
000300 29 3f 39 3d c4 44 e9 bb f9 4e f5 bb 0b bb b1 3d
       0.04522625 -0.007118793 -0.007486221 0.08678254
000310 ad b5 54 3d 2d 6a b0 bc 1a f9 b4 3c 63 1d fc 3c
       0.051931072 -0.021535004 0.022091437 0.030775731
000320 47 eb ac bc 3c 14 8e 3d 17 56 fb bc c3 3c 06 3d
       -0.021108283 0.06937453 -0.0306807 0.03277279
000330 c2 4b 47 3d 31 ac 21 bc c0 b5 9a bd 3a 89 8d bd
       0.048656233 -0.009867714 -0.07554197 -0.069109395
000340 66 50 26 bc a3 ef 2f 3d 02 ba 97 3d d4 9a 60 3d
       -0.010151004 0.042953145 0.07408525 0.054835156
000350 12 3c 43 3c 0f 23 26 bc 65 da 8f 3b c4 58 55 bd
       0.011916177 -0.010140195 0.0043900483 -0.052086607
000360 a0 cb 57 bc dd f9 5a 3d b4 29 8d bd 1f 77 3b bd
       -0.013171107 0.053460944 -0.0689272 -0.0457679
000370 0b ae ff bc f0 09 57 bd 06 6f 85 bd ec a0 0b 3d
       -0.03121092 -0.05249971 -0.06515317 0.034089014
000380 16 f4 0f 3d 96 b8 49 3d 1f 28 81 bd bd ad cc 3c
       0.035144888 0.0492483 -0.063064806 0.024985189
000390 58 0f 03 3d d3 42 b3 3c e1 69 41 bd 36 1c 12 bd
       0.031997055 0.02188245 -0.047220115 -0.035671435
0003a0 ee eb 3d 3d 94 fc 07 3d f7 a3 96 3c fe 52 7f bd
       0.04636758 0.03319986 0.018388731 -0.062335007
0003b0 0b e4 9f bd 4b 72 83 3d a2 79 c1 bb 3b 57 84 3d
       -0.078071676 0.06418284 -0.0059043923 0.064619504
0003c0 6e 91 a8 bd 82 12 3d bd 8d cf a2 bd 36 31 9d 3d
       -0.082308635 -0.04616023 -0.079497434 0.07675402
0003d0 f2 1f 26 3c 1c a5 46 3d f8 a9 88 3d 8f c3 35 3c
       0.010139452 0.048497304 0.06673044 0.011093988
0003e0 ff 92 0a 3c 62 7d 9a bd 7c a7 3f 3c 99 0e 71 3d
       0.008457898 -0.07543446 0.011697646 0.058851812
0003f0 67 d4 f8 bb ce 5d 9c bd cb b3 50 bd bc 7b 1b 3a
       -0.0075936797 -0.07635079 -0.050952714 0.00059312186

actor.4.bias f4 [6]
000000 dd 9e 52 bd 2d a0 d3 3c 97 c1 98 bc 78 23 98 3d
       -0.051421035 0.025833214 -0.018646998 0.0742864
000010 60 8e 14 bc 0f bf 8d 3d
       -0.009067148 0.06921207

critic.0.weight f4 [128, 25]
000000 d9 1e 66 bd 58 1c 1a be c4 85 7a 3a 2a ea d5 bd
       -0.056181762 -0.15049875 0.0009556676 -0.10445054
000010 ba b8 e5 bd c1 45 0d 3e 94 ec 44 3e 13 23 2c be
       -0.112168744 0.1379614 0.19230872 -0.16810255
000020 72 92 2c be 3a 13 0c 3d e2 cc 2a be 6f ad 46 bd
       -0.1685274 0.034198023 -0.16679719 -0.048505243
000030 a5 c8 a0 3d 0d 68 95 3d 91 d0 a1 3c 17 a6 9c 3d
       0.0785077 0.07295237 0.019752773 0.076488666
000040 2f 13 c1 bd 53 5f da bc 59 06 a7 bd a0 c8 6c be
       -0.09427487 -0.026656782 -0.081555076 -0.23123407
000050 9a 07 e6 bd 24 47 b7 3c 98 25 6c 3d b1 ba c0 bd
       -0.11231919 0.02237279 0.05765304 -0.094106086
000060 d0 08 f1 3d 26 85 cb bd 40 30 9d 3c a4 07 29 3e
       0.11769259 -0.099375054 0.019188046 0.16506821
000070 ad a3 b0 3d 0f e1 34 3e 42 08 47 3d 19 29 01 be
       0.08624969 0.17663978 0.04859186 -0.12613334
000080 20 18 99 bd 96 36 8c bd 03 78 21 be 10 db 91 bd
       -0.074753046 -0.06846349 -0.15768437 -0.07121861
000090 f3 36 44 be 7e fb ef bd 57 7d 47 be fd a6 37 3e
       -0.19161586 -0.1171789 -0.19481407 0.17934795
0000a0 aa e1 a5 3c 60 28 2d 3e f9 52 03 3e 69 73 44 3e
       0.020249207 0.16909933 0.1282462 0.1918465
0000b0 22 cb 71 bd 9a c2 b1 bd a8 bf 68 bd 10 dd 4b be
       -0.059031613 -0.086796954 -0.056823403 -0.19908547
0000c0 67 ec c9 bc e1 d2 48 3d 6d 95 c9 3d fb 2b 1e bd
       -0.024648858 0.049029235 0.09842954 -0.03861616
0000d0 99 22 cd 3d 0e 87 aa 3d c2 77 7c 3c e9 b3 17 3d
       0.100163646 0.08326541 0.015409412 0.03703681
0000e0 bd f6 a7 bd 22 13 06 3e 73 01 7d be 34 c8 98 3d
       -0.082013585 0.13093236 -0.24707584 0.07460061
0000f0 c6 67 de 3d a3 f2 cb 3d 57 db 87 3d 26 4b ca bc
       0.10859637 0.09958389 0.06633633 -0.024694037
000100 ee 18 f0 3d d1 ee 34 be 75 d2 4b bd b5 c9 a4 bd
       0.11723505 -0.17669226 -0.049761254 -0.08046285
000110 cd d6 d0 3d 0b 4e 35 3e 80 11 c6 bc 2d 72 94 3d
       0.1019722 0.17705552 -0.024178267 0.0724834
000120 7f 9d f2 bc 3c a0 81 bd 3e 60 6d 3d 73 9d 35 3d
       -0.029616116 -0.063293904 0.05795311 0.04433961
000130 0b cf d4 bd 48 55 44 3d bd 41 38 3e f9 30 07 be
       -0.10391053 0.047932893 0.17993827 -0.13202275
000140 7c 19 52 bd d3 09 23 be 14 23 81 bc 28 18 4a 3e
       -0.051293835 -0.15921716 -0.015763797 0.19735777
000150 fb ac ff 3d 22 12 35 be 34 61 4c be 38 29 66 bc
       0.12484165 -0.17682698 -0.19958955 -0.014047913
000160 6f d7 0b bc bf 66 0b 3e 27 3a a7 bd d6 a4 25 3e
       -0.00853525 0.13613413 -0.081653886 0.16176161
000170 0f 4a c7 bd 32 c1 3f bd b5 a7 0c bc b8 ab b9 bd
       -0.097309224 -0.046815105 -0.008584906 -0.09065956
000180 bc fb 95 bc bf 70 9d bd fa f6 92 bd ac 62 e8 bd
       -0.018308513 -0.0768752 -0.07176013 -0.11346945
000190 7d 7a c8 bb 75 e8 4d 3e b6 20 c6 3d 6e a0 27 be
       -0.0061181174 0.20108207 0.09674208 -0.16369793
0001a0 7e 02 02 be 94 45 eb 3d aa e0 cb bd b9 31 f9 bc
       -0.12696263 0.1148788 -0.09954961 -0.030419217
0001b0 03 4b e0 bd 1c 99 ce 3d 48 83 15 be 45 a2 3e be
       -0.10951807 0.10087797 -0.14600861 -0.18616588
0001c0 15 a3 18 be 83 eb 2c be 4b 28 3f 3c 80 07 d0 3c
       -0.14905961 -0.16886716 0.011667321 0.025394201
0001d0 75 81 f6 bc b0 b4 8c 3d ec 16 af 3c 0e e4 55 3d
       -0.030091027 0.06870401 0.021373235 0.052219443
0001e0 ed 1c e5 3d 66 e3 ed 3c eb 76 40 3e 15 4f 03 3e
       0.11187158 0.029039096 0.18795364 0.12823136
0001f0 f2 ef 4d bd 5a 3e 02 3e 6a bb 80 bd b8 07 49 3d
       -0.050277658 0.12719098 -0.062857464 0.049079627
000200 dc 7d c9 3c 26 2c 2f be e7 bd c7 3d 73 36 e6 3d
       0.024596147 -0.17106685 0.09753018 0.11240854
000210 57 c6 98 3e 6a 7b 92 3c 20 e8 55 bd 29 e7 a4 bb
       0.2983882 0.017881114 -0.052223325 -0.0050324393
000220 c2 6d a8 bd 6b 31 37 be 3d 9b 55 3d 56 22 fc 3c
       -0.0822406 -0.17889945 0.05215 0.030778091
000230 d6 50 85 bd 19 f7 be bd 44 f4 10 bd 1a 70 af 3d
       -0.06509559 -0.09324474 -0.0353892 0.085663036
000240 00 5e 0e 3e d3 01 6a 3c 75 7a 9d 3d 09 1d 23 3e
       0.13903046 0.0142826615 0.076893725 0.15929045
000250 63 88 81 bd 81 be 02 bc 47 b2 29 be ab a2 b6 bd
       -0.06324842 -0.00797999 -0.16571914 -0.08917745
000260 67 ad 83 3d 69 9c 97 3d bc 1b 98 3d 58 47 46 3e
       0.06429558 0.0740288 0.07427165 0.19363153
000270 a9 1b b5 3d ec e5 c9 bd 23 35 36 bd 2b 4d a5 3c
       0.088431664 -0.09858307 -0.04448427 0.020178398
000280 39 ad ad 3d 39 cb c8 bd 72 b5 a4 bd c4 ce 90 3d
       0.08480305 -0.09804387 -0.080424204 0.070706874
000290 7f 8a 44 3d b9 d9 25 3e 98 aa 48 3e 40 5d b2 bd
       0.047983643 0.16196336 0.19596326 -0.08709192
0002a0 2f 64 88 3d de f7 f6 bd 8c 46 ff b9 3b d3 8c bc
       0.066597335 -0.12058996 -0.00048689952 -0.017190566
0002b0 54 55 14 3d 27 5e 2c 3e 52 c9 1e be 61 b8 11 3e
       0.036214188 0.16832791 -0.15506485 0.14230491
0002c0 07 84 d1 3d ba f2 cc bd 4d c7 78 bd 43 75 28 bd
       0.1023026 -0.10007234 -0.060736943 -0.041127454
0002d0 42 14 0f 3e 88 5c 66 bd eb a8 ba 3d f6 dd 8b bd
       0.13972571 -0.05624059 0.0911425 -0.06829445
0002e0 8a 41 29 3e 31 36 83 bd 96 82 63 3e bf 89 18 be
       0.16528907 -0.064068206 0.22217783 -0.14896296
0002f0 57 8f 52 bd 16 2e f8 3d 10 0e 6f 3d e5 24 de bd
       -0.05140623 0.12118165 0.05836302 -0.10846881
000300 70 d4 48 be 70 5a 08 be 04 82 1c be e9 27 c5 bd
       -0.19612288 -0.13315749 -0.15283972 -0.09626753
000310 97 f6 db bd 0c dd 7c bd ba 37 36 3e 9c 52 95 bd
       -0.10740393 -0.061734244 0.17794695 -0.07291147
000320 2a 4c 16 be 3d 04 01 3e b6 ed 00 be a5 31 ac bd
       -0.14677492 0.12599273 -0.1259068 -0.084079064
000330 ca e0 3e bd a3 2d bb bc b1 d7 de bd 9a 33 1c be
       -0.046601094 -0.02284891 -0.108809836 -0.1525406
000340 80 11 47 be a0 13 a0 bd 1e 99 c7 3d 67 10 ae 3c
       -0.1944027 -0.07816243 0.09746002 0.021248056
000350 59 8a 16 3e 97 c3 59 3c bd 9e 00 be a5 82 c1 3c
       0.14701213 0.013291261 -0.12560554 0.023621866
000360 3d dd 70 bd 59 8d c2 3d 82 87 06 3d d9 b1 44 3e
       -0.05880474 0.09499616 0.032844074 0.19208468
000370 0a c9 47 be cd 46 d6 bd cb 1c 1d be 27 3b 64 3c
       -0.19510284 -0.10462723 -0.15343015 0.013930119
000380 bf 4c f7 bd c2 c8 39 bd 0c fb 5c 3e 4a bb 76 bd
       -0.12075185 -0.045357473 0.21580142 -0.060237207
000390 c8 56 c5 3d 3a 18 04 3e 97 78 2b 3e f6 95 24 3e
       0.09635693 0.12899867 0.1674522 0.1607283
0003a0 92 b7 f4 3d 2a dd fa 3a 82 b4 11 3e 23 75 4d 3e
       0.11949076 0.0019139398 0.14229015 0.20064215
0003b0 70 d0 89 bd 89 b2 54 3d 47 33 14 3e a5 ff 00 be
       -0.067292094 0.051928077 0.14472686 -0.1259752
0003c0 69 80 b8 3d 46 6d 00 3e 0a 66 cf 3c a9 54 9d bd
       0.09008867 0.12541685 0.02531721 -0.07682163
0003d0 05 65 4b bc 63 74 32 3e 0e ba 2d be 01 d0 a2 3d
       -0.012414222 0.1742721 -0.16965505 0.0794983
0003e0 48 47 e9 bd 0e 8d c0 3d 43 c7 8d bd 71 7b fa 3c
       -0.11390549 0.09401904 -0.06922772 0.03057644
0003f0 e8 aa df 3d 72 1f f1 bc 66 e1 46 bb 97 5f 17 3e
       0.1092127 -0.02943394 -0.003034675 0.14782558

critic.0.bias f4 [128]
000000 02 db 86 bd 61 a2 d9 bd 5d 71 32 be 45 7e 28 be
       -0.06584741 -0.106266744 -0.17426057 -0.16454418
000010 3a 17 f0 3d c4 35 f2 bd f2 7d f6 bd f9 d6 ac bd
       0.1172318 -0.11826661 -0.12035741 -0.0843944
000020 8d bd d9 bc 1d 8b dc 3d 10 75 53 be 35 11 b5 bd
       -0.026579643 0.10768721 -0.20650125 -0.088411726
000030 d5 69 37 bd e8 ff 94 3d 48 39 e4 bd aa 45 3c bd
       -0.044778664 0.07275373 -0.11143738 -0.045964874
000040 63 8b e2 bd dd e6 53 bd 23 5c bd 3d c6 0f a2 bd
       -0.11061742 -0.05173384 0.09246089 -0.07913165
000050 83 ee f6 bc c0 0e 09 be 73 9c 2d 3d e6 4d 00 be
       -0.030143028 -0.13384533 0.04238553 -0.12529716
000060 20 ea 2a 3d aa 65 50 be 13 bb 97 3d f4 23 8b 3d
       0.041727185 -0.20351282 0.074087285 0.06793967
000070 90 62 23 be d2 26 aa bc 30 03 f8 bd 03 31 ac bd
       -0.15955567 -0.020770464 -0.12109983 -0.08407786
000080 46 6d d8 3d 0f 55 de bd e0 87 d2 3d 2c c9 dd 3d
       0.10567717 -0.108560674 0.10279822 0.10829386
000090 ef 9f 32 3e 12 de 9b bd 23 36 39 be 8c 6c eb 3d
       0.17443822 -0.07610716 -0.18087058 0.11495313
0000a0 07 6c f9 bc bc c9 81 bd f8 9e 9f bd 10 c8 3a 3e
       -0.03044702 -0.06337306 -0.07793993 0.1824038
0000b0 07 01 21 be ea 95 1a 3d 8c 90 fc 3c 43 62 ab bd
       -0.15723048 0.037740625 0.030830644 -0.08368351
0000c0 29 9a ef 3d 0d 3c dc 3d ea 00 00 3e 1e fb 44 3d
       0.116993256 0.10753641 0.12500349 0.048091047
0000d0 8d 22 49 3d d4 31 9d 3d 3a 55 87 bd 2f 04 2f be
       0.049105216 0.076755196 -0.066080526 -0.1709144
0000e0 2f f2 71 bb bb c3 65 3c a4 7f e9 3d b9 b1 18 3d
       -0.0036918034 0.014023717 0.11401299 0.037278865
0000f0 33 0b 37 3c 92 1f 93 bd 55 81 2b 3e a8 9e 26 3e
       0.011172104 -0.07183756 0.16748555 0.1627146
000100 de 05 4d 3e cc 66 0c bc ad 35 d8 bd b2 ad 28 be
       0.2002177 -0.008569431 -0.10557113 -0.1647251
000110 01 b6 4e be a8 72 2a be 2b ba 84 bd bc 7e 23 3e
       -0.20186616 -0.166453 -0.06480821 0.15966314
000120 f1 6e 3d be 88 84 80 bd 2d f4 c2 3d 61 87 af 3d
       -0.18499352 -0.06275278 0.09519229 0.08570743
000130 01 4f c9 3b 73 ec cf bc 67 de be 3c 04 99 f6 bd
       0.006143451 -0.025381302 0.02329941 -0.12040904
000140 92 d7 dc 3d 27 35 cd 3d 87 61 22 3d 16 5d 04 3e
       0.10783304 0.10019904 0.03964379 0.12926134
000150 5f 58 06 3e a4 5e 41 be 80 28 a7 bd b6 05 22 be
       0.13119648 -0.18883759 -0.08162022 -0.15822491
000160 eb b0 9e 3d 4b ff 36 be 94 62 3d 3d 86 9f 2b be
       0.07748588 -0.17870824 0.04623659 -0.16760072
000170 1c 13 ce 3d 0f c3 0d be d6 6e 38 be 25 e7 ae bd
       0.100622386 -0.1384394 -0.1801103 -0.08540181
000180 82 50 88 3d 2b b2 be bd 05 2f ab 3d 6b 2d d2 b8
       0.06655981 -0.093113266 0.08358578 -0.0001002204
000190 0e fb e0 bd 8d 81 8a bc a0 04 27 3e 81 9d 00 be
       -0.10985385 -0.016907478 0.16310358 -0.12560083
0001a0 bb 64 47 3e d2 39 89 3d 8c 68 bf 3d f0 d8 10 bd
       0.1947202 0.067004815 0.093461126 -0.035363138
0001b0 18 16 16 3e 7b 8d 21 be e8 c7 b6 bd 98 09 02 3e
       0.14656866 -0.15776627 -0.08924848 0.12698972
0001c0 6c a4 bd bd f7 c4 20 3e 54 e3 8f bd b1 df 39 be
       -0.092598766 0.15700136 -0.07025781 -0.18151738
0001d0 69 f2 34 3e 7a bd 1d 3e 1f f4 89 3d 7c 12 25 be
       0.17670597 0.15404311 0.067360155 -0.16120332
0001e0 36 20 2b 3d a2 81 2f bd 90 62 4c 3e 90 5b 65 3d
       0.041778766 -0.042848237 0.19959474 0.055995524
0001f0 2a ed c6 bc d1 c4 4e be 75 9f 90 bd 6d 77 34 3e
       -0.02428301 -0.20192267 -0.07061664 0.17623682

critic.2.weight f4 [128, 128]
000000 0c 16 8f bd 1f dc e1 3b 7e 84 75 bd 34 85 37 bc
       -0.06986627 0.0068926956 -0.059940808 -0.011201192
000010 97 eb a8 bc d5 f4 3e bc 24 cf 65 bb f7 22 7b bc
       -0.02062015 -0.011655052 -0.0035066092 -0.0153281605
000020 86 45 0d bd 6f 60 2e 3d e4 19 3b 3c 0d 86 37 bd
       -0.03449013 0.042572435 0.011419747 -0.044805575
000030 db 41 30 3d 77 68 a5 3d c9 6a 4d 3d b3 31 18 3d
       0.043031555 0.08076566 0.050150666 0.037156772
000040 a0 9b 5a bc d3 57 86 3d d4 c8 05 bd 2d eb 2f 3d
       -0.013342768 0.0655972 -0.032662228 0.04294889
000050 2d 7f ad 3d 0f 76 34 bc 6f 5f 46 bd cd aa 05 3d
       0.084715225 -0.0110144755 -0.048430856 0.03263359
000060 58 91 2d bc 3c 6e 5e 3d 2d 8c 2b bd 6c 56 85 3d
       -0.010593735 0.054304346 -0.04188173 0.06510624
000070 80 c8 80 3d 85 b9 4c 3d e2 aa 56 3c 50 98 f2 bc
       0.06288242 0.049981613 0.013102265 -0.029613644
000080 f1 59 86 3d 30 60 6c bc 2b 6e 07 bd cb 0f 8b 3d
       0.06560124 -0.01442723 -0.03306405 0.06790122
000090 8a dd bf bc 0f 09 2d 3d 86 a5 15 3d fa 3f fe bc
       -0.023421068 0.042244967 0.03653481 -0.031036366
0000a0 75 38 77 3d 2d 96 ed bb f3 81 49 3d ea 1c 60 bd
       0.060356576 -0.0072505684 0.049196195 -0.054715075
0000b0 b5 a9 02 3d 54 3d 95 3d 7f e3 27 bd e7 80 a7 3d
       0.031900126 0.07287088 -0.04098844 0.08178883
0000c0 b1 18 5c bd e8 f7 db 3c 06 b8 fb 3c 9a be 20 bb
       -0.053734485 0.02685161 0.030727398 -0.002452767
0000d0 17 c4 ff 3c a6 be dd 3c 0c 5a 2f bd 68 db 97 bd
       0.031221433 0.027068447 -0.042810485 -0.07414895
0000e0 9d 3c 8d bd 7d 67 04 bb 7e 8c 81 3b 8d 1c 0a bc
       -0.06896327 -0.0020203285 0.0039535156 -0.008429659
0000f0 cb 20 90 ba 7f 0e 8a bd 09 54 a3 bd e7 0c de bc
       -0.0010996101 -0.06741046 -0.07975013 -0.027105762
000100 25 6a 91 bd e2 a4 40 3d 5c 0d c4 bc c5 42 0c bd
       -0.071003236 0.047032245 -0.023932151 -0.034243364
000110 30 d4 22 3c ca db ab 3c cf 81 38 3d 64 d6 6e 3b
       0.009938285 0.020978827 0.04504567 0.0036443705
000120 45 f2 dd 3c c0 94 c6 3c e6 0d 96 3d f1 5a ee 3c
       0.027093062 0.024240851 0.0732687 0.029096099
000130 ad 3f 07 3d 8d eb ca 3b 0f 7c 0a 3d cd 28 cb b9
       0.03301971 0.0061926306 0.033809718 -0.00038749576
000140 92 3a 1b bd 6a 99 56 bd 34 db 55 3d af 8d 02 3c
       -0.037897654 -0.0523924 0.052211 0.00796835
000150 ed 0d ab 3d 39 39 3a 3d d9 f7 a3 3d 30 07 1d bc
       0.083522655 0.045464728 0.080062576 -0.009584233
000160 ab 56 62 3d 7c 1d 27 3c c7 f8 95 3c e7 f4 cd 3c
       0.055258434 0.010199901 0.018307103 0.025141193
000170 25 6b 58 bd 4d 6e b2 3d c1 57 0b 3d 92 d1 8f bc
       -0.052836556 0.087124445 0.034019236 -0.017555986
000180 98 b3 90 bd 67 f2 44 bd db 0f d1 ba 3b b6 2c 3c
       -0.07065505 -0.048082735 -0.001595016 0.010541494
000190 90 1f 14 3d 06 a1 b0 3d b4 c6 96 3d d3 8d cb bb
       0.036162913 0.08624463 0.07362118 -0.006211975
0001a0 f1 dd 95 bc d9 23 8a 3d 74 2f 13 3b d6 7f a9 3c
       -0.018294306 0.06745119 0.0022458704 0.02069084
0001b0 eb b8 82 bb 5f 04 9c 3d c2 67 48 3d 1b 21 28 3d
       -0.003989329 0.07618021 0.048927076 0.041047197
0001c0 4f 49 26 3d a9 bc fa bb 89 9b e4 3c ae 49 5b bd
       0.040597256 -0.0076518846 0.027906196 -0.053537063
0001d0 89 db 60 bd de 5a df 3c c9 3c b0 3c ba ac 74 bd
       -0.054896865 0.027265009 0.02151336 -0.059735037
0001e0 cf a2 0c 3d 30 fe 22 3d f9 74 57 3d 92 7d 25 bd
       0.034334954 0.039793193 0.05260179 -0.040402956
0001f0 01 e5 30 bd 48 c5 33 3b 1a cb 53 bb f8 5f a3 3b
       -0.043187145 0.0027430821 -0.0032317103 0.0049858056
000200 0a ae 4c bd f8 fe 86 3d 66 51 bc 3d ed 94 21 bd
       -0.049970664 0.065916 0.09195213 -0.039448667
000210 23 dd 87 3d c9 96 dc 3c 99 af d5 3c 9f 87 33 bc
       0.06633975 0.026927369 0.026084708 -0.010957628
000220 19 f9 a9 3d b9 61 d2 bc 21 3c f2 3c 37 02 7c 3b
       0.08299465 -0.025681363 0.029569687 0.0038453469
000230 e3 48 c1 3c f1 3c 35 bd 41 8e 53 bd 55 ca 71 3d
       0.023594325 -0.04424757 -0.051649336 0.05903085
000240 e2 e6 a3 bd 6c f1 45 bd 4c 1b ac 3d f5 7a 2b bd
       -0.08003022 -0.04832594 0.08403644 -0.041865308
000250 67 ca ee bb 77 3c a1 bd 58 9a a3 bc 08 b6 11 bd
       -0.007287312 -0.07872861 -0.019971058 -0.03557399
000260 98 66 05 3d db 0e 4b 3d c4 aa a3 3d 8e af 04 bd
       0.032568544 0.049574714 0.07991555 -0.032393984
000270 c8 81 a4 3d 4b 35 47 3d 90 50 9f bd f2 18 8e bd
       0.08032566 0.04863481 -0.07779038 -0.06938352
000280 00 21 8e bc 1f 7b 8e 3d a9 d7 5c bb 56 7b 6b bd
       -0.01734972 0.06957077 -0.003369788 -0.05749067
000290 cc 0c 3b 3d e7 cb ae bd 3f 22 8b 3d 17 98 25 38
       0.0456665 -0.08534985 0.06793641 3.948071e-05
0002a0 d2 16 e5 3b 98 79 00 bd 87 fb 06 3c 7d 48 39 3a
       0.006991246 -0.03136596 0.00823868 0.00070679915
0002b0 e2 ef 8e 3d f2 1e a7 3d f3 2b 1c 3d 79 2b 50 bc
       0.06979348 0.08160199 0.03812785 -0.012705677
0002c0 38 11 23 bb 86 b0 5f bd b8 f3 37 3d f1 00 96 bc
       -0.002488209 -0.054611705 0.044910163 -0.018310996
0002d0 ec 99 c7 bd cb 9b e4 bc 03 6c 68 bd 6f 74 93 bd
       -0.09746155 -0.02790632 -0.056743633 -0.07199942
0002e0 6e 8a 41 3c f5 94 e6 3b 60 3b 5f bd d9 1e 80 bd
       0.011812789 0.0070368 -0.054499984 -0.06255884
0002f0 6f 1e a4 3c ed ef c7 3c 30 87 5e 3d cb 42 2d 3d
       0.020034043 0.024406398 0.054328144 0.042300027
000300 d8 17 79 bd 63 41 36 3d b9 a7 99 bd 2e 73 8b bd
       -0.060813755 0.04449595 -0.07502694 -0.06809078
000310 2d 7f 0a 3d d6 0c a6 3d 4b 87 12 3d 88 ce bf bb
       0.03381269 0.08107917 0.035773557 -0.005853478
000320 1b a8 41 bd ac 7e b4 3d 85 0c 7c bd 25 a5 99 3d
       -0.04727946 0.08813223 -0.061535377 0.07502202
000330 7f 83 58 bd 7e d7 a6 bd d1 bf 96 3b 9c c9 f6 3c
       -0.05285978 -0.081465706 0.004600503 0.030125432
000340 a5 18 9b bd c2 d2 de bc 2b 0f 94 bb 8b 81 1d bc
       -0.0757306 -0.027200107 -0.0045184097 -0.009613405
000350 d4 c4 3f bd 33 59 a5 3d df 1f 74 bd 7d 76 4e 3d
       -0.04681857 0.08073654 -0.059600707 0.050405968
000360 84 46 ca 3c ba 85 05 bd 65 e7 10 3d 62 9d 8b bd
       0.024691828 -0.032598235 0.035376925 -0.06817128
000370 23 0a 8d bd 67 11 75 3d 30 11 1f bd 1c 22 30 3d
       -0.06886699 0.05983105 -0.03883475 0.04300128
000380 e7 d4 a3 bd 0b 28 cb 3c 2a cb c0 bd f3 bb 28 3d
       -0.07999592 0.024799367 -0.094137505 0.041194867
000390 bb cc 9c 3d 0c a4 5d 3d cc c9 c9 3c de 2b 6d 3d
       0.07656237 0.054111525 0.024632357 0.057903163
0003a0 24 5c 94 3d 0e b7 47 3d 18 57 f8 3c ce 60 b2 3c
       0.07244137 0.04875856 0.030314967 0.021774676
0003b0 df 38 ac 3c db 44 6a 3d 22 38 62 3d be 22 c2 bc
       0.021023212 0.057194572 0.055229314 -0.023698207
0003c0 62 e1 a8 3b 6b 8d 43 3d af b7 9d bd e6 c6 81 bd
       0.005153821 0.04774229 -0.077010505 -0.06336765
0003d0 f5 71 d1 bc 82 c5 f2 3b b0 65 61 3d dc 94 54 3d
       -0.025567034 0.0074087987 0.055028617 0.051899776
0003e0 03 25 2d 3d ff 66 56 bc 0d 0d ce bc f3 fb bd bd
       0.042271625 -0.01308608 -0.025152707 -0.09276571
0003f0 12 dd 4f bb 08 0f 76 bc 80 36 88 bd 07 5c 3e 3d
       -0.0031717462 -0.015018232 -0.0665102 0.046474483

critic.2.bias f4 [128]
000000 13 55 8c bc 5f c1 29 3d c2 02 a1 3d 81 c4 4f 3c
       -0.01713041 0.04144418 0.07861854 0.0126811275
000010 17 38 d6 3c b5 5b a8 3d c4 58 35 bd b0 b3 50 bc
       0.026149793 0.08220617 -0.044274107 -0.012738153
000020 e4 95 45 3c d7 cb 59 3d 85 da 42 3d 6f 3f ff bc
       0.0120596625 0.053172912 0.047571678 -0.031158177
000030 46 73 20 3d 52 85 8d 3c 87 af 8a bd 30 8b 1e bd
       0.039172433 0.017275486 -0.067717604 -0.03870696
000040 9f 5c 8a bc 4c d7 ae bd c5 cc fa 3c dd ae 30 bd
       -0.016889868 -0.08537158 0.03061522 -0.043135513
000050 0f f5 28 bd 10 cf a4 3c c6 c6 74 bc db a0 84 3d
       -0.04124933 0.020118266 -0.014939969 0.06475993
000060 7f 0d 35 ba 1d 4a 24 bc b9 3c 9c 3d ad 91 11 bd
       -0.0006906613 -0.010027436 0.076287694 -0.035539318
000070 84 74 88 3d 95 3b e2 bb a3 bf 8a 3d 81 92 7e 3d
       0.066628486 -0.0069040754 0.06774833 0.062151436
000080 c6 4c 8a 3c e0 18 f6 bc 66 ba 7b bb dc 12 3a 3d
       0.016882312 -0.030041158 -0.0038410663 0.045428142
000090 76 0d cb bc cd fe 02 bd ed e1 f7 bb 72 0a a4 bc
       -0.024786692 -0.03198128 -0.0075647742 -0.020024512
0000a0 06 2e 82 3d 3b e9 b6 3d 8e 93 41 bd 7d ea 95 3d
       0.063564345 0.08931204 -0.04725986 0.07320116
0000b0 b8 14 c1 3d d7 3b 88 bd b0 ee c6 3c 49 4a a4 bd
       0.0942778 -0.066520385 0.024283737 -0.08021981
0000c0 23 30 a1 bd d5 70 34 3d 2c d5 8f bc dd a0 66 bd
       -0.078705095 0.044052918 -0.017557703 -0.056305755
0000d0 0b 2b ce bc 8d a5 53 bc 67 80 84 bd b5 94 f5 3c
       -0.025167009 -0.012917888 -0.06469803 0.029978136
0000e0 4b b1 bb 3c 3b 34 01 3d a0 2d cc bc ca 17 48 bd
       0.022911688 0.03154395 -0.0249241 -0.048850812
0000f0 96 a7 21 bd 98 e3 ad 3c a7 01 6d bd fa d0 50 3d
       -0.039466463 0.02122669 -0.057862904 0.050980546
000100 75 b0 ce bc f3 0d 4e bd 27 dc 4f 3c 9b b6 bd bd
       -0.025230626 -0.05030627 0.012686766 -0.09263345
000110 09 a1 a3 3d 8d e2 b1 3d 66 13 a6 bd 7f 23 89 bd
       0.079896994 0.08685789 -0.08109169 -0.066962235
000120 a9 6e be 3d 7c 08 49 bd b6 f9 c7 bc eb c1 11 bd
       0.092984505 -0.049080357 -0.024411064 -0.035585325
000130 73 4f 6f bd 8c d0 49 3d dd 41 3d 3d 37 99 4b 3d
       -0.058425378 0.04927115 0.04620539 0.049706664
000140 38 31 04 bc 48 da c8 3d 1c 73 91 bd e6 e4 65 bc
       -0.008068375 0.09807259 -0.071020335 -0.014031624
000150 a9 5d 14 3d 52 e7 34 3d 9b ab fb bb b8 53 63 bd
       0.036222134 0.044165917 -0.007680369 -0.055499762
000160 c0 e8 1f 3d e4 26 93 3d 9d 0b 97 bd 57 61 aa bd
       0.039040327 0.07185152 -0.07375262 -0.08319347
000170 68 73 57 bd 00 45 06 3c 54 d8 f1 3b d8 82 ad bd
       -0.052600294 0.008195162 0.0073805247 -0.08472222
000180 3b 88 84 bd 71 8a 33 bd 37 65 6c 3c b9 53 51 bd
       -0.064712964 -0.0438332 0.014428428 -0.051105235
000190 a9 29 70 bc b6 e7 b2 3d 3a 91 1d bd 37 d9 47 bd
       -0.01465837 0.087356016 -0.038468577 -0.048791137
0001a0 71 a9 33 3d ad 83 0b bd 6d 9e 6d bd 31 58 f7 3c
       0.043862764 -0.034061123 -0.058012415 0.03019342
0001b0 eb cd 09 bc 6e 92 82 bd 65 b8 8d 3d db a0 cc bb
       -0.008410911 -0.063755855 0.06919936 -0.0062447614
0001c0 f9 22 b2 3d 6e bd a3 bd 15 1c 38 bc 59 b9 05 3d
       0.08698077 -0.07995115 -0.011237164 0.032647464
0001d0 88 d1 1d 3d a4 4d 83 3d c5 53 66 bd fb 44 a2 bc
       0.038529903 0.06411293 -0.056232233 -0.019808283
0001e0 77 03 52 bd 30 c9 97 3d 64 54 40 3d 6d 17 66 bd
       -0.051272836 0.0741142 0.04695548 -0.056174684
0001f0 86 bf cf ba b0 a8 48 bd 75 85 a3 bc 29 4b 42 3c
       -0.0015849925 -0.048988998 -0.019961098 0.01185874
