logs/rsl_rl/arm_t_reach/2025-10-13_14-28-14/model_500.pt (torch, 505442 bytes, 42 tensors)

std f4 [6]
00000000: 70ec 753f 05c9 763f 632a 863f df8d 883f
00000010: 0c6f 863f e8fd 863f
0.960639 0.9640048 1.0481685 1.0668296 1.0502639 1.0546236

actor.0.weight f4 [128, 25]
00000000: 7dde 103e 27f3 023e db73 9f3e 7027 9d3e
00000010: fde8 85bc b624 803e b285 b83d 56ff cb3e
00000020: b152 0c3e 4ce8 95be ed80 cb3e 5047 0bbe
00000030: 1388 613d fb56 dc3d 5998 233e 3d51 d7bd
00000040: 9b9d 2a3f ce1f 6ebd 859b 823e 6e8d 11be
00000050: 2691 a5bd 18fd 63be 8077 24be f7be 123e
00000060: ce6d 28be 1157 49be f6b7 fc3d 9e0c 103e
00000070: 7c99 ddbb 1736 91be 5cf9 4dbc d8b8 39be
00000080: beda fc3c 15dd 91be c1c7 a2bd f123 813e
00000090: c32b a73e be4e 333e fcfd 7ebe 1bab 5dbd
000000a0: c8b1 2a3e 7c0b 0cba 8074 123e 85d3 023f
000000b0: 666c 6c3e 17f6 cf3c 5021 703e 0e2a 87bd
000000c0: 9b3e 553e 21a2 d6bd 20bd 9fbd 84a5 eebe
000000d0: 99ab 59be 67aa 723d 55aa 523e 9707 0f3e
000000e0: 370f 003e 6de2 5fbc 2d23 26bb d861 d5be
000000f0: c539 5fbd 0fdc 90bd 8fe3 6fbe fdc8 a8be
00000100: 301f a43e e41d 6e3e e7d7 313f 7316 b5be
00000110: 0e50 b1bd 8117 54be 59b4 3f3e 0cf1 413d
00000120: 6625 a83c d6a9 19be 5808 13be 8747 75bd
00000130: e46e 1ebe 4c3e adbd dd70 013e 318d 793e
00000140: d272 143d d959 b1be 6829 443e 3bf8 8bbe
00000150: 7e0b 7d3e 95fc 81be 0917 bc3d 39e9 b33d
00000160: b196 943e 478b 7d3e 999b bcbe faad 23bf
00000170: 190d 953e 88c2 823e c469 293b 0f43 49bd
00000180: 73d0 783e 7f21 023c aa59 57be 1a92 0dbe
00000190: 8caf 0cbe 2324 1ebc f4a4 70bd f4eb 59be
000001a0: 1326 b9be dc8c d0be c76a 7abe 4eb3 c5bd
000001b0: 6fea 37bd cc91 b7bb 657c 283e c8eb 2fbd
000001c0: 95fc b7bc 1145 f6be 32f9 3a3d 6d9a 113e
000001d0: 81b6 f13d 206f f13d cffd 0cbf ca82 2abd
000001e0: 8983 063e a2ec 26be 5c36 e93d 3dd2 dcbe
000001f0: b7b5 22be d64f 66be 14dd 86be c955 b8bd
00000200: af1e 0e3e 1291 de3d a85b 583e 74ae f33d
00000210: 9de5 1e3b 04eb 883d 68bf 11be 1451 00be
00000220: 491c a03c f96c 673c 3cab 993e f690 e0bd
00000230: efc6 e4be 20c9 08bf ce40 143f 26eb 3c3e
00000240: 625c 20bd 9a1e 4d3e 1293 003d 6928 7f3e
00000250: fd3f 843e 68b0 6fbd b8e0 453d 581e 00be
00000260: fa3f 1c3e 8d0f a2be de5d 8a3e dac3 25be
00000270: b1eb 353e 9b4b 0f3e 0898 2ebd 839d debd
00000280: aae2 963e a2cb ddbd ccd9 11be c9f3 22be
00000290: 14f8 f53e a9a7 3cbf c7f7 82be a0ae 0b3e
000002a0: edef 8dbe 6600 53bd 1027 a53c 8b91 7cbb
000002b0: 8714 5a3e 5e12 0fbc 6eb1 4abe 4dea a23c
000002c0: 4e34 16be f317 49bd ba29 65be 3d23 bbbd
000002d0: cca4 59bd a218 083d f87a ee3e aa0b cfbe
000002e0: f759 883e 058e 23bd 1f19 c8bc 5cdd 57bd
000002f0: 3ea9 01be 55e5 523e 2df8 1ebf 82c2 d73e
00000300: 603f c83e a87d 0f3e 456d 8b3d c7bb 5abd
00000310: ccf5 80bc eb22 1fbe 7567 013e af61 dcbd
00000320: 7c6a 2dbe aed6 803e 7bd6 d23e 7136 ca3d
00000330: d732 14be 4dfd 20bd 87d6 a53d a17f 6ebe
00000340: 7f42 d1bc 432c 23bd ad07 193e 9765 763e
00000350: 897c 22be c331 72be 4e37 9bba 04ad 5f3e
00000360: d2c0 353f fe72 7a3e 6c97 cb3e 8782 673d
00000370: 7f4e 923c 6d61 00bd 371b 84be e1a8 b3bd
00000380: 68e0 4cbe 833c 7cbe 22ba 50be f047 b13e
00000390: 94a5 673c 52f1 38be 5ed6 5cbe ac52 013f
000003a0: 56cd aabd 0856 dd3c ec71 c33c 364e abbb
000003b0: f6ff f2bd e6e2 c6be 82b1 3c3d 9d07 e0be
000003c0: da56 773e c1fb 19bf b9da 1dbf 18ca 5c3e
000003d0: dbeb f6bc 6292 60be c60c b43d 9fb3 cc3d
000003e0: 4e34 f0bd 48ed bd3c 1215 303c 291b b7be
000003f0: 5cf2 8e3d 74d1 20be 3f87 2b3b f87a 5cbe
0.14147373 0.12788068 0.31143078 0.3069415 -0.016346449 0.25028008 0.09009875 0.39843243
0.1370342 -0.2927879 0.397468 -0.13601422 0.05506141 0.10758778 0.15976085 -0.10513542
0.66646737 -0.0581358 0.25509277 -0.14214107 -0.080843255 -0.22264516 -0.1606121 0.1433066
-0.16448137 -0.1966212 0.12339775 0.14067313 -0.0067626815 -0.2836158 -0.012571659 -0.18136919
0.030866023 -0.28488985 -0.07948256 0.25222734 0.32650575 0.17510507 -0.24901575 -0.054118257
0.1666938 -0.00053422875 0.14302254 0.51104003 0.23088226 0.0253859 0.23450208 -0.06599818
0.20824663 -0.104801424 -0.077997446 -0.46610653 -0.21256866 0.05924454 0.20572789 0.13967739
0.12505804 -0.013664824 -0.0025350556 -0.4167621 -0.054498453 -0.07073223 -0.2342665 -0.32965842
0.32055044 0.2325359 0.69470066 -0.3536869 -0.08657847 -0.20712091 0.18721141 0.04734902
0.020525645 -0.15006194 -0.14358652 -0.059882667 -0.15471989 -0.08459148 0.1264071 0.24370266
0.036242314 -0.3463886 0.1915642 -0.27337822 0.24711415 -0.25388017 0.09184081 0.08784718
0.29021218 0.24760161 -0.36837462 -0.6393734 0.29111555 0.2553904 0.0025850395 -0.049136218
0.24298267 0.007942556 -0.21030298 -0.13825265 -0.13738841 -0.00965217 -0.05875106 -0.21281415
-0.3616186 -0.40732467 -0.24454795 -0.0965334 -0.044901308 -0.005602097 0.16453703 -0.042949468
-0.022459308 -0.48099568 0.045647807 0.14219065 0.11802388 0.117887735 -0.5507478 -0.041628636
0.13136114 -0.16301206 0.11387321 -0.4312915 -0.15889631 -0.22491392 -0.26340544 -0.09000737
0.13878892 0.10867514 0.21128714 0.11898509 0.0024245747 0.06685451 -0.14233172 -0.12530929
0.019544737 0.014125102 0.30013454 -0.10965149 -0.44683024 -0.5343189 0.57911384 0.18449077
-0.039150603 0.20031205 0.031390257 0.24917759 0.2583007 -0.058517843 0.04831001 -0.12511575
0.1525878 -0.3165249 0.2702474 -0.16187993 0.1776569 0.13993685 -0.042625457 -0.10869887
0.29469806 -0.108298555 -0.14243239 -0.15913309 0.4804083 -0.7369333 -0.25579664 0.13640833
-0.2772211 -0.05151405 0.020160228 -0.0038538899 0.21296893 -0.008732406 -0.19794247 0.019887114
-0.1466839 -0.049095105 -0.22379199 -0.091375805 -0.05313568 0.033226617 0.46578193 -0.40438586
0.26631138 -0.039930362 -0.024426041 -0.05270134 -0.12662217 0.20595296 -0.62097436 0.42140585
0.3911085 0.14012778 0.06807951 -0.053401735 -0.015742205 -0.15540664 0.12637122 -0.10760819
-0.16935152 0.25163788 0.4117926 0.09873665 -0.14472519 -0.039304066 0.080975585 -0.23290874
-0.025544403 -0.039837133 0.14944334 0.24062191 -0.15867819 -0.23651795 -0.0011842044 0.21843344
0.70997345 0.24457929 0.39763963 0.056520965 0.017859695 -0.031342912 -0.25802013 -0.087724455
-0.20007479 -0.24632458 -0.20383504 0.34625196 0.014138598 -0.18060806 -0.2156615 0.5051677
-0.08339946 0.027018562 0.023858033 -0.0052278293 -0.11865227 -0.38844985 0.046067722 -0.43755808
0.24154225 -0.6014977 -0.6166187 0.21561468 -0.030141762 -0.2193084 0.08791499 0.099951975
-0.11728726 0.023184434 0.010747211 -0.3576291 0.0697982 -0.157049 0.0026173142 -0.21531284

actor.0.bias f4 [128]
00000000: 07d4 23bf 23ef cfbe 6593 14bf a3ba e7be
00000010: 33d1 39bf 372d 4ebe cca6 0bbf 06b7 56be
00000020: d4cd 83be aa26 1cbf c2db 78be 3188 6cbe
00000030: 38a1 0fbf cf83 10bf 2e2d 2cbf 876c e8be
00000040: 773d 01bf 9a43 bbbe 95c5 04bf 0c7b 12bf
00000050: 6e07 b4be 60eb 32bf 7152 20bf 814d b8be
00000060: fc66 1cbf 58a0 1bbf ae3e 00bf e227 c8be
00000070: 1efe bcbe 8dc8 70be a569 1fbf b276 fbbe
00000080: 3b0f e3be 25d7 07bf aae9 b5be 855d 86be
00000090: 7195 fcbe efdc b9be 5b5b 19bf 575a cfbe
000000a0: 753a 22bf f0e7 08bf eec6 c0be 0d5d 33bf
000000b0: 8ed7 07be 2e2d d3be ee21 2fbf ba06 00bf
000000c0: 4736 7fbe a078 06bf e6d9 11bf d883 1cbf
000000d0: de24 01bf 00cb 22bf 18b3 21bf a375 c4be
000000e0: f855 96be 07da bfbe e735 e4be 12ee c4be
000000f0: 58d6 82be 4919 fabe 221e bbbe fcb2 1dbf
00000100: 9f83 25bf 9061 10bf fbe9 43be 6770 dabe
00000110: 6014 93be 235a 17be 80ca 09bf 33b6 cabe
00000120: bffe e4be 4bd9 c1be e031 4abf 2aea 33bf
00000130: 68fb 1abf 0bb4 b8be 4666 16bf 275e dabe
00000140: 0020 34bf ef1b 29bf 4b82 96be b561 afbe
00000150: f532 54bf 8d4c dbbe a7d0 70be 67c2 2abf
00000160: 8905 6ebd 4e9a 91be 02c3 14bf 3745 0fbf
00000170: 71ad 17bf b636 0abf eb6c b4bd 516b 36bf
00000180: 153d ffbe b2be e7be de39 4fbf d8c2 1dbf
00000190: 3cbe b5be 28af 00bf 9e4c abbe 5101 ebbe
000001a0: 90b4 1cbf 54ec 9fbe 39d5 1ebf 8238 0fbf
000001b0: 2dff 0ebf 78b0 87be cb01 ecbe 60a4 e9be
000001c0: 7d2c 0cbf cf40 843d c1d4 9abe 2afc e6be
000001d0: 2f9a 43bf 83f9 24bf 1f28 fabe 8698 37bf
000001e0: f873 00bf 57ab 86be 8037 05bf aa5d aebe
000001f0: a888 08bf ef77 97be 9876 6ebe 1a31 24bf
-0.63995403 -0.40612134 -0.58037406 -0.4525958 -0.7258484 -0.20134436 -0.54551387 -0.20968255
-0.25742972 -0.60996497 -0.24302581 -0.23098828 -0.56105375 -0.56451124 -0.6725644 -0.453953
-0.5048441 -0.36575013 -0.51863986 -0.57219005 -0.35161918 -0.69890404 -0.62625796 -0.3599663
-0.6109464 -0.6079154 -0.5009564 -0.39092928 -0.36912626 -0.23514004 -0.62270576 -0.49113995
-0.44347557 -0.5306266 -0.35529834 -0.26243225 -0.49332765 -0.3630137 -0.5990502 -0.4049861
-0.6337045 -0.5347891 -0.3765177 -0.7006386 -0.13265821 -0.41245407 -0.6841115 -0.50010264
-0.24923049 -0.5252781 -0.5697311 -0.6113868 -0.5044688 -0.63591003 -0.631639 -0.38371
-0.29362464 -0.3747103 -0.44572374 -0.38462883 -0.25554156 -0.48847416 -0.36546427 -0.61601233
-0.6465396 -0.5639887 -0.19132225 -0.4266388 -0.28726482 -0.14780478 -0.53824615 -0.39592132
-0.44725606 -0.37861094 -0.78982353 -0.7027918 -0.60539865 -0.36074862 -0.58749807 -0.42649958
-0.7036133 -0.6605825 -0.2939628 -0.34254232 -0.82890254 -0.4283184 -0.23517095 -0.66702884
-0.058110747 -0.28438038 -0.5811006 -0.5596499 -0.59249026 -0.5398973 -0.08809837 -0.712575
-0.4985129 -0.45262676 -0.80947673 -0.6162543 -0.354967 -0.5026727 -0.33456892 -0.45899442
-0.61213017 -0.31234992 -0.620441 -0.559456 -0.5585812 -0.26501822 -0.46095118 -0.4563322
-0.54755384 0.06457674 -0.30240443 -0.4511426 -0.7640714 -0.64443225 -0.48858735 -0.7171711
-0.50176954 -0.26302597 -0.5203781 -0.34055835 -0.5333352 -0.2958369 -0.23287427 -0.64137423

actor.2.weight f4 [128, 128]
00000000: 7b2c c6bd 2402 e2be 2309 483e 330e cabd
00000010: cf84 cfbe 6e4b 013e c5b0 a93e 1286 243f
00000020: d29d 853d 6a8e 59be c0af 15bd 9bc3 24be
00000030: db3a 103d 3618 ba3e 07fc 74be 1986 c1be
00000040: 7526 44bd cdc1 d13d ed3e 08bf b461 cfbd
00000050: 283b 263e 5892 5e3e a274 eabc 8526 1bbe
00000060: 0454 513d d6aa 5b3e 48d2 543e d946 66be
00000070: e110 283e a1aa 11bf 56cd 8b3e ba28 8f3d
00000080: c12b 523e cb3b c3be e6d4 6d3d 62e1 b8bd
00000090: 4e53 91bd 2322 cfbe f8c6 01be 03b8 c93d
000000a0: 08b0 86be 3c13 15be 88d1 6c3d 88b8 6c3e
000000b0: 28fc 19be 4b10 b63d 78d2 ac3e 148c 08be
000000c0: 4beb c2be 33ab fa3e 5f6d 3a3c dee9 43bf
000000d0: 9815 2dbe 1fa3 95be 0c26 7abf b3f5 803e
000000e0: 06bc 8ebe 8315 19bf fba3 48bf 07e6 02bd
000000f0: 79da 0dbe a1a7 32be 473a 093d 79c7 26be
00000100: 827e a0be dcf3 26bf ef63 b63d 87a8 c7be
00000110: 6f28 67bd bd52 12bf d725 813e 67bb a8be
00000120: 3768 11bf 4042 4c3e 70d6 83be b2dd 043d
00000130: 4eb6 1ebe 076f 95be 2cfb 6a3e a317 cb3e
00000140: fe89 af3e 69d2 83be 76fe a23d 3b92 7e3e
00000150: a05a 96bc 430a 7bbd 5c0e 1a3e fb36 613e
00000160: a6d3 4b3d 45ee 81be e610 69be 83b5 46bf
00000170: bff0 ab3e c436 533d 3fc1 4a3e 6686 3fbf
00000180: a6e4 2dbe 2d5a 2ebe be07 acbd 3c1d 56be
00000190: 6ed6 94bf 42be 2ebf 1a2c 17be ed98 fd3d
000001a0: c49b 47be f288 163e 89db 533e 9feb 72be
000001b0: dc49 8f3d ac20 edbe 46e5 1a3d 9be7 f3be
000001c0: f23d acbd 5924 03bf 9bb9 9fbd 46cf abbe
000001d0: 77bb 30be 1d60 373d f23d a7be fa2f cc3d
000001e0: 0b0b 0d3d 1e14 ae3c 23f3 a2be 9fea 22bf
000001f0: 7f6a 013d 61bb 2dbe 7a13 66be 410d 9a3d
00000200: 0253 413e 02d8 c4be 6a81 0a3e f0ec 183e
00000210: af79 00bc 4c1f 15bf 1dec e9be 29df 07be
00000220: 4cff c33e 881f debd ab0c f43c 6fd7 f0bd
00000230: 61da 0ebf 2c92 c13d 45b8 a1be 896d b5be
00000240: 42ef 72be 4946 2e3e 2e97 e2bb 8437 eabc
00000250: 75b2 97be 0bc4 5c3d 4f8c ffbe 66cc 04bf
00000260: a10d 9cbd 74e0 b93d 9317 6cbd 719d 833c
00000270: 3c43 7e3e fba1 a73e 74e2 163d 87f3 43be
00000280: c958 863c 77a2 b3bd 7b12 bfbe 39a9 86bc
00000290: 9a98 3bbe fe05 44bf 51a0 883e a836 ecbe
000002a0: c169 c0be 59e6 1abe b890 67bf a8c6 e5bb
000002b0: 14a7 573e 4949 75bd 4673 acbe 64a1 e23e
000002c0: b5db 61be 1bd6 ebbe f16c 03be 6529 babe
000002d0: e232 163e 6b5f 0ebe 8bdd 04bf 6125 9d3e
000002e0: bf36 c03e b1b5 663e 42a9 3e3e be74 69be
000002f0: 45d8 6fbe ed22 e73d 2345 7a3d 7bd3 803d
00000300: b9e9 bcbe 30e7 a63d f791 a7be db87 19bf
00000310: 4e65 24bf 2394 ab3c fc51 cdbd 708d 8a3c
00000320: 875d ba3d 95bf 32be 9be2 fdbd c56f 4e3e
00000330: 18ad 32bc 16c2 b8bd 141e a7bd a7ad 3c3d
00000340: 57f9 3dbf 7745 9ebe 50ee 69bc 1d38 183e
00000350: 3b9b 9fbe 36e6 08bf bf14 e6be 56da 2fbf
00000360: 009b 26bd 2647 163e ec6d adbe c8c8 103e
00000370: fac5 4a3e 3414 a73c 7d69 6c3f 97cd d9be
00000380: 2a7f 97be bb97 03bd e065 2abe f3d5 8c3e
00000390: 375d 57be aeb8 a0be c854 9b3d 944e cd3d
000003a0: 2ad8 ab3e db42 24be 4e73 e8be b3c7 3a3e
000003b0: 733c cdbe aaa7 47bf c12a c7be 516e b5be
000003c0: 3754 3ebd 32a4 1abe c2bf 543d d72a c23c
000003d0: 6095 133e 9eb4 c7be 9365 903d cf75 e93e
000003e0: 0b8f e1bd ed04 f53d fd41 41be 6d82 e43d
000003f0: d5e7 95be 1d0a 19be 5fac 87be 06d8 b7be
-0.09676453 -0.44142258 0.19534735 -0.098659895 -0.40531012 0.1262643 0.33142677 0.64267075
0.065242425 -0.21245733 -0.03654456 -0.16090243 0.03521238 0.36346596 -0.23924266 -0.3779762
-0.047888238 0.10242043 -0.5322102 -0.10126057 0.16233504 0.21735513 -0.028620068 -0.15151413
0.051105514 0.21451887 0.20783341 -0.22487964 0.16412689 -0.56900984 0.27305096 0.0699019
0.20524503 -0.38131556 0.058064364 -0.09027363 -0.07095967 -0.40455732 -0.12673557 0.098495506
-0.26306176 -0.14558119 0.057817012 0.23117268 -0.15037596 0.088898264 0.33754325 -0.13334686
-0.3807014 0.4895874 0.011378615 -0.7652873 -0.16902769 -0.29226014 -0.97714305 0.25187454
-0.27877825 -0.5979845 -0.78375214 -0.031957652 -0.13852872 -0.17446758 0.033502843 -0.1628703
-0.31346518 -0.6521585 0.089057796 -0.38995764 -0.056435045 -0.571575 0.25224182 -0.32955477
-0.56799644 0.19947147 -0.2574954 0.032437988 -0.15499231 -0.2918627 0.22947377 0.3966647
0.34284967 -0.25746468 0.07958691 0.2486047 -0.01835376 -0.061289083 0.1504454 0.2199363
0.04976239 -0.25377098 -0.22760352 -0.77620715 0.33582112 0.0515659 0.1980028 -0.7481445
-0.16981754 -0.17026587 -0.08399914 -0.2090959 -1.1627939 -0.6825906 -0.14762917 0.12382684
-0.19493014 0.14700678 0.20689215 -0.23722695 0.069965094 -0.4631399 0.03781631 -0.47637638
-0.08410253 -0.5122734 -0.07799073 -0.33556575 -0.17259012 0.044769395 -0.32664448 0.09970088
0.03443436 0.021249827 -0.31826124 -0.63639253 0.031595703 -0.1696601 -0.22468367 0.07522059
0.18879321 -0.3844605 0.1352593 0.14934134 -0.007841512 -0.5825088 -0.45687953 -0.13268723
0.38280714 -0.10845858 0.029791197 -0.11759841 -0.5580197 0.09451708 -0.315859 -0.3543513
-0.23724082 0.17018999 -0.0069149947 -0.028590925 -0.2962834 0.0538979 -0.49911734 -0.5187439
-0.07619787 0.09076014 -0.05763967 0.016066285 0.24830335 0.3274077 0.036837056 -0.19135867
0.016399758 -0.08771222 -0.37318787 -0.016438114 -0.18319932 -0.76571643 0.26684812 -0.4613545
-0.37580684 -0.15126933 -0.904552 -0.007012207 0.21059829 -0.059884343 -0.33681697 0.44263756
-0.22056468 -0.46061787 -0.12834527 -0.36359707 0.14667848 -0.13903587 -0.5190055 0.3069258
0.37541768 0.22530247 0.18619254 -0.2279844 -0.23422344 0.112859584 0.06110109 0.06290337
-0.36897066 0.08149564 -0.3272855 -0.59972924 -0.6421708 0.02094466 -0.10025403 0.016913146
0.0909987 -0.17455895 -0.12396737 0.20159824 -0.010905527 -0.09021394 -0.08160034 0.046064045
-0.7420859 -0.30912372 -0.0142780095 0.14865156 -0.3117312 -0.53476274 -0.44937703 -0.6869253
-0.040675163 0.14675578 -0.33872926 0.14139092 0.19802085 0.020395376 0.9234846 -0.42539665
-0.29589206 -0.032127123 -0.16640425 0.2750698 -0.21031652 -0.313909 0.0758453 0.10024753
0.33563358 -0.16041128 -0.4540047 0.18240242 -0.40085182 -0.7799021 -0.38899806 -0.35435727
-0.046467032 -0.15101698 0.051940687 0.023702068 0.14412451 -0.39004987 0.07050624 0.45597693
-0.110136114 0.1196383 -0.18872829 0.11157689 -0.29278436 -0.14945264 -0.26498696 -0.35907

actor.2.bias f4 [128]
00000000: 0baa e23d 3828 873e b3ff 543e a668 63bd
00000010: 6be3 4e3d 97f6 dabd 3aa6 5a3d 0fec 633e
00000020: 48f4 d2bd 4d06 04be 3cd5 a7bd e512 0d3e
00000030: 287d 79bd 74f8 173d 83bb 0fbe 007b 3a3d
00000040: 11c2 bfbc 89ac 8e3e 6761 67be c6f7 353e
00000050: 9c4d 80bc 075a ce3d 4f81 df3c 039e ab3c
00000060: 0ac5 3d3d 2e16 b23e ce8d c0bd 519f 693d
00000070: adb0 7fbc 5e1c d1bb f22d a8bd 60d0 0ebe
00000080: 70e3 343d a10e 763c a118 df3d 6166 e5bd
00000090: dd8c 3cbe e681 613e d469 a43d bce7 cbbc
000000a0: 8604 2c3e b8f6 89bb 1851 2a3b 5dcb a3bc
000000b0: 5f05 e53d 0f2c 39be 0838 933d 6f11 a9be
000000c0: 80a3 89be e828 653e 18b3 923d e981 22be
000000d0: 5a29 2bbd b763 813d 6baf 17be 6eb5 6f3d
000000e0: 789d 093e 654e 383e 99d8 3a3e c23e f13d
000000f0: 37a1 66bd 62c2 08bd 8753 123e 9521 883d
00000100: 2ad5 56bb d1d9 84be ffd7 7dbe 8423 f73c
00000110: 9d8d 18bd 748f 98bd e727 70bc 7d2c 8dbd
00000120: 907a b8bc d67d eabd 3a1e 08bd 4c79 843e
00000130: 596f 2cbe 12b6 1bbe 0094 443c befc edbd
00000140: 7dc6 d93d def2 4ebc ddfe 60be 0fb4 1dbe
00000150: 7794 613d 0ff7 2e3e 0216 cfbd 5d93 6ebd
00000160: c73b 883d b9af 113d 5f25 78bd d075 28bd
00000170: a0cf c5bd 3c53 ab3d 2103 f13d 51c0 10be
00000180: 0c4d 37be 2d40 c83d 4923 93bd cb30 cdbd
00000190: 6e16 043e d419 b2bd 1cce b7be fded c33e
000001a0: f05e edbc c376 77be ffca ed3d c363 633e
000001b0: 5a58 88be 26bf 553c 25a3 06be 7fa9 db3c
000001c0: 89ea 13bc 1ba2 0fbd b802 423d 7eca dd3e
000001d0: 4446 db3e 4cda 6bbd 3c24 bdbd afb9 8d3e
000001e0: 3452 16be dc6b cabd 7bc7 573e 3018 30be
000001f0: d924 af3e 6f45 fabd 336a 91be d101 113e
0.11067589 0.26397872 0.20800667 -0.055519722 0.05050985 -0.106915645 0.053381182 0.22258018
-0.10300499 -0.12893029 -0.08194968 0.13776739 -0.060910374 0.037102178 -0.14036374 0.04552746
-0.023407968 0.2786601 -0.2259575 0.177703 -0.015662007 0.10075765 0.027283339 0.02094937
0.04633049 0.34782547 -0.09402047 0.0570367 -0.015606088 -0.0063815555 -0.082118884 -0.13946676
0.044162214 0.015018136 0.108933695 -0.11201168 -0.1841311 0.22022209 0.080279976 -0.024890773
0.167986 -0.0042103194 0.0025988277 -0.019994432 0.11182665 -0.18083213 0.071884215 -0.33021113
-0.26882553 0.22378886 0.07163066 -0.1586987 -0.041787483 0.06317847 -0.1481301 0.058522634
0.13438976 0.17998655 0.18246688 0.11779548 -0.05630609 -0.033388503 0.14289676 0.0664703
-0.0032780864 -0.2594743 -0.24789427 0.030168302 -0.037244428 -0.074492365 -0.014657951 -0.06893251
-0.02251938 -0.114497826 -0.03323195 0.25873792 -0.16839351 -0.15206173 0.011998177 -0.11620472
0.10633562 -0.012631146 -0.21972223 -0.15400718 0.055073228 0.17086433 -0.101116195 -0.058246005
0.066520266 0.035567973 -0.060582515 -0.04112798 -0.09658742 0.08365485 0.11768175 -0.14135863
-0.17900485 0.097778656 -0.071844645 -0.10019072 0.12899181 -0.086963326 -0.35899436 0.38267508
-0.028975934 -0.24166398 0.11610984 0.22206025 -0.26629907 0.013046062 -0.13148172 0.02681422
-0.0090280855 -0.035066705 0.047365874 0.43318552 0.42827046 -0.05758123 -0.09235427 0.27680728
-0.14679796 -0.09883854 0.2107219 -0.17196727 0.342078 -0.12220275 -0.28401336 0.14160849

actor.4.weight f4 [6, 128]
00000000: 6f7a 6fbe 1f60 3cbd b427 803d 618c 683e
00000010: d18a 49be f191 743e d968 e3bd 1f21 4bbe
00000020: e7bc 8e3c 3545 a23d 7dfd c63e 7cb2 4dbe
00000030: c984 073e 0e16 a9bd 55be a2bc 6826 1a3e
00000040: 43e9 ba3d d972 e83d afdd 0fbe 2dc1 a7bc
00000050: a890 fd3d a0c5 463d 5c55 bb3e c268 d33d
00000060: 9cf6 0e3e efd6 a6bd 8a8d 6e3e 46b2 0f3e
00000070: 9067 9e3e 3f48 923d 515d abbe b79d 41bd
00000080: 45ec 6ebd 3306 bc3c 3536 5d3e 867d e33b
00000090: 335a 153e ddbd 5c3e 77c0 b33d 0318 5abe
000000a0: e04e 2bbd 00b2 603e 8bb8 903e 92cf 69bd
000000b0: 5e92 f1bd 57dd debd ca14 783e bd44 35be
000000c0: 5c55 1e3e a3a4 fa3d 5cb4 d23d c9b3 8dbe
000000d0: aea8 8f3e 942d 093e 36c8 8d3d d905 d2bc
000000e0: aec0 b83c 2f0b aebd cec2 9e3d 5b95 333e
000000f0: 31d5 f8bd b993 fc3d 59c3 183d c6c6 2fbd
00000100: 3d2f 813d 9470 833d db6c 8b3e 6b91 b7be
00000110: 18ee 03be e1c1 813e 180a e8bd e440 f2bd
00000120: 5834 393d d99a cabd 2e27 15be 7ef4 ce3d
00000130: 3aa8 473e 191d 8ebe f8dc e93d d6d1 d4bd
00000140: 749c b63c e723 7abd 7c72 92bd 52af 0fbe
00000150: 02ea 9e3e b0ae 57bd 7338 e6bd 4556 18bd
00000160: dff6 023c e9f1 11be ec8b 0fbc e122 f23c
00000170: 63f6 adbd 6704 143e 6047 aabd f1a1 533d
00000180: f7b8 e23b 92df c5be ffe7 703e d53e 853b
00000190: fb45 9ebe dec7 223e 0f22 1cbe 7cb0 fdbd
000001a0: 1b0a 6b3e b761 293f 0b19 84bd 6761 123e
000001b0: addc a63c 8a80 6f3b eaf9 563d ea81 5bbd
000001c0: 93d2 bbbe b2e7 683c 122e 783d 9ec1 37bd
000001d0: c2bc 2b3c 2f7d 41bd ece9 3fbd 80ee 933e
000001e0: 24f1 b53e a982 18be b862 8d3c 4b6d 86be
000001f0: ac85 323e e3e6 83bd 101b bb3c 0a45 01be
00000200: 7fdf dc3d 7283 c1bd 0fa2 593c a42f 82bd
00000210: 27fa 283e 12a7 793d 2b2d 1fbe d790 3a3e
00000220: 8d41 d1bd ddd6 6c3e 7a12 edbd f95d 4d3d
00000230: ea34 96be 5cde 653e 368f afbd 4d38 b03d
00000240: cbc8 06bd 1523 09bd aba5 b5be dedf d73d
00000250: 66c5 1fbe 9209 e53d 60ce a53e 0ab1 c1be
00000260: f107 1e3e 580b 003c 6c0c 8e3e 169d fe3d
00000270: 3410 8ebd 519d 333d 3dc8 96be 1c59 d9bd
00000280: fe4e 373d 69c8 01be a2fd 6ebe dabd 923d
00000290: 508b dfbd e198 d23d 0267 0bbd 265f dcbd
000002a0: 1718 18be ad41 903e 35aa a3be 5265 21be
000002b0: c113 cdbb ae76 0b3e 2b18 273d b38e 6f3e
000002c0: 5bca 7cbc de4d 14bd fae7 8c3d 1c99 b83d
000002d0: 2d91 6c3d 9b5f eebd 6cef 12bd 9864 183e
000002e0: dbd2 073d 8990 58be 4f69 fbbd c200 9a38
000002f0: 5531 3dbc 9ef6 10bb 85b8 c43c 124e 043e
00000300: 9bcb ec3d ab8d 833e 7791 9ebd 8a37 1e3d
00000310: bcbe 513e e740 7a3e 7977 533c 6d9a b6be
00000320: 4b88 13be 6dc5 2a3e ac1a 193e 282c 1cbe
00000330: d39f 1d3e f5fe 32be b0bc a2be 828d 25be
00000340: e04a e83c 9054 b73e a2c7 e03d a7a5 e63e
00000350: a80b 843c 70ba fc3d 9dcc 803c 7d2e 7b3e
00000360: 7654 2e3d 3409 6cbe 5b68 99bd dae6 933c
00000370: 8f82 e1bd 2892 043e de85 5d3e 07b0 b6bd
00000380: 2b59 39bd 0694 873c 39f1 9abc f535 03be
00000390: 097d 9a3c 5883 21b9 6f61 ea3d cd00 a03d
000003a0: 55b1 5c3d 096d 97bc ac91 44be 2195 b8bd
000003b0: f826 913d 8e36 ab3d df98 8e3e 0efc 013e
000003c0: 3166 113e c083 80be cf4f 86be 313c 4a3d
000003d0: 9202 003e 540d 8f3d f465 623c c68e 693d
000003e0: 3b40 8cbd 30f1 f4bd 060e 103e 7eb8 8a3d
000003f0: 22c5 fb3d 2044 613d a7c8 25be bd11 f9bd
-0.23386548 -0.045990106 0.06257573 0.227098 -0.1968186 0.23883797 -0.111039825 -0.19836853
0.01742406 0.079233564 0.3886527 -0.20087618 0.13234247 -0.0825616 -0.019866148 0.15053713
0.091265224 0.113500305 -0.1404941 -0.020477856 0.123811066 0.048528314 0.36588562 0.10322715
0.13961262 -0.08146464 0.2329618 0.1403285 0.30938387 0.07142686 -0.33469632 -0.04726955
-0.058330793 0.022952175 0.2160271 0.006942454 0.1458519 0.21556802 0.08776944 -0.21298222
-0.041823268 0.21942902 0.28265795 -0.05708272 -0.117954955 -0.10882061 0.2422668 -0.17702003
0.1546225 0.12238433 0.10288307 -0.27676228 0.2805838 0.13396293 0.06922953 -0.025637554
0.022552814 -0.08498227 0.07752 0.17537443 -0.12150038 0.12332863 0.037295673 -0.042914174
0.06307838 0.06417957 0.27231488 -0.35853133 -0.12883794 0.2534323 -0.1133005 -0.11828783
0.045215935 -0.09892816 -0.14565727 0.10105227 0.19497767 -0.27756575 0.114190996 -0.103915855
0.0222914 -0.061069395 -0.071507424 -0.14031723 0.3103791 -0.05265683 -0.112412356 -0.037191648
0.007993429 -0.14252438 -0.008761387 0.029557647 -0.0849426 0.14454804 -0.08314395 0.05166811
0.006919022 -0.38647133 0.23526 0.004066328 -0.30912766 0.15896556 -0.15247367 -0.12387177
0.22953074 0.66164726 -0.06450089 0.14294969 0.020368898 0.003654512 0.05248443 -0.053590693
-0.36684093 0.014215397 0.06059081 -0.044862382 0.010482015 -0.047238525 -0.046853945 0.288929
0.35535538 -0.14893593 0.017258987 -0.2625526 0.17433804 -0.064405225 0.022840053 -0.12623993
0.10784816 -0.09448899 0.013283267 -0.06356743 0.16501676 0.060950346 -0.15544574 0.18219315
-0.10217581 0.23128839 -0.1157579 0.050138447 -0.29337245 0.22448105 -0.08572237 0.086044885
-0.032906335 -0.033480722 -0.35477957 0.10540746 -0.15602645 0.11183466 0.32384014 -0.37830383
0.15432717 0.007815205 0.27743852 0.124323055 -0.06936684 0.0438512 -0.29449645 -0.106126994
0.044753067 -0.12674107 -0.2333894 0.071651176 -0.109152436 0.102830656 -0.034033783 -0.107603356
-0.1485294 0.28175107 -0.31965795 -0.15761307 -0.0062584584 0.13619491 0.040794533 0.23394279
-0.015429105 -0.036207072 0.068801835 0.09013578 0.057755638 -0.11639329 -0.03587286 0.14882123
0.03316007 -0.21148886 -0.122759454 7.3434334e-05 -0.011547406 -0.0022119652 0.024013767 0.12920406
0.11562272 0.25694022 -0.07742589 0.038627185 0.20482916 0.24438821 0.0129069025 -0.35664693
-0.1440746 0.16676874 0.14951581 -0.1525122 0.15393 -0.17480071 -0.31784582 -0.16167262
0.028356016 0.35806704 0.10975577 0.45048258 0.01611884 0.12340248 0.015722567 0.24529453
0.042561017 -0.23050386 -0.07490607 0.018054415 -0.1101123 0.12946379 0.21633098 -0.08920293
-0.045251053 0.016550075 -0.018913852 -0.12813552 0.01885845 -0.00015403086 0.11444365 0.07812653
0.053880055 -0.01848461 -0.19196194 -0.09012819 0.07087511 0.08360015 0.27851006 0.12693807
0.14199139 -0.25100517 -0.26232764 0.04937381 0.1250098 0.06984964 0.013818253 0.057020925
-0.068481885 -0.11960065 0.1406785 0.0677347 0.122934595 0.05499661 -0.16189824 -0.121615864

actor.4.bias f4 [6]
00000000: 38b3 143d f164 873e 8caa bbbd 5c2d df3e
00000010: b7a3 d5bc b330 543b
0.03630373 0.264442 -0.091633886 0.43589294 -0.026079042 0.003237766

critic.0.weight f4 [128, 25]
00000000: a0d3 02bd e6ca 57bd 03c1 f83d a3c0 3f3e
00000010: 9e67 3bbd e327 94be b84c 0a3c 0b9b 053b
00000020: 2180 593c f461 07bd 17f6 02bd 6bd3 ccbb
00000030: 3f00 923d 8ed5 103c ee7d c2be 5202 213f
00000040: 787d ca3e 6d46 26be 6afb a33e df6c 5fbc
00000050: 7ecb c5bb 7942 43bc 3529 bc3c 6627 bd3b
00000060: 984b 57bc e635 2ebd 685c 2f3d 5f38 6fbd
00000070: 96ca c13c 728d 1cbd fdf5 9ebd 3caa b3bb
00000080: 2cca 71bc 483b a4bb ab71 a33b a962 4a3c
00000090: f1c6 7c3b 8d74 d7be 467a 0ebf 504b 22be
000000a0: 7c54 933e 1985 5c3e 23ab 1a3f ddce 703f
000000b0: 865b 103c 1262 753c bf2b 9ebb 9eb3 3d3c
000000c0: 7c85 41bc 6f56 123a 5ad8 e1bd 2e9b c839
000000d0: 215c 8bbd 428c e53b c0ed f1bc a877 8dbc
000000e0: 31e5 40bc 2158 a2ba 1ef9 a23c 4814 5ebc
000000f0: c51f a63b 9cb2 a4bb fa73 553f 1515 8cbe
00000100: c104 d5be 04a8 c7be f499 dbbe 86c0 423e
00000110: 1914 823e 9f71 c43c e52a 3e3c f976 8c3b
00000120: 1f7d 4c3c 87f5 0abc 9c83 24bb 4a5f b1bd
00000130: ce86 dc3c 9b62 6fbd 6715 84bd 531d 8cbd
00000140: ec3f ebbd 3cc5 7bbb fca9 1fbc f320 adba
00000150: d902 133c dd98 2f3c f829 cf3b 0663 8bbe
00000160: 55f2 f33e ab9d 2fbd 10d0 01bf 3d44 443f
00000170: d5d5 ae3e 4d39 11be 4319 b83b 6f5b 1d3c
00000180: 4229 b93b 6d6b 0fbb dae4 75bc 95a6 05bd
00000190: 28ad 283d ba7b 9d3c b50e 0a3d e64f 0d3e
000001a0: c545 043d d4db b0bd 2989 86bc ac67 a43b
000001b0: d97a 063c e842 debb 5418 0cbb 6de8 87bb
000001c0: 721f 113d 0df6 0ebf 653e 1d3d 1cb8 cf3e
000001d0: fb8a 083f 7df4 c63e caf3 8fbe 3df1 f13c
000001e0: 40c0 70ba 3c2d 2dbc 1a2b 453c fc95 843c
000001f0: 5fd1 093d 498a 813d 2ccb 8b3c e439 2d3e
00000200: b7ce a3bc 7bb8 0abe af57 fcbc e22e 14bc
00000210: a725 37bc 5a6f 5f3c c305 33bc ca57 b33c
00000220: ff02 12bb 884f 1c3e f74d fdbe dbbc bd3e
00000230: 3226 ee3d bbc7 83be ce6d d4bd b44a 8c3f
00000240: 079d 723c be7a 4a3b 911a d7ba 4fb0 28bc
00000250: 0080 50bc 63ae 973b 0dc7 fabd 3296 f33b
00000260: f07f 92bc ce01 dabd a751 2a3d 966a cdbb
00000270: 536f 74b8 a68d 763b 5011 4e3b 8eba 553c
00000280: 3b79 9bba e0fc 42bb ece0 6fbe e5ca 4c3f
00000290: 4b01 4b3d 81cd d63e c7e9 30bd f200 d63e
000002a0: b25b 21be 0478 2dbc 0e9f 04bc b1d6 95bc
000002b0: 7169 71bc 85c8 a539 ece9 eabb 5959 57bd
000002c0: 8b0d 313d 6b0a 14be 1f51 633d faf2 b23d
000002d0: 9266 87be 5a18 b4b9 11e0 5dbc 4413 2d3c
000002e0: 0020 3abc 65ab 95ba 5e10 bcbb dd77 023d
000002f0: 9ee4 9a3d d52a b53c b13d 843e 1d6a 153f
00000300: 8544 a3be 72f3 07bf dfc0 21bb 11d0 4b3c
00000310: 4613 6ebc 98e8 7e3b bba2 7ebc c5b1 55bc
00000320: 6959 48bb 3bd8 313c e297 d3bb 6016 753c
00000330: b634 0cbe ac37 163e 9d9d 58bb 77f7 823c
00000340: 5332 12bc bbcf 2d3c b3ce db3b 2bf3 8b3b
00000350: 80c7 ac3e f47a 373f e54e 153f a4eb f1be
00000360: bb29 e6bd 0aa8 24be d617 ecbd 3016 adba
00000370: 6002 18bc 977c 143c 2c74 16bc 6d26 f2bb
00000380: 1c18 393b 20c3 a6bb c01c a7bb 599c 053d
00000390: 0680 033c ab8e 3bbe 0fb2 aa3d 8588 203b
000003a0: 99f6 2fb9 3512 47bb 7b91 5f3b 5177 8d3b
000003b0: 4282 9f3c 75ce 90be 9c69 473f 26f9 403c
000003c0: 5f9c 6f3d 7b77 963e a41d edbd 5c3a 233f
000003d0: 645e a8bb 99cb ec3b 16ac f23a 4253 d7ba
000003e0: 7272 edbc 3330 3bbd f080 1a3b 26cf 9bbc
000003f0: 193a be3c 8fc3 ae3d ca91 1dbd c00f 88bd
-0.031940103 -0.052683733 0.12146189 0.18725829 -0.045753114 -0.2893668 0.008441143 0.0020386602
0.013275177 -0.0330524 -0.03197297 -0.006250789 0.07128953 0.008839978 -0.37986702 0.62894166
0.3954885 -0.16237803 0.3202775 -0.013636797 -0.006036221 -0.011917704 0.022968868 0.005772519
-0.013140582 -0.04253187 0.042812735 -0.05840337 0.02365617 -0.03822083 -0.07761762 -0.00548294
-0.014757674 -0.0050119497 0.0049879155 0.012352624 0.0038570727 -0.4208111 -0.55655324 -0.15849042
0.28775394 0.21535148 0.60417384 0.9406565 0.008810883 0.014976995 -0.0048269923 0.011578469
-0.01181161 0.00055823376 -0.11027594 0.0003826259 -0.068046816 0.0070052454 -0.029532313 -0.01726897
-0.0117733935 -0.0012385884 0.019894179 -0.01355464 0.005069705 -0.0050261747 0.8338009 -0.27359834
-0.4160519 -0.38995373 -0.42890894 0.19018754 0.25405958 0.02397996 0.011606907 0.0042866436
0.012481003 -0.00848139 -0.002510286 -0.08660753 0.026919749 -0.058443647 -0.06449395 -0.06841531
-0.114868015 -0.0038417121 -0.009745117 -0.0013208672 0.008972847 0.010717598 0.0063221417 -0.27223986
0.47645822 -0.042874973 -0.50708103 0.76666623 0.34147516 -0.14182015 0.005618246 0.009604319
0.0056506703 -0.00218841 -0.015008176 -0.032629568 0.04118076 0.019224036 0.033705432 0.1380001
0.0322931 -0.08635679 -0.016422825 0.0050172415 0.008208 -0.006782878 -0.0021376805 -0.0041475804
0.03543038 -0.55844194 0.038389582 0.40570152 0.5333707 0.38858405 -0.28115684 0.029533977
-0.0009183921 -0.010569867 0.012034202 0.0161848 0.033646937 0.06325204 0.017064653 0.16916615
-0.01999603 -0.13546936 -0.03080353 -0.009044381 -0.011178411 0.013637388 -0.010926667 0.021892447
-0.0022279618 0.15264714 -0.49473545 0.37058148 0.11628379 -0.2573832 -0.10372506 1.0960298
0.014807946 0.0030895914 -0.0016411116 -0.0102959415 -0.01272583 0.004628943 -0.12244997 0.007433676
-0.017883271 -0.106448755 0.041581776 -0.0062688095 -5.8277812e-05 0.003762105 0.0031443425 0.013044966
-0.0011861691 -0.0029752776 -0.23425645 0.7999709 0.04956178 0.41953662 -0.043191697 0.41797596
-0.15757635 -0.010587696 -0.008094562 -0.01829085 -0.014734612 0.0003162065 -0.007168999 -0.052575443
0.043225806 -0.14457099 0.055497285 0.0873775 -0.26445442 -0.0003435042 -0.013542191 0.010563675
-0.011360168 -0.0011418877 -0.005739256 0.03185259 0.075631365 0.02211515 0.25828317 0.5836504
-0.31888214 -0.53105843 -0.002468161 0.012439744 -0.014530962 0.003889596 -0.015541728 -0.013042872
-0.003057087 0.010854776 -0.006457315 0.014958948 -0.13691983 0.14669675 -0.003305293 0.015987141
-0.008923131 0.010608609 0.00670799 0.0042709312 0.33745956 0.71671987 0.5832351 -0.47250092
-0.11238428 -0.16079727 -0.11527984 -0.0013205465 -0.00927791 0.009062908 -0.009182971 -0.0073898346
0.002824313 -0.0050891787 -0.005099863 0.032619808 0.008026129 -0.18316142 0.08334743 0.0024495434
-0.00016781165 -0.0030375842 0.0034113813 0.004317202 0.019471291 -0.28282514 0.7789552 0.011778152
0.058498736 0.2938803 -0.11577919 0.63760924 -0.0051382054 0.007226419 0.001851442 -0.0016428011
-0.028985236 -0.045700263 0.0023575388 -0.019019675 0.023221062 0.085333936 -0.038469113 -0.06643629

critic.0.bias f4 [128]
00000000: 67cb 50bf a27a 2ebf fcd9 aebf be85 40bf
00000010: 15ae 70bf bd35 5ebf 31ef 6dbf 38c2 85bf
00000020: 3bc5 efbe 37be 96bf c96e 65bf 867d 2dbf
00000030: 29e4 45bf 021c 36bf 011e 84bf dbda 7bbf
00000040: 8c61 a5be c28e 97bf 7d09 3b3e ec61 73bf
00000050: 4a79 27bf 5390 72bf 4851 1bbf 4ea9 b8be
00000060: 7a87 36bf 86a5 69bf 5c45 31bf b2ad 44bf
00000070: 38c4 87bf b433 8cbf 4e03 97bf 3555 01bf
00000080: cdb7 f6be f184 7cbe 39ba 57bf 9e84 a2be
00000090: e815 7ebf 3621 ffbe dcb0 30bf 1334 2abf
000000a0: 2d5c 42bf 1bb0 2f3c 8c25 39bf 14ee a5be
000000b0: 00dc 20bf 24e9 98bf 0c16 5bbf 3c26 49bf
000000c0: 358c 44bf bf26 d3be 263c a6be 4cf4 f6be
000000d0: bc99 2dbf f2c1 65bf a19f 49bf ff93 2abf
000000e0: 58cb 1abf 5545 82bf 23f0 1bbf 6eb0 d5be
000000f0: 72d4 30bf 0a04 7cbf 3090 e4be 1b2e 47bf
00000100: b04c 14be 78b2 66bd 8a8e 39bf bde8 32bf
00000110: 8097 9cbf e315 15bf 8197 5ebf cdc1 2cbf
00000120: 22f0 00bf e047 5bbf 64a5 5dbe 8a71 3bbf
00000130: e35d 63bf 7ba9 b9bf 809d 82bf 4352 96bf
00000140: f3d1 55bf e5b6 b9be 1f5f 01bf 11cc 89bf
00000150: 736c 0cbf b3e6 30bf 49a9 3bbf fca7 2dbf
00000160: 2e1f 8ebe b57e 5fbf b29a 80bf 9829 6dbf
00000170: 9660 52bf 8762 babd ed64 9fbe d7d5 94bf
00000180: fb07 91bf c63f 34bf ced6 2ebf 57d8 97bf
00000190: 9189 cbbe 6069 25bf fe82 50bf 3973 81bf
000001a0: 0db5 2fbf 9d94 5abe ce8e 1abf 5639 13bf
000001b0: f72d 22be 0d39 4dbf 7c27 57bf c9f6 51bf
000001c0: 55c7 4dbf 5a76 aabf a890 54bf a690 80bf
000001d0: f7f4 1dbf 072d 47bf 69b6 29bf c9c7 46bf
000001e0: 7d98 dcbd a799 69bf eff9 7ebf 8c81 37bf
000001f0: aeb4 70bf 678a 5ebf d5a6 98bf a9e8 55bf
-0.8156037 -0.6815587 -1.3660274 -0.75204074 -0.9401563 -0.8680075 -0.929431 -1.0449896
-0.46830162 -1.1776799 -0.8962217 -0.6776966 -0.7730127 -0.71136487 -1.0321656 -0.9838082
-0.32300985 -1.1840441 0.18265338 -0.9507129 -0.6541945 -0.9475147 -0.606709 -0.3606667
-0.7130047 -0.91268194 -0.6924646 -0.7682754 -1.0606756 -1.0953279 -1.1797884 -0.5052064
-0.48187104 -0.24660088 -0.8426853 -0.31741804 -0.99252176 -0.49830025 -0.69019866 -0.6648571
-0.759219 0.010723139 -0.72322917 -0.32408202 -0.62835693 -1.1946149 -0.85580516 -0.78573966
-0.7677644 -0.41240498 -0.32467765 -0.4823326 -0.67812705 -0.8974906 -0.787592 -0.66632074
-0.6046653 -1.0177408 -0.60913295 -0.41736168 -0.69074166 -0.98443663 -0.44641256 -0.77804726
-0.14482379 -0.056322545 -0.7248312 -0.6988638 -1.2233734 -0.5823652 -0.86949927 -0.67483217
-0.50366414 -0.8565655 -0.21645123 -0.7322012 -0.88815135 -1.4504846 -1.0204315 -1.1743854
-0.8352348 -0.3627235 -0.5053577 -1.0765401 -0.5485298 -0.6910202 -0.73305184 -0.6783445
-0.27758163 -0.87302715 -1.0047209 -0.9264159 -0.8217863 -0.09100824 -0.31131688 -1.1627759
-1.133056 -0.7040981 -0.68296516 -1.1862897 -0.39753392 -0.64613914 -0.8144988 -1.0113288
-0.68635637 -0.21345754 -0.6037415 -0.5750936 -0.15837847 -0.8016518 -0.84044623 -0.8201719
-0.8038228 -1.3317368 -0.8303323 -1.0044143 -0.6170191 -0.7780308 -0.6629396 -0.776486
-0.10771272 -0.9125008 -0.9960012 -0.7168205 -0.94025695 -0.86929935 -1.1925913 -0.83558136

critic.2.weight f4 [128, 128]
00000000: 3bdf df3d 1e1d 86bf 96c5 2dbd 69fe d73e
00000010: 1a03 31be e0d4 ef3e 6355 c63e b96f 21bf
00000020: 5340 103c 5272 863e 9617 ebbe fbfc 09bf
00000030: dcfd d9be 7e43 d6be 918f 303e 30d7 a43e
00000040: 8cf4 38bf eac3 0b3f fcec 7abe 822c 0e3e
00000050: b05a 303e 0897 7cbc 6025 30be d695 30be
00000060: 20f2 b7be 2e94 2ebc 3471 233e 9269 b63d
00000070: fb03 d53d a79d d13e ae55 34bf 4bf1 913b
00000080: 0e35 cebe bf86 bebc 8a3a 0cbf b330 40be
00000090: c62f 953c 147d 603d 579f 963d 61e8 00be
000000a0: 1888 bcbd 291a 60bd 091d e5bd 0cb5 74be
000000b0: ee68 80be 6623 f2be 4f72 a0be ec4b 5ebf
000000c0: 897c d9bc 79fc 313e b0dc 963e db6d a83e
000000d0: 583f 7f3e 624a 8b3b 0992 53bd 4d79 44bf
000000e0: 28ba 38bd cc7a 43bd 1f74 03be e0ab ef3d
000000f0: 517d c13c 6f50 b43e 77ff c6be 68ed e4be
00000100: 09cb c43b f73e a2bd 9f83 c83e 4b52 cabe
00000110: 6629 933e dad0 62bf 3c57 90bf 91ed 153c
00000120: 43f1 b23e 5534 14bf cd93 2fbe b95d 623e
00000130: 93c0 653c ed91 5dbe bba2 243f 668f 493f
00000140: 29d0 7fbd b164 12be 3fcd 7e3e 2615 6dbf
00000150: 0d7a ea3d 746f 483e fd39 babd 08c0 c4be
00000160: 95d0 a8be e98f 08bf ebe8 0fbf 29d6 663e
00000170: b0da 77bc 8f8e 5d3e 820f 443e ab9a 3abe
00000180: 99ec 0b3f d09a a7be 7467 57be 3f15 d8bd
00000190: 53f9 93bf 6e36 9cbe 25bf 653e 3d1f 2d3e
000001a0: d379 d6be 5d47 6cbe 93b9 963e b198 873e
000001b0: ff9b e3bd 677f f5bd 36ff 18bf b9ef db3d
000001c0: bed3 abbd 9a48 fbbd f807 a13d 0a70 183d
000001d0: c6b0 0b3e 91db aebd 2772 8dbe df0c 0bbf
000001e0: 570c fd3d c532 aebe fe52 743d 07e3 343e
000001f0: 99b0 5a3e 7199 b53e bcbd 02bf 89db a8bd
00000200: 0c92 04bf dc22 1bbf 4e42 42bf 6b12 28be
00000210: 6f2f 4a3d e6cf b7bd debc dcbd 9e1e 0abf
00000220: 891a 433f ca4a 093e b508 61bf 6659 8b3d
00000230: 06b8 c13e 62ae f4be b7a8 d03c 8085 38bd
00000240: f4cb 6bc0 a3de 193e 107a a9be 4846 363e
00000250: 0642 833d 780c a13d ff3f aabf 5110 edbe
00000260: 3256 cf3e 0411 203f 73fc 3c3e 67d9 703e
00000270: 5cdd 363e ec8d bb3c 764e f4bd 07a8 5c3d
00000280: 479c 48be 4292 263e 9481 083f 432c 0e3d
00000290: cf31 56bd dac6 1dbe fba2 ea3d 4bae c6be
000002a0: 3b5f 353f 98f9 2dbf 4578 303e 50f0 873e
000002b0: 2d5d 45be fd5b b7bd 1c8f 433e 4389 98be
000002c0: 2df0 583e 7120 963e e1db 513d 23e3 a0be
000002d0: 84e2 963e dfc8 5dbe 5316 313d df2e 07bf
000002e0: 1712 793e 80e9 8a3d f61f d43d 74d0 e7bd
000002f0: f9ba 1abf e6c1 cdbe 3cb1 5c3e d4eb 743d
00000300: e899 a93d cee4 0cbf c12d 6ebf e172 abbe
00000310: 2fbd 81be aa05 5cbf c276 483d 135a 20be
00000320: 07cd 843d 8bed bdbe 6016 103d 2259 963e
00000330: e4fa f9be 715b 243f d351 383e fdfd c5be
00000340: a35d c1bd 9098 b23d a243 1d3e dcd8 04bf
00000350: aaf2 e8be 917a 22bf 49a9 e8be e782 85be
00000360: 1f43 913d 8acd 0dbf 5b1e 493d 0f9f 8ebe
00000370: f1f2 dcbd b0b1 bd3d 1696 de3e 111e c3be
00000380: af59 543d c335 8b3c cc63 b13d 8ca4 813e
00000390: 766a cfbf 7095 94bd 7bca bdbe abb1 013f
000003a0: ce83 b0be 1163 28bb a803 31bf 3508 83be
000003b0: 4dde 7a3e 5c7c 9a3e d202 133a e8b4 443e
000003c0: 59dc c0be 7759 4dbf a177 0e3e 4c77 adbe
000003d0: ddcc 26be c476 6fbe 5eb7 05be 9265 22bf
000003e0: 7786 2d3e f7ec cdbe 1b1c 023e c500 9abe
000003f0: 10b4 09bf 2b37 babe c777 91be 6253 d53e
0.1093125 -1.0477636 -0.04242476 0.42186287 -0.1728634 0.46842098 0.3873702 -0.630611
0.008804399 0.26259094 -0.45916432 -0.5390164 -0.42576492 -0.41848367 0.17242266 0.32195425
-0.7224815 0.54595816 -0.24504465 0.13884166 0.17222095 -0.015416868 -0.17201757 -0.17244658
-0.35926914 -0.010655446 0.15961152 0.08906855 0.1040115 0.40940592 -0.70443237 0.004453813
-0.40274853 -0.023257611 -0.54776824 -0.18768577 0.018211257 0.054806784 0.073546104 -0.12588646
-0.09205645 -0.05471245 -0.11187179 -0.23897189 -0.25080055 -0.47292632 -0.3133721 -0.868346
-0.02654864 0.17381467 0.29465246 0.32896313 0.24926507 0.0042508105 -0.05165294 -0.7674759
-0.045099407 -0.04772453 -0.12837265 0.117027044 0.023619326 0.35217616 -0.3886678 -0.44712377
0.006005649 -0.07922166 0.3916292 -0.3951591 0.28742522 -0.8859993 -1.1276622 0.0091508785
0.34949693 -0.5789235 -0.17146225 0.22106065 0.014022964 -0.21637698 0.64310807 0.78734434
-0.062454376 -0.14296223 0.24882983 -0.92610395 0.114490606 0.19573766 -0.09093092 -0.38427758
-0.32971635 -0.5334459 -0.5621478 0.22542633 -0.015127823 0.21636413 0.19146541 -0.18223064
0.54657894 -0.327353 -0.21035558 -0.10550927 -1.1560463 -0.30510277 0.22436197 0.16906448
-0.4188982 -0.23074098 0.29438457 0.26483682 -0.11113738 -0.11987191 -0.5976442 0.10739083
-0.08389996 -0.12269707 0.07862848 0.037216224 0.13641652 -0.08537973 -0.27626154 -0.54316515
0.12355869 -0.3402311 0.05964946 0.17664729 0.21356429 0.3546863 -0.5107076 -0.08244998
-0.5178535 -0.60600066 -0.7588242 -0.16413276 0.049361642 -0.089752 -0.10778211 -0.5395297
0.76212364 0.13407436 -0.8790391 0.06804161 0.3783571 -0.47789294 0.025471075 -0.04504919
-3.6843233 0.15026335 -0.3310094 0.17800248 0.06409077 0.07863706 -1.330078 -0.4630151
0.4049545 0.62525964 0.18455677 0.23520432 0.1785788 0.022894822 -0.11929028 0.05387118
-0.19590865 0.1626673 0.5332272 0.03471018 -0.052293595 -0.15407887 0.11456867 -0.3880485
0.70848435 -0.67958975 0.17233379 0.2655053 -0.19273825 -0.08953092 0.1909756 -0.29792222
0.2118537 0.29321626 0.051235083 -0.31423292 0.29469693 -0.21658657 0.04323418 -0.52805895
0.24323307 0.06782818 0.103576586 -0.11319056 -0.6044155 -0.40186995 0.21551985 0.059795216
0.082813084 -0.5503663 -0.93038565 -0.33486083 -0.25339648 -0.8594614 0.04894138 -0.1565936
0.06484418 -0.37095293 0.03517759 0.29364878 -0.48824227 0.6420203 0.17999963 -0.3867034
-0.09441688 0.08720505 0.15357831 -0.518934 -0.45497638 -0.6346827 -0.45441654 -0.26076433
0.070928805 -0.5539175 0.049101215 -0.27855727 -0.10788525 0.09262407 0.4347388 -0.38108876
0.05184334 0.016993409 0.08661613 0.25320852 -1.6204364 -0.072550654 -0.37068543 0.50661725
-0.3447556 -0.0025693814 -0.69146204 -0.255922 0.24498864 0.30173004 0.0005608025 0.19209635
-0.37668112 -0.8021464 0.13912822 -0.3388008 -0.16289087 -0.23385149 -0.1305823 -0.63436234
0.16945826 -0.40219852 0.12706034 -0.30078712 -0.5379038 -0.36370215 -0.28411695 0.4166518

critic.2.bias f4 [128]
00000000: d1fa 063d 0e0b 36be 82f6 023d d2c2 61bd
00000010: 9c56 09bd 1d02 f03d ac53 84be fb12 033d
00000020: 3ae8 743c 842b b6bc 70e1 60bd a451 04be
00000030: 4aed fcbc 2b9f 72bd 550c 12be fe99 15be
00000040: 2dd8 a0bd 3133 21be c172 50bc baf5 bfbd
00000050: 7b5e 09be 216c 17be ab72 5dbd b550 acbc
00000060: c24f f0bd 1cdb 37bd 8759 0a3f 37a6 cabd
00000070: 77a6 aa3c 7ed4 0fbc c9e7 883e a6c1 9f3c
00000080: a01d 43bd be5e b2bd db0e aabd 57b3 db3e
00000090: cae6 86bd db5b 83bd 4cf3 41be fa93 ab3d
000000a0: 4c0f d23b 8f51 8338 ccfb ffbd 775b 9c3c
000000b0: 3ab2 4c3d 5910 02bd 1f26 dabc a3f2 44be
000000c0: 5c4b f1bd 6951 f3bc 2e12 8ebd 8dbc 2ebe
000000d0: 8ca0 bebb dd85 aebd 3587 e3bd 0b95 7dbc
000000e0: 34cc ac3c 2715 053e 59c4 98bd 64c9 ae3d
000000f0: ac7b f3bd d836 99bd 9b77 24be 6d10 c5bc
00000100: 799a a13e ef5a 02be aec4 62bd 99d1 04be
00000110: cf22 c7bb 5d97 6e3d fa48 19be 17c4 dfbd
00000120: bd59 4fbd 6614 5fbe bdf7 f0bd b290 6fbe
00000130: 1a65 ddbd ef79 1ebe 7962 0bbe abae cd3b
00000140: 245d 6dbd 9a64 6d3d 30d4 13bd e264 ac3c
00000150: 08d0 623d a96b acbc 7421 efbc 81c8 cbbd
00000160: 057f a3bb 3a33 7d3c 6638 11be 6a96 0abe
00000170: 46b3 d9bd 8862 33bd 8f4a adbd 2bd2 0ebe
00000180: d3ac cfbd 13e1 b7bd ea81 993d 0b12 27bc
00000190: f250 82bd e578 493b 79cd 45bd bb1d 1bbe
000001a0: 67b2 c5bc 87ef b8bd d976 43be 175e 04bd
000001b0: 41d5 38bd 3acd 4fbe 1e70 f93d 2232 1cbd
000001c0: b59b 3a3d 2dc0 16be 0326 09be 3a1e a83d
000001d0: 07e4 373d 3068 06bd b0aa d7bd 01dd 803d
000001e0: fab0 c7bd 038b 803b dc60 70bc 44db f6bd
000001f0: cb4e 14be 41db adbd 1b7c 8abd 265a c1bd
0.03295404 -0.17777655 0.03197337 -0.055117436 -0.033529863 0.11719153 -0.25845087 0.032000523
0.014947945 -0.022237547 -0.054902494 -0.12921768 -0.030874867 -0.059233826 -0.14262517 -0.14609525
-0.07853732 -0.15742184 -0.012722672 -0.093730405 -0.13414948 -0.14787342 -0.054064434 -0.021034578
-0.117339626 -0.044886693 0.5404286 -0.09894984 0.02083133 -0.008778689 0.26739338 0.019501518
-0.047635674 -0.08709477 -0.08303615 0.42910263 -0.06586988 -0.064140044 -0.18940467 0.08377834
0.006410515 6.261758e-05 -0.12499198 0.019086583 0.049974658 -0.03175387 -0.026629506 -0.19233184
-0.11781952 -0.029701905 -0.06937061 -0.17064114 -0.0058174785 -0.08521626 -0.11109773 -0.015477429
0.021093465 0.1299635 -0.07459325 0.08534506 -0.11888823 -0.07481164 -0.16061251 -0.024055684
0.31563166 -0.12730001 -0.05536335 -0.1297058 -0.0060771476 0.05824982 -0.14969245 -0.10926073
-0.05062269 -0.21785125 -0.11766002 -0.2339504 -0.10810299 -0.15476201 -0.13611783 0.0062769256
-0.057950154 0.05795727 -0.03609103 0.021044198 0.055374175 -0.02104743 -0.029190756 -0.099503525
-0.004989507 0.015454108 -0.1418167 -0.13533941 -0.10629897 -0.04379514 -0.084614865 -0.1394736
-0.101403855 -0.089784764 0.07495482 -0.010197173 -0.06363095 0.0030742225 -0.048291657 -0.1514806
-0.02413292 -0.09030061 -0.19088306 -0.032316294 -0.04512525 -0.20293131 0.12179588 -0.038133748
0.04555865 -0.14721747 -0.13393407 0.0820889 0.0448952 -0.032814205 -0.10530603 0.06292153
-0.097505525 0.0039228215 -0.014671531 -0.1205354 -0.14483182 -0.08489085 -0.067619525 -0.094410226

critic.4.weight f4 [1, 128]
00000000: bbe0 9c3d 70df b73d 7005 68be 6450 adbd
00000010: a1ed e63d 7830 583d f886 503d 3349 513d
00000020: ceac 383e 9ee3 843d f370 d83d fc6b 603d
00000030: 9bc6 b63d d37c 8a3d 29ac cb3c 698c 9b3d
00000040: 0fb9 b6be 7613 7bbe faea 79bc d1b3 f83c
00000050: 5264 2f3c b02f 883d 8ddf d4bc 5554 3e3d
00000060: bef0 60be 3424 09be 9a0c f6bd eab9 263d
00000070: fe4c 79be 0217 863d ed67 f9bd 1b28 593b
00000080: ac4b 3abd 5936 7cbd c238 fcbe b69b afbd
00000090: 3025 51bc ac14 ae3c a406 00bd 19c7 9a3d
000000a0: 1b26 8b3c ee30 843d 5e66 153c ba9e ae3b
000000b0: ac2e f2bd 0f09 e23d e0d1 bd3c 9ec1 88bc
000000c0: 65a0 123c 38ec 803b dc4e 763d 9a4a 65bd
000000d0: 0013 c43d 19bf 16bd 687b 48bc c337 a53d
000000e0: 368a 2a3e 9c1e 553d f137 843d 3f34 a73d
000000f0: 20db 05bd 148d 643d a3c0 373e 1619 86be
00000100: 9883 bebd b64d f63c 4bf7 3c3d b66e 7cbc
00000110: aafd 1a3d ca65 f9bc 514d 56bc cfd8 9fbc
00000120: 14bd 06be dc2b 7fbe 4c07 d33d 6551 d93d
00000130: 6596 3b3d f998 cbbd 5142 70be 7187 163c
00000140: b002 a23c 6637 a5bd fba2 9e3d b609 c2bd
00000150: f4db ce3d d38e 8a3d eec5 e6ba 430d b8bb
00000160: 21a4 b0ba d168 3dbe 93aa 3a3d e0bc 253d
00000170: b69f cabb 9023 dbbc 1f6f 87bc 88f8 df3c
00000180: 9c62 42be 4f2e 0dbb f0d9 963d 6b24 083d
00000190: 75e8 6d3d 6d34 323c 0665 4b3d 9001 23bd
000001a0: 56d8 93bb d032 0dbd ef06 493d ea0b 603d
000001b0: df23 ea3d aa3c 853d 731f 453d 8859 a03c
000001c0: fa27 8cbc fe3b 623d 08f9 02be cc43 25be
000001d0: 5e5a ee3d b6ad 203d 92fd c0ba d7a8 363d
000001e0: 93c7 ecba 8212 f2ba b279 d43c 7a50 bcbe
000001f0: eaf3 1bbe 0a24 883b 8ecd 153e cd58 de3d
0.076600514 0.08978164 -0.22658324 -0.08462599 0.11275793 0.0527806 0.050909966 0.0510952
0.1803467 0.06488727 0.10568418 0.054790482 0.089246 0.067620896 0.024862366 0.075951405
-0.35688064 -0.24519143 -0.015253777 0.03035918 0.010705071 0.06649721 -0.025985504 0.046467144
-0.21966836 -0.13392717 -0.12014122 0.040704645 -0.24345776 0.06547357 -0.121780254 0.0033135477
-0.045482323 -0.061575267 -0.49262053 -0.085746214 -0.012765214 0.021250091 -0.031256333 0.07557506
0.016985944 0.06454645 0.0091186445 0.0053289803 -0.11825308 0.11036884 0.023171365 -0.016693886
0.008949374 0.0039344095 0.0601338 -0.05597935 0.095739365 -0.03680334 -0.012236454 0.08067276
0.16654286 0.052031144 0.064559825 0.08164262 -0.032679677 0.055798605 0.17944579 -0.26191014
-0.09302443 0.030066352 0.046134274 -0.015407255 0.03783957 -0.030444045 -0.013079957 -0.019512562
-0.13158065 -0.24919075 0.10304126 0.10611228 0.045797724 -0.099412866 -0.23462798 0.009187565
0.019776672 -0.08067207 0.0774593 -0.094745085 0.101005465 0.06765523 -0.0017606595 -0.0056168153
-0.0013476649 -0.18497016 0.04557283 0.04046333 -0.00618359 -0.026750356 -0.016532479 0.027340189
-0.18982929 -0.0021542495 0.07365787 0.033237856 0.058083016 0.010876757 0.04965689 -0.039796412
-0.0045118732 -0.034472287 0.049078878 0.054698862 0.11432623 0.065057114 0.048125695 0.019573942
-0.017108906 0.055232994 -0.1279031 -0.16139144 0.1163833 0.039228164 -0.0014724007 0.044594612
-0.0018064849 -0.001846865 0.025936935 -0.3678015 -0.15229765 0.004154687 0.14629194 0.10856781

exp_avg f4 [6]
00000000: 7eb6 76ba e094 073b 74d7 12bb bacb 6f3a
00000010: 4525 a43b 65e0 29bb
-0.0009411349 0.0020688102 -0.0022406252 0.0009147484 0.0050093257 -0.0025921103

exp_avg_sq f4 [6]
00000000: 20d1 053a 7887 0c3a 2312 023a 8b03 dd39
00000010: 3cbb d339 c97c db39
0.00051047094 0.00053607626 0.0004961809 0.00042155045 0.00040384557 0.00041863907
