logs/rsl_rl/arm_t_reach/2025-10-13_14-28-14/model_1000.pt (torch, 505506 bytes, 42 tensors)

std f4 [6]
1.1274033 1.0724784 1.1610168 1.086251 1.077659 1.0859361
00000000: c04e 903f f946 893f 339c 943f 460a 8b3f
00000010: bbf0 893f f4ff 8a3f

actor.0.weight f4 [128, 25]
0.27608985 0.09905201 0.08952839 0.006827667 -0.22326216 0.36433557 0.24740179 0.14324498
0.23040494 -0.20871182 0.27159142 0.1341754 -0.07587894 0.36235133 0.21734272 0.18705997
0.92397267 0.11141897 0.4280923 0.06292147 -0.13503948 -0.5061471 -0.6172978 0.27215305
-0.3079633 -0.25447857 0.018117376 0.012603288 0.055133235 -0.31434909 -0.12729359 -0.101931885
0.10096005 -0.29729736 -0.11139772 -0.018970473 0.2582595 -0.109499276 -0.37885877 -0.48789403
-0.07500721 -0.04378466 0.32658008 0.6070078 0.23433706 0.039147224 0.27528217 -0.057359602
0.32517707 -0.17343964 0.13412395 -0.5924655 -0.048678305 -0.043904502 0.17848796 0.28262457
0.04049902 -0.30342498 0.11680606 -0.2442215 -0.07571708 -0.08445383 -0.36836448 -0.6284463
-0.026403723 0.09044642 0.8576812 -0.5183598 -0.08115263 -0.33069336 0.32118982 -0.3445478
-0.13044937 -0.3025098 -0.11072075 0.06714443 -0.50848526 -0.16910204 -0.035148278 0.23029028
0.018292805 -0.07467772 0.25970706 -0.01145959 0.31052825 -0.28735846 0.20989215 0.104301296
0.33505476 0.44014597 -0.49256063 -0.6633985 0.13581137 0.32997528 0.08088194 0.1768168
0.2448079 0.021301592 -0.08522575 0.028014012 -0.18174362 -0.059723448 -0.54058826 -0.130694
-0.36532652 -0.40575913 -0.2732311 -0.25219464 0.10616374 -0.10819116 0.013624252 -0.069825955
0.098593764 -0.802996 -0.16787875 -0.041187715 0.15859729 0.4293243 -0.5789846 -0.14904565
-0.08634299 -0.36027417 0.1685992 -0.4879703 -0.13061668 -0.36255187 -0.43788198 0.12438548
0.03559517 0.035829533 0.0879984 0.21948378 -0.07904071 0.04924852 0.031812258 -0.16546987
0.009120582 -0.12668635 0.19069104 -0.3477103 -0.7032621 -0.6445218 0.6038891 0.2549391
-0.029001383 0.1768633 0.0017393323 0.49763104 0.16838376 -0.09039756 0.03809616 -0.32579353
0.04614492 -0.36290818 0.31906775 -0.49060196 0.20293228 -0.10101712 -0.14325853 -0.10091892
0.08031391 -0.18975365 0.24652807 -0.23361528 0.3937935 -0.840936 -0.20163852 0.02030447
-0.21607187 -0.0017432249 -0.055061072 -0.03729053 0.009441894 0.17236096 -0.13554038 -0.27878997
-0.55598736 0.049241994 -0.20268434 0.048462823 -0.09258733 -0.09681606 0.43574944 -0.31649438
0.4656605 -0.2121132 -0.24088225 0.43129793 -0.012727842 -0.12977026 -0.6684901 0.78007865
0.23381601 -0.2332333 -0.17854774 -0.13412297 0.00564636 -0.16713384 0.09035649 -0.110698655
-0.05025391 0.18081139 0.14732777 0.076354876 -0.11545995 0.12499973 0.123101234 -0.18490396
-0.061875418 0.07421012 0.18150157 0.3656058 0.12960443 -0.09848437 0.0950686 0.13106528
0.7794438 0.4488225 -0.00934705 0.11605351 0.04455586 -0.20381129 -0.26323494 -0.20356442
-0.42003337 -0.38889426 -0.31306162 0.35033512 -0.18364204 -0.01911418 -0.23825404 0.564382
-0.09145344 -0.16427396 0.0961846 -0.034916583 -0.34786996 -0.3612371 0.13694872 -0.2752552
0.20924936 -0.49184653 -0.49499914 0.15997198 0.076654755 -0.41533095 -0.073135614 0.16068694
-0.23990129 -0.12539402 0.020438567 -0.6848354 0.01565151 -0.18550894 0.08678954 -0.041886155
00000000: a65b 8d3e c8db ca3d a95a b73d 9fba df3b
00000010: d69e 64be 318a ba3e e556 7d3e d0ae 123e
00000020: 46ef 6b3e 8db8 55be 080e 8b3e 4765 093e
00000030: 6b66 9bbd 1d86 b93e 178f 5e3e a68c 3f3e
00000040: 7989 6c3f a12f e43d ea2e db3e f9dc 803d
00000050: ca47 0abe db92 01bf 3b07 1ebf a557 8b3e
00000060: 5ead 9dbe 044b 82be e46a 943c 057e 4e3c
00000070: 63d3 613d 5df2 a0be 4059 02be aac1 d0bd
00000080: 25c4 ce3d 5c37 98be 7d24 e4bd f767 9bbc
00000090: 973a 843e 2841 e0bd c7f9 c1be 3fcd f9be
000000a0: 619d 99bd 8b57 33bd 8135 a73e dd64 1b3f
000000b0: 0ef6 6f3e d758 203d c9f1 8c3e e7f1 6abd
000000c0: 9c7d a63e 299a 31be ca57 093e d2ab 17bf
000000d0: e762 47bd 35d5 33bd 8cc5 363e 2bb4 903e
000000e0: 4de2 253d 855a 9bbe 0438 ef3d 3315 7abe
000000f0: 8e11 9bbd 21f6 acbd 459a bcbe dbe1 20bf
00000100: 9f4c d8bc f93b b93d ff90 5b3f 3ab3 04bf
00000110: 5a33 a6bd a450 a9be fe72 a43e 9268 b0be
00000120: 8594 05be 91e2 9abe 90c1 e2bd 0583 893d
00000130: 172c 02bf 1629 2dbe a4f7 0fbd 37d1 6b3e
00000140: cbda 953c a2f0 98bd 53f8 843e 01c1 3bbc
00000150: 8ffd 9e3e a620 93be f8ed 563e eb9b d53d
00000160: 4c8c ab3e d05a e13e e830 fcbe 7cd4 29bf
00000170: 2312 0b3e 85f2 a83e 6ea5 a53d 770f 353e
00000180: ecae 7a3e ad80 ae3c d78a aebd a47d e53c
00000190: 001b 3abe 93a0 74bd fe63 0abf a6d4 05be
000001a0: 140c bbbe a9bf cfbe f2e4 8bbe a81f 81be
000001b0: 606c d93d 5493 ddbd 4138 5f3c e900 8fbd
000001c0: 87eb c93d 2591 4dbf 68e8 2bbe 73b4 28bd
000001d0: 5467 223e 65d0 db3e 5638 14bf 6c9f 18be
000001e0: 98d4 b0bd db75 b8be 45a5 2c3e 3ed7 f9be
000001f0: 61c0 05be 66a0 b9be 1132 e0be d1bd fe3d
00000200: 3ecc 113d fdc1 123d 8138 b43d 5bc0 603e
00000210: 19e0 a1bd d1b8 493d 924d 023d ef70 29be
00000220: 7e6e 153c 11ba 01be 8344 433e 1607 b2be
00000230: fc08 34bf 61ff 24bf 7a98 1a3f 6187 823e
00000240: 4f94 edbc a71b 353e 4ffa e33a 7fc9 fe3e
00000250: cb6c 2c3e 5b22 b9bd b80a 1c3d 69ce a6be
00000260: 7502 3d3d 1acf b9be d95c a33e 2e30 fbbe
00000270: 7bcd 4f3e 10e2 cebd 5db2 12be 94ae cebd
00000280: 9f7b a43d c84e 42be db71 7c3e d838 6fbe
00000290: 4d9f c93e 9547 57bf 547a 4ebe 8f55 a63c
000002a0: f241 5dbe ec7c e4ba b887 61bd f4bd 18bd
000002b0: 2cb2 1a3c 647f 303e 19cb 0abe 8fbd 8ebe
000002c0: 3055 0ebf f9b1 493d 7c8c 4fbe f480 463d
000002d0: 6d9e bdbd 8047 c6bd 8d1a df3e 8d0b a2be
000002e0: 0e6b ee3e 3434 59be d6a9 76be 15d3 dc3e
000002f0: 7088 50bc 7fe2 04be 2b22 2bbf 3cb3 473f
00000300: 776d 6f3e b6d4 6ebe 38d5 36be 8857 09be
00000310: 1a05 b93b 2225 2bbe d30c b93d fab5 e2bd
00000320: 0bd7 4dbd 9f26 393e 17dd 163e f25f 9c3d
00000330: 4476 ecbd dcff ff3d 801c fc3d 7757 3dbe
00000340: 1471 7dbd 7afb 973d 8cdb 393e af30 bb3e
00000350: 06b7 043e 2cb2 c9bd 53b3 c23d fa35 063e
00000360: a189 473f 10cc e53e 5f24 19bc 76ad ed3d
00000370: 3580 363d e8b3 50be bbc6 86be 3173 50be
00000380: 9d0e d7be 261d c7be 9d49 a0be 205f b33e
00000390: a90c 3cbe 5795 9cbc def8 73be 577b 103f
000003a0: f14b bbbd 6f37 28be 6efc c43d b104 0fbd
000003b0: 031c b2be 12f4 b8be 493c 0c3e 40ee 8cbe
000003c0: 7745 563e 4fd3 fbbe 8770 fdbe b2cf 233e
000003d0: 2bfd 9c3d 42a6 d4be 20c8 95bd 1e8b 243e
000003e0: afa8 75be 4a67 00be c86e a73c 5f51 2fbf
000003f0: 9837 803c 0ef6 3dbe b7be b13d d190 2bbd

actor.0.bias f4 [128]
-0.9034669 -0.76155347 -0.63138515 -0.7592021 -0.84222233 -0.5665758 -0.9504363 -0.4823108
-0.3359075 -0.93140316 -0.3065974 -0.17856577 -0.7442178 -0.8472628 -0.8527834 -0.8507944
-0.6418075 -0.38997048 -0.60451764 -0.7723094 -0.5507196 -0.7087019 -0.8814551 -0.47475657
-1.2485075 -0.92013806 -0.40147662 -0.51852894 -0.28095567 -0.34418154 -0.9090498 -0.6528619
-0.70458627 -1.0070947 -0.42710578 -0.6888274 -0.8641882 -0.4329132 -1.2882161 -0.6615355
-0.7462082 -0.7550777 -0.23619029 -0.91799295 -0.05457583 -0.6252504 -0.7224786 -0.55219406
-0.26636952 -0.61898273 -0.73283595 -0.502182 -0.5075222 -0.7598868 -0.80998147 -0.33257106
-0.18696049 -0.4878409 -0.42398274 -0.26040152 -0.45274535 -1.007543 -0.7608568 -0.6231943
-0.9810909 -0.85704255 -0.49343127 -0.5105017 -0.15671583 -0.13615264 -0.69628525 -0.80921555
-0.7149638 -0.5402159 -1.1620504 -0.94377613 -1.0034258 -0.6985354 -0.6317388 -0.69243103
-0.7856972 -0.81240743 -0.4114676 -0.58818525 -0.97906214 -0.45690942 -0.44081733 -0.9463156
-0.24120937 -0.47947615 -0.896285 -0.7070531 -0.8692489 -0.8736485 -0.20743963 -1.101357
-1.0563173 -0.5760258 -0.81275773 -0.84443617 -0.7075092 -0.7796167 -0.57217246 -0.63050747
-0.7975329 -0.55030966 -0.7517691 -1.0848725 -0.69422126 -0.35098848 -0.51903826 -0.73284966
-0.68533 0.16656223 -0.52882576 -0.5067652 -0.84194374 -1.0415567 -0.624118 -1.0204395
-0.33900198 -0.4689057 -0.8083967 -0.58207685 -0.8632663 -0.5027396 -0.36708036 -0.59899384
00000000: 9b49 67bf 2bf5 42bf 75a2 21bf 125b 42bf
00000010: e29b 57bf 1d0b 11bf cb4f 73bf 71f1 f6be
00000020: 11fc abbe 7070 6ebf 56fa 9cbe f2d9 36be
00000030: 0f85 3ebf 37e6 58bf 0350 5abf a9cd 59bf
00000040: 7f4d 24bf 36aa c7be abc1 1abf 12b6 45bf
00000050: f6fb 0cbf 7d6d 35bf 0ba7 61bf 4b13 f3be
00000060: 18cf 9fbf 2b8e 6bbf 588e cdbe 50be 04bf
00000070: 6cd9 8fbe 9038 b0be 7db7 68bf f521 27bf
00000080: c45f 34bf 7be8 80bf 9cad dabe fe56 30bf
00000090: 703b 5dbf cda6 ddbe 44e4 a4bf 645a 29bf
000000a0: 8007 3fbf c64c 41bf dedb 71be 9601 6bbf
000000b0: e88a 5fbd 6910 20bf 5cf4 38bf 975c 0dbf
000000c0: 9661 88be a775 1ebf 239b 3bbf 008f 00bf
000000d0: faec 01bf f187 42bf f25a 4fbf c146 aabe
000000e0: 9272 3fbe 48c6 f9be 4414 d9be 5953 85be
000000f0: 3dce e7be 2bf7 80bf 83c7 42bf a989 1fbf
00000100: c628 7bbf 2467 5bbf 06a3 fcbe 3db0 02bf
00000110: 1d7a 20be 996b 0bbe c03f 32bf c028 4fbf
00000120: de07 37bf 974b 0abf 11be 94bf 509b 71bf
00000130: 4270 80bf 37d3 32bf a2b9 21bf 2943 31bf
00000140: 7423 49bf eff9 4fbf e2ab d2be 4f93 16bf
00000150: d1a3 7abf 08f0 e9be cfb2 e1be bd41 72bf
00000160: 97ff 76be e67d f5be ef72 65bf 6f01 35bf
00000170: 1987 5ebf 6ea7 5fbf 0e6b 54be 44f9 8cbf
00000180: 6835 87bf 6d76 13bf e410 50bf f82c 58bf
00000190: 531f 35bf f694 47bf e579 12bf f068 21bf
000001a0: 1e2b 4cbf 18e1 0cbf f173 40bf 1add 8abf
000001b0: 7cb8 31bf c3b4 b3be b1df 04bf 099c 3bbf
000001c0: c971 2fbf 4a8f 2a3e 2061 07bf 5dbb 01bf
000001d0: a089 57bf bb51 85bf 32c6 1fbf c39d 82bf
000001e0: ab91 adbe 6814 f0be 16f3 4ebf fd02 15bf
000001f0: 05ff 5cbf 8bb3 00bf f5f1 bbbe a957 19bf

actor.2.weight f4 [128, 128]
-0.45509094 -0.55725396 -0.23614168 -0.09661636 -0.14600289 -0.023860615 0.46337196 0.60504013
-0.12042732 -0.07853234 0.07290957 -0.46238336 -0.22514346 0.20924218 -0.28086674 -0.6248177
0.03797603 0.31027967 -0.8368052 0.031216498 0.703692 0.17253612 -0.08946135 -1.0018538
0.4061018 0.3160655 0.018986218 -0.597424 0.41899133 -0.8984748 0.12341617 0.17867742
0.047731753 -0.32551557 -0.3594864 -0.022984046 -0.1465015 -0.46703976 -0.6359579 -0.19778086
-0.29065543 0.17768301 0.50947857 -0.24900039 -0.18423514 0.021041226 0.11302837 0.09412221
-0.24255367 0.34551033 -0.26983404 -0.4145975 -0.00835369 -0.1723091 -2.2933052 0.1516769
-0.109394506 -0.06969529 -0.87795246 -0.2183486 -0.467819 0.08677843 0.45273677 0.1257375
-0.072484665 -0.6462654 -0.38005513 -0.19867957 -0.2502452 -0.70372003 0.40791968 -0.852744
0.11326311 0.27880138 -0.4872792 0.18287899 -0.4406208 -0.25875542 0.20104004 0.36796415
0.6274543 -0.24653715 0.016345855 0.9164897 0.10043457 0.29513514 0.06663208 0.02529781
-0.4153089 -0.062727176 -0.33632442 -0.75912565 0.27439597 0.048466973 0.12052261 -1.1152369
-0.040182747 -0.33845344 -0.15541893 -0.25215948 -1.0069089 -0.63166183 -0.0880747 0.09499636
-0.28650975 0.16506086 0.24240229 0.124791965 0.16703296 -0.42295054 -0.03282117 -0.7294913
-0.0005953785 -0.22631422 -0.22729664 -0.5024393 -0.71700436 -0.36495978 0.026920712 0.30336255
-0.3890073 -0.021958102 -0.13482444 -1.1073251 0.053614005 -0.26276618 -1.012586 0.45431915
0.2751947 -0.46045706 0.30020142 0.43545768 0.27929106 -0.5567642 -0.66065395 -0.011911611
0.24638127 0.044803925 -0.06369568 -0.025707452 -1.1789832 -0.13905786 0.002330328 -0.24464907
-0.1590604 0.27462882 -0.06676811 -0.2492034 -0.9687199 -0.0035478708 -0.6972324 -0.32379144
-0.27583024 0.35343263 -0.28108016 -0.33046818 -0.03514143 0.5552555 -0.16701363 -0.31260997
0.26165318 0.44226712 -0.28776628 -0.34293944 -0.031246644 -0.9546841 0.15126927 -1.0408866
0.21674187 0.10664381 -0.4586863 -0.7852835 0.23100688 0.018203128 -0.01938976 0.148772
0.09637323 -0.5175001 -0.017914778 -0.32875773 0.2142725 0.07120982 -0.5652571 0.19086418
0.35883558 0.32376102 0.060341 -0.34361258 0.007921297 -0.20457232 -0.2337328 -0.22698858
0.015318171 0.46299136 -0.55468285 -0.33435416 -0.59932923 -0.03765245 -0.037703764 -0.026516888
-0.4062076 -0.112453155 0.21778828 0.3466645 0.16129722 0.31330058 -0.40390685 0.18343884
-1.5691483 -0.28453654 0.21503931 0.25164908 -0.37748465 -0.6370843 -0.9825259 -0.5030398
-0.110601634 0.13807862 -0.557143 0.117131345 0.16934028 0.32615054 0.9292547 -0.2019229
-0.87610584 -0.5764273 -0.16439992 0.2502777 0.11891009 -0.19752812 0.4764516 0.08175102
0.15705039 -0.012782117 -0.09521586 0.004325348 -0.058144275 -0.38914752 -1.0290682 -0.79578555
-0.5275243 -0.16396509 0.20350914 0.07010535 0.52976286 -0.5590762 -0.14312159 0.59184027
0.1299168 -0.23192933 0.1003925 0.16412264 -0.062062953 0.2649503 -1.2196891 -0.92649347
00000000: ae01 e9be 32a8 0ebf 20cf 71be ccde c5bd
00000010: c881 15be 5677 c3bc 173f ed3e e9e3 1a3f
00000020: 99a2 f6bd 90d5 a0bd 9d51 953d 83bd ecbe
00000030: 028c 66be 9543 563e c4cd 8fbe 0ef4 1fbf
00000040: c18c 1b3d fadc 9e3e de38 56bf beb9 ff3c
00000050: 2925 343f 4fad 303e 8337 b7bd bf3c 80bf
00000060: 93ec cf3e 56d3 a13e fc88 9b3c c7f0 18bf
00000070: 0886 d63e 7202 66bf 9ec1 fc3d 37f7 363e
00000080: 5f82 433d faa9 a6be 9a0e b8be 0a49 bcbc
00000090: 7d04 16be d61f efbe 23ce 22bf 1187 4abe
000000a0: cad0 94be 89f2 353e 306d 023f f5f9 7ebe
000000b0: 23a8 3cbe a65e ac3c 6b7b e73d 25c3 c03d
000000c0: fd5f 78be bbe6 b03e b027 8abe 2046 d4be
000000d0: eadd 08bc cc71 30be 83c5 12c0 3051 1b3e
000000e0: 3a0a e0bd 67bc 8ebd 7ec1 60bf c796 5fbe
000000f0: f985 efbe e4b8 b13d 1dcd e73e 55c1 003e
00000100: d772 94bd a671 25bf 9696 c2be a872 4bbe
00000110: 2420 80be ff26 34bf d9da d03e 6e4d 5abf
00000120: 7df6 e73d 0ebf 8e3e a97c f9be a144 3b3e
00000130: 0d99 e1be 977b 84be 71dd 4d3e cc65 bc3e
00000140: d8a0 203f 3c74 7cbe bee7 853c 129f 6a3f
00000150: a4b0 cd3d f41b 973e 6676 883d 5a3d cf3c
00000160: 5ea3 d4be 1b77 80bd b732 acbe 0f56 42bf
00000170: a17d 8c3e 4e85 463d 8fd4 f63d 15c0 8ebf
00000180: aa96 24bd c549 adbe 2426 1fbe 0c1b 81be
00000190: 64e2 80bf 97b4 21bf 8260 b4bd 748d c23d
000001a0: 68b1 92be b705 293e 4e38 783e ee92 ff3d
000001b0: b00a 2b3e f98c d8be 7e6f 06bd f1bf 3abf
000001c0: 2d13 1cba eabe 67be 73c0 68be dd9f 00bf
000001d0: 998d 37bf 02dc babe d388 dc3c 5652 9b3e
000001e0: f72b c7be 7ae1 b3bc 6b0f 0abe d4bc 8dbf
000001f0: 5c9a 5b3d 4a89 86be 6b9c 81bf 859c e83e
00000200: 52e6 8c3e 07c1 ebbe 00b4 993e 4ff4 de3e
00000210: 3dff 8e3e 1988 0ebf 9e20 29bf eb28 43bc
00000220: 5f4b 7c3e 5284 373d e172 82bd 6f98 d2bc
00000230: ece8 96bf 2f65 0ebe 6bb8 183b 4985 7abe
00000240: bbe0 22be 269c 8c3e b8bd 88bd 2d2f 7fbe
00000250: 07fe 77bf 6583 68bb d37d 32bf fec7 a5be
00000260: 9f39 8dbe 1ff5 b43e bde9 8fbe 2033 a9be
00000270: 76f0 0fbd 3925 0e3f 9f05 2bbe 6a0e a0be
00000280: 68f7 853e d670 e23e 1a56 93be c295 afbe
00000290: f6f8 ffbc 2d66 74bf 55e6 1a3e c63b 85bf
000002a0: 95f1 5d3e 1268 da3d eed8 eabe 5708 49bf
000002b0: 118d 6c3e ba1e 953c 46d7 9ebc b057 183e
000002c0: 545f c53d e37a 04bf 03c2 92bc ef52 a8be
000002d0: 406a 5b3e 74d6 913d b0b4 10bf e671 433e
000002e0: 4cb9 b73e 01c4 a53e 2028 773d fded afbe
000002f0: 54c8 013c 687b 51be a757 6fbe b26f 68be
00000300: 11f9 7a3c 340d ed3e b2ff 0dbf 7830 abbe
00000310: a46d 19bf 7539 1abd 436f 1abd f239 d9bc
00000320: 71fa cfbe d74d e6bd e403 5f3e 027e b13e
00000330: 192b 253e ef68 a03e e1cc cebe 64d7 3b3e
00000340: dad9 c8bf c6ae 91be 4433 5c3e 26d8 803e
00000350: ab45 c1be f517 23bf d186 7bbf 37c7 00bf
00000360: 1c83 e2bd 7b64 0d3e eca0 0ebf 8fe2 ef3d
00000370: 8a67 2d3e 34fd a63e a3e3 6d3f e0c4 4ebe
00000380: 7948 60bf bd90 13bf 7458 28be 6624 803e
00000390: 2287 f33d d044 4abe 77f1 f33e 146d a73d
000003a0: d1d1 203e 166c 51bc 8800 c3bd a6bb 8d3b
000003b0: b128 6ebd 583e c7be 82b8 83bf 9ab8 4bbf
000003c0: d50b 07bf 77e6 27be b364 503e 6593 8f3d
000003d0: 8a9e 073f 9e1f 0fbf 778e 12be d882 173f
000003e0: e908 053e e27e 6dbe 959a cd3d c40f 283e
000003f0: b935 7ebd 91a7 873e c61e 9cbf ad2e 6dbf

actor.2.bias f4 [128]
0.19922568 0.23655385 0.47706237 0.0059696306 0.20701952 -0.2028248 0.022213137 0.5375263
-0.021018727 -0.13642024 -0.072683975 0.21144204 -0.12803245 0.34012005 -0.32305944 0.1307103
-0.25240558 0.48211932 -0.26294586 0.3448381 -0.19243158 0.007667471 0.095480636 -0.26851138
0.1607279 0.52354443 -0.05214979 0.18922707 -0.11733506 0.10507688 -0.1693359 -0.33805016
0.16355996 0.010745655 0.23084746 -0.083928995 -0.14120711 0.47791556 0.075006105 0.05403608
0.27322078 0.044341 -0.008777834 -0.16902375 0.13054313 -0.22094794 0.15617998 -0.2799431
-0.26831862 0.47546715 0.28694174 0.019335322 -0.12153323 0.12668282 -0.1481301 -0.17878492
0.28938612 0.079741806 0.33148396 -0.18894012 -0.24561118 -0.03086362 0.08567476 0.15236335
0.2585997 -0.28812954 -0.29267174 -0.070434324 -0.21996781 -0.037457228 -0.0815296 0.027158365
0.08562954 0.025506597 -0.18076098 0.14341044 -0.16839351 -0.24148564 0.06899659 -0.327311
0.062256426 -0.07466696 -0.13051856 -0.10608025 0.051967587 0.21323177 -0.4046155 -0.060554575
0.1451507 -0.08691164 -0.21405263 -0.15113959 -0.17334877 0.1954822 0.22575602 -0.1853526
-0.25860012 0.06527933 -0.007802201 -0.0376931 0.10209182 -0.11171178 -0.43375665 0.6418103
-0.029962804 -0.34205627 -0.062396813 0.25135627 -0.2775607 0.0738037 -0.1314068 0.02425143
-0.08510539 -0.2955857 -0.13686158 0.7136967 0.76274127 -0.0874899 -0.09235427 0.4707851
-0.36944658 -0.18256116 0.43700045 -0.19893746 0.6287626 -0.24488272 -0.28401336 0.13420588
00000000: d101 4c3e 2c3b 723e 8541 f43e e49c c33b
00000010: edfc 533e 4eb1 4fbe 53f8 b53c 539b 093f
00000020: 772f acbc bfb1 0bbe 56db 94bd 4384 583e
00000030: f01a 03be 3724 ae3e 0c68 a5be ecd8 053e
00000040: 4e3b 81be 58d8 f63e d7a0 86be 9f8e b03e
00000050: c90c 45be 693f fb3b 5a8b c33d 537a 89be
00000060: db95 243e 0207 063f 059b 55bd bec4 413e
00000070: 5d4d f0bd 8c32 d73d 6466 2dbe e914 adbe
00000080: 437c 273e 8b0e 303c 4763 6c3e f7e2 abbd
00000090: 9998 10be 59b1 f43e cd9c 993d f054 5d3d
000000a0: 98e3 8b3e e99e 353d e7d0 0fbc 9014 2dbe
000000b0: 19ad 053e 2d40 62be a5ed 1f3e b454 8fbe
000000c0: 0f61 89be 6e70 f33e 07ea 923e 1c65 9e3c
000000d0: 6ae6 f8bd 24b9 013e 6baf 17be 6513 37be
000000e0: 6b2a 943e ac4f a33d 44b8 a93e 8579 41be
000000f0: 7f81 7bbe b4d5 fcbc 4076 af3d 2305 1c3e
00000100: 2e67 843e b785 93be 12d9 95be df3f 90bd
00000110: 3e3f 61be c06c 19bd fef8 a6bd 387b de3c
00000120: 8a5e af3d 36f3 d03c 6819 39be 30da 123e
00000130: 596f 2cbe 0348 77be 164e 8d3d 4f95 a7be
00000140: 9800 7f3d feea 98bd a8a6 05be 9a40 d9bd
00000150: f7db 543d 6e59 5a3e c329 cfbe 1308 78bd
00000160: 63a2 143e bbfe b1bd 9d30 5bbe 56c4 1abe
00000170: 5782 31be 7c2c 483e 962c 673e 12cd 3dbe
00000180: 3c67 84be 2bb1 853d 9ba9 ffbb 1464 1abd
00000190: 8415 d13d 25c9 e4bd 5a15 debe ae4d 243f
000001a0: 8e74 f5bc 0022 afbe cd93 7fbd c5b1 803e
000001b0: 701c 8ebe 6526 973d 818f 06be efaa c63c
000001c0: bc4b aebd 0257 97be 7125 0cbe d4b4 363f
000001d0: 0343 433f e82d b3bd 3c24 bdbd bf0a f13e
000001e0: 1a28 bdbe 50f1 3abe 86be df3e 43b6 4bbe
000001f0: 96f6 203f 89c2 7abe 336a 91be 446d 093e

actor.4.weight f4 [6, 128]
-0.17116682 0.05870627 -0.1520018 -0.09181143 -0.27668828 0.22823799 -0.013072845 -0.02552997
-0.07431043 0.10266981 -0.18369752 -0.28365695 0.022405626 -0.24042588 0.17652388 0.24195725
-0.048436046 0.043721154 -0.031866938 -0.05070034 -0.09306206 0.107248306 -0.03287959 -0.10444306
0.04111983 -0.047585588 0.13854022 0.120678514 0.12015768 0.21073602 -0.6976222 -0.2389548
-0.11993902 -0.034784507 -0.028026763 -0.35040054 0.6130092 0.23130944 0.2320871 -0.19611777
-0.031374995 0.58968806 0.0009949825 0.100189015 -0.13398926 -0.080205515 -0.0047934726 -0.274732
0.3416593 0.28855675 0.044854973 -0.15548243 0.23448656 0.13302416 0.06922953 -0.09703236
-0.1375569 -0.21890046 0.19635265 -0.13435903 -0.1355463 0.03139862 -0.09938132 0.028865647
-0.109203294 0.08688005 0.26157936 -0.3144626 -0.118206315 0.15589719 0.01835394 0.2875105
-0.061196346 -0.08014124 0.06535616 0.048315767 0.19497767 -0.3704949 -0.0017398527 -0.05041143
-0.07594313 0.28300875 -0.09703587 -0.024281513 0.07393462 -0.05612402 -0.100065134 0.09845256
0.07423305 -0.06529849 -0.032277107 0.2224658 0.11158097 0.108990304 -0.40179867 0.15311524
-0.08841154 -0.01702059 0.2976161 -0.08291498 -0.26340863 0.27757043 -0.17628902 -0.14370002
0.3108641 0.3620158 0.033811424 -0.0064971866 0.042151447 0.021710806 0.12499578 0.18727416
-0.13219751 -0.16796282 -0.05416329 -0.13932727 0.033436332 0.13523631 -0.046853945 0.31395832
0.23577829 -0.045482755 -0.018573817 -0.2405262 0.21102008 -0.19865917 0.022840053 0.04981452
-0.11132268 -0.19133832 0.13882251 -0.18357706 0.018324913 0.01931956 -0.30647597 0.21395889
-0.20941664 0.2166011 -0.2486875 0.05334433 0.26742533 0.11084527 -0.050538044 0.05689013
-0.03786446 -0.021941165 -0.42787823 0.23858584 -0.18819238 0.16915642 0.045362614 -0.3987435
0.12979662 0.11309562 0.29303953 0.10583873 -0.1102967 0.09852504 0.01273787 -0.12716046
-0.11531076 -0.15336291 -0.24869026 -0.21245638 -0.3738291 0.20752835 -0.031504326 0.015753206
-0.100540444 0.18035665 0.20595661 -0.12799934 -0.051546227 0.10051092 -0.34791476 -0.039979637
-0.102226 -0.10922633 0.12549552 0.22607324 0.5968418 -0.14659038 -0.03587286 0.3634412
0.15463041 -0.21072601 -0.10312295 -0.25535247 -0.10933898 0.0007657283 -0.10056127 0.13280231
-0.14214092 0.2665105 -0.26309037 -0.27042407 -0.03474251 0.27639383 0.18070583 -0.01067536
-0.004731601 0.104116246 0.13792305 -0.21283948 0.15393 0.10082814 -0.07258403 -0.3700586
-0.17067453 0.17132583 0.13883127 0.18478452 0.09712973 0.2094939 -0.018158104 0.07516392
0.15311295 -0.2647116 -0.033412594 0.040567216 -0.25110415 0.07422503 0.06711119 -0.061356325
-0.36784238 -0.25864956 -0.0907609 -0.040651783 -0.02460357 -0.17956528 -0.15044618 0.07296038
0.20948987 0.05527761 -0.27151427 0.023777232 0.060358603 0.05809235 0.22679868 0.0141456025
0.31685853 -0.14548893 -0.097029336 0.10103507 0.16731739 0.10987547 0.013818253 0.019696433
0.28498432 -0.18367238 0.15332803 0.08788996 0.15116252 -0.24217033 -0.16189824 -0.18690902
00000000: 5b46 2fbe fc75 703d 5ca6 1bbe a207 bcbd
00000010: 16aa 8dbe 38b7 693e 7c2f 56bc 3a24 d1bc
00000020: 1130 98bd 8d44 d23d 341b 3cbe 7c3b 91be
00000030: 018c b73c 3432 76be adc2 343e a4c3 773e
00000040: e064 46bd f414 333d e886 02bd 29ab 4fbd
00000050: 5297 bebd 00a5 db3d c0ac 06bd 3ee6 d5bd
00000060: 446d 283d 1be9 42bd 7ddd 0d3e 4c26 f73d
00000070: 3b15 f63d 2fcb 573e 5e97 32bf 91b0 74be
00000080: 97a2 f5bd 337a 0ebd 6298 e5bc b367 b3be
00000090: 2cee 1c3f 62dc 6c3e 3ea8 6d3e 19d3 48be
000000a0: 1183 00bd ccf5 163f 136a 823a e62f cd3d
000000b0: 7b34 09be ca42 a4bd 9012 9dbb aca9 8cbe
000000c0: f8ed ae3e b6bd 933e d9b9 373d c936 1fbe
000000d0: 3f1d 703e 7c37 083e 36c8 8d3d e7b8 c6bd
000000e0: b7db 0cbe 7127 60be ab10 493e 6a95 09be
000000f0: a6cc 0abe d79b 003d 6f88 cbbd a677 ec3c
00000100: faa5 dfbd 2bee b13d bbed 853e 3e01 a1be
00000110: 2716 f2bd 83a3 1f3e 015b 963c 9434 933e
00000120: 05a9 7abd 1721 a4bd 73d9 853d c1e6 453d
00000130: 3aa8 473e 82b1 bdbe c50b e4ba 377c 4ebd
00000140: 1288 9bbd 86e6 903e beba c6bd 06ea c6bc
00000150: 096b 973d 4de2 65bd f3ee ccbd 7fa1 c93d
00000160: 7f07 983d 37bb 85bd 0035 04bd 13ce 633e
00000170: 9084 e43d 4f36 df3d 8eb8 cdbe 3eca 1c3e
00000180: 1c11 b5bd c46e 8bbc 2361 983e 54cf a9bd
00000190: 7fdd 86be b61d 8e3e 1c85 34be 1926 13be
000001a0: 9429 9f3e 235a b93e d97d 0a3d 5ae6 d4bb
000001b0: ffa6 2c3d dcda b13c cafd ff3d ccc4 3f3e
000001c0: c95e 07be 72fe 2bbe 53da 5dbd cfab 0ebe
000001d0: 89f4 083d 637b 0a3e ece9 3fbd 25bf a03e
000001e0: dd6f 713e 204c 3abd 1e28 98bc 804c 76be
000001f0: a615 583e 4f6d 4bbe 101b bb3c 4f0a 4c3d
00000200: 25fd e3bd 31ee 43be 7d27 0e3e a0fb 3bbe
00000210: 211e 963c 0e44 9e3c 6bea 9cbe 0a18 5b3e
00000220: 5171 56be aecc 5d3e f0a7 7ebe 967f 5a3d
00000230: f9eb 883e d802 e33d fb00 4fbd a005 693d
00000240: c417 1bbd f5bd b3bc db12 dbbe d94f 743e
00000250: 81b5 40be 5737 2d3e 26ce 393d 1c28 ccbe
00000260: 68e9 043e ad9e e73d 4709 963e fac1 d83d
00000270: 3ce3 e1bd 7fc7 c93d 80b2 503c 5a36 02be
00000280: 0c28 ecbd 2b0b 1dbe a9a8 7ebe 2a8e 59be
00000290: 8766 bfbe 5082 543e ae0a 01bd de0c 813c
000002a0: 26e8 cdbd 6aaf 383e 4ae6 523e 4212 03be
000002b0: 2322 53bd abd8 cd3d e221 b2be b0c1 23bd
000002c0: dd5b d1bd 0eb2 dfbd e681 003e be7f 673e
000002d0: a0ca 183f ca1b 16be 6cef 12bd f714 ba3e
000002e0: 6f57 1e3e 8fc8 57be 2032 d3bd 8fbd 82be
000002f0: 1ded dfbd 28bb 483a 11f3 cdbd 54fd 073e
00000300: 648d 11be 1074 883e c8b3 86be 0675 8abe
00000310: 2a4e 0ebd 7e83 8d3e f30a 393e b5e7 2ebc
00000320: 8c0b 9bbb e63a d53d b33b 0d3e 98f2 59be
00000330: d39f 1d3e fc7e ce3d f0a6 94bd 5278 bdbe
00000340: 4ec5 2ebe 0a70 2f3e c929 0e3e 2738 3d3e
00000350: f4eb c63d 9285 563e 4ec0 94bc 8bef 993d
00000360: a4c9 1c3e 4788 87be a5db 08bd cf29 263d
00000370: b990 80be 4b03 983d 9771 893d c550 7bbd
00000380: d655 bcbe b76d 84be dae0 b9bd 7c82 26bd
00000390: 6d8d c9bc f6df 37be 900e 1abe 406c 953d
000003a0: 8384 563e c66a 623d eb03 8bbe 78c8 c23c
000003b0: 953a 773d 3ef2 6d3d ea3d 683e f5c2 673c
000003c0: 483b a23e 0dfb 14be 51b7 c6bd 7aeb ce3d
000003d0: 4055 2b3e 6406 e13d f465 623c 6a5a a13c
000003e0: 77e9 913e 9d14 3cbe 0602 1d3e a7ff b33d
000003f0: 59ca 1a3e 80fb 77be a7c8 25be 1465 3fbe

actor.4.bias f4 [6]
0.048415795 0.64157677 0.034371454 0.4673883 0.032113265 -0.0038434141
00000000: a44f 463d 603e 243f 15c9 0c3d 854d ef3e
00000010: 3389 033d cae1 7bbb

critic.0.weight f4 [128, 25]
-0.11272847 -0.008411519 0.19450158 -0.016634122 0.08776738 -0.1398152 0.0029129153 0.0033164844
0.029756267 -0.018295195 -0.028939165 0.00060638046 -0.28315648 0.22935711 -0.94448096 0.6880323
0.4614923 -0.7314122 0.44485873 -0.0039135143 -0.019065805 -0.01261515 0.05759798 0.060576264
-0.046041723 0.00063832226 0.016371451 0.04698729 0.008327161 0.0060801264 -0.1213537 -0.005949732
0.003581257 -0.006532968 0.007533025 0.0027880718 0.007976991 -1.1460142 -0.22361468 -0.08013892
-0.15802398 0.61458987 0.35656357 0.6501314 0.0016577897 -0.010623263 -0.017286638 0.015486675
-0.009589351 -0.010328015 0.06750175 -0.10433062 -0.0047102347 0.22009349 -0.23215757 -0.16464591
0.00069194956 0.000879457 0.010366805 -0.054561727 -0.017077412 0.017230013 0.7012419 -0.34934855
0.18544766 -0.52352816 -0.5271473 0.13157985 0.6191991 -0.036099903 0.017144768 -0.0029418792
0.07891498 -0.00842595 -0.032267913 -0.028238298 -0.08975091 0.05771915 0.12520546 0.19499059
-0.33612302 -0.004137209 0.014218348 0.007186128 -0.011257681 -0.013217957 -0.0114518 -0.020756213
0.07151343 0.22424734 -0.5959581 1.1605673 -0.4073355 0.2961494 0.005785063 0.012220731
0.008578538 -0.00012076627 0.03529635 -0.002995032 -0.036950223 0.13046056 0.03800291 0.07603451
0.062543415 -0.21600688 -0.006827614 -0.027015535 0.00446482 0.007251282 0.011614824 0.0005068939
-0.6312182 -0.7972254 0.116424724 0.7391824 0.77217865 -0.24900527 -0.24292457 -0.01288901
0.033551313 -0.0009885042 -0.012770861 0.0022188402 -0.009132549 0.17418905 0.12651809 -0.020276891
0.17151715 -0.50976574 -0.44462475 0.008873269 -0.017758304 0.023889804 0.0068320357 -0.03192594
0.0073798783 0.07588971 0.06986699 0.16936535 0.3669454 -0.3594975 -0.55097884 0.22960708
0.0076293815 0.015340733 0.012628069 0.027792053 0.049936738 -0.052459486 -0.13164635 0.09886955
0.008282633 0.13025475 0.0034164344 0.009877001 0.00075397914 0.0064913016 -0.043722134 -0.024813633
-0.017676236 0.0336251 -0.23850347 0.59502274 -0.16495351 0.36857516 0.51598513 0.46600753
-0.39760408 -0.049443312 -0.09387148 0.011677863 0.02181467 -0.0026417926 0.0036040787 -0.3662024
0.19229504 0.0051471433 0.32009333 0.5854042 -0.38830212 0.003208772 -0.025991445 -0.0036502762
-0.038401198 -0.034356665 -0.011132038 0.5446347 -0.069308184 0.46395096 -0.041173402 0.21714106
0.011742825 -0.7500632 -0.031488333 0.04459067 -0.039831717 0.021020574 0.093390174 -0.033336736
0.15039913 0.111052014 0.05563077 0.18847252 -0.19915634 0.1405592 -0.0010166935 -0.0061935256
-0.006461031 0.005983179 -0.013058777 0.0070852772 0.32448375 0.92260814 0.011642701 -0.38959238
-0.47175965 -0.5715351 0.055424597 0.0062256195 0.021010304 -0.006636972 -0.0029570248 0.005691154
0.006060001 -0.06409362 0.18415205 0.0024179334 0.35575077 -0.42261162 0.40613893 -0.021070248
-0.005666914 -0.0014718788 0.009123896 0.015180416 0.02243686 -0.044861373 -0.011514674 -0.11424123
-0.41610986 0.016030384 0.46732718 0.48960143 0.01106304 0.014367531 -0.018915074 0.027762031
-0.0224343 -0.02369064 -0.01369077 -0.036130983 -0.105957724 0.15338059 0.028640803 -0.33986503
00000000: 2fde e6bd 78d0 09bc 6c2b 473e 4844 88bc
00000010: 62bf b33d b72b 0fbe 9ce6 3e3b 6059 593b
00000020: 6ac3 f33c cedf 95bc d411 edbc 81f5 1e3a
00000030: e3f9 90be 97dc 6a3e 81c9 71bf e322 303f
00000040: b848 ec3e d43d 3bbf 86c4 e33e f03c 80bb
00000050: e42f 9cbc c6af 4ebc dceb 6b3d d11e 783d
00000060: 3f96 3cbd 1555 273a 6c1d 863c bf75 403d
00000070: a56e 083c cc3b c73b 4a88 f8bd f8f5 c2bb
00000080: 86b3 6a3b 8212 d6bb 98d7 f63b 15b8 363b
00000090: edb1 023c 98b0 92bf 3ffb 64be e01f a4bd
000000a0: 0ad1 21be c355 1d3f 808f b63e 036f 263f
000000b0: 314a d93a 320d 2ebc b59c 8dbc d3bb 7d3c
000000c0: a71c 1dbc d636 29bc 5c3e 8a3d 4bab d5bd
000000d0: 5058 9abb 3060 613e b7ba 6dbe f098 28be
000000e0: f363 353a 5c8b 663a 88d9 293c 1e7c 5fbd
000000f0: eee5 8bbc f525 8d3c 9784 333f d0dd b2be
00000100: fee5 3d3e f105 06bf 20f3 06bf debc 063e
00000110: d583 1e3f 7edd 13bd 2f73 8c3c 8bcc 40bb
00000120: 2d9e a13d ff0c 0abc 5c2b 04bd 0154 e7bc
00000130: 53cf b7bd ea6a 6c3d dc35 003e 9dab 473e
00000140: 5118 acbe 6d91 87bb 13f4 683c 9c79 eb3b
00000150: 2372 38bc 2190 58bc 55a0 3bbc ef08 aabc
00000160: a275 923d 18a1 653e b690 18bf 788d 943f
00000170: 478e d0be e5a0 973e a090 bd3b 7639 483c
00000180: ff8c 0c3c e643 fdb8 e892 103d 4c48 44bb
00000190: 1e59 17bd 7497 053e f0a8 1b3d fbb7 9b3d
000001a0: c316 803d e830 5dbe 2dba dfbb af4f ddbc
000001b0: a04d 923b 2a9c ed3b 1a4c 3e3c 13e1 043a
000001c0: 8497 21bf f716 4cbf 1670 ee3d 0f3b 3d3f
000001d0: 80ad 453f 3dfb 7ebe 38c1 78be 6d2c 53bc
000001e0: 1a6d 093d b290 81ba e03c 51bc f669 113b
000001f0: b0a0 15bc 9d5e 323e f58d 013e b91b a6bc
00000200: 31a2 2f3e 0280 02bf dba5 e3be 3061 113c
00000210: dd79 91bc 8db4 c33c 45df df3b c6c4 02bd
00000220: e8d2 f13b 106c 9b3d 6d16 8f3d 1c6e 2d3e
00000230: 44e0 bb3e 0e10 b8be f30c 0dbf 1e1e 6b3e
00000240: e4ff f93b b357 7b3c f6e5 4e3c 29ac e33c
00000250: 778a 4c3d c2df 56bd 4dce 06be 1e7c ca3d
00000260: e1b3 073c 8061 053e 42e6 5f3b 25d3 213c
00000270: afa6 453a fcb4 d43b fb15 33bd f645 cbbc
00000280: c1cd 90bc 79ba 093d 413a 74be 6953 183f
00000290: 93e9 28be e2b5 bc3e 9a17 043f 8a98 ee3e
000002a0: c392 cbbe 1285 4abd b13f c0bd 8254 3f3c
000002b0: aeb4 b23c ed21 2dbb 6832 6c3b e27e bbbe
000002c0: fee8 443e 5ea9 a83b 46e3 a33e 0ddd 153f
000002d0: 89cf c6be 434a 523b 03ec d4bc 7939 6fbb
000002e0: 934a 1dbd 93b9 0cbd 2763 36bc 2e6d 0b3f
000002f0: 73f1 8dbd fb8a ed3e 71a5 28bd 3a5a 5e3e
00000300: fa64 403c 2404 40bf e9f9 00bd b5a4 363d
00000310: 9526 23bd 5733 ac3c 5943 bf3d 1a8c 08bd
00000320: 3b02 1a3e 3d6f e33d 17dd 633d f1fe 403e
00000330: a4ef 4bbe c0ee 0f3e 9342 85ba 0ff3 cabb
00000340: 0eb7 d3bb 8b0e c43b 7bf4 55bc 9d2b e83b
00000350: bc22 a63e 0c30 6c3f 07c1 3e3c a778 c7be
00000360: 7b8a f1be 2050 12bf e704 633d 4800 cc3b
00000370: cd1d ac3c f57a d9bb a5ca 41bb dc7c ba3b
00000380: f992 c63b 8443 83bd 5b92 3c3e 3176 1e3b
00000390: f724 b63e 8d60 d8be 71f1 cf3e 839b acbc
000003a0: 85b1 b9bb 0fec c0ba 657c 153c 48b7 783c
000003b0: 81cd b73c 8fc0 37bd 0ba8 3cbc 4ef7 e9bd
000003c0: 5a0c d5be 2752 833c 8245 ef3e 0aad fa3e
000003d0: c141 353c cb65 6b3c c9f3 9abc 336d e33c
000003e0: 23c8 b7bc e012 c2bc 404f 60bc 15fe 13bd
000003f0: 5d00 d9bd cd0f 1d3e 1ea0 ea3c ca02 aebe

critic.0.bias f4 [128]
-1.2442471 -1.4570026 -2.1071508 -0.65429026 -1.5549008 -1.2979622 -2.2254603 -1.1447895
-0.7593577 -1.4039166 -1.8766823 -1.2822119 -1.6694402 -1.0480462 -1.4802419 -0.9404814
-0.3616353 -2.0996263 -0.8461078 -1.6946697 -1.0633267 -1.8605785 -1.5292481 -0.5348611
-0.5189979 -1.2475642 -1.0219291 -1.2290472 -1.7523392 -1.068912 -1.8816409 -1.202594
-0.60868734 -0.17474541 -1.6270676 -0.4928863 -1.9036943 -1.4363664 -1.6975862 -1.4519867
-1.6932003 0.33683604 -1.0316343 -0.8975333 -0.6007991 -1.6931782 -1.6998129 -1.0327251
-1.2654182 -1.377969 -1.1832653 -1.3606855 -1.4956138 -0.49160188 -0.95736367 -1.2437738
-1.4861023 -2.080404 -2.034962 -0.581345 -1.2073003 -2.1233466 -0.8919144 -1.0970298
-0.33164304 -0.9881802 -1.7731725 -1.559496 -1.7533582 -0.6132041 -1.8703531 -2.1031613
-1.0525646 -1.6467767 -0.8841521 -1.970452 -1.783759 -1.7259815 -1.7454574 -2.090389
-2.0407176 -0.95774305 -1.7287025 -1.7423397 -1.3335457 -0.96918637 -1.8156992 -1.3987457
-0.5338862 -1.4726357 -1.580907 -1.5704032 -1.8709614 0.07662112 -0.9659895 -2.2296124
-1.2500191 -2.000518 -1.6153823 -2.1998572 -1.0821837 -1.6354015 -1.7358176 -1.6679478
-1.6032336 -1.4684243 -1.1669608 -1.4348269 -0.451716 -1.1728655 -0.9052342 -2.0227015
-1.7243048 -1.9034667 -2.1122882 -1.4223002 -0.91968656 -0.7986512 -0.99101347 -1.1792693
-1.4104282 -2.2956138 -1.8838208 -0.97881323 -2.0063465 -1.5557721 -0.8643082 -1.4188381
00000000: 7d43 9fbf 107f babf 8fdb 06c0 917f 27bf
00000010: fd06 c7bf a023 a6bf f16d 0ec0 7688 92bf
00000020: 4465 42bf 8ab3 b3bf 2037 f0bf 851f a4bf
00000030: 37b0 d5bf 6126 86bf 9178 bdbf 64c3 70bf
00000040: 4328 b9be 4760 06c0 859a 58bf f0ea d8bf
00000050: 171b 88bf 7027 eebf 67be c3bf a8ec 08bf
00000060: 0cdd 04bf 2fb0 9fbf 93ce 82bf 6b51 9dbf
00000070: a74c e0bf 1cd2 88bf 9cd9 f0bf 9aee 99bf
00000080: efd2 1bbf 76f0 32be c043 d0bf 985b fcbe
00000090: 41ac f3bf dbda b7bf 814a d9bf b3da b9bf
000000a0: caba d8bf c675 ac3e 980c 84bf bec4 65bf
000000b0: f8cd 19bf 10ba d8bf 7893 d9bf 5630 84bf
000000c0: 39f9 a1bf 4a61 b0bf 3d75 97bf f12a aebf
000000d0: 4670 bfbf 3eb3 fbbe c915 75bf fb33 9fbf
000000e0: 9a38 bebf 5725 05c0 d13c 02c0 07d3 14bf
000000f0: d188 9abf e9e4 07c0 8154 64bf 796b 8cbf
00000100: 1ecd a9be 61f9 7cbf 51f7 e2bf 919d c7bf
00000110: 0b6e e0bf f2fa 1cbf bb67 efbf 329a 06c0
00000120: 70ba 86bf 94c9 d2bf cb57 62bf c537 fcbf
00000130: 3752 e4bf f6ec dcbf 266b dfbf efc8 05c0
00000140: 1e9b 02c0 a62e 75bf 2046 ddbf fd04 dfbf
00000150: a0b1 aabf 991c 78bf d568 e8bf 190a b3bf
00000160: c4ac 08bf 547f bcbf 295b cabf f902 c9bf
00000170: aa7b efbf 89eb 9c3d 164b 77bf f8b1 0ec0
00000180: a000 a0bf 7d08 00c0 d9c4 cebf 76ca 0cc0
00000190: ff84 8abf d654 d1bf 452f debf 507f d5bf
000001a0: c236 cdbf 54f5 bbbf f95e 95bf 68a8 b7bf
000001b0: 5247 e7be 7520 96bf 6ebd 67bf f173 01c0
000001c0: 05b6 dcbf cca4 f3bf bb2f 07c0 ef0d b6bf
000001d0: 9470 6bbf 6874 4cbf 0fb3 7dbf 4cf2 96bf
000001e0: e988 b4bf 56eb 12c0 0a21 f1bf 8193 7abf
000001f0: fb67 00c0 8a23 c7bf 4d43 5dbf 7d9c b5bf

critic.2.weight f4 [128, 128]
0.014390242 -0.54332006 -0.10146426 -0.52561873 0.20125198 0.39367417 0.112501636 -0.08530937
0.0054491274 0.12292998 -0.28473124 -0.29017097 -0.086796485 0.03279916 0.10869312 0.27043554
0.68968797 0.4467605 -0.42003164 -0.13752647 0.02591584 0.048796374 -0.28406927 0.017573643
-0.12891121 -0.33116296 0.30546096 -0.035969507 0.020396518 0.106657475 -0.72808045 -0.3098796
-0.122257486 0.11287751 -0.37428617 0.1268314 -0.014355911 0.006907475 0.074467964 -0.264712
-0.3484158 -0.12736107 -0.16749103 -0.5093241 -0.81942856 -0.97516066 -0.6314895 -0.3263878
-0.33549854 0.073189065 -0.039533217 0.460192 0.09504969 -0.12330247 -0.14035401 -0.62580043
0.22953904 -0.23229276 0.2004687 0.12169794 0.36740708 -0.01723241 0.020273399 -0.24201456
0.055685766 -0.24375907 0.107420534 -0.31394154 0.13367525 -2.08722 -0.35098135 -0.1682622
0.36525995 -0.461891 -0.05342653 -0.6477865 0.03451886 -0.2286113 0.15203151 -0.0723909
0.01229899 -0.3080022 0.36096266 -0.42983425 -0.6717056 0.12473509 -0.7115371 -0.30011132
-0.30957094 0.046421323 -0.40407088 0.19104035 -0.06153763 0.38989785 0.24755628 -0.36281368
0.027897822 0.21227476 -0.46814546 0.078462034 -1.4671117 0.41114128 0.030607246 0.6575172
-0.6086113 -0.260159 -0.027548771 -0.09785035 0.14029394 -0.20102558 -0.94104344 0.15668249
-0.3566738 0.106730886 -0.2280969 0.04486385 0.14518556 -0.100586385 -0.22507975 0.28475696
0.1506437 -0.078657694 0.19193424 0.13988818 -0.06186337 0.23929325 -0.6689369 0.22991474
-0.6356236 -1.7502416 -0.22303668 -0.74569327 -0.15900904 -0.0053512696 -0.4309888 -0.019963289
0.6684421 0.027391717 -0.07077727 -0.17667082 0.3969985 -0.13182627 0.042751893 -0.014170595
-1.9882612 0.4316006 0.22639295 -0.12615262 -0.03566685 0.25243384 -0.54345024 -0.21820416
0.324852 0.29912323 -0.047075294 -0.06469684 -0.04651952 -0.059359293 -0.28294677 0.20153306
0.30310374 0.5014619 0.11402217 -0.23000135 -0.7483954 -0.3139101 0.20140702 -0.14258134
-0.09216947 -0.008525467 0.3494966 0.049731553 -0.7631688 -0.59759873 0.32921764 -0.32339656
-0.13289987 0.39938775 -0.08855674 -0.22085716 -0.13635379 -0.021757642 -0.20552559 -1.3005905
-0.10704665 -0.48612034 -0.44493148 -0.13185585 -0.21731718 -1.0632048 -0.29754987 -0.18295941
0.3467106 -0.40509284 -0.45480704 -0.6802951 -1.6150888 -1.1283453 0.12111909 -0.3401541
0.0564357 -0.10666629 -0.31931275 -0.3762039 0.26826724 1.0395402 0.18525723 0.438439
0.6991297 -0.040663127 0.2505085 -0.3342917 0.17932077 -0.3901797 -0.40699613 -0.5723654
-0.41385913 -0.7561819 0.09776299 0.010080524 -0.10185385 0.21454783 0.15725264 0.25182894
-0.8864266 -0.40991127 -0.34452805 -0.0029459787 -1.1508762 -0.58777076 -0.33390772 0.4991384
-0.16867574 0.084993 -0.32572046 0.24046972 0.2555367 0.16692954 -0.2518748 -0.024837406
-0.4443995 -0.17263398 0.3436227 -0.60535896 -0.18054405 0.3281316 -0.17353171 -0.4354044
-0.23430687 -1.6746335 -0.12012194 -0.4305044 -0.29717392 0.1617622 0.05051511 0.04525592
00000000: 0dc5 6b3c 0617 0bbf 7ecc cfbd f38e 06bf
00000010: 0015 4e3e a98f c93e 4267 e63d aeb6 aebd
00000020: 988e b23b b7c2 fb3d 4bc8 91be 4a91 94be
00000030: 5bc2 b1bd 6958 063d 809a de3d 8776 8a3e
00000040: 648f 303f cbbd e43e 630e d7be bdd3 0cbe
00000050: 754d d43c b5de 473d 8771 91be 9af6 8f3c
00000060: 4d01 04be 318e a9be 6165 9c3e c354 13bd
00000070: 9916 a73c 3c6f da3d 7b63 3abf 8aa8 9ebe
00000080: 2262 fabd 532c e73d 70a2 bfbe 17e0 013e
00000090: 0e35 6bbc 1a58 e23b a982 983d 5588 87be
000000a0: 8e63 b2be f16a 02be c582 2bbe 1063 02bf
000000b0: 12c6 51bf 21a4 79bf 4ca9 21bf 4d1c a7be
000000c0: 77c6 abbe 26e4 953d 95ed 21bd 499e eb3e
000000d0: 69a9 c23d 0186 fcbd f6b8 0fbe 7534 20bf
000000e0: 480c 6b3e 27de 6dbe ab47 4d3e c53c f93d
000000f0: c81c bc3e fc2a 8dbc 6614 a63c aad2 77be
00000100: c216 643d fa9b 79be 4cff db3d f2bc a0be
00000110: 2ae2 083e 0395 05c0 d4b3 b3be ed4c 2cbe
00000120: 5a03 bb3e fa7c ecbe c7d5 5abd 56d5 25bf
00000130: a663 0d3d 1519 6abe 26ae 1b3e ae41 94bd
00000140: b481 493c 77b2 9dbe 19d0 b83e 3c13 dcbe
00000150: e6f4 2bbf 1c75 ff3d 4c27 36bf 31a8 99be
00000160: 1580 9ebe 4924 3e3d 61e2 cebe 15a0 433e
00000170: e20e 7cbd b1a0 c73e 657f 7d3e b7c2 b9be
00000180: f989 e43c 8e5e 593e c3b0 efbe b4b0 a03d
00000190: 51ca bbbf 1c81 d23e 0cbc fa3c 0c53 283f
000001a0: f3cd 1bbf 8f33 85be f6ad e1bc c465 c8bd
000001b0: 37a9 0f3e a6d9 4dbe 39e8 70bf 6071 203e
000001c0: f39d b6be b995 da3d 3c92 69be 28c3 373d
000001d0: 86ab 143e 3c00 cebd 4e7b 66be aacb 913e
000001e0: 5842 1a3e 4917 a1bd 698a 443e d93e 0f3e
000001f0: 7264 7dbd 4a09 753e 733f 2bbf c56e 6b3e
00000200: 3ab8 22bf eb07 e0bf ba63 64be c1e5 3ebf
00000210: 44d3 22be b459 afbb 90aa dcbe 0d8a a3bc
00000220: 051f 2b3f 9864 e03c acf3 90bd 32e9 34be
00000230: 6343 cb3e 77fd 06be 9c1c 2f3d c92b 68bc
00000240: 587f febf c1fa dc3e 8ed3 673e 272e 01be
00000250: 6717 12bd 023f 813e 8e1f 0bbf e970 5fbe
00000260: 0053 a63e ae26 993e 06d2 40bd c77f 84bd
00000270: 418b 3ebd bb22 73bd 66de 90be af5e 4e3e
00000280: 6a30 9b3e cf5f 003f 7584 e93d 7985 6bbe
00000290: d796 3fbf d3b8 a0be a43d 4e3e d800 12be
000002a0: 59c3 bcbd 66ae 0bbc 38f1 b23e 50b3 4b3d
000002b0: 085f 43bf 3bfc 18bf 378f a83e 3c94 a5be
000002c0: e716 08be 8d7c cc3e 3c5d b5bd 6128 62be
000002d0: 54a0 0bbe 153d b2bc 4d75 52be c079 a6bf
000002e0: 463b dbbd c4e4 f8be 0fce e3be 3805 07be
000002f0: 6588 5ebe 1817 88bf 7558 98be b659 3bbe
00000300: 0d84 b13e 5468 cfbe 78dc e8be d227 2ebf
00000310: 3bbb cebf 9e6d 90bf 490d f83d ae28 aebe
00000320: 1f29 673d db73 dabd f67c a3be cc9d c0be
00000330: 535a 893e a70f 853f 12b4 3d3e 147b e03e
00000340: 2afa 323f 618e 26bd a642 803e 4828 abbe
00000350: dd9f 373e a2c5 c7be cc61 d0be 8a86 12bf
00000360: 58e5 d3be 2395 41bf f637 c83d c828 253c
00000370: c098 d0bd 6db2 5b3e d606 213e b9ef 803e
00000380: dbec 62bf e4df d1be fb65 b0be 5211 41bb
00000390: e94f 93bf 2578 16bf f4f5 aabe 128f ff3e
000003a0: 55b9 2cbe cf10 ae3d d5c4 a6be b23d 763e
000003b0: b5d5 823e 94ef 2a3e bcf5 80be d177 cbbc
000003c0: 5588 e3be f6c6 30be 51ef af3e cef8 1abf
000003d0: 8ae0 38be dd00 a83e 4cb2 31be 53ed debe
000003e0: 24ee 6fbe 645a d6bf 7e02 f6bd 136b dcbe
000003f0: 2e27 98be fda4 253e efe8 4e3d 465e 393d

critic.2.bias f4 [128]
0.43364704 0.17543057 -0.008245267 -0.6836431 -0.14859433 0.25578922 -0.44251904 0.24472424
0.38064536 -0.022237547 -0.054902494 0.012241113 -0.12636153 -0.07457152 -0.16371962 -0.18241382
-0.07147241 -0.20322526 0.15812032 -0.103568524 -0.13414948 -0.2097324 -0.13478142 -0.021034578
-0.14569008 -0.21264672 0.28174156 -0.09894984 -0.013867929 0.082954764 -0.22283204 -0.011185852
-0.047635674 -0.08709477 -0.121844836 -0.10088355 -0.074829675 -0.08360097 -0.20506398 0.13372281
-0.017543755 6.261758e-05 -0.12499198 0.124808975 0.04702518 0.1073602 -0.026629506 -0.20090356
-0.15345755 -0.032564793 -0.030379836 -0.17064114 0.34917474 -0.08521626 -0.1423425 0.19432767
0.30485812 0.23184426 -0.094122544 0.0022336289 -0.11888823 -0.07481164 -0.18898189 -0.052259795
0.01067231 -0.1416446 -0.15283297 -0.13914332 -0.013705032 0.05824982 -0.14969245 -0.24688895
-0.085516684 -0.2588199 -0.11766002 -0.15948276 -0.12287721 -0.33290154 -0.179181 0.0062769256
-0.06698769 0.04052206 -0.08279404 0.18513113 0.24670747 -0.040977422 -0.19122167 -0.108205765
-0.03979509 0.27387783 -0.1418167 -0.13856009 -0.12485259 -0.0517639 -0.088141814 -0.1394736
-0.15611182 -0.089784764 0.23058991 -0.038425438 -0.08902029 0.0030742225 -0.01789282 -0.16405189
-0.08424348 0.052849524 -0.07081383 -0.03852953 0.13376239 -0.1265748 0.4082428 -0.044101793
0.03430027 -0.14721747 -0.077477306 -0.03321403 0.2268586 -0.06303481 -0.12004267 0.2556194
-0.11392417 -0.0782189 0.13956338 -0.14204736 0.06812251 -0.097924575 -0.082839 -0.094410226
00000000: fc06 de3e 12a4 333e 2817 07bc 3c03 2fbf
00000010: 1d29 18be cef6 823e db91 e2be fe98 7a3e
00000020: f3e3 c23e 842b b6bc 70e1 60bd f38e 483c
00000030: eb64 01be f4b8 98bd 1ea6 27be b0ca 3abe
00000040: 2060 92bd 481a 50be 4bea 213e bc1b d4bd
00000050: 7b5e 09be 17c4 56be 2404 0abe b550 acbc
00000060: c82f 15be 10c0 59be 6e40 903e 37a6 cabd
00000070: 4f36 63bc 30e4 a93d 152e 64be dd44 37bc
00000080: a01d 43bd be5e b2bd c989 f9bd 099c cebd
00000090: 4d40 99bd fc36 abbd 4bfc 51be a2ee 083e
000000a0: ecb7 8fbc 8f51 8338 ccfb ffbd d99b ff3d
000000b0: 7a9d 403d aadf db3d 1f26 dabc aab9 4dbe
000000c0: fa23 1dbe a962 05bd 22df f8bc 8dbc 2ebe
000000d0: 08c7 b23e dd85 aebd 3bc2 11be d5fd 463e
000000e0: 5d16 9c3e 9568 6d3e 52c3 c0bd 1362 123b
000000f0: ac7b f3bd d836 99bd 7884 41be 5e0e 56bd
00000100: eada 2e3c 480b 11be 3f80 1cbe 967b 0ebe
00000110: 128b 60bc 5d97 6e3d fa48 19be 75d0 7cbe
00000120: 5f23 afbd 0b84 84be bdf7 f0bd 734f 23be
00000130: 0ca7 fbbd 1272 aabe 397b 37be abae cd3b
00000140: d830 89bd 76fa 253d ec8f a9bd 0493 3d3e
00000150: e2a0 7c3e f1d7 27bd 9dcf 43be fc9a ddbd
00000160: 2d00 23bd b739 8c3e 6638 11be b2e2 0dbe
00000170: b7b2 ffbd 6206 54bd b283 b4bd 2bd2 0ebe
00000180: c7db 1fbe 13e1 b7bd c31f 6c3e fe63 1dbd
00000190: 4550 b6bd e578 493b f793 92bc 38fd 27be
000001a0: d887 acbd be78 583d d706 91bd 24d1 1dbd
000001b0: 02f9 083e d39c 01be 3305 d13e 15a4 34bd
000001c0: 717e 0c3d 2dc0 16be 6cac 9ebd 6f0b 08bd
000001d0: 9f4d 683e 6518 81bd eed8 f5bd 8ce0 823e
000001e0: 1351 e9bd 3b31 a0bd b4e9 0e3e dd74 11be
000001f0: d183 8b3d ae8c c8bd 7ea7 a9bd 265a c1bd

critic.4.weight f4 [1, 128]
0.058958493 0.033941533 -0.119299 -0.061522808 0.040366933 0.057573922 0.037651505 0.055825226
0.056861598 0.06488727 0.10568418 0.052628007 0.04800616 0.06660134 0.019700257 0.062361144
-0.12993912 -0.21582009 -0.23637061 0.025846561 0.010705071 0.044088002 -0.24031548 0.046467144
-0.1812634 -0.13339086 -0.11022892 0.040704645 -0.1531939 0.068518594 -0.11679954 0.05200739
-0.045482323 -0.061575267 -0.46453425 -0.18955943 -0.00023097936 0.017671455 -0.023717515 0.08135032
0.009662491 0.06454645 0.0091186445 0.0693221 0.065628536 0.039201263 0.023171365 -0.004262659
-0.13384026 0.15989864 0.039360106 -0.05597935 0.042557854 -0.03680334 -0.028390298 0.044598583
0.049288448 0.07081525 0.058769092 0.10097785 -0.032679677 0.055798605 0.17013206 -0.23745815
-0.067226365 0.0015036897 -0.41828406 -0.01865861 0.037817042 -0.030444045 -0.013079957 -0.30702204
-0.07113502 -0.24641283 0.10304126 0.06371223 0.042882808 -0.08945971 -0.23545296 0.009187565
0.019157248 -0.06227074 0.040833376 -0.055222258 0.03492866 0.053897794 -0.3230078 0.004020272
-0.09138124 -0.05893087 0.04557283 0.039365217 -0.011792529 -0.024122143 -0.009004841 0.027340189
-0.18479837 -0.0021542495 0.06462576 0.033344503 0.005128673 0.010876757 0.042185403 -0.008876857
-0.1627585 -0.14252402 0.033372063 0.054610647 0.054222923 0.0667934 0.037893426 0.018761609
-0.016801441 0.055232994 -0.09165526 0.10800087 0.036644667 0.013202907 -0.026650807 0.04972227
-0.0012844196 -0.3441338 0.1028059 -0.35694316 -0.109612554 -0.0036586674 0.14618531 0.10856781
00000000: 767e 713d 4706 0b3d 0953 f4bd 57ff 7bbd
00000010: cc57 253d a2d2 6b3d 7738 1a3d fea8 643d
00000020: b5e7 683d 9ee3 843d f370 d83d 7790 573d
00000030: 1ba2 443d 4966 883d 6f62 a13c 666e 7f3d
00000040: c30e 05be f1ff 5cbe 230b 72be 2bbc d33c
00000050: 5264 2f3c 9f95 343d 4315 76be 5554 3e3d
00000060: 1d9d 39be 9d97 08be b3bf e1bd eab9 263d
00000070: ddde 1cbe 7a53 8c3d 9934 efbd b305 553d
00000080: ac4b 3abd 5936 7cbd 6fd7 edbe de1b 42be
00000090: 0d33 72b9 bac3 903c 3c4b c2bc ff9a a63d
000000a0: 6d4f 1e3c ee30 843d 5e66 153c bff8 8d3d
000000b0: 4168 863d 8191 203d e0d1 bd3c c6ad 8bbb
000000c0: 6c0d 09be 78bc 233e 1038 213d 9a4a 65bd
000000d0: 2551 2e3d 19bf 16bd c592 e8bc 01ad 363d
000000e0: afe2 493d 9607 913d dcb7 703d 7acd ce3d
000000f0: 20db 05bd 148d 643d 1937 2e3e 3b28 73be
00000100: faad 89bd 7417 c53a 5429 d6be f1d9 98bc
00000110: 0be6 1a3d ca65 f9bc 514d 56bc fe31 9dbe
00000120: 3daf 91bd a553 7cbe 4c07 d33d 8f7b 823d
00000130: e2a5 2f3d a736 b7bd 951a 71be 7187 163c
00000140: a9ef 9c3c 9a0f 7fbd e640 273d bc30 62bd
00000150: 5b11 0f3d efc3 5c3d 4761 a5be 7cbc 833b
00000160: 1626 bbbd 7f61 71bd 93aa 3a3d 6c3d 213d
00000170: 7435 41bc cd9b c5bc 0a89 13bc 88f8 df3c
00000180: c93b 3dbe 4f2e 0dbb 835a 843d 3f94 083d
00000190: 6d0e a83b 6d34 323c 9aca 2c3d 3d70 11bc
000001a0: 2aaa 26be d1f1 11be 25b1 083d 6aaf 5f3d
000001b0: db18 5e3d faca 883d 2336 1b3d f2b1 993c
000001c0: 2da3 89bc fe3b 623d c1b5 bbbd 8f2f dd3d
000001d0: b818 163d 0151 583c cb52 dabc 94a9 4b3d
000001e0: f859 a8ba 4e32 b0be e68b d23d 41c1 b6be
000001f0: 8c7c e0bd 41c6 6fbb 9ab1 153e cd58 de3d

exp_avg f4 [6]
-0.004907912 -0.0021607166 -4.9269136e-05 -0.0011067771 -0.00031653102 0.0005353837
00000000: 8dd2 a0bb cf9a 0dbb 55a6 4eb8 4711 91ba
00000010: 13f4 a5b9 fe58 0c3a

exp_avg_sq f4 [6]
0.00032103545 0.00041426197 0.00028740114 0.0003802251 0.00034644917 0.00037877364
00000000: a650 a839 4d31 d939 54ae 9639 f358 c739
00000010: 9fa3 b539 2396 c639
