logs/rsl_rl/arm_t_reach_ik/2025-10-14_14-36-02/model_1.pt (torch, 505058 bytes, 42 tensors)

std f4 [6]
0	0x3e972110	0.29517412
1	0x3e97b429	0.2962964
2	0x3e96d9f2	0.29463154
3	0x3e97f2f4	0.29677546
4	0x3e9b0168	0.3027451
5	0x3e978574	0.29594004

actor.0.weight f4 [128, 25]
0	0x3e243ba8	0.16038382
1	0x3e3062b7	0.17225157
2	0xbd37dbde	-0.044887416
3	0x3e398c59	0.18119945
4	0xbd126560	-0.03574121
5	0x3d0a7aca	0.033808507
6	0xbdce88c8	-0.10084683
7	0x3ddc899b	0.10768434
8	0x3e2f6685	0.17128952
9	0xbe16a190	-0.14710069
10	0x3e2f1aa8	0.17100012
11	0x3d241eeb	0.04006855
12	0x3e144f1a	0.144833
13	0x3cc0ca36	0.023533922
14	0x3dc57074	0.09640589
15	0xbd1063ac	-0.035251305
16	0x3e212906	0.15738305
17	0x3d104a5f	0.035227176
18	0xbdb4a7e5	-0.08821086
19	0x3d60a47a	0.054844357
20	0xbdc760c3	-0.09735253
21	0xbd0efe7f	-0.034910675
22	0xbd9cbeae	-0.07653557
23	0x3e03777f	0.12838553
24	0xbe1c3fbf	-0.15258692
25	0xbdc28277	-0.094975404
26	0xbd56f6c1	-0.052481417
27	0xbdee1152	-0.11624397
28	0x3cd52125	0.026016781
29	0xbe4c7f19	-0.19970359
30	0x3e3af4d8	0.18257463
31	0xbe2e9872	-0.17050341
32	0x3e1bb50e	0.15205786
33	0x3cdd5099	0.027015971
34	0xbd792eb5	-0.06083556
35	0x3dfb0852	0.12257446
36	0x3d01c611	0.03168303
37	0x3e2abccb	0.16673581
38	0x3c2d0b83	0.010561827
39	0xbd791943	-0.060815107
40	0x3d418de7	0.04725447
41	0xbd5fcb90	-0.05463749
42	0x3dab3e17	0.08361452
43	0x3e37bff7	0.17944323
44	0x3de1017d	0.10986612
45	0xbdae70c3	-0.08517601
46	0x3de17637	0.11008876
47	0x3d1b378c	0.03789477
48	0x3dc4d08d	0.096100904
49	0xbdf3d565	-0.11905936
50	0xbe4d90ab	-0.20074718
51	0xbda3647e	-0.07978152
52	0xbe1dbddc	-0.15404457
53	0x3e1e737c	0.15473741
54	0x3d66162e	0.056173496
55	0x3db0f3ff	0.086402886
56	0x3d693c1d	0.056942094
57	0xbb728a32	-0.003700864
58	0x3e2476fa	0.16061011
59	0xbe0f8a9f	-0.14017724
60	0x3c0f97be	0.0087642055
61	0xbe06c3cf	-0.13160633
62	0x3d60ed27	0.054913666
63	0xbd871da5	-0.06597451
64	0x3d89b4cf	0.067239396
65	0xbd43f5c0	-0.047841787
66	0x3e3536db	0.17696707
67	0xbe03c6cb	-0.12868802
68	0xbde264aa	-0.110543564
69	0xbdff0fe4	-0.12454203
70	0x3e3b1bcd	0.18272324
71	0x3d9faee5	0.0779703
72	0x3e45da56	0.1932157
73	0xbe241345	-0.16022976
74	0xbe4c40ad	-0.19946547
75	0xbe1bb12e	-0.15204307
76	0xbe03e52a	-0.12880388
77	0x3da0d4f7	0.0785312
78	0x3da19893	0.07890429
79	0x3e2d15ea	0.16902891
80	0xbdc6ed37	-0.09713214
81	0xbe07e6c0	-0.13271618
82	0x3df298c7	0.11845546
83	0xbda780a0	-0.0817883
84	0x3decbda3	0.11559608
85	0xbd35544c	-0.044269845
86	0x3de1616b	0.11004909
87	0xbe24b2e7	-0.16083871
88	0xbdc09b22	-0.09404589
89	0x3d86d017	0.06582659
90	0x3d324731	0.043524925
91	0xbd6e2821	-0.05814374
92	0x3df62942	0.12019588
93	0x3e052a12	0.1300433
94	0xbe10bc0a	-0.14134231
95	0xbdceebe7	-0.101035886
96	0x3e4853ad	0.1956317
97	0xbd82a500	-0.063791275
98	0xbd84df31	-0.06487883
99	0xbe40521c	-0.18781322
100	0xbde1fb21	-0.11034227
101	0x3d2ebbd4	0.042659596
102	0xbca8507d	-0.020546192
103	0xbe084c81	-0.13310434
104	0x3c190e97	0.009341857
105	0xbe108344	-0.14112574
106	0xbe34fca9	-0.17674507
107	0xbde2b681	-0.11069966
108	0xbe3b780e	-0.18307516
109	0xbe068789	-0.1313764
110	0x3e48c90e	0.19607946
111	0x3d23a192	0.039949007
112	0x3d6b2a93	0.05741365
113	0xbe3e0d78	-0.18559825
114	0xbe0b83aa	-0.13624445
115	0xbd8d184f	-0.06889402
116	0x3d2eb9ab	0.042657536
117	0xbe2e4022	-0.17016652
118	0xbdbb13d6	-0.09134643
119	0xbde7df15	-0.113218464
120	0xbba07c83	-0.0048976555
121	0xbda7f8a4	-0.08201721
122	0xbc2fc23c	-0.010727461
123	0xbe03ed3a	-0.12883464
124	0xbe1165ec	-0.14199036
125	0xbdf85da2	-0.12127234
126	0xbd941eac	-0.07232413
127	0xbe1d1037	-0.15338217
128	0x3e33aafe	0.17545697
129	0xbd39d849	-0.04537228
130	0x3e36e1de	0.17859599
131	0x3d745bcb	0.059657853
132	0xbe32e940	-0.1747179
133	0x3e0ccacf	0.1374924
134	0xbd415527	-0.04720035
135	0xbda543fb	-0.08069607
136	0xbe250caa	-0.16118112
137	0xbe4561c2	-0.19275573
138	0x3d680d7b	0.05665348
139	0xbd4519fe	-0.04812049
140	0x3daa32bc	0.08310458
141	0xbe2aa61c	-0.16664928
142	0x3e107af5	0.14109404
143	0xbe0c0f71	-0.13677765
144	0xbd36fdda	-0.044675685
145	0x3d4b2238	0.04959318
146	0x3dcceaf7	0.100057535
147	0x3e2c76ff	0.16842268
148	0x3e36d3b0	0.1785419
149	0xbe1b6c46	-0.15178022
150	0x3d37a5eb	0.044835966
151	0xbdacd181	-0.08438397
152	0xbc96ece4	-0.018423505
153	0xbe133684	-0.14376265
154	0x3e3531ca	0.17694774
155	0xbe11efc8	-0.14251626
156	0x3dde0bf1	0.108421214
157	0x3d89dcab	0.06731542
158	0x3d6ce2b8	0.057833403
159	0xbdec376b	-0.11534008
160	0x3e390b3f	0.18070696
161	0x3d40ffcd	0.04711895
162	0x3c94322b	0.018090328
163	0xbe373ac7	-0.17893516
164	0x3db83bb9	0.08995766
165	0xbd05cf09	-0.032668147
166	0xbda73079	-0.08163542
167	0x3e25ca62	0.16190484
168	0x3d675470	0.05647701
169	0xbdd264e7	-0.10273152
170	0xbddb7b61	-0.10716892
171	0xbc6aa7de	-0.014322249
172	0x3df1543f	0.11783647
173	0xbd2add4e	-0.04171496
174	0xbdf129e0	-0.11775565
175	0xbd9019ea	-0.07036193
176	0xbe1d6a16	-0.153725
177	0x3d9e8712	0.07740606
178	0x3e21e2b1	0.15809132
179	0xbe4487e2	-0.1919246
180	0x3d528eb4	0.051405624
181	0x3dc4527e	0.09586047
182	0x3cf55a43	0.029950267
183	0xbd855375	-0.06510059
184	0x3dddda89	0.10832698
185	0x3dcd71a7	0.10031443
186	0x3da3b6af	0.079938285
187	0xbcef75a1	-0.029230895
188	0xbd7c07a1	-0.061530713
189	0x3cb64bfd	0.02225303
190	0xbd393e76	-0.045225583
191	0xbd828750	-0.06373465
192	0x3e0b5c67	0.13609467
193	0x3e37628f	0.17908691
194	0xbce5a923	-0.028034752
195	0xbd1c0915	-0.0380946
196	0x3c29a5e1	0.01035449
197	0xbc5c4608	-0.013444431
198	0x3d289fde	0.041168086
199	0x3d70730c	0.058703467
200	0xbe3d93c0	-0.18513393
201	0xbd9a8768	-0.07545358
202	0x3e2f3002	0.17108157
203	0x3db4646c	0.088082165
204	0xbba2361e	-0.004950299
205	0xbdff7bc4	-0.12474778
206	0xbdf38af0	-0.118917346
207	0xbe2f94df	-0.17146634
208	0xbd8be66f	-0.06831061
209	0x3d7ea6cb	0.062170785
210	0x3e0045f1	0.1252668
211	0x3dbfe57c	0.093699425
212	0xbe36f325	-0.1786619
213	0xbdf125f8	-0.1177482
214	0xbcfd6010	-0.030929595
215	0x3e4550b3	0.19269066
216	0x3d0fb183	0.035081398
217	0xbd6e27ed	-0.058143545
218	0x3da4e702	0.08051874
219	0xbd9457c1	-0.072433
220	0xbe047a14	-0.12937194
221	0x3e16cf96	0.14727625
222	0xbda97972	-0.08275117
223	0xbd3eb576	-0.046559773
224	0xbe45e5ec	-0.1932599
225	0x3e0e5f48	0.13903534
226	0x3e1d509a	0.15362778
227	0x3d91f3af	0.07126557
228	0xbe139902	-0.14413837
229	0xbe46474c	-0.19363135
230	0xbe2b0294	-0.16700202
231	0x3e207920	0.15671206
232	0x3dca608c	0.09881696
233	0x3e266ec0	0.16253185
234	0x3dcb1429	0.099159546
235	0x3d52a634	0.051428035
236	0xbb179781	-0.0023131075
237	0xbe224376	-0.15846047
238	0xbe2a8bef	-0.16654943
239	0xbe436ccd	-0.19084473
240	0x3db6b2bb	0.08920809
241	0xbdcba706	-0.099439666
242	0xbd122cba	-0.035687186
243	0xbdfb9c8b	-0.122857176
244	0xbcfb9ac9	-0.030713456
245	0xbe0be707	-0.13662349
246	0xbe08dfe3	-0.13366656
247	0x3d8ff6b7	0.07029479
248	0xbd5d5600	-0.054037094
249	0x3df54293	0.11975589
250	0xbd6a90f8	-0.05726716
251	0xbe21f47d	-0.15815921
252	0xbd35ad52	-0.044354744
253	0xbdd313e1	-0.10306526
254	0xbd6ea64f	-0.058264073
255	0xbe4763aa	-0.19471613

actor.0.bias f4 [128]
0	0xbe1da292	-0.15394047
1	0x3d9e0210	0.07715237
2	0x3dedbc47	0.11608177
3	0x3e3bf2c4	0.18354326
4	0xbe462723	-0.19350867
5	0x3e35f58a	0.17769447
6	0x3e13a0a9	0.14416756
7	0x3e4df496	0.20112833
8	0x3ddf4a7d	0.109028794
9	0xbdbc49d4	-0.09193769
10	0x3e20bee5	0.1569782
11	0x3e37992a	0.17929521
12	0xbda5615f	-0.08075213
13	0xbd1b1a53	-0.0378669
14	0x3e1da24d	0.15393944
15	0x3e23c71e	0.15993926
16	0x3e05d241	0.13068487
17	0x3e165ac6	0.14683065
18	0xbdc57591	-0.09641565
19	0xbcfd40be	-0.03091466
20	0xbda63d8f	-0.0811721
21	0x3dd4b28b	0.10385617
22	0x3d395260	0.045244575
23	0xbe266ecd	-0.16253205
24	0xbd04b5e0	-0.032400012
25	0xbe20c8aa	-0.15701547
26	0xbe4931f8	-0.19647968
27	0x3e3bf123	0.18353705
28	0xbdd74853	-0.105118416
29	0x3db68c3d	0.08913467
30	0xbd2f7d97	-0.04284438
31	0xbd09a04a	-0.03360013
32	0x3bccc2b5	0.006248797
33	0x3e21097f	0.15726279
34	0xbd1511b7	-0.036393847
35	0x3e23ae4b	0.15984456
36	0x3df897b8	0.12138313
37	0x3e0878ca	0.13327327
38	0xbe41e652	-0.18935516
39	0xbdc801a7	-0.0976594
40	0xbe2c1d14	-0.16807967
41	0xbd14c426	-0.036319874
42	0xbd3d0c12	-0.04615409
43	0x3d30b6ae	0.043142967
44	0x3e3c0b76	0.18363747
45	0x3dbff3ae	0.0937265
46	0xbe08dd1f	-0.13365601
47	0xbe048661	-0.12941886
48	0x3e162a59	0.14664592
49	0x3c2e2931	0.010629938
50	0x3d7996df	0.060934898
51	0xbdd36885	-0.1032267
52	0xbd09343d	-0.033497084
53	0x3d5bdbff	0.0536766
54	0xbe02ce6d	-0.12774058
55	0x3e023550	0.1271565
56	0x3dc2a43d	0.09503982
57	0xbdfabf86	-0.122435614
58	0xbda6dc3b	-0.081474744
59	0xbd4fbc84	-0.050716892
60	0x3d0c15cb	0.03420047
61	0xbd8783dd	-0.06616948
62	0x3e43e5be	0.19130608
63	0xbe4c09fe	-0.19925687
64	0xbdf6cd98	-0.12050933
65	0xbe00b122	-0.12567571
66	0x3d3be049	0.045868192
67	0x3cc53c98	0.024076745
68	0xbd7a9f4d	-0.061187077
69	0x3e295c85	0.165392
70	0xbe394caa	-0.18095651
71	0x3d88d65a	0.06681509
72	0xbde04de6	-0.10952358
73	0xbd397e78	-0.045286626
74	0xbe48de66	-0.19616088
75	0xbe128d79	-0.1431178
76	0xbe30999b	-0.17246096
77	0x3db7c9ab	0.08974012
78	0xbd9a3530	-0.07529676
79	0x3dd88849	0.10572869
80	0xbdde22a1	-0.10846449
81	0xbd3b006e	-0.045654707
82	0x3c74b4f2	0.014935719
83	0x3e32dfbc	0.1746816
84	0xbd54d0eb	-0.051957052
85	0x3df1fa59	0.11815328
86	0x3d506578	0.05087802
87	0x3deb1fd5	0.11480681
88	0x3e038fb2	0.12847784
89	0x3db41b47	0.08794265
90	0xbd765c60	-0.06014669
91	0xbd6ece46	-0.058302186
92	0x3da6a234	0.081364065
93	0x3de9d303	0.114172004
94	0xbc956f59	-0.018241571
95	0x3dc325c3	0.09528687
96	0xbdfd2be2	-0.123618856
97	0x3ddef31c	0.10886213
98	0xbc9cf502	-0.019159798
99	0xbe1196c9	-0.14217676
100	0xbdbaa833	-0.09114113
101	0xbe196d72	-0.14983156
102	0x3d341226	0.04396262
103	0xbde4207e	-0.1113901
104	0xbd5cca10	-0.05390364
105	0xbc5d835d	-0.013520089
106	0xbdec4b5a	-0.1153781
107	0x3bcebc59	0.006309074
108	0xbcfb7caa	-0.030699093
109	0x3d615593	0.05501325
110	0x3e0d1bc2	0.1378012
111	0xbdfeb536	-0.12436907
112	0x3dd7b3c9	0.10532338
113	0xbc1fa91b	-0.009744908
114	0xbdf42134	-0.119203955
115	0xbdcb59fb	-0.09929272
116	0x3d39cf4e	0.045363717
117	0x3d1b375f	0.037894603
118	0xbc0f7607	-0.008756167
119	0xbdd976ad	-0.10618339
120	0x3dc03fa7	0.09387141
121	0x3cfc452c	0.030794702
122	0xbe4e829b	-0.2016701
123	0xbd22cf57	-0.039748516
124	0xbd66bc29	-0.056331787
125	0xbdb28a00	-0.08717728
126	0xbddb1053	-0.10696473
127	0xbe263a1c	-0.16233104

actor.2.weight f4 [128, 128]
0	0x3dba0e92	0.0908481
1	0xbdb063d6	-0.08612792
2	0x3db3731c	0.0876219
3	0xbd89fc71	-0.067376025
4	0xbcc17958	-0.023617432
5	0xbd10a66f	-0.035314973
6	0xbd50a4d8	-0.050938457
7	0x3cce9612	0.025218043
8	0x3d5d612e	0.054047756
9	0xbd5fd0b5	-0.054642398
10	0xbd2c5c06	-0.042079948
11	0x3d4cdfcb	0.050018113
12	0xbc6c94f5	-0.014439811
13	0x3cccbdb6	0.024992805
14	0x3d42a23b	0.047517996
15	0xbd008bf4	-0.03138347
16	0xbd3932e6	-0.045214556
17	0x3cfcff95	0.03088359
18	0xbd0a4234	-0.033754542
19	0xbd6fa182	-0.058503635
20	0xbd3bae1f	-0.04582035
21	0xbd312c98	-0.04325542
22	0x3db4f220	0.08835244
23	0x3c37d1b1	0.011219428
24	0x3d0d0e9d	0.034437764
25	0x3bc66934	0.0060550217
26	0xbd7b4808	-0.06134799
27	0x3d91f442	0.071266666
28	0xbc4609c2	-0.012087287
29	0xbcfbadc0	-0.030722499
30	0x3da2f18c	0.07956228
31	0xbd215c00	-0.03939438
32	0x3c49b607	0.012311465
33	0xbd9bf1fa	-0.07614513
34	0x3d3c2b5c	0.04593979
35	0x3ce9b260	0.028527439
36	0xbd96d824	-0.07365444
37	0x3d3c5b8d	0.045985747
38	0x3c36b106	0.011150604
39	0xbd214250	-0.03936988
40	0x3d968799	0.07350082
41	0x3d107877	0.035271134
42	0x3d099152	0.033585854
43	0xbd0b4d98	-0.034009546
44	0xbd611d3e	-0.05495953
45	0xbd35ffab	-0.044433277
46	0x3d0e84fd	0.034794796
47	0x3cdb2fd6	0.026756208
48	0xbd49fcf1	-0.04931349
49	0x3d9de9d7	0.07710617
50	0x3d361ac1	0.04445911
51	0xbcf70bfc	-0.030157082
52	0x3d4634ca	0.048390187
53	0xbd2e7382	-0.042590626
54	0x3ce0b2a4	0.027428932
55	0x3da24731	0.07923735
56	0xbd9651c0	-0.07339811
57	0xbd4216f2	-0.047385164
58	0xbadf6055	-0.0017042259
59	0x3c19b279	0.00938093
60	0xbd9c37ee	-0.07627855
61	0xbd7073bc	-0.058704123
62	0xbc151281	-0.00909865
63	0xbba480af	-0.005020223
64	0x3c72fb0d	0.014830363
65	0x3beef489	0.0072923345
66	0x3cceb42d	0.025232399
67	0xbaeda30a	-0.0018130254
68	0x3bafa8e2	0.0053607086
69	0xbb4078a8	-0.0029368792
70	0x3d14114d	0.03614931
71	0x3d5df009	0.054183993
72	0xbd218afd	-0.03943919
73	0xbd21a1a6	-0.0394608
74	0x3d4112b9	0.047136996
75	0xbd550b4c	-0.052012727
76	0x3d603fc6	0.05474832
77	0x3d367088	0.044540912
78	0x3c16133a	0.009159857
79	0xbd120754	-0.03565152
80	0x3c50abc9	0.012736269
81	0xbd96a336	-0.07355349
82	0xbdac7271	-0.084202655
83	0x3db1f1f0	0.08688724
84	0xbdb42756	-0.08796565
85	0xbda71688	-0.08158594
86	0xbd15ba72	-0.03655476
87	0x3b244618	0.0025066193
88	0x3c5beec4	0.013423625
89	0xbd233702	-0.03984738
90	0xbc5821ce	-0.013191653
91	0xbc8326c4	-0.016009696
92	0x3d8d2125	0.068910874
93	0x3da6923c	0.08133361
94	0x3d16565e	0.03670346
95	0x3bef75b7	0.007307734
96	0x3d8b9d64	0.06817129
97	0xbd8210d7	-0.06350868
98	0x3d24cc6c	0.040234014
99	0xbd34fe47	-0.04418781
100	0x3d85f9ea	0.06541808
101	0xbda0d3d7	-0.07852905
102	0x3d2dd198	0.042436212
103	0xbd8efd0a	-0.06981857
104	0x3d5657ba	0.052329756
105	0x3c0a56cc	0.008443546
106	0x3d8f15b5	0.06986562
107	0xbd8975ad	-0.06711898
108	0x3d60a851	0.05484802
109	0xbd75d27e	-0.060015194
110	0xbd3619d8	-0.04445824
111	0x3d26f685	0.040762443
112	0xbc0a0186	-0.008423215
113	0xbd93ddd6	-0.07220046
114	0xbd90376d	-0.07041822
115	0xbc93e3c2	-0.01805294
116	0x3cd0468c	0.025424264
117	0x3da202a2	0.079106584
118	0x3d8f8aa7	0.07008868
119	0xba3bfec4	-0.0007171447
120	0xbd472843	-0.04862238
121	0xbdabe59b	-0.08393403
122	0x3d97e1e0	0.07416129
123	0xbd511db9	-0.051053736
124	0xbbed2c1b	-0.007237924
125	0xbd8a2547	-0.06745391
126	0xbd7ef532	-0.062245555
127	0x3c714ef2	0.014728295
128	0xbcec073b	-0.028812042
129	0x3c4281cf	0.011871769
130	0x3b00b2fa	0.0019637928
131	0x3baf8488	0.005356375
132	0xbcb7fc05	-0.02245904
133	0xbb0d748c	-0.002158436
134	0x3d091b0a	0.033473052
135	0x3d840fd6	0.06448333
136	0x3d9c04cc	0.076181024
137	0xbd982e69	-0.07430727
138	0xbd97c5e2	-0.0741079
139	0xbc814ff7	-0.0157852
140	0xbc0f4741	-0.008745016
141	0x3d3e6d79	0.04649112
142	0x3da8af5c	0.08236572
143	0x3cb17137	0.02166043
144	0xbd902c5c	-0.07039711
145	0xbc0f71c5	-0.008755152
146	0x3d753796	0.059867464
147	0x3d09675f	0.033545848
148	0xbd6e6603	-0.058202755
149	0x3c1266b4	0.008935619
150	0xbdb274be	-0.08713673
151	0xbd070db4	-0.032972053
152	0x3d68803f	0.05676293
153	0xbd37047a	-0.044682004
154	0x3d67605b	0.056488376
155	0xbd8d8df6	-0.069118425
156	0x3d9e02eb	0.077154
157	0x3d229774	0.03969522
158	0x3d611219	0.0549489
159	0x3cae9b4e	0.02131429
160	0xba588a5d	-0.0008260364
161	0xbd2ffa77	-0.04296347
162	0xbd313438	-0.04326269
163	0xbd7c6754	-0.06162198
164	0x3d89a30e	0.06720553
165	0xbd078c16	-0.03309258
166	0x3be8e237	0.007107045
167	0xbdb3c64e	-0.08778058
168	0x3ca11b8a	0.019666452
169	0xbcf43cdd	-0.029814178
170	0xbd901ef8	-0.07037157
171	0x3c09b235	0.008404304
172	0xbdaa6196	-0.08319394
173	0xbc62fea7	-0.013854659
174	0xbd9badee	-0.07601534
175	0x3d4073ba	0.046985365
176	0xbd81cc1a	-0.063377574
177	0x3c4802e0	0.012207717
178	0x3d3a4b55	0.045482
179	0xbd93f5e5	-0.07224635
180	0x3d5ca671	0.05386967
181	0x3d94fed5	0.07275168
182	0xbd7ac241	-0.06122041
183	0x3aba99bb	0.0014236489
184	0x3cd93228	0.026513174
185	0x3d9a57c5	0.07536272
186	0x3d821a25	0.06352643
187	0xbda1298b	-0.07869252
188	0xbda1209c	-0.07867548
189	0xbd9dab09	-0.07698638
190	0xbd3244f8	-0.043522805
191	0xbcbd818d	-0.023133064
192	0xbcfa4c7b	-0.030554047
193	0x3d6f5a34	0.058435634
194	0xbd817113	-0.06320395
195	0xbd99cdfb	-0.07509991
196	0xbda03967	-0.07823449
197	0xbd4c2d23	-0.049847733
198	0x3da9ce4e	0.082913026
199	0x3c2660a8	0.010154881
200	0xbc8e1e8e	-0.017348554
201	0xbd0e275a	-0.034705497
202	0xbd8d8664	-0.069103986
203	0xbcccf56c	-0.02501937
204	0x3d4fd978	0.050744504
205	0x3d5872ee	0.05284398
206	0x3d7ca8d2	0.061684437
207	0x395cdb9d	0.00021062647
208	0xbd592197	-0.05301055
209	0xbd4a5229	-0.04939476
210	0x3da28ed8	0.079374015
211	0xbdacd09b	-0.08438226
212	0x3cb5a8c8	0.022175208
213	0xbbe9e6b7	-0.007138099
214	0x3d9ddbd0	0.077079415
215	0x3d3f818a	0.046754397
216	0xbca98a4c	-0.020695828
217	0xbd9533ef	-0.07285296
218	0x3c5b9f20	0.013404638
219	0xbd814feb	-0.06314071
220	0xbc2f3a8b	-0.01069511
221	0x3cacdec9	0.021102326
222	0x3d276df5	0.040876348
223	0xbcce51b4	-0.025185443
224	0xbd7faf94	-0.062423304
225	0xbda3a617	-0.079906635
226	0xbdb8ec06	-0.09029393
227	0x3c45ea4d	0.012079787
228	0xbd80fba4	-0.06297997
229	0x3b83ac4a	0.004018341
230	0xbd3e1ba8	-0.046413094
231	0xbd7a6261	-0.061128978
232	0x3d72af31	0.059249107
233	0x3d48fcaf	0.049069103
234	0x3d618cd0	0.05506593
235	0x3db0a100	0.08624458
236	0xbd8b98e0	-0.06816268
237	0xbd3bd533	-0.04585762
238	0xbd930f33	-0.071806334
239	0x3d75686e	0.059914045
240	0x3d398966	0.04529705
241	0x3d9fc959	0.07802076
242	0xbd6ad1be	-0.057328932
243	0xbd478037	-0.04870626
244	0x3db54e4f	0.08852827
245	0xbd85eab1	-0.065389045
246	0xbd7fe6cf	-0.062475976
247	0x3cc9fdc6	0.024657141
248	0xbdaf4c20	-0.085594416
249	0xbcb56e1a	-0.022147227
250	0x3d1014f3	0.03517623
251	0x3d95fae0	0.07323241
252	0xbc36cc37	-0.011157087
253	0xbdac90c9	-0.08426053
254	0x3d6213cd	0.055194665
255	0x3dc09360	0.094031096

actor.2.bias f4 [128]
0	0xbd8ac7be	-0.06776379
1	0x3d23edd0	0.040021718
2	0xbbc4a49e	-0.006001069
3	0xbda8d494	-0.08243671
4	0xbdaac1bb	-0.083377324
5	0x3b8338aa	0.0040045576
6	0x3d077ea3	0.033079755
7	0xbbd7fe82	-0.006591619
8	0xbcfd4bf2	-0.030920003
9	0x3d7246f7	0.05914971
10	0x3a1c0850	0.00059521664
11	0xbd509b9c	-0.05092965
12	0x3d9a3c5b	0.07531043
13	0xbc9c28ed	-0.019062484
14	0xbcd7502b	-0.026283344
15	0xbc5009e2	-0.012697669
16	0xbc4fd2b0	-0.012684509
17	0xbb70010f	-0.0036621725
18	0xbd2faa0e	-0.042886786
19	0x3d4f0278	0.050539464
20	0x3bdcb1a6	0.0067350445
21	0x3d315885	0.04329731
22	0x3c62cb05	0.013842349
23	0x3d61b393	0.055102896
24	0xbd5e3ed2	-0.05425913
25	0x3d3611fe	0.044450752
26	0x3cff7476	0.031183463
27	0x3d23b569	0.039967928
28	0xbd3de1a2	-0.04635776
29	0x3b677797	0.0035319084
30	0xbd0df471	-0.034656946
31	0xbcce97c7	-0.025218857
32	0xbc9c6444	-0.01909078
33	0xbca3b682	-0.019984487
34	0x3d3ca7e9	0.04605857
35	0x3dad4a2d	0.084614135
36	0xbcaa9c87	-0.020826591
37	0x3da0430f	0.078252904
38	0x3d52775d	0.051383365
39	0xbdb30071	-0.087403186
40	0x3d894d94	0.0670425
41	0xbd976321	-0.07391954
42	0xbd260ecf	-0.040541466
43	0xbcd0d452	-0.025491867
44	0x3b0dbdbb	0.002162798
45	0xbdbe6dae	-0.092982635
46	0xbd9a13cc	-0.07523307
47	0xbd95733e	-0.07297371
48	0xbd1500a3	-0.03637756
49	0x3b4f1b4f	0.003160197
50	0x3d6f0e1c	0.058363065
51	0xbdaa24e5	-0.08307818
52	0x3c6873e8	0.01418779
53	0x3d92339b	0.07138749
54	0x3ca774b2	0.020441387
55	0x3cc91169	0.024544435
56	0xbda5902e	-0.08084141
57	0x3d5bcda8	0.053662926
58	0xbc684f04	-0.014178995
59	0x3d2125dc	0.039342746
60	0xbd867aa1	-0.06566358
61	0xbc2b93ee	-0.010472281
62	0x3d497b14	0.049189642
63	0xbd5842fc	-0.052798256
64	0xbd8eaa88	-0.0696612
65	0xbc49d481	-0.012318731
66	0x3d1d45ea	0.038396753
67	0xbd65efe8	-0.056136996
68	0x3c255a39	0.010092312
69	0xbd26636f	-0.04062217
70	0x3c4a812a	0.012359897
71	0x3c222ef7	0.009898893
72	0x3d64cc12	0.05585868
73	0xbd5c68de	-0.053810947
74	0xbda43d74	-0.08019534
75	0x3b90b70f	0.0044163535
76	0x3d45d423	0.048298012
77	0xbd14c262	-0.03631819
78	0x3cf07579	0.02935289
79	0xbdb24afc	-0.087057084
80	0x3d4437b9	0.047904704
81	0x3d349e86	0.044096492
82	0xbda92db4	-0.0826067
83	0xbc968e8b	-0.018378517
84	0x3d0bde67	0.034147646
85	0x3d18d2bf	0.037310358
86	0x3cfebe43	0.031096583
87	0xbd852b07	-0.065023474
88	0x3d98cc2f	0.0746082
89	0xbda111ab	-0.07864698
90	0xbb0e2b8b	-0.0021693434
91	0xbd45e2e4	-0.048312083
92	0xbd824252	-0.06360306
93	0xbd10a52b	-0.035313766
94	0x3daf0604	0.08546069
95	0xbdab5fa8	-0.08367854
96	0x3d83e5a3	0.06440284
97	0x3d93d605	0.07218555
98	0xbd5447bc	-0.051826224
99	0x3cb428c3	0.021992093
100	0xbd004904	-0.031319633
101	0xbdb13984	-0.08653548
102	0xbd9b0640	-0.075695515
103	0xbc91c090	-0.017792016
104	0xbd7cf97c	-0.061761364
105	0xbc70d475	-0.014699091
106	0x3d56fd8b	0.05248789
107	0x3d1ebdf7	0.038755383
108	0xbdaab731	-0.08335722
109	0x3d23cf9c	0.039992914
110	0x3b39dbc7	0.0028359757
111	0x3cf48818	0.02985005
112	0x3d637581	0.055531982
113	0xbd9c1aba	-0.07622285
114	0xbd4c2b88	-0.049846202
115	0x3d226a00	0.03965187
116	0x3c32cfd5	0.010913809
117	0xbcf62760	-0.030048072
118	0xbd2a85a7	-0.041631367
119	0x3c0ec82d	0.008714718
120	0xbcea8d3b	-0.028631797
121	0x3cba749d	0.022760684
122	0xbd13db8a	-0.03609804
123	0x3db32afd	0.08748434
124	0x3bdd03fe	0.0067448607
125	0xbcf01d2a	-0.029310782
126	0xbd91e2b3	-0.071233176
127	0x3da6802b	0.08129915

actor.4.weight f4 [6, 128]
0	0xbd908e54	-0.07058397
1	0xbda7ad5a	-0.08187361
2	0x3d203cee	0.039120607
3	0xbd3c7664	-0.046011344
4	0x3d811074	0.06301966
5	0x3c851a09	0.016247766
6	0xbd3afd4c	-0.04565172
7	0xbda80235	-0.08203546
8	0xbd760cca	-0.06007079
9	0x3dba8239	0.09106869
10	0x3c16bbcf	0.0092000505
11	0xbd3c344b	-0.045948308
12	0x3da23882	0.07920934
13	0x3d0efc7d	0.03490876
14	0x3d8ec8a4	0.06971863
15	0x3d64877c	0.05579327
16	0x3d73c859	0.05951724
17	0x3d50b74c	0.050956056
18	0x3d19d5ed	0.03755753
19	0x3d22abce	0.039714627
20	0x3d580158	0.052735656
21	0xbcbc90b6	-0.023018222
22	0xbc779e4d	-0.015113425
23	0xbd01b6e6	-0.031668566
24	0xbd333dfe	-0.043760292
25	0x3da3e4c6	0.080026194
26	0x3d6733e4	0.05644597
27	0x3d8b6ce5	0.06807879
28	0x3d0a0ee2	0.0337056
29	0x3d652ebe	0.05595278
30	0x3d756685	0.059912223
31	0xbc413bd5	-0.01179405
32	0xbd9fa5db	-0.07795306
33	0x3cfb1c17	0.030653043
34	0xbd05f706	-0.032706283
35	0xbd55925b	-0.05214153
36	0x3d8d4170	0.06897247
37	0x3d923cb4	0.071404845
38	0x3d678822	0.05652631
39	0xbcaac3d9	-0.02084534
40	0xbd15a0fe	-0.036530487
41	0x3d913c6b	0.07091602
42	0x3d64420d	0.055727053
43	0xbc470933	-0.012148189
44	0xbd9313c2	-0.07181503
45	0xbd0c5f9f	-0.03427088
46	0xbcfa462b	-0.030551037
47	0xbd58d5d3	-0.052938294
48	0xbda5fbe1	-0.08104683
49	0xbc8213cf	-0.015878586
50	0x3d868d91	0.065699704
51	0xbc9d53b7	-0.019204957
52	0x3d29e382	0.041476734
53	0x3b8cdfe1	0.0042991494
54	0xbd8d96cb	-0.06913527
55	0x3d98f4e4	0.07468584
56	0x3d90d922	0.07072665
57	0xbc6e3cc5	-0.014540856
58	0x3d10e2e7	0.03537264
59	0x3d2bfa58	0.041986793
60	0xbd47fad3	-0.04882319
61	0x3ca0451b	0.019564202
62	0xbd5a1664	-0.05324401
63	0x3d4090d7	0.04701313
64	0xbd81ecf3	-0.063440226
65	0x3c2c2b51	0.010508374
66	0xbcf2a643	-0.029620295
67	0xbd937483	-0.07199957
68	0x3b5b0c0c	0.0033423929
69	0xbc915406	-0.01774026
70	0xbb708509	-0.003670039
71	0x3c3022b5	0.010750462
72	0x3d8f55cf	0.069987886
73	0xbd62abaa	-0.055339493
74	0x3d2e24cf	0.042515572
75	0xbd3edb31	-0.046595756
76	0x3d379a0c	0.044824645
77	0x3cecadba	0.028891433
78	0x3d9cf381	0.07663632
79	0xbd06522a	-0.0327932
80	0x3c7578eb	0.014982442
81	0xbc7e68be	-0.015527902
82	0xbd85e509	-0.065378256
83	0xbd85e589	-0.06537921
84	0x3da29fb2	0.07940616
85	0x3bcbef37	0.006223585
86	0x3d662bb5	0.056194026
87	0xbda89266	-0.08231048
88	0x3d98cff1	0.07461537
89	0x3d67dced	0.056607176
90	0x3d199f43	0.0375054
91	0x3d62fdce	0.05541783
92	0xbd85d322	-0.06534411
93	0x3c149331	0.009068296
94	0xbda3e898	-0.08003348
95	0xbc0a4be5	-0.008440946
96	0x3d9e8c56	0.07741611
97	0x3d3be16f	0.045869287
98	0x3d390e11	0.04517943
99	0xbd394a08	-0.045236617
100	0xbd96ef51	-0.07369865
101	0xbc979f39	-0.01850854
102	0x3d8d4870	0.06898582
103	0x3d877d43	0.06615689
104	0x3dbb8986	0.0915709
105	0x3d1892e4	0.03724946
106	0xba5ed0dc	-0.00084997504
107	0xbda15bde	-0.078788504
108	0x39c18696	0.00036912103
109	0x3d516dac	0.051129982
110	0x3d0ed137	0.03486749
111	0xbcc8a153	-0.024490988
112	0xbd20d21a	-0.03926287
113	0x3d641a70	0.055689275
114	0x37c571db	2.3537248e-05
115	0x3b9966cb	0.0046814433
116	0xbca97688	-0.020686403
117	0x3d0bab05	0.034098644
118	0xbc83ff7b	-0.016113034
119	0x3d79ef67	0.061019327
120	0x3c2f7353	0.010708648
121	0xbcb2b958	-0.021816894
122	0xbb8fd0e7	-0.004388917
123	0xbd38731e	-0.04503166
124	0x3d923e53	0.07140794
125	0xbcf77c14	-0.030210532
126	0x3da17050	0.0788275
127	0xbda6861f	-0.0813105
128	0x3d677c43	0.05651499
129	0x3d1db0ed	0.038498808
130	0x3da73908	0.08165175
131	0xbcf2747f	-0.029596565
132	0xbd6fae1d	-0.058515657
133	0x3d169013	0.036758494
134	0xbd97495c	-0.07387039
135	0x3d977839	0.073959775
136	0x3c0a518f	0.008442297
137	0x3d89374b	0.066999994
138	0x3d81ffba	0.06347604
139	0xbc98fa2c	-0.018673979
140	0xbd164dc8	-0.03669527
141	0xbca4a702	-0.020099167
142	0xbd2d1812	-0.042259283
143	0x3cff5111	0.031166585
144	0x3c530120	0.012878686
145	0xbd6989c3	-0.057016145
146	0x3c8e29ec	0.017353974
147	0x3db37b3b	0.08763739
148	0x3d9fb24a	0.07797678
149	0x3d262083	0.04055835
150	0x3b0a0c58	0.0021064486
151	0x3d311457	0.04323229
152	0x3d31d9fb	0.043420773
153	0xbd18fedc	-0.037352428
154	0xbcdc6770	-0.026904792
155	0xbb735028	-0.0037126634
156	0x3d446e54	0.04795678
157	0xbd94fc38	-0.072746694
158	0x3c97a1c5	0.018509755
159	0x3d8aba4c	0.067738146
160	0x3cff7e9a	0.031188298
161	0xbd89aa06	-0.067218825
162	0xbd69ab25	-0.05704798
163	0xbd960eb1	-0.07327021
164	0xbd97fabe	-0.07420872
165	0xbd90d68a	-0.0707217
166	0xbc2bc2f0	-0.010483488
167	0xbd0e0297	-0.03467044
168	0xbda50744	-0.080580264
169	0x3d9b4546	0.07581572
170	0x3cdf660b	0.027270338
171	0xbd7554cc	-0.05989532
172	0xbd58d3b2	-0.052936263
173	0xb932ae9c	-0.0001704045
174	0x3d74392d	0.05962484
175	0xbcd5852f	-0.026064483
176	0xbd06c0ef	-0.03289884
177	0x3d472785	0.048621673
178	0xbbe838fa	-0.0070868703
179	0xbcdce7c9	-0.026965993
180	0x3d64fa92	0.055903025
181	0xbd965257	-0.07339924
182	0x3c950a34	0.018193342
183	0xbdaa1f1f	-0.08306717
184	0x3beddd04	0.007259013
185	0xbc38e1d1	-0.011284308
186	0xbd88ff7e	-0.06689356
187	0xbd28cb19	-0.041209314
188	0x3d494d6f	0.049146112
189	0x3d962b86	0.0733252
190	0x3cb02822	0.021503512
191	0x3d132665	0.035925288
192	0x3d5c01c6	0.05371263
193	0xbc216806	-0.009851461
194	0xbad19e4b	-0.001599261
195	0x3d90e71e	0.07075332
196	0x3d639b15	0.05556782
197	0xbd24e826	-0.040260457
198	0x3c929209	0.0178919
199	0x3d030144	0.03198363
200	0xbd05e538	-0.032689303
201	0x3d6a4e1a	0.05720339
202	0xbd34cd35	-0.044141013
203	0x3d1c6cff	0.038189884
204	0x3d557111	0.05210978
205	0xbc3f9056	-0.011692127
206	0xbd823203	-0.06357195
207	0xbd9bc65a	-0.07606192
208	0xbc98bfbb	-0.018646112
209	0x3d6c6690	0.057715
210	0x3da653e8	0.081214726
211	0x3d59f051	0.0532077
212	0x3bacb23d	0.005270271
213	0xbc90add1	-0.017661007
214	0x3c40249e	0.01172748
215	0xbcc28ef9	-0.023749815
216	0xbc59e45e	-0.013299076
217	0x3d41051f	0.047124024
218	0xbd93f037	-0.07223552
219	0xbd55e548	-0.052220613
220	0xbd10fe8e	-0.035399012
221	0xbd558f27	-0.052138474
222	0xbd85704c	-0.065155596
223	0x3d12b7f3	0.03581996
224	0x3d2d9a56	0.042383514
225	0x3d2df2f8	0.04246804
226	0xbd83438a	-0.064093664
227	0x3cfc815f	0.030823408
228	0x3d33c5ee	0.043889932
229	0x3cb58f8d	0.022163177
230	0xbd1be17c	-0.038056836
231	0xbd22f2cd	-0.039782334
232	0x3d4c208a	0.04983572
233	0x3d139035	0.0360262
234	0x3ca41b87	0.020032657
235	0xbd905e0b	-0.07049187
236	0xbdab5393	-0.0836555
237	0x3d97e39c	0.0741646
238	0x3b9725cd	0.0046126605
239	0x3d8ae0dc	0.0678117
240	0xbdad480c	-0.084610075
241	0xbd21f2f3	-0.039538335
242	0xbdb2d601	-0.08732224
243	0x3dadaf6b	0.08480724
244	0x3c561a1d	0.013067749
245	0x3d2b5814	0.041832045
246	0x3d906c93	0.07051959
247	0x3be51828	0.006991405
248	0x3cd89c9a	0.026441861
249	0xbd764957	-0.060128536
250	0x3c281a5d	0.010260192
251	0x3d750866	0.059822462
252	0xbc9db4da	-0.019251276
253	0xbd74bbe9	-0.059749518
254	0xbd51dc83	-0.051235687
255	0x3bea704e	0.007154501

actor.4.bias f4 [6]
0	0xbd49b3f1	-0.04924387
1	0x3cde7148	0.027153626
2	0xbca54022	-0.020172182
3	0x3d9219a6	0.07133798
4	0xbb482268	-0.0030538086
5	0x3d9c1628	0.076214135

critic.0.weight f4 [128, 25]
0	0xbd85cc56	-0.065331146
1	0xbe1af1e9	-0.15131344
2	0xbb6ee39f	-0.003645159
3	0xbddb114a	-0.10696657
4	0xbddda587	-0.108225875
5	0x3e0ea5b8	0.13930404
6	0x3e4370b4	0.19085962
7	0xbe0456f6	-0.12923798
8	0xbe50fe20	-0.20409441
9	0x3d71b119	0.059006784
10	0xbe298b6a	-0.16557088
11	0xbd745c70	-0.059658468
12	0x3d9c9574	0.076456934
13	0x3d950ebe	0.072782025
14	0x3cdb3bc7	0.026761902
15	0x3dab8e45	0.08376745
16	0xbdd9acab	-0.10628637
17	0xbd7c2003	-0.061553966
18	0xbd8c3661	-0.068463095
19	0xbe46552d	-0.1936843
20	0xbdf1aa62	-0.11800076
21	0x3ccc4ac5	0.024937997
22	0x3d505aa0	0.050867677
23	0xbdae5a6c	-0.0851334
24	0x3e030511	0.12794901
25	0xbdd61d42	-0.10454799
26	0x3c80f494	0.015741624
27	0x3e2e6c2b	0.1703345
28	0x3e035427	0.1282507
29	0x3e447a78	0.19187343
30	0x3d533a74	0.051569417
31	0xbe090887	-0.13382159
32	0xbd6b1721	-0.057395104
33	0xbd815de8	-0.06316739
34	0xbe22150a	-0.15828338
35	0xbd9289e9	-0.071552105
36	0xbe423805	-0.18966682
37	0xbdc0f4a2	-0.0942166
38	0xbe469d77	-0.19396006
39	0x3e42c0fe	0.19018933
40	0x3d072be2	0.033000834
41	0x3e408487	0.18800555
42	0x3debb8be	0.11509846
43	0x3e4691b0	0.19391513
44	0xbd5106ad	-0.051031757
45	0xbdca4876	-0.09877102
46	0xbdac4561	-0.084116705
47	0xbe35336a	-0.17695394
48	0xbc549433	-0.012974787
49	0x3d1202a7	0.03564706
50	0x3de71875	0.11283962
51	0xbd225961	-0.03963602
52	0x3d816c3a	0.06319471
53	0x3da7b086	0.08187966
54	0x3d3cbe17	0.04607972
55	0x3d286150	0.04110843
56	0xbd945152	-0.07242073
57	0x3dec0ae4	0.11525515
58	0xbe49e7b7	-0.19717298
59	0x3c88e90d	0.01671269
60	0x3ddfc9b3	0.10927143
61	0x3df57de7	0.119869046
62	0x3dba6651	0.091015466
63	0xbcf0285b	-0.029316118
64	0x3e1193a1	0.14216472
65	0xbe3795c2	-0.17928222
66	0xbd4ec1f1	-0.050477926
67	0xbd8b3f0b	-0.06799134
68	0x3ded8bad	0.11598907
69	0x3e39439b	0.18092196
70	0xbd43a225	-0.047762055
71	0x3d46e323	0.04855646
72	0xbd0479cc	-0.032342717
73	0xbd6bfa71	-0.057611886
74	0x3da8fa46	0.08250861
75	0x3d39e8f3	0.045388173
76	0xbdcd9c4f	-0.10039579
77	0x3d206455	0.039158184
78	0x3e40a721	0.18813755
79	0xbe10e9fc	-0.14151758
80	0xbcf4b5d2	-0.029871855
81	0xbe34c163	-0.17651896
82	0xbd4e9aca	-0.050440587
83	0x3e495a79	0.19663419
84	0x3e08ea2e	0.13370582
85	0xbe3cbe9b	-0.18432085
86	0xbe3caae6	-0.18424568
87	0x3c1f6dc4	0.00973076
88	0xbc865c6b	-0.01640149
89	0x3e21bba0	0.1579423
90	0xbd6cc56c	-0.057805464
91	0x3e20eae0	0.15714598
92	0xbdfe7d60	-0.12426257
93	0xbcfe5b61	-0.031049432
94	0xbc06924f	-0.008213594
95	0xbddf237d	-0.10895441
96	0x3c3d0780	0.011537433
97	0xbd165dcc	-0.036710545
98	0xbdaf62b8	-0.08563751
99	0xbe19bc67	-0.15013276
100	0xbbef4393	-0.0073017566
101	0x3e36e5f3	0.17861156
102	0x3d94685f	0.0724647
103	0xbe13504f	-0.14386104
104	0xbddb407d	-0.107056595
105	0x3e0accdd	0.13554712
106	0xbd960efb	-0.07327076
107	0xbc6d25be	-0.0144743305
108	0xbdcb33fd	-0.09922025
109	0x3db85406	0.09000401
110	0xbe08505c	-0.13311905
111	0xbe433d0c	-0.19066256
112	0xbe213068	-0.15741122
113	0xbe29de31	-0.16588666
114	0x3cca6eec	0.024711095
115	0x3ca51eaa	0.020156223
116	0xbd6cd2d6	-0.057818256
117	0x3db1ed96	0.08687894
118	0x3c88824c	0.016663693
119	0x3d4b5914	0.0496455
120	0x3dc85a9b	0.097829066
121	0x3d2bfc0c	0.041988418
122	0x3e4502d6	0.19239363
123	0x3e10c517	0.14137684
124	0xbddda30e	-0.10822116
125	0x3e19c83d	0.15017791
126	0xbd021da4	-0.03176655
127	0x3aae196a	0.001328272
128	0x3ccf0dc4	0.025275119
129	0xbe331151	-0.17487074
130	0x3e03bbb4	0.12864572
131	0x3e00458f	0.12526534
132	0x3e40b2f4	0.18818265
133	0x3d1d5137	0.03840753
134	0xbd5ca92f	-0.053872284
135	0xbd13500f	-0.03596502
136	0xbd714d6f	-0.058911737
137	0xbe36dd4a	-0.17857853
138	0x3d850640	0.06495333
139	0x3ce968a3	0.028492277
140	0xbd6e99ca	-0.058252133
141	0xbdf3a4dd	-0.118966796
142	0xbd236655	-0.039892513
143	0x3d70532e	0.058673076
144	0x3e15c646	0.14626417
145	0x3da3014a	0.0795923
146	0x3e16f227	0.14740811
147	0x3e286853	0.16446047
148	0xbdbb9c9b	-0.091607295
149	0x3b65750a	0.0035012388
150	0xbe29766a	-0.16549078
151	0xbde61c11	-0.11235822
152	0x3da385ef	0.0798453
153	0x3d871c5d	0.06597207
154	0x3dc7d2fb	0.09757038
155	0x3e2b821b	0.1674885
156	0x3dacca62	0.08437039
157	0xbdc24a21	-0.09486795
158	0xbd1fedfb	-0.039045315
159	0x3c6cc200	0.01445055
160	0x3ddae2c9	0.10687787
161	0xbdddbeda	-0.10827418
162	0xbda2d53d	-0.07950828
163	0x3da23146	0.079195544
164	0x3d8fae31	0.07015646
165	0x3e435090	0.19073701
166	0x3e202e1a	0.15642586
167	0xbdbf057e	-0.093272194
168	0x3d8a7bd7	0.06761902
169	0xbdf8c46e	-0.12146841
170	0xbc661e5f	-0.014045327
171	0xbc73a185	-0.014870052
172	0x3d263e97	0.040587034
173	0x3e3d4d2e	0.18486473
174	0xbe1f3a32	-0.15549543
175	0x3e3829e0	0.17984724
176	0x3e0ae874	0.13565236
177	0xbdc07d09	-0.093988486
178	0xbd77ac41	-0.06046701
179	0xbd477a2a	-0.04870049
180	0x3e058b34	0.13041383
181	0xbd57a358	-0.05264601
182	0x3d84a133	0.06476059
183	0xbd996cd3	-0.0749146
184	0x3e252120	0.16125917
185	0xbd00d181	-0.0314498
186	0x3e436bb1	0.1908405
187	0xbe1a4f4e	-0.15069315
188	0xbd906fde	-0.07052587
189	0x3e0ae2b9	0.1356305
190	0x3d79c37c	0.060977444
191	0xbdc138c8	-0.09434658
192	0xbe2d81ce	-0.16944048
193	0xbe12af6a	-0.14324728
194	0xbe2d6bfa	-0.16935721
195	0xbdd43303	-0.10361292
196	0xbde5bf4f	-0.1121813
197	0xbd762a32	-0.060098834
198	0x3e370ad8	0.1787523
199	0xbd5bc059	-0.053650234
200	0xbe007482	-0.12544444
201	0x3dd79672	0.10526742
202	0xbdee8687	-0.11646753
203	0xbdd2c475	-0.102913775
204	0xbd19ae85	-0.03751995
205	0xbcb42976	-0.021992426
206	0xbe01b070	-0.12664962
207	0xbe20bc5a	-0.1569685
208	0xbe44040a	-0.19142166
209	0xbdb50f6d	-0.08840833
210	0x3dc92fbb	0.09823557
211	0x3c9d6a91	0.019215854
212	0x3e1f0fbf	0.1553335
213	0x3d0c329e	0.03422796
214	0xbe1eeb09	-0.15519346
215	0x3c9fb80e	0.019496944
216	0xbd4feb6e	-0.050761633
217	0x3de38ff9	0.11111445
218	0x3d58d5dc	0.052938327
219	0x3e4bc90a	0.19900909
220	0xbe3f2658	-0.1866697
221	0xbdd03726	-0.10166769
222	0xbe2a27b7	-0.16616713
223	0x3c2223e5	0.009896253
224	0xbdfdd751	-0.12394584
225	0xbdb3e7d0	-0.08784449
226	0x3e468829	0.19387878
227	0xbd76c75d	-0.06024872
228	0x3db4d46b	0.08829578
229	0x3dfd4187	0.12366014
230	0x3e18a6f7	0.14907442
231	0x3e22866c	0.1587159
232	0x3df32445	0.11872152
233	0x3c897570	0.016779631
234	0x3e2e5a86	0.1702672
235	0x3e414a9a	0.18876114
236	0xbe08c652	-0.13356903
237	0x3d3d1f89	0.046172652
238	0x3e0809f9	0.13285054
239	0xbe06d108	-0.13165677
240	0x3d960b1b	0.07326337
241	0x3e05f629	0.13082184
242	0x3ad56daa	0.0016283293
243	0xbd585c4d	-0.0528224
244	0xbca0daa5	-0.019635508
245	0x3e29a1de	0.16565654
246	0xbe29666b	-0.16542976
247	0x3da64958	0.08119458
248	0xbde5dc6c	-0.11223683
249	0x3e0c6bde	0.13713023
250	0xbda74051	-0.08166564
251	0x3d40637a	0.04696987
252	0x3e031ddb	0.12804358
253	0xbcfb9169	-0.030708985
254	0xbcf85701	-0.030314924
255	0x3e36e420	0.1786046

critic.0.bias f4 [128]
0	0xbd8fc8cd	-0.070207216
1	0xbde1a211	-0.1101724
2	0xbe3a5e31	-0.18199994
3	0xbe24b812	-0.16085842
4	0x3df83d27	0.12121039
5	0xbe0637dc	-0.13107246
6	0xbdf8a3f4	-0.121406466
7	0xbdb04a4d	-0.08607922
8	0xbcce0e6a	-0.025153358
9	0x3de1fa55	0.11034075
10	0xbe54fdd4	-0.20799953
11	0xbdbc2ae1	-0.09187866
12	0xbd39b5ab	-0.045339268
13	0x3d57d30e	0.05269151
14	0xbdde5a1f	-0.10857033
15	0xbd59808d	-0.05310111
16	0xbde40231	-0.111332305
17	0xbd6346a0	-0.055487275
18	0x3dc6150e	0.096719846
19	0xbdbec42c	-0.093147606
20	0xbd06ee0a	-0.032941855
21	0xbe074a70	-0.1321199
22	0x3d5d6761	0.054053668
23	0xbe013f4c	-0.12621802
24	0x3d135a89	0.035975013
25	0xbe58c25d	-0.21167894
26	0x3d8d1855	0.068894066
27	0x3d8c1572	0.06840028
28	0xbe1f74d5	-0.15571912
29	0xbd138726	-0.03601756
30	0xbe00a869	-0.12564243
31	0xbdbe8b8d	-0.09303961
32	0x3db0394d	0.08604679
33	0xbdeda337	-0.116033964
34	0x3dd84b9c	0.10561296
35	0x3dd81e61	0.10552669
36	0x3e33d38c	0.17561167
37	0xbda9701e	-0.08273338
38	0xbe41b0c7	-0.18915091
39	0x3dfbe29e	0.12299083
40	0xbd5f1011	-0.05445868
41	0xbda19e5c	-0.07891533
42	0xbdc54159	-0.09631605
43	0x3e3a38a5	0.1818567
44	0xbe23efe6	-0.16009483
45	0x3d1a30c7	0.037644174
46	0x3cc53916	0.024075072
47	0xbdabcc1d	-0.08388541
48	0x3deaaf5b	0.11459228
49	0x3de4865e	0.11158441
50	0x3e06f8a6	0.1318079
51	0x3d4f729a	0.050646402
52	0x3d497407	0.049182918
53	0x3d680cbb	0.056652766
54	0xbd9469ce	-0.07246743
55	0xbe232b34	-0.1593445
56	0xba5dc8e4	-0.0008460416
57	0x3c07ffea	0.008300761
58	0x3dd7d9c1	0.1053958
59	0x3d1cbb42	0.03826452
60	0x3bacdc91	0.005275317
61	0xbd8ce090	-0.068787694
62	0x3e2b21a2	0.16712049
63	0x3e2bb5c6	0.1676856
64	0x3e4cec46	0.20012006
65	0xbcba9100	-0.02277422
66	0xbdd99140	-0.10623407
67	0xbe23dbf8	-0.1600188
68	0xbe48886c	-0.19583291
69	0xbe2e9ca8	-0.17051947
70	0xbd80e705	-0.062940635
71	0x3e1a518d	0.15070172
72	0xbe3fc1fc	-0.18726343
73	0xbd82ac92	-0.063805714
74	0x3da5e28e	0.080998525
75	0x3da8ed2d	0.08248363
76	0x3bfe7c02	0.0077662477
77	0xbd566ee4	-0.052351847
78	0x3c66ae22	0.014079602
79	0xbe0da6f1	-0.13833214
80	0x3dc62f11	0.09676946
81	0x3dd69d22	0.104791895
82	0x3d10fe20	0.035398602
83	0x3e03076d	0.12795801
84	0x3df322ed	0.11871896
85	0xbe490a5f	-0.19632863
86	0xbda7b37e	-0.08188532
87	0xbe340166	-0.17578658
88	0x3d987df1	0.074458964
89	0xbe321066	-0.17389068
90	0x3d36f0d0	0.04466325
91	0xbe250f64	-0.16119152
92	0x3dbd7af0	0.09251964
93	0xbe09215e	-0.13391635
94	0xbe35160f	-0.17684196
95	0xbda8cf9a	-0.08242722
96	0x3d92360d	0.071392156
97	0xbdbc31e1	-0.09189201
98	0x3d9edcfe	0.07756995
99	0xba3b588b	-0.0007146678
100	0xbde95a41	-0.11394168
101	0xbc9d8fdf	-0.019233642
102	0x3e035f10	0.12829232
103	0xbe00eaec	-0.12589616
104	0x3e27502e	0.1633918
105	0x3d7205f4	0.05908771
106	0x3db0f67a	0.08640762
107	0xbd1c7fc3	-0.03820778
108	0x3e15fc9b	0.14647143
109	0xbe2868c3	-0.16446213
110	0xbdb2c787	-0.08729463
111	0x3de7b5f6	0.11314003
112	0xbdf462a8	-0.1193288
113	0x3e29b382	0.16572383
114	0xbd9da8a9	-0.07698185
115	0xbe41426c	-0.18872994
116	0x3e3daf5f	0.1852393
117	0x3e20a4b0	0.15687823
118	0x3d96749d	0.07346461
119	0xbe31f726	-0.17379436
120	0x3d022f46	0.031783365
121	0xbd3d71c8	-0.04625109
122	0x3e46d0f5	0.19415648
123	0x3d5bef6d	0.05369513
124	0xbcb3208b	-0.021866104
125	0xbe499c9d	-0.1968865
126	0xbd8d82fe	-0.069097504
127	0x3e0e9983	0.13925748

critic.2.weight f4 [128, 128]
0	0xbd90fc8c	-0.070794195
1	0x3b9de33a	0.0048183473
2	0xbd99a376	-0.07501881
3	0xbc51f556	-0.01281484
4	0xbcc57111	-0.024101766
5	0xbc92e907	-0.017933382
6	0xbc05cfa9	-0.008167186
7	0xbcc3c840	-0.023899198
8	0xbd0d59d9	-0.034509514
9	0x3d2d8096	0.042358957
10	0x3c226e9a	0.009914065
11	0xbd4c2a8a	-0.049845256
12	0x3d3223fe	0.043491356
13	0x3db0c65e	0.086315855
14	0x3d3a9d0d	0.04555993
15	0x3d11e823	0.035621773
16	0xbc9f8bf6	-0.019475918
17	0x3d83e814	0.0644075
18	0xbd1ac08c	-0.037781283
19	0x3d272949	0.040810857
20	0x3da03c4b	0.07824
21	0xbc5beb2f	-0.013422771
22	0xbd500f16	-0.050795637
23	0x3cb74668	0.02237244
24	0xbc7fa6ec	-0.015603762
25	0x3d4d47cf	0.05011731
26	0xbd33aa4e	-0.043863587
27	0x3d791f9b	0.060821157
28	0x3d6f911f	0.058488008
29	0x3d390271	0.045168344
30	0x3c3e6575	0.011620869
31	0xbd07ef5d	-0.03318726
32	0x3d70c634	0.05878277
33	0xbc6b9c8b	-0.0143805845
34	0xbd0e6f75	-0.034774262
35	0x3d8647b0	0.06556642
36	0xbcdd2a60	-0.026997745
37	0x3d186c2a	0.03721253
38	0x3d08a917	0.03336438
39	0xbd188140	-0.037232637
40	0x3d4f8ffb	0.05067442
41	0xbbc116dc	-0.0058926176
42	0x3d2733fa	0.040821053
43	0xbd73948b	-0.059467833
44	0x3cf29d2f	0.029615967
45	0x3d8f60dc	0.07000896
46	0xbd3113b3	-0.043231677
47	0x3da67f5b	0.0812976
48	0xbd6a6f05	-0.057234783
49	0x3cb2417d	0.021759743
50	0x3cceae17	0.025229497
51	0xbb6ca221	-0.0036107379
52	0x3cde961b	0.027171185
53	0x3cac69e1	0.02104658
54	0xbd29e069	-0.04147378
55	0xbd9979ea	-0.074939564
56	0xbd89b758	-0.06724423
57	0xbb865486	-0.0040994314
58	0xbb0ea9a9	-0.0021768606
59	0xbc75498f	-0.014971151
60	0xbb918993	-0.004441449
61	0xbd9dc308	-0.07703215
62	0xbdaa7d0e	-0.083246335
63	0xbd131832	-0.035911746
64	0xbda9cbee	-0.082908496
65	0x3d29731e	0.04136955
66	0xbceb725f	-0.02874106
67	0xbd271bec	-0.040798113
68	0x3be83604	0.0070865173
69	0x3c7e7865	0.015531634
70	0x3d37072e	0.04468458
71	0xba1fe864	-0.00060999976
72	0x3ce7eff2	0.028312657
73	0x3c8c3af9	0.017117964
74	0x3d93fd7f	0.07226085
75	0x3cb91871	0.022594662
76	0x3ce296dd	0.027659828
77	0xbb810455	-0.003937284
78	0x3d1378d5	0.036003906
79	0xbc043c23	-0.008070978
80	0xbd2a6f0e	-0.041609816
81	0xbd5cc9e9	-0.053903494
82	0x3d542fe6	0.051803492
83	0x3b8e9254	0.0043509398
84	0x3dac5072	0.08413781
85	0x3d4d0662	0.050054915
86	0x3d983a42	0.07432987
87	0xbc230ea1	-0.009952218
88	0x3d63ca06	0.055612586
89	0x3c0a10a0	0.008426815
90	0x3c851dc4	0.016249545
91	0x3cc3b3dd	0.023889476
92	0xbd6584ce	-0.056034856
93	0x3d9f002b	0.07763704
94	0x3cf8b9ad	0.030361975
95	0xbcae922d	-0.021309936
96	0xbd8a30d3	-0.06747594
97	0xbd59cd0d	-0.053174067
98	0xbc0f4b54	-0.008745987
99	0x3c1fd2e8	0.009754874
100	0x3d01bcbc	0.03167413
101	0x3daaaba7	0.08333521
102	0x3d857fa9	0.0651849
103	0xbbd79990	-0.0065795854
104	0xbc96422c	-0.0183421
105	0x3d8c31c4	0.068454295
106	0xba953254	-0.0011382797
107	0x3c754680	0.014970422
108	0xbb8b0064	-0.00424199
109	0x3d979dc1	0.07403136
110	0x3d3eae1e	0.04655277
111	0x3d15ae9f	0.036543485
112	0x3cef60b5	0.029220918
113	0xbc391efe	-0.011298893
114	0x3ce36b80	0.027761221
115	0xbd822b11	-0.063558705
116	0xbd7add32	-0.061246105
117	0x3cd4d9b8	0.025982723
118	0x3c69d915	0.014272948
119	0xbd798d20	-0.060925603
120	0x3cff202b	0.031143269
121	0x3d1651bd	0.036699045
122	0x3d4beec5	0.049788255
123	0xbd2e8063	-0.042602908
124	0xbd4cc86a	-0.049995817
125	0xbac3d338	-0.0014940267
126	0xbbdfabb7	-0.00682589
127	0xbbbe5556	-0.0058085127
128	0xbd87759e	-0.066142306
129	0x3d7c17fb	0.061546307
130	0x3dad9cad	0.08477149
131	0xbd287e9f	-0.04113638
132	0x3d82c657	0.063854866
133	0x3ca0b0e0	0.01961559
134	0x3cb3e771	0.021960946
135	0xbbef5d4e	-0.007304824
136	0x3d98a0b4	0.07452527
137	0xbcb31f20	-0.021865427
138	0x3c9896c9	0.018626587
139	0xbb2fe5db	-0.0026839885
140	0x3c31c7d3	0.010850864
141	0xbd3c6034	-0.045990184
142	0xbd89a5d4	-0.06721082
143	0x3d5779ca	0.05260638
144	0xbdac7e3b	-0.08422514
145	0xbd7c5f43	-0.061614286
146	0x3da4d6e4	0.080488
147	0xbd3752f8	-0.04475686
148	0xbc3b3c42	-0.011427941
149	0xbda6aa65	-0.08137969
150	0xbcdccbb4	-0.026952602
151	0xbd28925b	-0.0411552
152	0x3d06a74c	0.03287439
153	0x3d38d1ad	0.045121837
154	0x3da06e9e	0.078335986
155	0xbcebe47d	-0.028795475
156	0x3d9875e2	0.07444359
157	0x3d061570	0.03273529
158	0xbd993ed1	-0.074826844
159	0xbda17f74	-0.07885638
160	0xbc8d4cf7	-0.017248614
161	0x3d9d16b1	0.07670344
162	0xbbd2fbd4	-0.0064387117
163	0xbd7e11ad	-0.062028576
164	0x3d3da98f	0.04630428
165	0xbdbc081f	-0.091812365
166	0x3d6ed73b	0.05831073
167	0xbba94684	-0.005165877
168	0xba899890	-0.0010497738
169	0xbd0a368f	-0.033743437
170	0x3bd65a69	0.0065415394
171	0x3921dbf5	0.00015436097
172	0x3d8a88fb	0.06764408
173	0x3d9f39dd	0.077747084
174	0x3d0e725b	0.034777027
175	0xbc7b229b	-0.015328075
176	0xbb1c769f	-0.0023874415
177	0xbd7f5ddf	-0.06234538
178	0x3d3ad880	0.045616627
179	0xbcd19f43	-0.025588637
180	0xbdc5a9ab	-0.09651502
181	0xbd1e7565	-0.038686175
182	0xbd7ed356	-0.062213264
183	0xbd99ed28	-0.07515937
184	0x3c276c22	0.010218652
185	0x3b69368b	0.0035585489
186	0xbd6a423d	-0.057192076
187	0xbd909d2f	-0.070612304
188	0x3ca3eb9c	0.020009808
189	0x3c8de0f0	0.017319173
190	0x3d5e084b	0.054207128
191	0x3d21db04	0.03951551
192	0xbd815c49	-0.0631643
193	0x3d281105	0.041031856
194	0xbdafc571	-0.08582581
195	0xbda1a887	-0.07893472
196	0x3ce7fbb3	0.028318262
197	0x3d9d972e	0.07694851
198	0x3d134d58	0.035962433
199	0xbc0119ed	-0.007879716
200	0xbd3091af	-0.043107685
201	0x3da765ec	0.08173737
202	0xbd83d483	-0.06437018
203	0x3d9ed90c	0.07756242
204	0xbd673d85	-0.056455154
205	0xbdb3f80c	-0.087875456
206	0xbb18ebd8	-0.0023333933
207	0x3c9693b3	0.018380975
208	0xbd9adbd7	-0.075614624
209	0xbd07f795	-0.033195097
210	0xbbfa2843	-0.007634194
211	0xbc50cba5	-0.012743865
212	0xbd3fdf04	-0.046843544
213	0x3da22da4	0.079188615
214	0xbd8c6238	-0.06854671
215	0x3d5cb915	0.053887445
216	0x3ca88f46	0.02057613
217	0xbd355289	-0.044268165
218	0x3d03ee4f	0.03220969
219	0xbd98a6ae	-0.074536666
220	0xbd91ef40	-0.071257114
221	0x3d42a065	0.047516245
222	0xbd45f80a	-0.04833225
223	0x3d2a8351	0.04162914
224	0xbdb88916	-0.09010522
225	0x3c6092c7	0.013706869
226	0xbdbbcd7e	-0.09170054
227	0x3d0e60ec	0.0347604
228	0x3d9f63c4	0.07782701
229	0x3d431d87	0.04763558
230	0x3ca7b83d	0.020473594
231	0x3d6a5fd6	0.057220303
232	0x3d9738de	0.073838934
233	0x3d34b0e8	0.044114023
234	0x3cfe0be8	0.031011537
235	0x3cdb5e0c	0.026778243
236	0x3c9bbca5	0.019010851
237	0x3d56025a	0.052248336
238	0x3d859c65	0.065239705
239	0xbce7b67c	-0.028285258
240	0x3c4e1dbb	0.0125803305
241	0x3d350d10	0.04420191
242	0xbd97915b	-0.07400771
243	0xbd9aae89	-0.07552821
244	0xbd01182b	-0.03151719
245	0x3bc4de62	0.0060079554
246	0x3d5ad5ec	0.053426668
247	0x3d2151b1	0.039384548
248	0x3d298e6b	0.041395586
249	0xbcb60552	-0.022219334
250	0xbcda0ea3	-0.026618307
251	0xbdc1f8e0	-0.09471297
252	0xbaeddfc2	-0.001814835
253	0xbcb0ed33	-0.02159748
254	0xbd878715	-0.06617562
255	0x3d1a64b8	0.03769371

critic.2.bias f4 [128]
0	0xbc8b4ad8	-0.017003462
1	0x3d36b2f4	0.044604257
2	0x3d957f1a	0.07299633
3	0x3c0fb296	0.008770606
4	0x3cd77094	0.026298799
5	0x3da90c6c	0.082543224
6	0xbd2439fc	-0.04009436
7	0xbc454856	-0.012041172
8	0x3c8203d2	0.015870962
9	0x3d417eea	0.047240175
10	0x3d49140c	0.049091384
11	0xbd04f428	-0.032459408
12	0x3d2e4555	0.04254659
13	0x3c28346a	0.010266403
14	0xbd859925	-0.065233506
15	0xbd23427a	-0.03985832
16	0xbc438946	-0.011934584
17	0xbdb29b37	-0.08721011
18	0x3cd00c29	0.025396423
19	0xbd282d8f	-0.041059073
20	0xbd31429e	-0.04327642
21	0x3cb665b3	0.02226529
22	0xbc83cd6d	-0.016089166
23	0x3d752b42	0.059855707
24	0x3b2bb39e	0.002619959
25	0xbc803c6d	-0.015653813
26	0x3d921cb5	0.07134382
27	0xbd2f055d	-0.042729724
28	0x3d847c3e	0.0646901
29	0xbc1d86d4	-0.009614665
30	0x3d7e77a5	0.06212582
31	0x3d681781	0.05666304
32	0xbd24781d	-0.04015361
33	0xbc893cd0	-0.01675263
34	0xbb75330e	-0.0037414464
35	0x3d25a78c	0.04044299
36	0xbc93001a	-0.017944384
37	0xbd0c3c70	-0.034237325
38	0xbc39d4c3	-0.01134223
39	0xbcd66af5	-0.026174048
40	0x3d8b061a	0.06788273
41	0x3dace9e3	0.08443048
42	0xbd429ab0	-0.047510803
43	0x3d972338	0.07379764
44	0x3db3c640	0.087780476
45	0xbd877067	-0.06613236
46	0x3c9c4da9	0.01908
47	0xbd9deb25	-0.07710866
48	0xbda9fa63	-0.082997106
49	0x3d4ca7de	0.049964778
50	0xbccabe64	-0.024748988
51	0xbd69ea84	-0.057108417
52	0xbccfcec4	-0.025367148
53	0xbc87cb88	-0.016576543
54	0xbd91931f	-0.07108139
55	0x3d050222	0.032472737
56	0x3cdeeb0f	0.027211694
57	0x3cd2f836	0.025753122
58	0xbd00862e	-0.031377964
59	0xbd691bd7	-0.056911316
60	0xbd1b28eb	-0.03788082
61	0x3ca14669	0.019686894
62	0xbd684cdf	-0.056713935
63	0x3d501158	0.05079779
64	0xbcf353a6	-0.029702973
65	0xbd52b939	-0.051446173
66	0x3c331c23	0.010932001
67	0xbdad55e4	-0.08463648
68	0x3dac8522	0.084238306
69	0x3da22c37	0.079185896
70	0xbdb2fff7	-0.08740228
71	0xbd8a577d	-0.06754968
72	0x3db28746	0.087172076
73	0xbd54dbee	-0.051967554
74	0xbcdff94e	-0.027340557
75	0xbd0525c5	-0.032506723
76	0xbd7c67cb	-0.061622422
77	0x3d234a92	0.039866038
78	0x3d4b3e77	0.049620118
79	0x3d2a19fe	0.041528694
80	0xbbb54f3f	-0.0055331285
81	0x3d770c5d	0.060314525
82	0xbd8eda48	-0.069752276
83	0xbc8b1d70	-0.01698181
84	0x3d18ee06	0.03733637
85	0x3d2b441d	0.041813005
86	0xbc222555	-0.009896596
87	0xbd5ef198	-0.05442962
88	0x3d26d95e	0.04073464
89	0x3d88450a	0.06653793
90	0xbda0aa49	-0.07844979
91	0xbdba1e45	-0.09087805
92	0xbd5d1e00	-0.05398369
93	0xbb4d037c	-0.0031282594
94	0x3a4e1353	0.0007861156
95	0xbdb27124	-0.08712986
96	0xbd8a8131	-0.067629226
97	0xbd45f174	-0.04832597
98	0x3c593317	0.01325681
99	0xbd487d8b	-0.048947852
100	0xbc782b3f	-0.015147029
101	0x3da71643	0.08158543
102	0xbd29245e	-0.041294448
103	0xbd38ca10	-0.045114577
104	0x3d43ab17	0.047770586
105	0xbd1e8136	-0.038697444
106	0xbd76b888	-0.060234576
107	0x3cc400de	0.023926195
108	0xbb84304d	-0.004034078
109	0xbd7a03f3	-0.061038923
110	0x3d8f9263	0.07010343
111	0xbc563fa9	-0.013076701
112	0x3d9f8555	0.07789103
113	0xbd8dee8d	-0.069302656
114	0xbc812435	-0.015764335
115	0x3cca9f19	0.024734067
116	0x3d27e0c1	0.040985826
117	0x3d8690b2	0.06570567
118	0xbd7318f3	-0.059349965
119	0xbcc0be2b	-0.02352818
120	0xbd584722	-0.052802213
121	0x3d85c459	0.06531591
122	0x3d41efc6	0.047347806
123	0xbd6941c5	-0.05694749
124	0x3a4a80ed	0.00077249
125	0xbd5e4598	-0.05426559
126	0xbc9c89c9	-0.01910867
127	0x3ba4fc18	0.0050349347
