logs/rsl_rl/arm_t_reach_ik/2025-10-14_14-27-05/model_0.pt (torch, 505058 bytes, 42 tensors)

std f4 [6]
000000 f9 d9 99 3e 9b 12 99 3e 5b d9 9a 3e 39 4a 9b 3e
       0.30049112 0.29897007 0.30243954 0.30330065
000010 3c e4 99 3e cd e9 9a 3e
       0.30056942 0.302565

actor.0.weight f4 [128, 25]
000000 0e a5 18 3e 0c d5 2a 3e 16 b3 5d bd df f7 3d 3e
       0.14906713 0.16682833 -0.054125868 0.18551587
000010 a0 c0 45 bd 62 c0 34 3d c3 a7 be bd 1a 44 dc 3d
       -0.048279405 0.044128783 -0.09309342 0.10755177
000020 d0 99 36 3e 0a 39 17 be 78 52 37 3e 70 76 03 3d
       0.17832112 -0.14767852 0.17902553 0.032095373
000030 e1 05 13 3e fb 6f f2 3c 90 af c9 3d c5 af ba bc
       0.14357711 0.029594412 0.09847939 -0.022788892
000040 6c 5d 1e 3e 5f 24 1a 3d 24 25 b6 bd e0 69 31 3d
       0.15465325 0.037632342 -0.08893803 0.04331386
000050 a3 cb c0 bd ec 0d b4 bc 19 e4 b1 bd 5c ef 05 3e
       -0.094138406 -0.021979295 -0.08686084 0.1307959
000060 49 1e 1b be d5 25 b5 bd 79 45 50 bd 4f 2b f0 bd
       -0.15148272 -0.088451065 -0.050847504 -0.117270105
000070 3a 35 86 3c fe 74 45 be 5f 3b 34 3e 1b 37 30 be
       0.016382802 -0.1928291 0.17600773 -0.17208521
000080 d0 b5 14 3e 9e aa 19 3d 14 c8 69 bd 68 fe f6 3d
       0.14522481 0.03751623 -0.057075575 0.12060243
000090 38 2b 0d 3d b7 c7 24 3e eb d0 84 3c 95 ad 8e bd
       0.034465045 0.1609181 0.016212901 -0.06966702
0000a0 b3 fd 4e 3d d7 13 80 bd e4 0e a5 3d 32 67 30 3e
       0.050534915 -0.06253784 0.08059481 0.17226866
0000b0 58 7c dd 3d 38 aa be bd e7 ba dd 3d ef 70 03 3d
       0.10814732 -0.093098104 0.108266644 0.032090124
0000c0 0b ca cf 3d da 34 f8 bd 71 d8 44 be 4d f1 a5 bd
       0.101459585 -0.12119456 -0.19223191 -0.08102665
0000d0 cf 2e 13 be 8b db 25 3e 75 b5 82 3d 6c 31 9c 3d
       -0.14373325 0.1619703 0.063822664 0.07626614
0000e0 09 8b 75 3d 36 8a 15 bc 73 b1 18 3e 48 fb 0e be
       0.059947047 -0.00912719 0.14911442 -0.13963044
0000f0 9f b4 26 3c 0c 93 07 be 5b f8 62 3d 4f 51 7e bd
       0.010174899 -0.13239688 0.05541263 -0.06208926
000100 28 a4 6f 3d df 28 24 bd e5 97 26 3e 97 ee e5 bd
       0.05850616 -0.04007804 0.1626888 -0.11227148
000110 66 34 fe bd 25 02 f1 bd ee 21 3e 3e 27 92 7c 3d
       -0.12412338 -0.11767987 0.1856763 0.06166282
000120 64 90 49 3e bd 12 29 be 30 66 4d be be c7 20 be
       0.19683987 -0.16511054 -0.20058513 -0.15701196
000130 d1 71 07 be d6 4a af 3d 75 87 88 3d 3f db 29 3e
       -0.13227011 0.08559196 0.066664614 0.16587542
000140 78 5e d4 bd ca 19 0f be ff 2c c9 3d cd 96 9d bd
       -0.10369581 -0.13974681 0.098230354 -0.076947786
000150 6b e0 02 3e 66 8b 50 bd 79 a7 ed 3d de 17 23 be
       0.12780921 -0.05091419 0.116042085 -0.15927073
000160 2e 52 cf bd f9 a1 83 3d 92 34 30 3d a3 b5 37 bd
       -0.101230964 0.06427378 0.043018885 -0.044850957
000170 82 6c ec 3d 8f 7c 10 3e 8a 72 13 be 97 58 eb bd
       0.11544134 0.14110015 -0.14399162 -0.114915065
000180 1f c8 33 3e 63 67 97 bd a5 16 99 bd 27 69 3f be
       0.17556809 -0.07392766 -0.07475022 -0.18692456
000190 8a 44 f7 bd 14 a1 3d 3d e2 a8 e2 bc d5 c8 0f be
       -0.1207362 0.046296194 -0.02766842 -0.14041455
0001a0 ba 08 64 b9 57 9b 07 be 32 66 31 be 7a 99 d9 bd
       -0.00021747025 -0.13242851 -0.1732414 -0.106249765
0001b0 51 2b 2f be 8f 34 07 be fb 1d 49 3e 2a 7c 2d 3d
       -0.17106368 -0.13203643 0.19640343 0.04235474
0001c0 6b 20 6a 3d e6 31 3c be aa 29 03 be a2 18 92 bd
       0.057159822 -0.1837841 -0.12808862 -0.071336046
0001d0 3b 2a be 3c d5 2c 2d be a2 f5 b6 bd a3 b0 ea bd
       0.023213496 -0.16911633 -0.089335695 -0.11459472
0001e0 bd a3 cf 3b 99 63 9f bd 1b 2d 0a bc 1b 25 05 be
       0.006336658 -0.077826686 -0.008433606 -0.13002436
0001f0 39 e4 15 be 5d bc ee bd cf a4 83 bd 5f 34 1e be
       -0.14637841 -0.11657021 -0.06427919 -0.15449665
000200 97 b1 2e 3e 38 d7 21 bd 3e 37 2f 3e 04 2f 8c 3d
       0.17059933 -0.03951189 0.17110917 0.06844905
000210 3c 56 28 be a3 f5 13 3e 7c 19 73 bd ec 46 99 bd
       -0.16439146 0.14449172 -0.059350476 -0.074842304
000220 6f df 29 be 7c cf 4d be 91 79 7a 3d 24 e7 35 bd
       -0.1658914 -0.2009868 0.06115109 -0.044409886
000230 c6 64 90 3d c1 30 21 be 7d 5b 18 3e 17 83 12 be
       0.07050471 -0.15741254 0.1487865 -0.1430782
000240 b3 ad 26 bd 2a d1 37 3d bf c0 db 3d c0 73 27 3e
       -0.040692996 0.04487721 0.10730123 0.16352749
000250 0a c0 36 3e 68 db 1b be 8a d1 2b 3d 05 0a ae bd
       0.17846695 -0.15220416 0.04194788 -0.08498005
000260 9e 3e 71 bc 74 94 17 be 0f eb 3a 3e 77 1e 14 be
       -0.014724402 -0.14802724 0.1825373 -0.14464746
000270 ba d2 dd 3d e3 53 9b 3d c4 27 92 3d 8e 1a da bd
       0.108312085 0.075843595 0.07136491 -0.10649596
000280 32 4f 3c 3e 7a 92 2b 3d 46 5b f7 3c b0 a8 32 be
       0.18389586 0.041887738 0.03019489 -0.17447162
000290 04 8b a5 3d 96 49 03 bd 92 31 b7 bd 4d 91 2c 3e
       0.08083156 -0.0320526 -0.08945002 0.16852303
0002a0 0a 72 42 3d 32 26 e5 bd ad d6 be bd ca b4 bc bb
       0.047472037 -0.11188926 -0.0931829 -0.0057588564
0002b0 96 4d f1 3d b5 26 58 bd 04 b3 f5 bd a0 ce 87 bd
       0.117823765 -0.05277129 -0.11997035 -0.066312075
0002c0 a0 cb 16 be a3 76 99 3d 9a 2c 1c 3e ce f7 3e be
       -0.14726114 0.07493331 0.15251389 -0.18649217
0002d0 71 39 35 3d 0c de d5 3d 74 4d 0d 3d a2 cd 9a bd
       0.044244234 0.10442743 0.034497693 -0.075587526
0002e0 56 d2 d8 3d b1 7a d8 3d 2f a1 99 3d 67 1f e3 bc
       0.105869934 0.105702765 0.075014465 -0.027724935
0002f0 e8 da 54 bd 75 87 a1 3c be 03 1e bd e2 d5 84 bd
       -0.051966578 0.019717911 -0.038577788 -0.064861074
000300 a8 1f 05 3e 8a 2b 2a 3e bd 15 a3 bc 4c b5 3e bd
       0.13000357 0.16618171 -0.019907827 -0.046559617
000310 48 aa 40 bb c5 a8 0b bc ce 8f 4f 3d 57 0f 75 3d
       -0.002939837 -0.0085241245 0.050674252 0.059829082
000320 47 6f 3d be db 0b 8a bd 3a c5 32 3e 51 cf 9c 3d
       -0.1849948 -0.067405425 0.17458048 0.0765673
000330 38 d8 4b bc be 21 ef bd 14 1a 01 be cc 93 33 be
       -0.012441687 -0.11676358 -0.12607604 -0.17536849
000340 18 41 79 bd 52 44 85 3d af fb fc 3d d6 78 c4 3d
       -0.060853094 0.06507172 0.12352692 0.0959336
000350 58 f2 39 be c9 89 fb bd 2a 2b d0 bc 32 30 41 3e
       -0.18158853 -0.1228214 -0.025411207 0.18866041
000360 0f 30 08 3d 19 c7 6d bd 68 94 a4 3d 4e 1d 9b bd
       0.033248957 -0.058051202 0.08036119 -0.07573949
000370 5c d5 ff bd 7f 40 1b 3e 9d 27 b1 bd b5 45 40 bd
       -0.12491867 0.15161322 -0.08650134 -0.046941478
000380 27 1f 50 be 34 cc 0a 3e f4 d3 1d 3e 85 51 9c 3d
       -0.20324384 0.1355446 0.15412885 0.07632736
000390 60 17 0f be c7 4d 48 be 2b 5f 28 be ee b7 12 3e
       -0.1397376 -0.1956092 -0.16442554 0.14327976
0003a0 56 3b d0 3d cd 95 30 3e 17 27 df 3d e6 ce 37 3d
       0.101675674 0.17244644 0.10896128 0.044875048
0003b0 f6 55 7c 3b 71 25 23 be 3a bb 33 be 2b 38 3e be
       0.0038503385 -0.15932252 -0.1755189 -0.18576114
0003c0 9b fa a6 3d 15 41 bf bd 3c 0f 19 bd 88 be e9 bd
       0.08153268 -0.09338585 -0.037368044 -0.11413294
0003d0 44 04 2a bd 71 1e 09 be d8 9c 01 be b4 f0 93 3d
       -0.041507974 -0.13390519 -0.12657487 0.07223645
0003e0 98 f4 71 bd e1 d9 03 3e 1f a0 8f bd f0 a1 16 be
       -0.059071153 0.12876083 -0.070129625 -0.14710212
0003f0 37 bf 28 bd 54 d6 bc bd 62 dc 8b bd 35 b7 3c be
       -0.04119798 -0.09220567 -0.06829144 -0.18429263

actor.0.bias f4 [128]
000000 b3 91 1a be b4 4f 9e 3d f6 8e d6 3d 15 8d 35 3e
       -0.15094642 0.07730046 0.104764864 0.177296
000010 f7 43 49 be 5f c6 39 3e bc c3 1b 3e 64 5e 46 3e
       -0.19654833 0.18142079 0.15211385 0.19371945
000020 cd aa d5 3d 54 63 bb bd cd d9 1b 3e b4 9a 3f 3e
       0.10432968 -0.09149805 0.15219803 0.18711358
000030 fb 02 9e bd 0b 1c e8 bc c4 9e 19 3e 19 0a 21 3e
       -0.07715412 -0.028333684 0.1500197 0.15726508
000040 a5 20 03 3e d1 52 1a 3e 5e e2 d3 bd dc 14 2b bd
       0.12805422 0.15070654 -0.103459105 -0.04176794
000050 7e 63 a1 bd 2d b2 d6 3d aa f3 3d 3d 53 6f 1f be
       -0.07880305 0.10483203 0.046374954 -0.1556981
000060 3f 0f f7 bc 39 74 22 be 4e 61 45 be a5 9c 38 3e
       -0.030158637 -0.15864648 -0.192754 0.18028505
000070 dc 75 dc bd b0 d9 ab 3d eb e6 52 bd 2b a6 15 bd
       -0.107646674 0.0839113 -0.05148975 -0.036535423
000080 bb 0c 93 bb 04 f5 15 3e 9f 7a e7 bc cf 9c 26 3e
       -0.0044876016 0.14644247 -0.028256712 0.16270755
000090 ba 57 f0 3d 55 08 0c 3e 9c 4c 38 be 28 ef c0 bd
       0.117354825 0.13675053 -0.17997974 -0.094206154
0000a0 7f a3 2e be 54 f4 3b bd 35 fe 2c bd d3 e4 09 3d
       -0.17054556 -0.045887306 -0.04223462 0.03366549
0000b0 75 bb 3c 3e 61 9c b1 3d 45 8d 17 be 42 44 01 be
       0.18430884 0.08672405 -0.14799984 -0.12623695
0000c0 2c ad 19 3e 1f c9 94 3c d2 ff 5c 3d ad f4 dc bd
       0.15007466 0.018162308 0.053954907 -0.10788856
0000d0 b9 b1 d1 bc 8c ec 78 3d b0 18 05 be f0 43 06 3e
       -0.02559744 0.060772464 -0.12997699 0.13111854
0000e0 53 01 cb 3d 62 01 f1 bd 8a ad ae bd f0 8f 4d bd
       0.09912362 -0.11767842 -0.08529194 -0.050186098
0000f0 40 e0 c7 3c fe fb 89 bd 17 c8 43 3e 7b 58 49 be
       0.024398923 -0.06737517 0.19119297 -0.19662659
000100 90 2f f1 bd 87 8d fd bd 97 bc 69 3d df f7 9b 3c
       -0.1177665 -0.1238051 0.05706462 0.019039093
000110 b6 87 83 bd ff c5 25 3e 96 9b 2c be ef 7f 8d 3d
       -0.06422369 0.16188811 -0.16856226 0.06909167
000120 d3 1b e7 bd 13 5a 58 bd a6 93 47 be 2e 18 16 be
       -0.11284604 -0.052820276 -0.19489917 -0.14657661
000130 4b 63 29 be ed 5a bc 3d f2 29 99 bd 5c f4 d4 3d
       -0.16541784 0.0919703 -0.074787036 0.1039817
000140 8d 35 e2 bd 2f ac 61 bd 64 91 c5 3c c4 f9 27 3e
       -0.1104537 -0.055095848 0.02411718 0.16403872
000150 c2 72 79 bd c3 6c f2 3d eb 3c 58 3d e1 43 f4 3d
       -0.060900457 0.11837151 0.05279247 0.119270094
000160 6a ec f6 3d 29 2a 9c 3d 9c 6d 88 bd 70 2a 6a bd
       0.12056811 0.07625229 -0.06661531 -0.057169378
000170 16 8e 9e 3d 5f e8 d6 3d a3 0a 4b bc a1 cd c0 3d
       0.077419445 0.1049354 -0.012392673 0.094142206
000180 32 5b f7 bd 0d 61 e1 3d 80 d8 aa bc 33 4c 0d be
       -0.12077941 0.11004839 -0.020855188 -0.13798599
000190 c9 6a ba bd 54 c5 1e be f1 8b 11 3d 53 dd f3 bd
       -0.09102399 -0.15504962 0.03553385 -0.119074486
0001a0 c7 04 68 bd 1b 78 a0 bc e7 3d ed bd 12 ec 66 39
       -0.05664518 -0.01958852 -0.115840726 0.00022022452
0001b0 58 88 c0 bc b0 a3 87 3d 65 c5 13 3e 1d fb fe bd
       -0.023502514 0.06623018 0.14430769 -0.1245024
0001c0 7d a7 e5 3d 27 34 1f bc 7f 23 ee bd e4 cf b9 bd
       0.112135865 -0.009717024 -0.11627864 -0.09072855
0001d0 b7 a6 3e 3d 7a 64 1a 3d 54 a8 f4 bb ae a6 cc bd
       0.04654571 0.03769348 -0.0074663553 -0.09992729
0001e0 8e 64 bf 3d a5 d6 eb 3c 09 62 4d be 53 2f 18 bd
       0.09345351 0.028788874 -0.20056929 -0.037154507
0001f0 79 54 74 bd 08 1c ac bd f5 7b e3 bd 04 bf 2c be
       -0.059650872 -0.08403784 -0.11107627 -0.16869742

actor.2.weight f4 [128, 128]
000000 9b 7a b2 3d 42 d9 a9 bd 1c 37 aa 3d 93 6d 8f bd
       0.087147914 -0.08293392 0.083112925 -0.070033215
000010 f2 50 9a bc 7c 5b 16 bd be 1c 36 bd df 59 05 3d
       -0.018837426 -0.03670834 -0.044461004 0.03255641
000020 d8 8d 52 3d fc e9 89 bd b3 0e 1f bd 83 e8 38 3d
       0.051404804 -0.06734082 -0.038832378 0.045143615
000030 76 65 44 bc 72 6e 9c 3c aa d5 3d 3d ab a8 00 bd
       -0.011987081 0.019095633 0.046346344 -0.031410854
000040 04 9f 4a bd a1 6f 09 3d 09 c5 01 bd e5 b5 8c bd
       -0.049468055 0.033553723 -0.031682048 -0.06870631
000050 72 07 2f bd 3e c2 1c bd 57 e0 b1 3d 1f 4a 9a 3c
       -0.04273171 -0.03827118 0.086853676 0.018834172
000060 40 8b 18 3d 5d eb 77 3c fa b4 6a bd 7f d3 89 3d
       0.037242174 0.015131799 -0.0573015 0.06729793
000070 e8 3f 3b bc 38 8c cc bc a4 39 98 3d b1 1b 45 bd
       -0.011428811 -0.024969205 0.07432869 -0.04812211
000080 13 11 8e 3c 3d 50 99 bd 2a ea 11 3d 13 75 12 3d
       0.017342126 -0.07486007 0.035623707 0.035756182
000090 0f 74 92 bd 43 ac 4f 3d b2 22 40 3c 0b 5d 34 bd
       -0.07151043 0.05070139 0.011727022 -0.044034045
0000a0 87 b6 9d 3d 68 4a 17 3d b3 3f 0a 3d 45 d4 f4 bc
       0.0770083 0.036936194 0.033752155 -0.029886374
0000b0 96 21 71 bd c0 95 41 bd af 24 d3 3c 91 29 be 3c
       -0.05886992 -0.047261953 0.025774328 0.02321318
0000c0 96 86 57 bd 47 b0 aa 3d 84 78 52 3d 5c 18 03 bd
       -0.052618586 0.083344035 0.051384464 -0.032005653
0000d0 b2 da 39 3d f7 6f 0c bd a5 b4 d6 3c 83 61 99 3d
       0.04537458 -0.034286465 0.026209185 0.07489302
0000e0 68 5e b4 bd ea 75 2c bd ec d9 a0 bb bb 37 75 3c
       -0.08807069 -0.04210464 -0.004908791 0.0149669
0000f0 b8 e0 8f bd f3 dd 86 bd ab 3c cf bb 97 85 4a bc
       -0.070252836 -0.06585302 -0.006324371 -0.012360952
000100 a3 bb 27 3c 38 a9 24 3c 35 cf 92 3c d4 54 e8 3b
       0.010237607 0.0100501105 0.01792107 0.0070901904
000110 56 f1 49 3c 38 9d 1c bb e1 6b 06 3d 15 be 70 3d
       0.012325605 -0.002389742 0.032817725 0.058775026
000120 b0 ca 2b bd 7e 71 44 bd 7d 33 20 3d 1d dc 83 bd
       -0.041941345 -0.047959797 0.039111603 -0.06438468
000130 88 5e 70 3d 74 7b 29 3d 66 b8 54 3c 19 24 16 bd
       0.058683902 0.0413775 0.012983417 -0.03665552
000140 80 0e ba 3b b9 a6 8b bd f2 db 9b bd 21 d2 aa 3d
       0.005677998 -0.06818909 -0.076103106 0.0834086
000150 8d 4e 9c bd e3 ae 96 bd 49 54 0b bd 18 26 fb 3b
       -0.0763217 -0.07357576 -0.034015927 0.0076644532
000160 9f 09 aa 3c e3 6a 3b bd 6a 9b 56 bc a3 87 af bc
       0.02075654 -0.045756232 -0.013098577 -0.021426981
000170 da 59 99 3d 27 b1 a3 3d 2e aa 18 3d a3 b6 83 38
       0.07487841 0.079927735 0.03727167 6.2805855e-05
000180 ec 09 84 3d 62 f2 8f bd c0 d2 14 3d a7 ce 42 bd
       0.06447205 -0.07028653 0.0363338 -0.04756036
000190 8c 9b 8a 3d 93 8a 9d bd ee 4e 0b 3d 4f 63 95 bd
       0.067679495 -0.076924466 0.03401082 -0.07294332
0001a0 88 8c 56 3d 3f a4 89 3c 37 f6 9c 3d 16 5b 84 bd
       0.052380115 0.016801951 0.07664149 -0.06462686
0001b0 66 f1 6c 3d 21 a9 89 bd 14 63 43 bd 65 c6 18 3d
       0.057847403 -0.06721712 -0.04770191 0.03729858
0001c0 be 77 52 bc 91 dc 9a bd fb 48 97 bd aa 97 a0 bc
       -0.012845932 -0.07561601 -0.07386967 -0.019603569
0001d0 29 d1 c7 3c 96 a8 a5 3d 07 29 87 3d 7a ae 5d 3b
       0.024391728 0.08088796 0.06599622 0.003382592
0001e0 89 05 60 bd da 66 9f bd 6c e7 a4 3d 21 fa 61 bd
       -0.05469278 -0.07783289 0.08051953 -0.055170182
0001f0 65 5c cd bc 36 11 96 bd ee fc 90 bd b4 e4 89 3c
       -0.025068471 -0.073275015 -0.070794925 0.016832687
000200 5e d3 ea bc b4 f0 e7 3b 60 0c af bb 48 d9 c8 3b
       -0.02866524 0.0070782546 -0.0053420514 0.0061294176
000210 a5 fc 1c bc 8d f5 9b 3a 66 1e 25 3d 6e ca 75 3d
       -0.0095817195 0.0011898741 0.040312193 0.060007505
000220 56 e6 89 3d 1d e4 8c bd f5 9e a6 bd a5 6a 8d bc
       0.06733386 -0.06879447 -0.081357874 -0.017262766
000230 3e ef 30 bc d4 be 3c 3d b7 1a 9e 3d f9 a3 e0 3c
       -0.010799227 0.046080425 0.07719939 0.027421938
000240 9b e9 73 bd cb de 6e bc 78 19 5e 3d 78 eb ea 3c
       -0.059548955 -0.014579485 0.054223508 0.028676733
000250 25 57 86 bd 14 57 eb 39 3d a4 a8 bd 9d 9e 24 bd
       -0.0655959 0.0004488757 -0.08234451 -0.040190328
000260 db f1 62 3d e1 44 0f bd a3 bd 46 3d 2c 9c 9a bd
       0.055406433 -0.034977797 0.048520695 -0.07549319
000270 04 3a 93 3d 06 7d 1a 3d db 7e 72 3d 0e e3 b7 3c
       0.071888 0.037716888 0.05920301 0.022447135
000280 e5 dc 11 3b 2b db 13 bd 62 d6 5e bd 38 8d 6c bd
       0.0022256908 -0.036097687 -0.05440367 -0.057751864
000290 36 74 9c 3d 5c 79 02 bd af 63 8a 3b 87 dc b4 bd
       0.07639353 -0.03185402 0.004223309 -0.08831125
0002a0 61 5f f1 3c 47 13 08 bd ff fb 9b bd 34 b0 e4 3b
       0.029464426 -0.03322151 -0.07616424 0.006979013
0002b0 26 a5 ac bd 52 d3 91 bb ed 19 88 bd e0 b1 61 3d
       -0.08429937 -0.00445024 -0.0664557 0.055101275
0002c0 f1 54 89 bd c5 2a 9b 3c c1 e6 24 3d 1a 42 85 bd
       -0.067056544 0.018941293 0.040259127 -0.065067485
0002d0 2e 54 76 3d 12 0d 9b 3d 06 fa 68 bd 16 76 26 3c
       0.060138874 0.07570852 -0.056879066 0.01015999
0002e0 cf 8f c9 3c 32 6a 90 3d 6f ae 83 3d 68 14 a6 bd
       0.024604706 0.07051505 0.06429755 -0.08109361
0002f0 d8 c0 a1 bd b7 59 a6 bd c4 4b 32 bd 69 31 68 bc
       -0.0789811 -0.081225805 -0.043529287 -0.014171937
000300 27 b6 0e bd 4a b5 5f 3d fb 30 67 bd 76 bb 9d bd
       -0.034841683 0.05461625 -0.056443196 -0.07701771
000310 b1 21 82 bd 58 00 68 bd cb 9d b8 3d 3a d3 01 3c
       -0.063540824 -0.056640953 0.090144716 0.0079238955
000320 6a 65 a8 bc c8 1e bb bc 25 0c 98 bd 0a b1 0d bd
       -0.02055617 -0.022841826 -0.074241914 -0.034592666
000330 63 af 32 3d ad 85 57 3d b4 61 91 3d c6 44 e1 3b
       0.043624293 0.052617718 0.070987135 0.0068746535
000340 09 00 56 bd 4f 57 67 bd e9 4a a8 3d 22 66 a0 bd
       -0.052246127 -0.05647975 0.08217413 -0.0783198
000350 c9 3c 89 3c bc d5 ed bb e4 24 9f 3d 6d 1f 72 3d
       0.016752617 -0.007258145 0.07770708 0.059112
000360 03 34 d4 bc 0c 8f 9c bd 67 69 17 3c 80 04 87 bd
       -0.025903707 -0.076444715 0.0092414385 -0.06592655
000370 f0 4a 88 bc 23 32 84 3c fd a6 3b 3d ee 02 a2 bc
       -0.016637295 0.016137188 0.04581355 -0.019776788
000380 2c 53 59 bd 01 2f 90 bd 99 c4 b8 bd 8d 39 eb 3b
       -0.053057835 -0.07040215 -0.09021873 0.0071784914
000390 21 ae 6c bd 5b 73 d8 3b ed c4 13 bd d9 5f 81 bd
       -0.05778325 0.0066055483 -0.036076475 -0.063171096
0003a0 a6 f2 64 3d 23 de 36 3d a6 5a 8b 3d 47 a5 a4 3d
       0.05589547 0.04464544 0.06804399 0.08039337
0003b0 7f 22 8f bd 6f 02 50 bd cb e0 81 bd 33 d9 86 3d
       -0.069890015 -0.05078357 -0.06341704 0.06584396
0003c0 37 70 52 3d e1 50 88 3d 4a 20 87 bd e1 49 58 bd
       0.051376548 0.066560514 -0.065979555 -0.05280483
0003d0 00 62 b6 3d bc 1e 97 bd bb 20 61 bd 2b ce e7 3c
       0.08905411 -0.07378909 -0.054962855 0.02829655
0003e0 35 30 a6 bd 71 fc eb bc 4f 06 06 3d ea c3 8e 3d
       -0.081146635 -0.028806897 0.03272086 0.069709614
0003f0 59 a2 76 bb a8 f4 a9 bd 56 e9 3c 3d 09 16 ad 3d
       -0.0037633388 -0.082986176 0.046120964 0.084514685

actor.2.bias f4 [128]
000000 47 f2 8d bd c7 e7 10 3d e8 21 94 bb c9 93 b5 bd
       -0.06930976 0.03537729 -0.0045206435 -0.088660784
000010 11 66 b1 bd 0b d1 0c 3c ef b5 de 3c 30 68 68 ba
       -0.08662046 0.008594762 0.027186362 -0.0008865623
000020 25 7d d1 bc af bc 71 3d aa f8 c3 3b da 83 3c bd
       -0.025572369 0.059017833 0.005980571 -0.04602418
000030 e5 bb 9b 3d 6a 6a c7 bc 42 d8 00 bd 2d 61 23 bc
       0.076041974 -0.024342734 -0.03145624 -0.009971899
000040 2c 26 97 bc af c4 ef bb 1d 4e 1e bd b5 38 5f 3d
       -0.018450819 -0.0073171477 -0.038648713 0.05449744
000050 6b 16 9d 3b 08 a7 37 3d 9a 21 47 3c 8b 33 5b 3d
       0.004793932 0.044837028 0.012154007 0.053515952
000060 36 7f 7e bd 57 f9 25 3d 21 f3 0e 3d 30 54 12 3d
       -0.062133037 0.040520992 0.034899835 0.03572482
000070 21 ea 43 bd ab 1f 1b 3c 0e d3 00 bd 64 93 fb bc
       -0.047830705 0.009467999 -0.031451277 -0.03070993
000080 d6 c2 99 bc cc c0 1d bc 0e 20 3d 3d ae 06 ac 3d
       -0.018769663 -0.009628486 0.046173148 0.083997115
000090 a4 2e c9 bc 5c 66 aa 3d ef 7c 3a 3d ba 5f a6 bd
       -0.024558373 0.08320305 0.045529302 -0.08123727
0000a0 26 c5 86 3d 47 75 8c bd d2 89 09 bd 31 eb fa bc
       0.06580572 -0.068583064 -0.0335787 -0.030629726
0000b0 da a8 d2 bb 21 64 be bd 71 96 a8 bd dc 1f 9f bd
       -0.00642882 -0.09296442 -0.082318194 -0.077697486
0000c0 0e e1 3c bd fc 78 1d bb 45 d8 7c 3d 22 a4 ab bd
       -0.046113066 -0.002402841 0.06172969 -0.08380915
0000d0 f6 d3 29 3c fc 9b 82 3d d2 b5 00 3d 4c 73 8d 3c
       0.010365477 0.06377408 0.031423397 0.017266892
0000e0 5c 89 9f bd 28 5c 61 3d 3a 14 9a bc 78 69 06 3d
       -0.07789871 0.055019528 -0.018808473 0.032815427
0000f0 83 a5 71 bd 1b 29 56 bc bf 77 39 3d 1c ba 7c bd
       -0.058995735 -0.013071324 0.045280214 -0.061700925
000100 fb 3d 8d bd bd 8f 3b bc 4d db 2f 3d 13 e9 79 bd
       -0.068965875 -0.011447844 0.04293375 -0.061013293
000110 63 69 3d 3c f0 59 0e bd 1c 0a 74 3c 2b b6 3e 3c
       0.011560771 -0.03475374 0.014894988 0.011640112
000120 6f 12 64 3d 5e bd 39 bd 70 2c a8 bd 44 7b 29 3c
       0.055681642 -0.04534661 -0.08211601 0.01034433
000130 63 5d 52 3d fe 08 14 bd 56 2a e9 3c c3 da ab bd
       0.05135859 -0.036141388 0.02846257 -0.08391335
000140 b8 9f 21 3d fa 94 3e 3d 34 d7 ab bd 5b bd c2 bc
       0.03945896 0.046528794 -0.08390656 -0.023771932
000150 79 c9 1a 3d 83 82 24 3d 8f ff a5 3c 34 2c 8c bd
       0.037789796 0.04016353 0.020263461 -0.068443686
000160 0f d2 9a 3d d5 0b a9 bd bd b5 b5 ba d9 dc 4c bd
       0.07559597 -0.0825421 -0.0013863366 -0.050015304
000170 71 ac 98 bd 6a 8d 24 bd 42 ac 9a 3d ee 9b 95 bd
       -0.074547656 -0.040173925 0.07552387 -0.07305132
000180 36 2f 80 3d bd 00 a3 3d fb a8 46 bd 5f 81 d1 3c
       0.06259005 0.07959125 -0.048500996 0.025574384
000190 0d b5 1b bd 8a 4e a1 bd f3 a2 97 bd cd 52 81 bc
       -0.03801446 -0.07876308 -0.07404127 -0.015786553
0001a0 80 d1 82 bd f3 20 21 bc e6 58 4e 3d f5 8a 28 3d
       -0.06387615 -0.009834516 0.05037775 0.041148145
0001b0 b6 70 b9 bd 82 14 0e 3d 41 ce 83 ba 43 ae fe 3c
       -0.09054701 0.034687527 -0.0010055975 0.031088954
0001c0 9e 21 69 3d 19 0f 97 bd 27 da 27 bd bd f4 1d 3d
       0.056916825 -0.073759265 -0.04097953 0.03856348
0001d0 29 94 22 3c 2b a7 c3 bc b5 82 4d bd 18 d4 5c 3c
       0.009923019 -0.023883423 -0.05017348 0.013478301
0001e0 2e 74 c1 bc 02 9b ae 3c c4 34 13 bd dd fb b3 3d
       -0.02361497 0.021314148 -0.035938993 0.087882735
0001f0 13 eb 50 3c d0 86 ef bc 72 fc 9b bd 7e 35 ab 3d
       0.012751359 -0.029239088 -0.076165095 0.08359812

actor.4.weight f4 [6, 128]
000000 6f 84 91 bd d3 f2 96 bd 0b 39 f4 3c 40 47 32 bd
       -0.07105338 -0.07370534 0.029812356 -0.04352498
000010 8e 5e 6b 3d 23 ec a3 3c e4 29 54 bd 5c c6 a8 bd
       0.05746322 0.02001006 -0.051797763 -0.08240959
000020 f3 61 82 bd 95 c3 b1 3d bd c0 13 3b a4 97 42 bd
       -0.063663386 0.086798824 0.00225453 -0.047507897
000030 52 92 9b 3d 77 96 02 3d 24 40 8a 3d b5 b8 78 3d
       0.07596268 0.031881776 0.06750515 0.060723025
000040 9f 3d 48 3d 65 e9 42 3d 9f db 0c 3d 65 59 0f 3d
       0.04888689 0.047585864 0.034389134 0.034997363
000050 eb 68 3b 3d 87 fd d0 bc 9b b5 8c bc bb 33 11 bd
       0.045754354 -0.025511516 -0.01717644 -0.035449725
000060 3e 03 43 bd c7 1d a0 3d d3 e2 59 3d cb aa 81 3d
       -0.047610514 0.078181796 0.053194832 0.06331404
000070 02 d0 16 3d 55 5a 80 3d 92 fe 35 3d 94 7b 0f bc
       0.036819465 0.062672295 0.04443223 -0.008757491
000080 a4 10 a8 bd d1 3b 04 3d 46 5e 01 bd 15 48 65 bd
       -0.08206299 0.032283608 -0.031584047 -0.055976946
000090 e7 ca 8c 3d 5c 66 9f 3d 17 54 58 3d ef 80 09 bd
       0.06874638 0.077831954 0.05281457 -0.033570226
0000a0 4f 1a 1a bd c3 fe 9c 3d 87 a3 5b 3d 3a 43 33 bc
       -0.037622746 0.076657794 0.05362275 -0.010941321
0000b0 23 e3 82 bd 39 65 19 bd 0f 8c 24 bd 8b 41 4b bd
       -0.06390979 -0.03745005 -0.040172633 -0.049623054
0000c0 b4 0d 98 bd f3 3a 94 bc e1 51 8f 3d 5a e7 14 bc
       -0.07424489 -0.018094515 0.06998039 -0.009088362
0000d0 33 32 25 3d ab c2 21 3b 98 68 a7 bd 5c 18 89 3d
       0.040331077 0.0024682682 -0.081742465 0.06694099
0000e0 6b 72 9b 3d ad a3 90 bc 4c b7 d3 3c 91 17 15 3d
       0.07590183 -0.017656172 0.025844239 0.036399428
0000f0 76 56 62 bd 48 ab 88 3c 42 08 4f bd 32 1c 22 3d
       -0.055258237 0.016683236 -0.050544985 0.03957767
000100 08 dd 88 bd d4 dd b5 3b 52 45 f0 bc 21 2c 93 bd
       -0.06682783 0.0055501256 -0.02932993 -0.07186151
000110 b3 ff 18 3c 70 8c f1 bc 43 ce 27 bb 40 cb f2 3b
       0.009338307 -0.029485911 -0.002560512 0.007409483
000120 4e 02 99 3d 32 20 7e bd ed 07 09 3d 42 6d 50 bd
       0.07471143 -0.062042423 0.033454824 -0.050885446
000130 79 45 2b 3d ec d4 f9 3c 84 e5 93 3d 06 9d 1c bd
       0.0418143 0.030497037 0.07221511 -0.038235687
000140 ba 26 20 3c f5 27 99 bc 19 a4 8f bd d4 cb 8b bd
       0.009774858 -0.01869581 -0.07013721 -0.068259865
000150 45 3d a6 3d 98 c5 62 bb 03 b9 55 3d 8f b7 97 bd
       0.08117155 -0.0034602638 0.052178394 -0.07408058
000160 e9 5c 93 3d 50 36 35 3d 8d 00 23 3d ce e4 6f 3d
       0.071954556 0.04424125 0.039795447 0.058567815
000170 c1 d0 79 bd e7 bc d2 3b 4d 2c 96 bd 16 da 01 bc
       -0.0609901 0.0064312103 -0.073326685 -0.007925531
000180 36 a4 93 3d 8f 3a 2d 3d f1 47 4e 3d 99 22 49 bd
       0.07209055 0.042292174 0.050361577 -0.04910526
000190 ac 28 9a bd c7 8c ab bc bb 3e 6f 3d 4a a5 92 3d
       -0.07527289 -0.020941151 0.058409434 0.07160433
0001a0 64 8d b1 3d 58 51 18 3d cb ca 89 bb 52 cb aa bd
       0.08669546 0.03718695 -0.004205083 -0.083395615
0001b0 b5 5d 2f bb 05 8c 4d 3d 24 3e 08 3d b6 cb 09 bd
       -0.0026758735 0.05018236 0.033262387 -0.03364154
0001c0 30 cd 2a bd 26 82 55 3d 40 61 aa 3b 3b 15 ca 3b
       -0.04169959 0.052126072 0.0051995814 0.0061670817
0001d0 22 4e c9 bc fb 81 1c 3d dd 30 9c bc 07 7a 43 3d
       -0.02457339 0.038209897 -0.019066269 0.047723796
0001e0 df 44 b0 3c 42 81 c7 bc c3 4e 05 bc 39 e2 18 bd
       0.021517215 -0.024353627 -0.008136454 -0.037325118
0001f0 2e 12 8b 3d f7 c4 b3 bc 42 be 97 3d 66 86 ac bd
       0.06790577 -0.021944506 0.07409336 -0.08424072
000200 e3 04 65 3d 72 01 07 3d 2c ef 86 3d 19 ce 1e bd
       0.055912863 0.032960363 0.06588587 -0.03877077
000210 dc 2c 80 bd 17 d1 00 3d 2d af 89 bd 5d 81 93 3d
       -0.06258556 0.031449404 -0.06722865 0.072024085
000220 00 c0 28 3c 2a ea 66 3d a2 36 80 3d ab 9b 91 bc
       0.010299683 0.05637566 0.062604204 -0.017774424
000230 70 40 0c bd 88 4b bc bc 23 e8 38 bd 07 bf c4 3c
       -0.03424114 -0.022985235 -0.045143258 0.02401687
000240 09 ec 9f 3c 73 39 68 bd dd 3b 8c 3c 53 d7 9d 3d
       0.01952173 -0.056695413 0.017118389 0.077070855
000250 73 8c 93 3d bf 45 45 3d f3 62 68 3b 57 85 2e 3d
       0.07204523 0.04816222 0.003545937 0.04260763
000260 39 bc 23 3d a5 18 14 bd e6 bb c0 bc 35 7d 1b bc
       0.039974425 -0.036156315 -0.023527097 -0.009490301
000270 db 81 38 3d a1 52 9b bd 4b 78 86 3c cb ec 81 3d
       0.045045715 -0.075841196 0.016414782 0.06343993
000280 fa 7e e2 3c 29 30 83 bd 88 e0 5a bd 94 ef a0 bd
       0.027648438 -0.0640567 -0.053436786 -0.07858196
000290 af 4f 91 bd 59 82 8a bd 56 f0 4b bc 6e 0a 12 bd
       -0.070952766 -0.06763143 -0.012447437 -0.035654478
0002a0 fc f6 b7 bd 04 4b 9e 3d ed 74 bb 3c ea 35 6d bd
       -0.089826554 0.07729152 0.022882903 -0.057912745
0002b0 b5 89 41 bd 19 c8 bf ba 6d d1 76 3d 53 84 07 bd
       -0.04725047 -0.0014631777 0.060258318 -0.03308518
0002c0 ce f8 ef bc fe b8 6b 3d 7d 94 2e bc ab 08 ee bc
       -0.029293444 0.05754947 -0.01065552 -0.029056868
0002d0 62 1b 54 3d c8 84 8b bd d8 f0 cf 3c f2 7a a9 bd
       0.051783927 -0.068124354 0.025383398 -0.08275403
0002e0 43 bc 2e 3c 57 af 82 bc fb 83 68 bd f1 c6 38 bd
       0.010665002 -0.01595275 -0.05676649 -0.0451116
0002f0 c7 b3 64 3d 80 ef 91 3d cf 54 5b 3c fd 18 18 3d
       0.05583551 0.07125759 0.013386919 0.037133206
000300 a1 21 50 3d 70 fb 5c bc c4 68 a0 ba 93 19 99 3d
       0.05081332 -0.013487682 -0.0012238254 0.07475581
000310 76 e1 5b 3d 7d 96 1e bd 4d 0d b8 3c 2a 9a d4 3c
       0.053681813 -0.038717736 0.02246728 0.025952417
000320 d9 03 f8 bc a4 8d 62 3d 15 a6 0d bd b5 30 23 3d
       -0.030275272 0.05531086 -0.034582216 0.039841373
000330 69 43 2e 3d 80 8a 28 bc 6e 9f 8a bd 7e 12 9c bd
       0.042544756 -0.010286927 -0.0676869 -0.076207146
000340 23 40 23 bc 6c 5b 4b 3d 85 48 a1 3d 4b 0a 59 3d
       -0.009964022 0.049647734 0.0787516 0.05298833
000350 7b 3e 0e 3c 27 db 03 bc 2d 51 25 3c 05 54 df bc
       0.008681889 -0.008047855 0.010090155 -0.027261743
000360 26 4e 7f bc a2 21 35 3d 24 55 8e bd 78 07 63 bd
       -0.015582597 0.044221528 -0.06949833 -0.055427045
000370 d8 c2 ee bc 9c bf 5e bd 91 59 83 bd a1 93 31 3d
       -0.029145643 -0.05438195 -0.06413568 0.04335368
000380 e4 2b 15 3d 43 b4 27 3d 66 4c 7f bd 24 eb e8 3c
       0.03641881 0.040943395 -0.06232872 0.028432436
000390 e0 ce 3c 3d dd c8 9d 3c 5b 25 2b bd cd 55 23 bd
       0.04609573 0.019260818 -0.04178367 -0.039876748
0003a0 73 4c 47 3d 55 45 f8 3c 92 d7 b0 3c 41 ec 85 bd
       0.048656892 0.030306498 0.021587167 -0.065392025
0003b0 30 05 9e bd f8 e8 8d 3d f8 c3 c9 3b 37 8a 9c 3d
       -0.07715833 0.06929201 0.0061573945 0.0764355
0003c0 e4 f8 ad bd 75 44 23 bd 8c 15 a2 bd d8 08 a9 3d
       -0.08494738 -0.039860208 -0.07914266 0.0825364
0003d0 01 36 6b 3c 64 34 16 3d 51 b0 79 3d 9f 67 81 3b
       0.014356137 0.036671057 0.060959164 0.00394912
0003e0 22 b1 50 3c 1a 28 74 bd e3 b6 62 3b dc 6c 7e 3d
       0.012737544 -0.059608556 0.0034593872 0.062115535
0003f0 97 17 61 bc ea ea 85 bd f2 38 47 bd 58 a6 84 3b
       -0.013738534 -0.06538947 -0.04863829 0.00404815

actor.4.bias f4 [6]
000000 0f 8e 54 bd 1f a9 e0 3c 10 e1 87 bc 7a 47 95 3d
       -0.05189329 0.027424393 -0.01658681 0.07289024
000010 60 8c de bb 28 46 90 3d
       -0.0067916363 0.07044631

critic.0.weight f4 [128, 25]
000000 24 9f 87 bd 89 87 1c be c6 25 70 3b c0 82 ef bd
       -0.066221505 -0.15286078 0.0036643608 -0.116948605
000010 5d 88 e0 bd cc 3f 10 3e 32 6b 42 3e 7f 1f 01 be
       -0.10963509 0.14086837 0.18986204 -0.12609671
000020 77 d0 4a be b7 c8 71 3d 77 3b 2a be d4 d0 6d bd
       -0.19806086 0.059029307 -0.16624247 -0.058060482
000030 58 e7 9d 3d 29 28 98 3d 78 3a 1f 3d ba 22 ae 3d
       0.07710141 0.07429535 0.03887412 0.08502717
000040 28 be ea bd 62 00 73 bd 10 89 9b bd dc 6b 49 be
       -0.11462051 -0.059326537 -0.07594502 -0.19670051
000050 7e fa f9 bd ed 65 de 3c 39 14 51 3d ac 20 b1 bd
       -0.12205981 0.027148211 0.051044676 -0.0864881
000060 b2 85 0b 3e 7b ed d9 bd f8 27 1c 3c ca 4a 2f 3e
       0.1362522 -0.10640999 0.009531014 0.17118374
000070 61 69 03 3e 54 97 44 3e a7 f2 59 3d d3 15 0a be
       0.12833168 0.19198352 0.053209927 -0.13484888
000080 2e 4d 86 bd 1a ba 67 bd a0 b7 17 be 5b a8 92 bd
       -0.065576896 -0.056573965 -0.14816141 -0.071610175
000090 72 ec 38 be 8f 80 ba bd d9 95 46 be 9e 7d 41 3e
       -0.18058947 -0.09106552 -0.193931 0.18895575
0000a0 e3 e9 03 3d f5 f6 3d 3e b1 a1 dd 3d c7 b0 44 3e
       0.032205474 0.18551238 0.10821856 0.1920806
0000b0 84 73 73 bd 61 d7 bf bd 8e 2b a6 bd a7 1d 33 be
       -0.059436336 -0.09367252 -0.08113776 -0.1749178
0000c0 37 7e 6e bc 7c 8e f3 3c 84 1f e6 3d e2 73 16 bd
       -0.014556459 0.029731028 0.1123648 -0.03673161
0000d0 28 f5 8f 3d 90 02 a8 3d ec bb 1d 3d 1a 75 50 3d
       0.07029182 0.08203614 0.038509294 0.050892927
0000e0 2d c0 9c bd c7 83 d9 3d 02 2c 3f be 27 fb cf 3c
       -0.07653842 0.10620838 -0.18669131 0.025388313
0000f0 f0 8d d7 3d d3 59 00 3e ae 42 a9 3d e6 76 f1 bc
       0.10525119 0.12534265 0.08264671 -0.02947564
000100 0d 66 10 3e ba ca 3f be f8 a4 33 bd e3 df 93 bd
       0.1410143 -0.18729678 -0.0438585 -0.072204374
000110 84 9b f4 3d 55 47 32 3e 84 09 34 bd b9 5b 36 3d
       0.11943725 0.17410024 -0.043954387 0.044521067
000120 16 26 f7 bc f8 33 45 bd 99 77 9f 3d 75 43 3f 3d
       -0.030169528 -0.048145264 0.07786483 0.04669519
000130 c4 5f c8 bd ec 97 3f 3d 7f 68 3f 3e 0c 81 0f be
       -0.09783891 0.046775743 0.18692206 -0.14014071
000140 1b 83 00 bd 45 44 3a be 11 71 4a bd 3a f0 4a 3e
       -0.031375032 -0.18190105 -0.049424235 0.19818202
000150 9d d1 07 3e fe dd 45 be f1 0f 32 be ac e8 4b 3c
       0.13263555 -0.19322965 -0.17388894 0.01244561
000160 5f 15 e3 bc a0 56 1d 3e 87 07 56 bd 14 84 23 3e
       -0.027720151 0.15365076 -0.052253272 0.15968353
000170 8e 44 01 be 4c 08 f5 bc 13 23 32 bc 3f f8 c0 bd
       -0.12623808 -0.029911183 -0.01087262 -0.09422349
000180 f4 9c 27 3c 9e 3a 2e bd 67 f6 c7 bd 1f da 24 be
       0.010230292 -0.04253637 -0.097637944 -0.16098832
000190 7e 4d c3 3b 1c 70 38 3e d0 9b 92 3d 64 12 1a be
       0.0059601655 0.18011516 0.07158625 -0.15046078
0001a0 ba f9 c2 bd bf 0d 01 3e 17 5a 92 bd de b3 9d bc
       -0.09520288 0.126029 -0.071460895 -0.019250806
0001b0 dd a6 be bd a9 d4 d4 3d 2c 7e 07 be 49 a6 44 be
       -0.093091704 0.10392124 -0.13231725 -0.19204058
0001c0 b2 52 16 be d8 f6 2b be 4c 7a 8a 3c 02 d5 cf 3c
       -0.14679983 -0.16793382 0.016904019 0.025370125
0001d0 d8 f5 8c bd da 01 a8 3d 57 99 4f 3c 1a 91 27 3d
       -0.068828285 0.08203478 0.012670836 0.040909864
0001e0 d3 5f ca 3d ab 38 1d 3d 78 46 47 3e e3 82 13 3e
       0.09881558 0.03838412 0.19460475 0.14405398
0001f0 f6 7c e6 bd 24 93 1a 3e 72 46 dd bc 3b fa 69 bb
       -0.11254303 0.15095192 -0.02701113 -0.0035702127
000200 a5 fd a2 3c 85 04 31 be ea 24 f9 3d 34 24 0f 3e
       0.019896338 -0.1728688 0.12165244 0.13978654
000210 8a 07 3c 3e 52 a5 28 3d de c7 3f bd e7 cc af bc
       0.18362251 0.041173287 -0.046821468 -0.02146001
000220 2a ef 96 bd 7e e5 31 be 3f 96 6e 3d ab 36 06 3d
       -0.07369836 -0.173727 0.058248755 0.03276698
000230 19 6b 4f bd ed 99 02 be 36 4e 1d bd 46 48 5e 3d
       -0.050639246 -0.1275403 -0.038404666 0.054268144
000240 26 c8 10 3e 2a e4 94 3d 8d 26 13 3e be 69 1e 3e
       0.1413885 0.07270081 0.14370175 0.15470025
000250 ae ba bb bd 1a dd c4 bb 22 e3 28 be 4e 35 ec bd
       -0.09166466 -0.0060078027 -0.16492894 -0.115336046
000260 26 af ad 3d cd be 94 3d 03 41 bd 3d 8a bc 2b 3e
       0.084806725 0.07262955 0.092409156 0.1677114
000270 80 e1 a1 3d 19 c6 c8 bd cf f1 35 bd 67 0b f6 3b
       0.07904339 -0.09803409 -0.04442006 0.0075086835
000280 7d e0 cd 3d b9 87 d0 bd 38 f8 a7 bd 52 f6 9a 3d
       0.10052583 -0.10182137 -0.08201641 0.07566513
000290 00 c0 85 3d 3d 90 49 3e d5 7a 2b 3e 15 22 bd bd
       0.06530762 0.19683929 0.16746075 -0.09235016
0002a0 3e 5d 93 3d 8b dc ee bd 7d 2f e7 bb 0f 0d 82 bc
       0.07195519 -0.11663159 -0.0070552216 -0.015875367
0002b0 65 16 34 3d cd 41 31 3e e1 a1 1f be db e8 3c 3e
       0.04396667 0.17310257 -0.15589096 0.18448202
0002c0 0b 49 0c 3e 75 10 c2 bd 6a bf 53 bd c5 ad 31 bd
       0.13699739 -0.09475795 -0.05169622 -0.04337861
0002d0 4f 63 00 3e 08 aa 54 bd c3 ab 8a 3d 8c 5d 9d bd
       0.12537883 -0.051919967 0.06771042 -0.07683858
0002e0 b0 89 26 3e 70 d2 06 bd 51 00 44 3e 2b 66 19 be
       0.16263461 -0.032915533 0.19140746 -0.1498038
0002f0 88 2f 82 bd eb 91 04 3e 80 58 89 3d c9 58 ce bd
       -0.06356722 0.12946288 0.06706333 -0.10075528
000300 78 5f 2c be c4 57 18 be 76 0f 2c be 18 5c cc bd
       -0.16833293 -0.1487723 -0.16802773 -0.09978503
000310 12 fc f7 bd 8a 62 60 bd aa a3 32 3e 77 4d 54 bd
       -0.121086255 -0.054781474 0.17445245 -0.05183169
000320 b6 e2 f4 bd fd 74 ce 3d bf cb f0 bd f1 88 c9 bd
       -0.11957304 0.100809075 -0.117576115 -0.098405726
000330 95 45 ea bc aa dc e4 bc 2a 0a fb bd 72 22 1e be
       -0.028597632 -0.027937252 -0.12257798 -0.15442827
000340 8d 89 45 be a8 63 a9 bd f1 10 cb 3d 36 44 9c 3c
       -0.19290753 -0.08270961 0.09915341 0.019075494
000350 07 9c 1f 3e 07 ed ed 3c 7f 51 15 be 3d 93 77 3c
       0.15586863 0.029043688 -0.1458187 0.015110788
000360 b1 a8 49 bd 14 f9 da 3d 81 eb 30 3d 1e c5 48 3e
       -0.049233142 0.10692039 0.043193344 0.19606444
000370 72 dd 35 be cc 84 be bd 4f 20 2e be 4f 2d 95 3c
       -0.17760256 -0.09302673 -0.17004512 0.018210081
000380 05 7a 01 be 3c ca aa bd 3f e9 40 3e 39 d3 81 bd
       -0.12644203 -0.083393544 0.18838976 -0.06339116
000390 9c d0 c0 3d ce 75 03 3e cf 62 13 3e 96 b6 23 3e
       0.09414789 0.12837908 0.14393161 0.1598762
0003a0 12 67 fc 3d 6d a2 8e 3c 94 c5 2c 3e 42 5b 42 3e
       0.123243466 0.017411435 0.16872245 0.18980125
0003b0 a6 be 09 be fc a6 25 3d 8c 94 0b 3e 07 b1 07 be
       -0.13451633 0.04044245 0.13630885 -0.13251124
0003c0 4c 19 9a 3d 94 ed 00 3e ec c8 85 3b a3 ff 69 bd
       0.07524356 0.12590629 0.0040827896 -0.05712856
0003d0 60 63 8a bc 8a 7b 38 3e 97 4d 21 be f8 2c 9e 3d
       -0.016893089 0.18015876 -0.15752254 0.07723421
0003e0 60 10 d4 bd 55 ac 05 3e be 7e a1 bd 19 1f 1c 3d
       -0.10354686 0.1305402 -0.07885502 0.038115595
0003f0 77 61 02 3e f1 97 ba bc 5a 20 ed bc 75 ae 35 3e
       0.12732492 -0.02277753 -0.02894609 0.17742331

critic.0.bias f4 [128]
000000 24 fb 88 bd 84 7d de bd 8d 3b 3a be 39 6e 25 be
       -0.06688526 -0.10863784 -0.1818678 -0.16155328
000010 72 b1 f7 3d 22 87 0d be a3 f2 f7 bd e0 46 b1 bd
       0.12094392 -0.1382108 -0.12106826 -0.086560965
000020 fc 84 cf bc 94 b6 df 3d 76 5d 53 be 59 5e b7 bd
       -0.025331967 0.10923496 -0.20641121 -0.08953542
000030 ae 03 28 bd bf bc 45 3d f9 b6 e2 bd c7 5d 63 bd
       -0.041019134 0.048275705 -0.110700555 -0.055509355
000040 fd ea dd bd 53 b2 3a bd e0 9f c3 3d 59 3b a9 bd
       -0.10835836 -0.04558022 0.09551978 -0.08263273
000050 d7 19 e1 bc d6 70 07 be 32 2b 56 3d de 6e 03 be
       -0.027478142 -0.13226637 0.052287288 -0.12835261
000060 55 0a 11 3d 05 09 55 be ed 29 96 3d 30 6b 8e 3d
       0.035410244 -0.20804222 0.073322155 0.06954038
000070 09 c8 1d be 53 7b 08 bd 96 5b f9 bd e1 aa c2 bd
       -0.15408339 -0.033320736 -0.12175672 -0.09505249
000080 05 b4 b9 3d ee 71 ed bd c6 4f d9 3d 72 5d d8 3d
       0.09067539 -0.11593996 0.10610919 0.10564698
000090 93 9b 34 3e 25 c7 a0 bd a5 87 3c be 6c 7b 00 3e
       0.17637472 -0.07850484 -0.1841112 0.12547082
0000a0 4b e3 59 bd 48 c3 9e bd 07 32 c1 bd 7b 3b 3c 3e
       -0.05319528 -0.07752091 -0.0943337 0.18382065
0000b0 a6 84 20 be f4 c2 20 3d bb de 01 3d f6 30 ac bd
       -0.15675601 0.03924842 0.031706553 -0.08407776
0000c0 20 39 e7 3d 35 08 e5 3d fe 57 07 3e f3 c7 54 3d
       0.112901926 0.11183206 0.1321716 0.0519485
0000d0 05 b1 4c 3d 37 80 64 3d 81 d9 8d bd ad 3a 26 be
       0.049973506 0.055786338 -0.06926251 -0.1623332
0000e0 60 b3 e0 3a 02 78 4f 3c 31 74 e8 3d 15 e1 0b 3d
       0.0017143302 0.012662889 0.11350287 0.0341502
0000f0 bc 40 9f 3b 23 65 91 bd 52 39 2c 3e cc fc 2d 3e
       0.004860012 -0.070993684 0.16818741 0.16990966
000100 1f 85 4b 3e 5d 50 88 bc ce 16 d7 bd 86 34 26 be
       0.19875 -0.016639883 -0.105023965 -0.16230974
000110 c0 36 4a be 58 94 2c be d6 43 87 bd 1e 7a 1e 3e
       -0.19747448 -0.16853464 -0.066047356 0.15476272
000120 48 f3 3e be d0 78 8a bd cb c4 b0 3d 6c a3 b3 3d
       -0.18647492 -0.067613244 0.08631285 0.087714046
000130 ca d8 00 3c 40 4c 56 bd 50 78 41 3c 92 bf 06 be
       0.007864187 -0.05231881 0.01180847 -0.13159016
000140 fb d7 d0 3d f0 5c d8 3d cd 9e 0f 3d 21 06 07 3e
       0.10197445 0.105646014 0.035063554 0.13185932
000150 f3 fe f4 3d 82 83 47 be 2a 49 a5 bd 05 ee 37 be
       0.1196269 -0.1948376 -0.080705956 -0.17961891
000160 e0 36 99 3d 6f 98 37 be 31 6b 3b 3d a4 d6 26 be
       0.0748117 -0.17929243 0.045756523 -0.16292816
000170 fc 6a c5 3d da 36 11 be e9 9a 38 be 0d ef a8 bd
       0.09639546 -0.1418108 -0.18027844 -0.0824872
000180 ae 96 8e 3d dd 57 ba bd 28 50 9d 3d 4f 80 15 3b
       0.069623336 -0.0909879 0.07681304 0.0022812074
000190 d9 2b e3 bd cc 3d 82 bc 0a 40 05 3e 43 5b 00 be
       -0.11092348 -0.015898608 0.1301271 -0.12534814
0001a0 34 93 2b 3e 09 b9 71 3d fb 92 bc 3d af 72 17 bd
       0.16755372 0.059014354 0.09207722 -0.036974605
0001b0 9e 05 17 3e 15 48 21 be be c1 ac bd 92 82 eb 3d
       0.14748237 -0.15750153 -0.08435391 0.11499514
0001c0 45 4e e4 bd 85 51 21 3e b3 1f 9a bd 8b c3 41 be
       -0.11147741 0.15753753 -0.075255774 -0.1892225
0001d0 c0 bf 3e 3e df 09 22 3e 68 ce 92 3d ae dc 34 be
       0.18627834 0.15824078 0.07168275 -0.17662308
0001e0 5d 11 2f 3d 85 17 42 bd 63 40 46 3e 5d 25 46 3d
       0.04274117 -0.04738571 0.19360499 0.048375476
0001f0 c2 dc b9 bc 4a 25 4c be ed c5 96 bd e2 dc 14 3e
       -0.022688273 -0.199361 -0.0736197 0.14537385

critic.2.weight f4 [128, 128]
000000 86 9e 8b bd d9 a6 02 3c f8 e7 8a bd 32 14 0e bc
       -0.06817345 0.00797435 -0.06782526 -0.008671807
000010 69 39 af bc 91 aa 4b bc 35 5e 88 bb ad 88 c8 bc
       -0.02138968 -0.012430803 -0.004161621 -0.024479235
000020 8f b9 09 bd 42 7c 2c 3d 52 ac 4a 3c 17 65 34 bd
       -0.033624228 0.04211069 0.012370186 -0.04404172
000030 2d 0d 39 3d e1 d0 b0 3d 3d 78 46 3d dd 47 20 3d
       0.04517858 0.086335905 0.048454512 0.039131034
000040 bd 54 81 bc 60 c2 85 3d 5c bc 0f bd e4 98 35 3d
       -0.015787477 0.06531215 -0.035091743 0.04433526
000050 be 88 a6 3d 96 60 2a bc 6d 3a 47 bd 72 cc d4 3c
       0.0813155 -0.010399004 -0.048639704 0.025976393
000060 f9 ac 53 bc 51 9b 50 3d 0b 8c 20 bd a1 42 7c 3d
       -0.012919658 0.05092937 -0.039196055 0.06158698
000070 e0 f3 7e 3d dc 57 39 3d af 9b 4f 3c e4 4f fd bc
       0.062244296 0.045249805 0.012671395 -0.030921884
000080 45 4a 80 3d d0 d2 6d bc a8 52 04 bd 69 16 8a 3d
       0.06264166 -0.014515594 -0.03230539 0.06742556
000090 4b 9e bb bc 1d 4b 26 3d 4e 53 16 3d 4d 01 0e bd
       -0.022902628 0.040598977 0.03670054 -0.03466921
0000a0 2f ac 6a 3d 60 64 d4 bb af 91 3c 3d 76 ab 71 bd
       0.057293113 -0.006481692 0.046037372 -0.05900141
0000b0 64 38 f8 3c aa 61 92 3d 2e 5e 26 bd 9d b7 a9 3d
       0.030300327 0.07147534 -0.04061716 0.082869746
0000c0 55 82 63 bd 43 a3 d3 3c 50 58 e2 3c f3 ce a2 b9
       -0.055544216 0.025834685 0.027630001 -0.00031053237
0000d0 a7 0e f3 3c 61 c6 be 3c e4 78 1e bd ab c2 94 bd
       0.029670073 0.023287954 -0.03868951 -0.072636925
0000e0 86 4b 84 bd 1c 0e 28 bb 1d 66 f1 38 cb 07 3f bc
       -0.064597175 -0.0025643175 0.000115107956 -0.011659573
0000f0 e5 73 3b bb 71 f6 98 bd 46 cb a8 bd a6 64 07 bd
       -0.0028603014 -0.0746888 -0.08241896 -0.03305497
000100 e4 fb 9f bd c6 96 36 3d 6c f8 e5 bc 51 05 2a bd
       -0.07811716 0.044577383 -0.028072558 -0.041508976
000110 ff 56 14 3c c3 85 99 3c 9c 5b 3f 3d d7 ac 58 3b
       0.009053945 0.01874054 0.046718225 0.0033062005
000120 85 31 ee 3c 9f 88 a5 3c f3 da 99 3d 12 35 cb 3c
       0.029076347 0.020206748 0.075124644 0.02480558
000130 48 72 05 3d ff 7d 81 3a 1a 02 1c 3d 46 4d 91 bb
       0.03257969 0.0009879469 0.03808794 -0.0044342605
000140 61 3d 2f bd 0b c7 53 bd 57 2a 54 3d 7c 53 c3 3b
       -0.042783145 -0.051703494 0.05179819 0.00596088
000150 ba 2d b0 3d 42 9c 50 3d 1f 72 9b 3d 68 1b 2a bc
       0.08602472 0.05093027 0.07590126 -0.010382511
000160 89 74 62 3d 36 f8 3a 3c 3c e1 8b 3c 4b 37 d5 3c
       0.055286918 0.011411717 0.017075174 0.026027342
000170 94 6f 60 bd dd a8 a2 3d 4d e0 04 3d 7b ab 9a bc
       -0.05479391 0.07942364 0.032440472 -0.018880596
000180 f8 e5 87 bd 9c 08 4a bd f0 eb ff bb e6 53 7b 3c
       -0.0663566 -0.049324617 -0.0078101084 0.015339827
000190 cd 6e 0a 3d a2 cb b0 3d 4c 20 83 3d e2 2d 72 bb
       0.033797074 0.0863259 0.064026445 -0.0036953618
0001a0 26 01 90 bc 4a 62 91 3d a6 76 7c 3a c1 5a 89 3c
       -0.017578673 0.07098825 0.0009630717 0.016766908
0001b0 8c 7a a6 bb 3f f5 99 3d 6a 98 43 3d dd c3 1e 3d
       -0.0050805267 0.0751748 0.047752775 0.03876101
0001c0 9a 87 05 3d d8 ac 31 bc 01 04 e6 3c 95 00 7e bd
       0.032600023 -0.010844432 0.028078081 -0.062012274
0001d0 8e bb 72 bd 0e 6f e5 3c 4d c5 9a 3c e2 73 72 bd
       -0.059260897 0.028007057 0.018892908 -0.059192546
0001e0 17 c6 0e 3d 58 82 1d 3d cb 0f 55 3d 3d af 27 bd
       0.034856882 0.038454384 0.052017014 -0.040938605
0001f0 e2 0e 41 bd 72 cd ff b9 14 d1 a2 bb 60 cc d5 ba
       -0.047133334 -0.0004879046 -0.0049687717 -0.0016311519
000200 6d cc 80 bd 11 3f 82 3d d0 22 b3 3d 4a b3 1f bd
       -0.06288991 0.06359685 0.08746874 -0.038989343
000210 14 3d 87 3d 44 bf ad 3c 03 56 c9 3c f0 06 d3 bb
       0.066034466 0.021209367 0.024577146 -0.006440036
000220 32 46 a0 3d 78 a7 bb bc bb 2c a7 3c 70 0e 82 ba
       0.07825889 -0.022907004 0.020407071 -0.0009922516
000230 82 7a 4f 3c 83 f9 2f bd 02 6b 77 bd be 5f 69 3d
       0.0126634855 -0.042962562 -0.060404785 0.056976072
000240 70 38 a5 bd f5 c2 6e bd 9f 37 a5 3d 0c 3d 2a bd
       -0.08067405 -0.058291394 0.080672495 -0.041562125
000250 0b b7 0b bc 42 39 a4 bd ff 66 c1 bc 27 54 12 bd
       -0.008527528 -0.080187336 -0.023608683 -0.035724785
000260 59 e2 11 3d 19 5e 3e 3d 8e 40 a6 3d 8f a6 dd bc
       0.035616253 0.046476457 0.081177816 -0.02705696
000270 21 91 9e 3d 54 7f 0c 3d 0f ea 90 bd b4 7e 9c bd
       0.07742525 0.034301117 -0.07075893 -0.07641354
000280 f6 5b 5a bc 1e 24 9d 3d f7 98 9a bb 41 65 75 bd
       -0.013327589 0.076729044 -0.004717942 -0.059911016
000290 14 22 47 3d e6 1b b3 bd fc e3 84 3d 14 40 46 bb
       0.048616484 -0.087455556 0.06488797 -0.0030250596
0002a0 1b 63 50 3b 79 87 07 bd a4 ef 3a 3c 4a 5b d8 3a
       0.0031797353 -0.03308818 0.011409674 0.0016506698
0002b0 f6 20 8d 3d 88 13 9b 3d 32 b9 13 3d db 03 4e bc
       0.068910524 0.07572085 0.036065288 -0.012574161
0002c0 1d 40 21 bb c2 b9 75 bd 6c d3 45 3d 18 60 bc bc
       -0.0024604865 -0.059991606 0.04829733 -0.02299504
0002d0 e8 84 bc bd c6 06 08 bd 57 a1 80 bd 86 78 94 bd
       -0.09205037 -0.033209585 -0.06280773 -0.072495505
0002e0 0e 95 56 3c 62 4d ab 3b 60 a0 53 bd 65 95 85 bd
       0.013097061 0.0052277306 -0.051666617 -0.06522635
0002f0 4d 9f d0 3c 93 3b 96 3c aa 98 6b 3d 50 4c 34 3d
       0.025466586 0.018338954 0.05751864 0.04401809
000300 d6 ef 72 bd 55 6f 34 3d 9b 12 a8 bd aa b4 a0 bd
       -0.059310757 0.044051487 -0.08206674 -0.07846959
000310 a3 4f 06 3d 77 49 a5 3d 30 09 21 3d c0 b4 b6 bb
       0.03279079 0.08070653 0.039315403 -0.0055757463
000320 72 ad 32 bd 4b 7c ae 3d 1e c3 7c bd 07 fe a0 3d
       -0.04362244 0.08519801 -0.061709516 0.07860952
000330 79 ab 5a bd 24 70 ac bd fc 23 5d 37 f2 e3 c5 3c
       -0.053386185 -0.084198266 1.3181005e-05 0.024156544
000340 e4 68 98 bd 8a a2 f7 bc be a8 e7 bb 2b 09 0f bc
       -0.07441881 -0.030228872 -0.007069676 -0.008730213
000350 2a fd 3a bd c4 a0 a2 3d f5 fb 87 bd 0a 0b 5b 3d
       -0.045651592 0.0794082 -0.06639854 0.053477325
000360 0b 8d b3 3c 65 0c 1f bd c0 86 0e 3d 4b f2 9a bd
       0.02191784 -0.03883018 0.034796476 -0.07565745
000370 1b 4a 84 bd f8 7a 40 3d 73 a5 3f bd e6 59 29 3d
       -0.06459447 0.046992272 -0.046788644 0.0413455
000380 95 a5 b3 bd a4 9f 64 3c fd eb ae bd c8 12 24 3d
       -0.08771817 0.013954077 -0.08541105 0.040056974
000390 a4 a1 a6 3d e6 1e 48 3d fb 69 b3 3c b9 b5 6e 3d
       0.08136299 0.048857592 0.021901121 0.058278773
0003a0 f2 95 9b 3d dc 16 3e 3d c4 bd 0f 3d 88 ac d8 3c
       0.07596959 0.04640852 0.035093084 0.026449457
0003b0 10 98 8e 3c d3 72 6d 3d a7 ba 8a 3d a0 8c df bc
       0.017406493 0.057970833 0.06773882 -0.027288735
0003c0 6d 11 82 3c c1 76 38 3d a0 d1 96 bd 92 be 8b bd
       0.01587745 0.045035128 -0.073642015 -0.06823458
0003d0 5b 7a eb bc 9b 85 0a 3c 21 fe 60 3d cb 27 2c 3d
       -0.028744867 0.008454706 0.054929856 0.042030137
0003e0 9a 68 2c 3d 47 35 a6 bc 51 52 cd bc bb f9 b3 bd
       0.042091943 -0.020289076 -0.025063666 -0.08787867
0003f0 04 b7 bc ba f1 54 9e bc c9 3b 84 bd 07 b6 28 3d
       -0.0014397805 -0.019327613 -0.064567156 0.04118922

critic.2.bias f4 [128]
000000 22 91 77 bc e0 5c 42 3d 73 e4 95 3d 3a 59 0b 3c
       -0.015110286 0.047451854 0.07318964 0.00850516
000010 5b cf f1 3c cc 2b aa 3d 8f 11 20 bd 4f f8 1a bc
       0.02951782 0.08309135 -0.039079245 -0.009458615
000020 d7 99 94 3c 5a f5 40 3d dd af 49 3d 07 c8 fc bc
       0.018139763 0.047108985 0.049239982 -0.0308571
000030 4f 66 33 3d fe bd 3f 3c fb 9e 87 bd 7e 46 1e bd
       0.04379874 0.0117030125 -0.0662212 -0.038641445
000040 ab f8 88 bc 84 fd b0 bd dc e6 c7 3c 2d 4d 24 bd
       -0.016720137 -0.08642104 0.024402075 -0.040112663
000050 9d ee 28 bd 18 36 c3 3c a6 9e 94 bc 66 ca 71 3d
       -0.041243184 0.023829505 -0.018142056 0.059030913
000060 3f 46 75 3b 12 ec 83 bc 48 f0 90 3d b2 4c 1e bd
       0.0037425903 -0.016103778 0.0707708 -0.03864736
000070 03 6e 8d 3d 64 da 7d bb ec 8e 7e 3d 71 b2 69 3d
       0.06905749 -0.0038734907 0.06214802 0.05705494
000080 01 96 1f bd 5d 37 9f bc 41 ec b2 bb 28 2a 23 3d
       -0.038961414 -0.019435579 -0.0054602926 0.039835125
000090 5d 1a b1 bc 83 48 f8 bc 5d 34 0e bc 5d c9 d9 bc
       -0.021619016 -0.030308014 -0.008679477 -0.026585275
0000a0 2c 24 8f 3d d7 65 ab 3d a0 71 37 bd 58 40 9a 3d
       0.06989321 0.08369034 -0.044786096 0.07531804
0000b0 dd 0e b5 3d e4 1e 84 bd af b3 97 3c 90 1d 9e bd
       0.088407256 -0.064512044 0.018518297 -0.07720482
0000c0 6d de a3 bd cf 30 4f 3d 07 ad a5 bc 7e 64 62 bd
       -0.08001409 0.050583657 -0.020224107 -0.055271618
0000d0 bf 55 d1 bc d7 19 80 bc 0b 02 83 bd ea a6 0a 3d
       -0.025553582 -0.015637321 -0.06396874 0.033850588
0000e0 e3 ae e2 3c 78 23 ca 3c 44 77 d4 bc 61 6b 66 bd
       0.027671283 0.024675116 -0.025935777 -0.05625475
0000f0 45 aa 14 bd ae db aa 3c 11 be 62 bd 93 93 5c 3d
       -0.036295194 0.020856705 -0.055357043 0.053851675
000100 69 3b f5 bc b6 56 44 bd 7c fe 70 3c ee 81 b0 bd
       -0.029935556 -0.047934256 0.014709111 -0.08618532
000110 c9 28 af 3d e7 48 a0 3d 2e 20 a4 bd 80 fe 87 bd
       0.08552701 0.07826405 -0.0801395 -0.06640339
000120 71 85 b3 3d 1e 24 4f bd e3 14 d7 bc d3 90 01 bd
       0.08765686 -0.050571553 -0.026255077 -0.031632256
000130 32 71 6d bd 94 4c 27 3d 47 87 4f 3d 4e 61 2a 3d
       -0.05796928 0.040844515 0.05066612 0.041596703
000140 e6 27 84 bb 39 8f 88 3d 71 56 8b bd f3 56 95 bc
       -0.0040330766 0.066679426 -0.06803597 -0.018229937
000150 5d 3d 21 3d cf e2 3b 3d 79 da 43 bc 05 68 63 bd
       0.03936516 0.0458706 -0.011953943 -0.055519123
000160 10 75 2d 3d cb 6a 87 3d af 41 96 bd af 4a a9 bd
       0.042347968 0.06612166 -0.07336747 -0.08266198
000170 b9 a3 60 bd f4 65 70 ba ce c9 ad 3a bf 19 ae bd
       -0.054843638 -0.00091704656 0.0013258995 -0.085010044
000180 41 fc 89 bd b3 07 41 bd bc b5 96 3c 10 45 40 bd
       -0.06737567 -0.047126483 0.018397205 -0.046940863
000190 e9 db 60 bc de ef a7 3d 3f 22 24 bd 61 83 3a bd
       -0.013724306 0.08200048 -0.040071722 -0.04553545
0001a0 74 49 46 3d 26 0d 20 bd c1 c6 6c bd 3a 58 bc 3c
       0.048409894 -0.03907504 -0.057806734 0.022991288
0001b0 b3 b0 8b bb e9 2d 7b bd b4 a6 94 3d 7d 61 2b bc
       -0.0042630075 -0.06132308 0.072583586 -0.010460255
0001c0 1f 96 9f 3d 6c 79 8c bd ec 8c 83 bc 2b c4 cb 3c
       0.07792305 -0.06859097 -0.016058408 0.024873814
0001d0 33 e1 2c 3d 4c a3 89 3d d6 07 69 bd 36 6e b5 bc
       0.042206954 0.067205995 -0.05689224 -0.02214728
0001e0 c9 35 51 bd c8 71 85 3d 49 56 47 3d 10 b9 6b bd
       -0.051076684 0.06515843 0.048666272 -0.057549536
0001f0 98 15 35 3b 47 e6 5e bd 07 ba 9c bc ec 88 9e 3b
       0.002763128 -0.05441883 -0.019131673 0.0048380997
