Train_notes/2025-10-13_00-31-18/model_2000.pt (torch, 505506 bytes, 42 tensors)

std f4 [6]
00000000: 6b3a 9e3f 22a7 833f a9bd c13f 91db ca3f
00000010: 7357 d33f 0b9b cc3f
1.2361578 1.028538 1.5136005 1.5848256 1.6511062 1.5984815

actor.0.weight f4 [128, 25]
00000000: afed 87bd f296 d63b fd23 bc3b b0f4 88b8
00000010: 358f ce3b 2995 563b 0113 5e3c b987 f13b
00000020: c897 6abc 3964 923c 9de9 57bc 29a2 a3bb
00000030: 768f c53b 6ad4 423d 2f51 0d3b b6cf d63b
00000040: 6a3c 8d3c 6db9 01bc 9a5b fdbb 8a89 b63b
00000050: 376f 37ba 1b44 abbb be28 1bbb eb21 e6ba
00000060: 6471 12b9 78e8 2c3f 18d0 cdbe d957 193e
00000070: 9809 ddba 94d5 afbf 4fb0 32bf 88c2 9d3e
00000080: ce31 ff3d 5f78 32be 7bfa 6dbe c4be bebe
00000090: 5cc5 513c f6f5 dabd 5d32 d33d c691 afbc
000000a0: 67c6 843f 5731 1240 bb5d 1dc0 a0e3 1b40
000000b0: 81e8 15be 3da7 4c3e de95 9f3c b75e f2be
000000c0: 146f 4b3e 4dd2 6dbf 810d 863c c66e 383c
000000d0: c4a6 bfbb 78ff 53bb 8a6c 1dbb d8de 403c
000000e0: 0632 2cbb 43ae 1b3c 21e7 f9bb fca4 8e3c
000000f0: d9dc 78bb a33e 87bc d449 87bc 153d b9bc
00000100: e9ad 96bb 7d35 c23a b3f1 533c d5ae 2aba
00000110: c416 c93b 81a7 883b 4fc6 ab3b 164f 28bc
00000120: 2717 dc3b 35a2 0dbc 0af6 f9ba 9b86 4bbf
00000130: d0f4 5f3f bb6c 88bf 3a7c f9be 6993 853f
00000140: 58d8 8b3f e1eb 4bbe fd02 093f d856 51bf
00000150: 270c 0a3f 6fbb b73e e83e a93e cf08 b2be
00000160: 7447 873e 2b51 2b3f 7141 a2bf 48f5 c6bf
00000170: 05b2 34bf e868 8b3e 185f 61bc da22 36be
00000180: 2607 34be 1c55 33be 76ad e2bb 8694 3ebf
00000190: 10da 1bbd 5e26 993e 9daa 5a3c 9027 b5bc
000001a0: 2a4b 343f 9047 a73e ba4d b53d 2e3e cbbe
000001b0: e7b2 acbe a140 cabe 4c2e a33d 9039 6dbe
000001c0: c0b7 bc3e 1990 9ebe 2126 1fbe c5ab b73e
000001d0: 31d3 023d 2ddb ef3d e32f 8c3e dcd3 9f3e
000001e0: c49f 133f d8f6 b3bd 3a45 7c3e 37b7 583f
000001f0: 1f42 14be 24a7 5cbf 632f 953d a565 ebbe
00000200: cb1e d13e f689 8e3f 6b24 803f 6356 873e
00000210: b5ac aabe e298 40bd eb47 75bd bedb b7be
00000220: 403a c43e add9 b0be ac2d 33be 40f9 4cbe
00000230: 7dc0 babe 9fd4 cb3f 5408 c73f cbd1 e23f
00000240: 82ff 86be 0675 ccbe 2818 4fbd a735 c23e
00000250: e020 7d3e 8dec 113f 58da 2e3e 6113 00c0
00000260: 2e02 0a40 92f0 7bbf 3375 92be 28de 47bf
00000270: dd19 573d 2ab5 a1be 9b0d 223f fc52 06bf
00000280: 0890 0b3e 98fe 5cbe b339 013d ed29 3dbd
00000290: bd0d 81bf bd9f 973f 04af f8bf 4ea3 163f
000002a0: 28bc aa3f 1204 0d3d 491c b03d 3c98 ad3d
000002b0: a759 213f 8ec8 0d3f 117a 1f3f 74f9 1a3d
000002c0: 3663 d3bb 8262 80bc e2cf 7f3b 5e87 ed3a
000002d0: 12f5 0a3c 1654 bcbc 538a a4bc 4a12 803c
000002e0: 6d51 5abc bf18 033d d74e ddb9 c323 ed3b
000002f0: fd69 00bd de3c 0bbd 40a4 dfbb 393d 51bc
00000300: 5ed5 eebb 9470 113c fca6 10bc 6d88 caba
00000310: e6a0 443b 8fe7 4e3c 35ba a13b 3860 e53a
00000320: abd4 843b 9f3a 7e3c fc2d 94bc 7abf ac3b
00000330: 75aa 57bb 1a7f 193c e18a d53a ff23 a9bb
00000340: 4e85 d039 de3c ca3b 3da0 5c3b 061f d0bb
00000350: f25d a43a fb58 bbbb beb5 e4bb 1c12 1aba
00000360: 5582 5b3c 874d 65bb ba03 b939 e52e 123b
00000370: 7faa 0cba aad1 85bb 75d1 9d3b a564 3539
00000380: ee2d 8fb9 2a11 b8be 0ba2 3fbf fcb2 a7be
00000390: facc 91bf 4eb6 33bf d2dd ec3e dd36 173e
000003a0: b7ff 883e fbd5 b43c 34c7 363e e31f 84be
000003b0: d16f b1bd 2e34 d1bd 66d8 773d e257 0e3f
000003c0: d38e 0f3f 2579 f2bb 58e5 513e ff03 1f3f
000003d0: 9078 fd3d 8875 c3bd 2402 873c 9c03 583e
000003e0: d728 8a3e 1eae eabe eff7 b8bc bcd0 903a
000003f0: 7e8e 1ebd 82e0 4e3c 1261 413c 235c 363c
-0.066371314 0.006548756 0.005741595 -6.530562e-05 0.0063036927 0.0032742715 0.013554336 0.0073709157
-0.014318414 0.017870056 -0.013178256 -0.004993696 0.0060290648 0.047565855 0.0021563282 0.006555523
0.017240722 -0.007917744 -0.007731867 0.005570595 -0.00069974683 -0.0052266247 -0.0023675407 -0.0017557716
-0.00013965886 0.6754222 -0.40197825 0.14974917 -0.0016863821 -1.3737054 -0.69800276 0.30812478
0.12460671 -0.1742873 -0.23240082 -0.37254918 0.012803402 -0.106914446 0.103123404 -0.021431815
1.0373048 2.2842615 -2.4588459 2.4357681 -0.14639474 0.19985671 0.019480642 -0.47337887
0.19866592 -0.9289902 0.016363861 0.011256879 -0.0058487374 -0.0032348316 -0.0024020993 0.01177188
-0.0026274933 0.009501996 -0.0076264297 0.017412655 -0.0037973432 -0.01650936 -0.016514696 -0.022612134
-0.0045983684 0.0014816966 0.012936044 -0.00065110374 0.006136747 0.0041703586 0.005242146 -0.010272762
0.006716627 -0.00864463 -0.0019070518 -0.79502267 0.8748293 -1.0658182 -0.4872759 1.0435611
1.0925398 -0.199142 0.53520185 -0.8177314 0.53924793 0.35885188 0.33055806 -0.34772345
0.26421702 0.6692073 -1.2676221 -1.5543604 -0.70584136 0.27228475 -0.013755582 -0.17786732
-0.17580852 -0.17512935 -0.006917651 -0.7444538 -0.038049757 0.29912084 0.013346341 -0.022113591
0.7042719 0.32671785 0.08852716 -0.39695877 -0.33730242 -0.39502433 0.07967815 -0.2316649
0.3685894 -0.30969313 -0.15541889 0.35873237 0.03193969 0.11711726 0.27380285 0.31216323
0.5766566 -0.08787316 0.24635783 0.84654564 -0.14478348 -0.86192536 0.07284429 -0.45975986
0.40843806 1.1135852 1.0011114 0.26433095 -0.3333489 -0.0470208 -0.05988304 -0.35909837
0.3832569 -0.34541073 -0.17497891 -0.20016956 -0.36474982 1.5924262 1.5549417 1.7720274
-0.26366812 -0.39933032 -0.050560147 0.37931558 0.24719572 0.5700157 0.17075479 -2.0011828
2.156383 -0.98413956 -0.2860504 -0.7807336 0.0525149 -0.3158353 0.6330201 -0.52470374
0.13629162 -0.21581495 0.031549167 -0.04618256 -1.0082318 1.1845623 -1.942841 0.58842933
1.3338671 0.03442771 0.08599145 0.08476302 0.63027424 0.5538415 0.62295634 0.037835553
-0.006451036 -0.015671972 0.003903382 0.0018122008 0.008481281 -0.022989314 -0.02008549 0.01563372
-0.0133250775 0.03200602 -0.00042211145 0.007236929 -0.03135108 -0.033993594 -0.006825 -0.012770944
-0.007288619 0.008876938 -0.008828875 -0.0015452035 0.003000313 0.01262845 0.0049355277 0.0017499989
0.0040536723 0.015516906 -0.018088333 0.005271849 -0.0032907997 0.009368682 0.0016292 -0.005161762
0.0003977217 0.0061718067 0.0033664845 -0.0063513545 0.0012540205 -0.0057173944 -0.006979673 -0.00058773323
0.013397773 -0.0034988837 0.00035288726 0.0022305783 -0.0005365982 -0.004083832 0.004816229 0.00017298998
-0.00027309306 -0.35950595 -0.7485663 -0.32753742 -1.1390679 -0.7020005 0.46262985 0.14767022
0.26757595 0.02207469 0.17849427 -0.25805578 -0.086639054 -0.102150306 0.060509108 0.5560285
0.5607731 -0.0073996955 0.20497644 0.6211547 0.12376511 -0.09543902 0.016480513 0.21095127
0.26984283 -0.45835966 -0.022579161 0.0011048536 -0.03871011 0.012626769 0.0118029285 0.011130366

actor.0.bias f4 [128]
00000000: ee48 6abb eac3 56c0 c4d4 b8bb 57a9 0cc0
00000010: e423 e0bf 68c2 3dc0 014a bbbf f60e 1b3c
00000020: 2d0e 93ba f26a e8bf af06 a33b 6e76 6abb
00000030: d50e 5ac0 bf3a cfc0 43bc 82bf df83 babb
00000040: fdfc 21c0 6ced 29c0 b3fc 19bc 9f7d 3bc0
00000050: 0ac7 1ebf 74ea 3039 5576 d1bf 0841 30c0
00000060: f6a1 73bc c139 abc0 2c2b a5c0 ec1b 41bb
00000070: af16 a8c0 4ede 5cbf 362e 9cbc 39c2 e6ba
00000080: 7f3a 25c0 b168 dfbb 07c0 d8be 93b1 12bb
00000090: 211d 8839 0a47 3dc0 ad3e 8e3b d8b5 1bbc
000000a0: 26b6 043b 34c3 ef3a c44c 2abf 8dc0 92bf
000000b0: 8e90 5abf e3b1 a03a 32bc 2dc0 9589 983b
000000c0: aef7 d13a 4a62 96bc 6c86 29bf 3ab6 95c0
000000d0: 15da 1bc0 927c 093b 58c9 b2bf 1603 14bc
000000e0: a68b 54ba deee f9b9 97f0 92bc 1560 18c0
000000f0: 540d 1dbc 68ca 59bc 09fd 23bb 38e9 0fc0
00000100: cd6d a0bf d940 10c0 ae2d a5bb 2807 8dbb
00000110: 5364 faba 3e31 e6bb 419d df3b e04f 8bc0
00000120: f794 80bc 2d78 01c0 4de9 cabf af2f b0c0
00000130: 7e75 efbf 72b7 1bc0 f9ae 67bf 0d1f cfbb
00000140: ba01 cd3a cba2 56c0 a585 b5bb 3c90 b3bb
00000150: 4ee8 22bb 204c 08bf c4c3 683a cc4c 02b9
00000160: 0ca4 7aba 99c4 65c0 3b90 42c0 f0f2 debf
00000170: cddb d2bf 001e 15bf 4d10 88c0 6a21 943a
00000180: 4ebb 87c0 e0ec baba 1708 c6c0 9bdf fe3b
00000190: 7708 b638 b99e 98be 62e9 08be 55bb 08c0
000001a0: bce3 c8bf be48 85bf 0749 c6bf 78db 08bf
000001b0: d3ca 5ac0 7e1e df3b ade4 a63a d316 12c0
000001c0: f769 5fc0 b77c 003c 6a6d 91bf 2327 9abc
000001d0: f51a f5bf 8f21 a3c0 0476 b0bb eb52 88bb
000001e0: 6b34 90be e8fa 36c0 92d0 23c0 c8ea 96c0
000001f0: f53e 7bbc 73ec 01c0 765c 3fc0 5e34 c1bf
-0.0035749036 -3.3557076 -0.005640598 -2.1978357 -1.7510953 -2.9649906 -1.4631959 0.009464016
-0.0011219435 -1.8157637 0.004975162 -0.0035776156 -3.4071553 -6.475921 -1.0213703 -0.00569199
-2.5310662 -2.655116 -0.009398627 -2.9295423 -0.6202246 0.00016872009 -1.6364237 -2.7539692
-0.014870157 -5.3508 -5.16152 -0.0029466106 -5.252769 -0.8627671 -0.019065004 -0.001760549
-2.5816953 -0.0068179 -0.42334005 -0.0022383675 0.00025961644 -2.9574609 0.0043409676 -0.009503804
0.002025017 0.0018292428 -0.66523385 -1.1465012 -0.8537682 0.0012260046 -2.7146115 0.004655073
0.0016019249 -0.018357415 -0.66220737 -4.6784945 -2.4351857 0.002097879 -1.3967695 -0.009033939
-0.00081079674 -0.0004767095 -0.017936988 -2.3808644 -0.009585697 -0.013292886 -0.0025022647 -2.2486095
-1.2533509 -2.253958 -0.005040846 -0.0043038316 -0.0019103385 -0.007024913 0.006824166 -4.3535004
-0.015696032 -2.02296 -1.5852448 -5.5058208 -1.8707731 -2.4330716 -0.9050136 -0.00632084
0.0015640773 -3.353686 -0.0055396133 -0.0054798406 -0.0024857703 -0.5324116 0.0008879269 -0.00012426375
-0.0009561188 -3.5901244 -3.0400531 -1.7417889 -1.6473328 -0.582489 -4.25199 0.0011301462
-4.2416143 -0.0014261268 -6.1884875 0.0077781207 8.680013e-05 -0.29808596 -0.13370278 -2.1364338
-1.5694499 -1.0412824 -1.5491036 -0.5345988 -3.4186294 0.006809055 0.0012732946 -2.282643
-3.4908426 0.007842234 -1.1361516 -0.01881749 -1.9148852 -5.0978465 -0.0053851623 -0.004160275
-0.28164992 -2.859064 -2.5596051 -4.71616 -0.015334834 -2.0300567 -2.9900184 -1.5094106

actor.2.weight f4 [128, 128]
00000000: 79d5 58bc cb57 cdb8 20c2 a2bb 9830 02bc
00000010: c4bb 4aba f966 c83c a7d6 1ebb 7ca5 023d
00000020: 5933 fc3c 2667 973c 945b 09bd 667c cfbc
00000030: 0130 84bb b6cb 863c 9f17 dabb d8db 563c
00000040: f3f8 8d3c ac9b d63c 4fac 85bc e2ab 88bc
00000050: c8fd 84bb fb69 64bc 7e9f 1abc b940 5f3c
00000060: 6f44 2bbc a504 e9ba 5119 913a 9adb 56bd
00000070: 8cab 1abd ae59 cbbb ca15 77ba be54 323c
00000080: f066 d63c 78b5 563b 4935 4638 b5ba b93c
00000090: 5de6 c53b efeb a5bb bd32 abbc c192 38bc
000000a0: 6669 543b 01e2 6f3c 4119 e53b 1dd8 a6bc
000000b0: b1a5 98bc e068 e7bc 8767 2e3c de9e 5f3c
000000c0: 63fa 03bc 172f 623b 41e3 023c 206a a3bb
000000d0: b631 b73c 2ed0 083c 5125 333c 4bd2 f23a
000000e0: 66e1 d63b 5ff2 e4bc 5f91 28bc a359 06bc
000000f0: 08e7 f63c cd0e c3bc 1ba4 e03b 0e0e 59bb
00000100: ac14 2cbc 5f2e 68bc 2b41 edbc d627 b63c
00000110: 4c0a b43c 82ba 33bb ac54 2dbd 5c84 173c
00000120: a083 2fbd fca2 cf3c 864e 213c c2a8 afbb
00000130: f6df f13c 9e6c 00bd b61a fc3c 10dd d2bc
00000140: fe11 dbbb b1a2 af3b 672c afbc 8c87 f13c
00000150: afdd 37bd dffe ddbc ae7e 033d fd2c 933c
00000160: 8f22 823c e65a 173c 202b 5ebb 2442 f3bb
00000170: b32f 6eba f850 ca3c b085 eabc ec70 cfbb
00000180: 9c40 0c3c b7eb 06bd c4f9 d3bb 63e4 153d
00000190: 550e 8cbc 75e2 93bc bbf2 273d c066 0b3b
000001a0: 87c0 cdbc 83f2 923c e290 adbc 6d25 8abc
000001b0: 3a44 be3c d12e d8bb f079 4abc 05d9 a5bc
000001c0: c05b c5bb 3768 a4bb 7070 41bd b049 103d
000001d0: 5fb5 33bb d148 cfbb 61e8 ceba bfee 62bd
000001e0: a132 aebb bf6e 59bb c4d6 153d d2ee acbc
000001f0: 44e8 d1bb b182 54bc f2e1 1d3b fbfa 90bc
00000200: b3f0 21bd d32e dfbb cac9 3f3d 3863 283b
00000210: 79d0 28bc 32ca d23c 7311 8b3c 63b7 5b3d
00000220: d281 113d d3a8 67bc e2b5 bf3c 31c7 e33c
00000230: 94d4 b53b a382 a93c 0713 40bc 3359 34bb
00000240: e51e c4bc 4e6b 95bb efcd 0a3d f85b 053c
00000250: 7589 0b3b 42aa fcbb 4b26 91bb e7fa b7bb
00000260: 3316 3a3c aa72 623c e411 c73c cb42 9dbd
00000270: e310 5cbc a919 0abc b3da ae3c bd3d 19bd
00000280: d737 c93c a3f6 c1bc 0fbb 0ebc 17e0 25bd
00000290: 9dc0 213c 27e6 84bc 5dd2 843c 8e75 54bb
000002a0: 24e0 d4bc d569 57bd 1066 c3bc 4988 1a3c
000002b0: 9d55 9f3c 1c8a ea3a 1525 96bc b9c3 483c
000002c0: 53a2 c0bc 2fd8 e83b e543 b3bc 372d 14bb
000002d0: eed8 c5ba 4885 0bbd fa9c cf3b 7bf5 ed3a
000002e0: b587 da3b 7796 7abd ed97 38bc ac44 a2bc
000002f0: cff5 a43c b4bb 093d 6618 a7bc e567 04bd
00000300: 692d e8ba aa3e ddbb 96eb 073c cf68 a2bc
00000310: 1abc e43c a028 b73b 8507 febc abe9 063c
00000320: 4361 143d 43cd 353c c85c 93bb f6a7 3a3b
00000330: c0bf b9bb 0a2e 4fbb 1892 47bc 9c1c ccbc
00000340: 3bcb 49bc 7ce0 88bc 6586 8c3c d21e 5ebd
00000350: 92ad 06bd 35b2 483b 3069 7fbd bc1c 933b
00000360: 3018 42bd fddd e33c e370 923c 0a55 153d
00000370: 6ad1 95bb 7d67 0bbc af21 11bc f0a9 823b
00000380: 744c d8bc 7ec1 afbc 677f 973b 583b fbbc
00000390: 7ca4 27bc 51fa 99bb 0908 923c 16ec 453c
000003a0: bc0a 00bd 1898 a53c 873d 093c 3017 b4bb
000003b0: 7555 56ba 2efc e1bc bc5f 343d 4311 5abc
000003c0: 47ee 23bc c9a9 21bd 3438 23bc 0b92 4dbc
000003d0: 75d7 023b 157a 543c d18c 233d b97d 78bd
000003e0: 3671 abbc 6e83 6cbc 493c b13c 4469 733b
000003f0: 96f3 143d 96bc 0cbc 3db1 20bc a14e 2dbb
-0.01323449 -9.7915145e-05 -0.004966989 -0.007946156 -0.0007733668 0.024463164 -0.002423683 0.0318961
0.030786203 0.018481802 -0.0335346 -0.025327872 -0.004034043 0.016454559 -0.006655648 0.013113938
0.017330622 0.026197277 -0.016317515 -0.016683523 -0.0040585734 -0.013941283 -0.00943744 0.013626271
-0.010453328 -0.0017777873 0.0011070167 -0.052455522 -0.037761256 -0.006205759 -0.0009425549 0.010884462
0.026172131 0.0032761972 4.7256504e-05 0.022672037 0.0060394243 -0.005063526 -0.020898217 -0.011265458
0.0032411455 0.014641286 0.006991536 -0.020366723 -0.018633695 -0.02824825 0.0106448 0.013648717
-0.008055302 0.003451293 0.007988752 -0.0049870163 0.022362571 0.008350415 0.01093419 0.0018525807
0.0065576313 -0.027947603 -0.010288565 -0.008200082 0.030139461 -0.023810768 0.0068555004 -0.003311995
-0.010502975 -0.014171212 -0.028961739 0.022235792 0.021977566 -0.00274244 -0.042317078 0.0092478655
-0.042850137 0.025346272 0.009845382 -0.0053606937 0.029525738 -0.031353585 0.030774456 -0.025740176
-0.0066854944 0.0053599705 -0.021383477 0.02948358 -0.04488915 -0.027099071 0.032103233 0.017965788
0.01588562 0.0092379805 -0.0033900216 -0.007423656 -0.0009086087 0.024696812 -0.0286282 -0.0063306
0.008560326 -0.03293964 -0.0064689834 0.03659476 -0.017096678 -0.018052319 0.04100297 0.002127096
-0.025116218 0.017937904 -0.02118725 -0.01686355 0.023225892 -0.006597378 -0.012358174 -0.020245085
-0.0060229003 -0.005017306 -0.04722637 0.035226524 -0.0027421338 -0.006325819 -0.0015785807 -0.055403467
-0.005316094 -0.0033177582 0.03658177 -0.021109972 -0.006405862 -0.012970612 0.0024090973 -0.017697802
-0.03953619 -0.006811002 0.0468233 0.0025693905 -0.01030361 0.02573118 0.016976094 0.053641688
0.035524197 -0.014139372 0.023402158 0.027804943 0.005549023 0.020692175 -0.0117232865 -0.0027518987
-0.023940513 -0.004559911 0.0338878 0.008139603 0.0021291648 -0.007710726 -0.0044296137 -0.0056146267
0.011357832 0.013821283 0.024300523 -0.076787554 -0.0134317605 -0.008428969 0.021344518 -0.037412394
0.02456276 -0.023677176 -0.00871159 -0.04049691 0.009872583 -0.016223026 0.01621359 -0.00324187
-0.025985785 -0.052591164 -0.023852378 0.009431907 0.019450003 0.0017893943 -0.018328229 0.012253695
-0.023514902 0.007105849 -0.02188296 -0.0022609958 -0.0015094557 -0.034062654 0.0063358517 0.0018154824
0.0066690096 -0.06117865 -0.011266691 -0.019808136 0.020136742 0.033626273 -0.020397376 -0.032325644
-0.0017713729 -0.006751855 0.008295914 -0.019825367 0.027921725 0.0055895597 -0.031009445 0.008234422
0.03622557 0.0110963015 -0.0044971444 0.002848146 -0.0056686103 -0.0031613135 -0.012180828 -0.024915986
-0.01231652 -0.016708605 0.017153928 -0.05422861 -0.032880373 0.0030623798 -0.062356174 0.0044895094
-0.04738635 0.027815813 0.017876094 0.036458053 -0.0045720832 -0.00850856 -0.008858128 0.0039875433
-0.026403643 -0.021454569 0.004623342 -0.030667946 -0.010232087 -0.0046990295 0.017826097 0.012080213
-0.031260237 0.020214126 0.008376486 -0.005495928 -0.0008176186 -0.027586069 0.044036612 -0.01330978
-0.01000554 -0.03946856 -0.00996213 -0.012547026 0.0019964848 0.01296856 0.039929215 -0.060666773
-0.020928007 -0.014435632 0.021635192 0.00371416 0.036365114 -0.008589884 -0.009807882 -0.0026444572

actor.2.bias f4 [128]
00000000: 3cd6 82bd ef9b 1bbd 7586 4cbd 2a2e 17bd
00000010: 5e3a 7ebd c0fe 4abd 9727 18bd 1df4 0bbd
00000020: 7170 9abd 6c13 69bd 085b ecbc 5bbb 8cbd
00000030: 37f3 9dbd 6ce0 87bc 8fbc bdbd fb6d a1bd
00000040: e989 18bd 8d35 a7bd b44a 5ebd a6ec 05bd
00000050: 668b 81bd 0efc 5cbf 4ce4 2ebd c681 59bd
00000060: d0fa 9fbd 3ef7 40bd 911d 29bd c8f1 94bd
00000070: 3d6e a1bd c616 45bd 3c2d 28bd 05ca e3bc
00000080: 2bc0 23bd 0aeb abbc 7842 06bd 6383 14c0
00000090: 71dd 39bd 6cce 15bd df40 1fbd c299 31bd
000000a0: ba09 14bd 2ca1 91bd a2ad 2abd 3868 7abd
000000b0: 0a83 0ec0 230a 8dbd a92f 5abd 84bb 75c0
000000c0: 8999 1bbd e2b2 1bbd c6c6 36bd 6822 66bd
000000d0: e29f d7bc 1a48 3bbd 7eba 2dc0 d98d 6dc0
000000e0: 0a20 28bd d4bb cebf 3241 6dbd 4613 18bd
000000f0: 5aa7 6bbd ab9c 95bd 6340 7cbd 8034 7fbd
00000100: c8cc 87bd 2b5f 42bd f186 7abd 96fc 31be
00000110: 55f2 05bd 40f1 3bbd 4596 08bd 2a83 6bbf
00000120: d423 b2bf 1a8e 4abd 12c1 93bd c0ee f6bf
00000130: b335 54bd 659e 67bd e36c 62bd 9688 17bd
00000140: d28a 6fbd afed 11bd 0a1e 02bc 1fa8 efbc
00000150: eb71 25bd 7290 7cbd 1fcc 94bd ee7f 6ebd
00000160: bd40 81bd 69fe 3dbd 3453 68bd c7b1 2bbd
00000170: 0bd2 3bbd 3ca4 05c1 298e e0bc 8c0a ffbc
00000180: 2a54 08bd 4359 42bd 93eb 9dbf 78f0 27bd
00000190: d470 24bd b48e 1abd b758 963e e850 75bf
000001a0: 2865 dabf a10e 8fbd 53e3 abbd d463 37bd
000001b0: 6f3a e1bf b582 27bd db05 b6bc a98f 61bd
000001c0: e711 61bd 0223 12bd 7372 1ec0 cc59 7ebd
000001d0: 95dc 16bd 4122 67bd 750b 9cbf e909 9dbc
000001e0: 110e 47bd 8ad5 87bd c8d9 acbd 810c 0ebd
000001f0: fd66 3fbd 9027 9abc 5a02 73bd 1a9f 3fbd
-0.06388518 -0.037990507 -0.049932916 -0.03690926 -0.062067382 -0.049559355 -0.03714713 -0.03416835
-0.07540978 -0.056903288 -0.028852 -0.06871673 -0.07712405 -0.016586505 -0.0926448 -0.07882305
-0.037240896 -0.08164511 -0.05427046 -0.03269639 -0.06325416 -0.86322105 -0.04269819 -0.053102277
-0.078115106 -0.04711079 -0.041287962 -0.072726786 -0.078823544 -0.04811742 -0.041058764 -0.027806291
-0.039978188 -0.020986099 -0.032778233 -2.3205192 -0.0453772 -0.036573812 -0.038880225 -0.043359526
-0.03614209 -0.07110819 -0.041669495 -0.061134547 -2.226748 -0.06886699 -0.05326811 -3.83957
-0.03798822 -0.038012393 -0.04462316 -0.056185156 -0.026321355 -0.04572306 -2.7145076 -3.7117827
-0.04104618 -1.615107 -0.057923503 -0.037127756 -0.057532646 -0.07305273 -0.06158484 -0.062305927
-0.06630856 -0.04745404 -0.061163846 -0.1738151 -0.03270181 -0.04588437 -0.033346433 -0.91997015
-1.3917184 -0.049451925 -0.072145596 -1.9291611 -0.051809024 -0.05654754 -0.055279624 -0.036995493
-0.058482 -0.035627063 -0.007941732 -0.029254971 -0.040391844 -0.06166119 -0.072654955 -0.058227472
-0.06311176 -0.046385203 -0.056719974 -0.04191759 -0.04585461 -8.352596 -0.027411537 -0.031132959
-0.03328339 -0.047448408 -1.2337517 -0.041000813 -0.040146664 -0.03773375 0.2936456 -0.9582658
-1.706212 -0.06985212 -0.08392968 -0.044772938 -1.7595958 -0.040896136 -0.022219589 -0.055068646
-0.054948714 -0.035677917 -2.4757354 -0.062097356 -0.036831457 -0.05642915 -1.2190996 -0.019169765
-0.0485974 -0.06632526 -0.08439976 -0.034679893 -0.046729077 -0.018817693 -0.059328414 -0.04678259

actor.4.weight f4 [6, 128]
00000000: 22ca 1f3b 7094 80bb a50c fb3a 9de4 553b
00000010: aab2 3f3a cfc4 e73a 8e93 aeba 08e3 3fba
00000020: 47d2 a73b c30f 2a3a f8ce f4b9 1605 9a3a
00000030: b92e 513a 06bc f7ba f310 673b c664 02bb
00000040: 24d1 7d3b daf8 2aba 778c 5a3b 9f71 22ba
00000050: 11fb ee39 b080 db3d 3bae 06bb 34bd b0ba
00000060: e32e 453b 3d5e 97ba 9f38 34bb 922c 7c3b
00000070: 2faf c83b 44a4 6bba 1635 f7ba a78f 273b
00000080: 3fd5 89ba ecd1 40bb a2d4 733b 4925 87bd
00000090: fe94 073b 832c 81ba 6928 0cbb 01ba 9a3b
000000a0: 0869 04ba b987 973a 0721 a4b9 f9d2 92ba
000000b0: 2ba6 98bd b3bf 08bb 4b78 673b aeae 8e3c
000000c0: 3f03 18b9 d35d 4abb 84d0 30ba 5db3 f339
000000d0: 0df0 143b 360d 873a 2009 4cbc 45e4 663c
000000e0: c13e c33a ddd3 fd3d abc0 633a 8655 30bb
000000f0: 51c1 c63b 65e4 013b c4f8 643b f33b 513b
00000100: 970b e13a 4b6a 943a 0e38 023a c344 f4bd
00000110: 3a0c 4bba 51cb 653a e985 a53a 9ea1 3a3e
00000120: 19fa 0bbb 5c69 2a3a c23c c9b9 ec6c 903c
00000130: 5ea6 223a b862 7f3a 324d fe39 0dfe 01b9
00000140: 3d73 0038 bf01 73ba c197 32b8 3f6f 833b
00000150: b658 35bb b1ef a73a 4b22 6c39 2df6 26bb
00000160: 62e7 813a 5654 403a 3dab 6db9 e481 4e3b
00000170: 9026 f33a 6720 b6be 65a0 053b a04f 193b
00000180: e5a6 feba 65ee a13a 7b0d 2cbd 4e5e adb6
00000190: 0b4f 19bb 8fad 57ba 9350 743d b8b8 233d
000001a0: 160e 93bd 86e3 5cba d799 64bb 9ade 0c3a
000001b0: 6e2b c7be 722f d63a 5ea5 823a 8500 cbb9
000001c0: 8651 05bb 1910 183b e502 53bc ae79 5dba
000001d0: 2254 11bb 5231 6c3a 66f9 973d fdef 5239
000001e0: fbe7 763a 8629 c539 ecc5 07ba 4470 583b
000001f0: 2e4a 15b9 5111 4aba ab98 c5ba c15e 3dba
00000200: 8877 11bb 49a5 2d3a a637 82ba 60ce 80b9
00000210: af72 36ba d653 2aba 289e 3bba 764e c33a
00000220: 45a7 41bb 0535 7d3b 4fa3 253b dcda a9ba
00000230: 0a9a 7438 62c3 7cba d3f0 d739 5ebc 543a
00000240: fb5c 1fb8 853e b4b9 d403 2cba 90b8 523a
00000250: 5871 a53a 6033 fbbd 62e1 8d3a cb7d e63a
00000260: d0a4 92ba 8771 e038 8606 003b 85ce 90ba
00000270: 7ff7 8cb8 2d60 6cbb dd30 223b 2005 0f39
00000280: 059c 923a 10aa 763b 74fe 3bbb 9e05 f4bc
00000290: 0220 d0b9 2d79 b0b9 960b 3e3b 5a8d 6a39
000002a0: 4e40 0abb f170 1cbb 7cd3 ccb9 2768 8a39
000002b0: b7a7 213d 9002 043a 572b 54b9 32cb 8a3c
000002c0: 79f6 eb3a 45ac 4ab9 142a 353b e926 60bb
000002d0: 48a0 f63a df9b a43a 7d0d 243d 7fc0 923b
000002e0: ffbf 383a 8662 623d 7254 08ba df81 a4ba
000002f0: ac0f b1ba 0b64 093a 6424 2d36 433c b8ba
00000300: 25f2 bdba ec72 7e3a 4dcb 71bb acf7 e1bc
00000310: 1d62 023b 4fcc ecba 9eff 443a 58fa 913d
00000320: 879b a13c 73fc a4ba 412a 11bb 636c 77bc
00000330: 0969 84bb aafd 333a 7d31 143b 2323 5a38
00000340: 64b3 59bb 69b3 57b8 3b2d daba b674 9bba
00000350: d0c1 133b 3f3e 0fba 0ee8 cf3a 2491 71b8
00000360: 1d61 6a3a 7771 12ba 9ec6 013b 4aff aa3a
00000370: 8e98 ba3a 133b e13c 1735 003b 3e18 13bb
00000380: b4c6 c5ba 9713 06ba f56b 0dbe 72e8 12bb
00000390: 3fe8 553b c5c8 813b 72c1 793e dde0 a8bd
000003a0: 74e4 363e e3ef 5f3a 5699 0aba 4248 ba38
000003b0: bc67 9ebc f7ea daba 8f9a a93a 7fb1 3abb
000003c0: e8b6 9c39 0ec5 863a 1ffc 3a3c 9248 83ba
000003d0: ce7a 153a f906 083a ac4e 35be 15bf 293a
000003e0: 7758 933a e6a8 d039 9fb9 93ba 41c7 613b
000003f0: 4681 c43a a1e0 f939 086e 283b 060f 4338
0.0024381955 -0.003923945 0.0019153549 0.0032637485 0.0007312695 0.0017682555 -0.0013319121 -0.0007319902
0.0051215026 0.0006487334 -0.0004669351 0.0011750783 0.00079796795 -0.001890064 0.0035257905 -0.0019896491
0.0038729394 -0.0006522067 0.0033347884 -0.00061967404 0.00045581957 0.107179046 -0.0020550627 -0.0013484121
0.003008776 -0.0011548471 -0.002749957 0.0038478714 0.006124399 -0.0008989016 -0.0018860425 0.0025567801
-0.0010515823 -0.0029421998 0.0037205596 -0.065989085 0.0020688171 -0.0009855184 -0.002138639 0.0047218804
-0.0005051051 0.0011560834 -0.00031305125 -0.0011201791 -0.07453569 -0.0020866215 0.0035319503 0.017417278
-0.00014497059 -0.0030878677 -0.00067449384 0.00046482208 0.002272609 0.001030362 -0.012453347 0.01409251
0.0014896021 0.12393925 0.00086880726 -0.0026906445 0.0060655256 0.0019819972 0.0034938315 0.0031926602
0.0017169592 0.0011323182 0.0004967459 -0.11927178 -0.00077456573 0.0008765953 0.0012628409 0.18225715
-0.0021358787 0.0006500685 -0.00038382976 0.017630063 0.00062046 0.0009742188 0.0004850417 -0.0001239704
3.0624902e-05 -0.00092699745 -4.257984e-05 0.0040110643 -0.0027671284 0.0012812522 0.00022519489 -0.0025476322
0.0009910876 0.0007336786 -0.00022665873 0.0031510526 0.0018550921 -0.35571596 0.0020389792 0.0023393407
-0.00194284 0.0012354372 -0.042005043 -5.1667803e-06 -0.002339306 -0.00082274614 0.059647154 0.039971083
-0.07180421 -0.00084262376 -0.0034881735 0.00053737464 -0.38900322 0.0016341044 0.0009967496 -0.00038719564
-0.0020342781 0.0023202954 -0.012879108 -0.00084486126 -0.0022175391 0.0009010035 0.07420616 0.00020116563
0.0009418723 0.00037605705 -0.0005179334 0.00330259 -0.00014237381 -0.0007708269 -0.0015075406 -0.0007223897
-0.002219649 0.00066240557 -0.0009934797 -0.00024567824 -0.0006959838 -0.0006497478 -0.0007157051 0.0014900703
-0.0029549163 0.0038636338 0.0025274341 -0.0012958902 5.8317593e-05 -0.00096421514 0.00041187424 0.0008115227
-3.799515e-05 -0.00034378856 -0.000656185 0.0008038366 0.001262228 -0.122656584 0.0010824616 0.0017585097
-0.0011188034 0.000107022985 0.0019535138 -0.0011047876 -6.72182e-05 -0.0036068067 0.0024748363 0.00013639452
0.0011185413 0.0037637986 -0.0028685601 -0.029787835 -0.000396967 -0.0003365962 0.0028998605 0.00022368637
-0.0021095457 -0.002387103 -0.0003906748 0.0002639901 0.039466586 0.0005035782 -0.00020234041 0.016942594
0.0018002532 -0.00019328397 0.0027643489 -0.003420288 0.0018816078 0.001255866 0.040051926 0.0044785137
0.00070476526 0.05526974 -0.00052005716 -0.0012550912 -0.0013508699 0.0005241043 2.580019e-06 -0.0014056045
-0.001449172 0.0009706456 -0.0036894858 -0.02758392 0.0019894906 -0.001806626 0.00075148966 0.071278274
0.019727482 -0.0012587443 -0.002215043 -0.015101525 -0.0040408415 0.0006866107 0.0022612505 5.2007974e-05
-0.0033218497 -5.1427083e-05 -0.001664556 -0.0011860344 0.0022545941 -0.00054642925 0.0015862004 -5.759405e-05
0.00089408626 -0.00055863656 0.0019802223 0.0013046053 0.0014236139 0.02749399 0.0019562894 -0.002244487
-0.0015089125 -0.00051146135 -0.13810714 -0.002241638 0.003263965 0.003960701 0.243902 -0.08246014
0.17860585 0.0008542521 -0.0005287131 8.88263e-05 -0.019336574 -0.0016702105 0.0012939739 -0.0028487144
0.00029890914 0.0010282116 0.011412649 -0.0010016134 0.0005702198 0.0005189027 -0.17705792 0.0006475312
0.0011241575 0.0003979869 -0.0011270529 0.003445104 0.001499214 0.00047660343 0.002570035 4.6505615e-05

actor.4.bias f4 [6]
00000000: 9f6d b33f 6115 72be 11ed 4d3e 3443 3e3f
00000010: 6d46 52be 4d33 b73e
1.4017829 -0.23640968 0.20109965 0.74321294 -0.20534678 0.35781327

critic.0.weight f4 [128, 25]
00000000: 64d9 c73e 7e30 ba3e 294c c3be a048 af3e
00000010: 4bfc 73bf c682 9fbe c839 9d3c 59a2 6b3c
00000020: 0282 b3bc 034a 02bd da34 1e3d fe9f 4bbd
00000030: 1aae 56c0 8117 adbf 5b27 6840 3e62 c7bf
00000040: f56e e2bf 562b fd3e 4e44 eb3d 111b f6bb
00000050: 3bde 46bc 01b5 303c cc02 cb3b f507 f3ba
00000060: ec04 903d c848 22be 5239 a7be d34c 133e
00000070: 953b 8c3e 83c0 863e 307e 033e f156 083a
00000080: 96ae 453c 2d09 ff3c c3a2 173b 3c30 793d
00000090: 92b0 d63c c654 2abe 3f8a 3fbf 28b3 843f
000000a0: c834 a1bf 9a26 9e3f afdb 01c0 537a c63f
000000b0: c5ec b5bc 1608 8b3b 22af 1dbd e2e4 69bd
000000c0: f6d3 2fbd 6f81 bb3c bc39 703d 3ee3 a43f
000000d0: 50a9 c6bf 9fc4 bc3f 3009 7c3f 1901 11c0
000000e0: b565 c9bc 8070 b43d 2445 d1bd 7399 563d
000000f0: 240f e13c 6408 31bd cd96 1f3c 22a1 f6bc
00000100: 21f7 683e 6bb3 80bf c252 4dbf 3019 70bf
00000110: 1d0a 923f 9275 7bbb 419e e23b 9ec2 363a
00000120: 7c33 15bd abc2 893c 1c6b 01bd 5de8 ae3e
00000130: 8e15 123e 01ed 6fbe 896a 973e 1a11 1e3f
00000140: ef1d ebbe 6e5d fa3b f6e4 a63d 6160 33bd
00000150: ac62 83ba 34c0 663d 90cb 3dbb 7ad8 0840
00000160: d5ae 73bf 04e5 b7be 5356 10c0 200d 5ebf
00000170: bf98 0640 069a f83f bb58 e7bc 22c2 d9b9
00000180: ce08 61bc d616 40bc b37b ad3d a917 cfbb
00000190: e018 b13e b03b 923e de5b 51be a59f b03e
000001a0: 9983 85bc 7bc4 9bbf c136 c935 2fb2 f33b
000001b0: 9184 63bb a0ae ed3c 982f 5dbc b0f1 2f3c
000001c0: 0eb6 853e 6fdd 6e3e 35c0 e8ba a52a c1bf
000001d0: d5d8 ec3f bfcf 5f40 bd4d 1cbe d4c6 0c3d
000001e0: eaf4 9dbc cbfb 57bc 938b 84bc 9352 1bbd
000001f0: bb3d fc3c d249 8cbe ac7c 43bd a5e6 63be
00000200: a39f bcbe 6ec3 9f3e 0da3 96be 21fc 2bbd
00000210: 7c11 2b3d ea31 8a3c 0dc3 a5bc 6c0f c7bc
00000220: cd5d 00bd ee0c f2bf e865 c93f 853c 693f
00000230: 429a 0340 5201 0b40 44d0 7abe 7d28 7a3f
00000240: 5830 f1bb 89e4 163c 71e5 b4bc 6fe4 133d
00000250: 7344 e4b9 518c 34bd 771e 643f fe62 e9bd
00000260: 8804 413e 27ba 33bf 91b6 babf 01d9 e03f
00000270: 0f63 993b dde8 4bbc 2105 a73c 53fb 60bc
00000280: f0cb e83c b24f 053b 9226 d13d 46ca 67bd
00000290: 4bb8 893e 1032 9b3f 91b0 733f a597 183e
000002a0: 0635 c83f 9641 4ebc dfe9 7dbc 7251 803b
000002b0: 9b08 1b3d 5993 503a 830e 2abb ac3d f7be
000002c0: f349 803f 63b8 6abf f194 843f 7b33 f93f
000002d0: d72c 93bf 4bb4 8fbc 7fcc 5e3b a6b2 4ebc
000002e0: 1cca 073d 99ff abbc 1c1c 04bc afe4 003f
000002f0: d621 09bf 20fd efbd 3751 0d40 4115 7c3f
00000300: 8fa2 f3bf 3241 09c0 d132 3dbc 81cb 4a3c
00000310: 8af9 edba 35a7 01bc 0aba 4f3d 963c f7bc
00000320: 7806 a63e 6c90 903f 448f dbbf 6ad6 f73f
00000330: 0d09 223f a200 b9bf c357 a33c 0b07 e13d
00000340: 32c4 0cbe 9009 193d 59c6 d2bb 6630 58bd
00000350: 5267 53bd ef56 4e3e e4fc c43e dde8 2f3f
00000360: 2f82 c53f 4377 123f db8d 8ebe 5fd1 03bc
00000370: fe6a c7bc b860 29bd 7f8f b23c 600c 693d
00000380: 1caa 053d c26e 5c3d 6a81 e3be 083e 403f
00000390: 05e4 b2bf a8f1 4fbe c365 e6bf 8ac0 f73c
000003a0: 35cd bcbd 8c91 743d 875f c33b e00e 7b3c
000003b0: ca37 76bb c8cd 5c3d bf1c 7ebe f720 413f
000003c0: 4608 063f e93c c43f 6e0f 74bb c76a 2ac0
000003d0: d3fe e0ba c5b9 0fbc 7acc 2237 48a5 cfbc
000003e0: afd2 563c 344f 2cbd d087 7c3f a3d2 e13e
000003f0: 540c acbe 5e87 4bbf 9549 a73e 003d 07bf
0.39033043 0.36365122 -0.38144043 0.34235096 -0.95306844 -0.3115446 0.019192591 0.014381968
-0.021912578 -0.031808864 0.038624622 -0.049713127 -3.3543763 -1.3522798 3.627402 -1.5576856
-1.7690111 0.49447125 0.114876375 -0.007510551 -0.012137945 0.010785342 0.006195402 -0.00185418
0.07032189 -0.15848076 -0.3266092 0.14384775 0.27389207 0.2631875 0.12841105 0.00052009436
0.01206555 0.031132305 0.0023137785 0.060837016 0.026207242 -0.16633901 -0.7482032 1.0367174
-1.2594233 1.235553 -2.0290334 1.550608 -0.022207627 0.0042429073 -0.038497098 -0.057103045
-0.04292675 0.022888867 0.05864881 1.2881849 -1.552042 1.4747504 0.9845152 -2.265692
-0.02458463 0.0881052 -0.10218266 0.052392434 0.02747304 -0.043220893 0.009740544 -0.030106131
0.22750522 -1.0054754 -0.80204403 -0.93788433 1.1409336 -0.0038369638 0.006915838 0.0006971749
-0.036426052 0.016816458 -0.031596288 0.34161654 0.14266035 -0.23430254 0.29573467 0.61744845
-0.45921275 0.007640532 0.081491396 -0.043793086 -0.0010023913 0.056335643 -0.0028960444 2.1382127
-0.9518865 -0.35916913 -2.2552688 -0.8673878 2.103073 1.9422004 -0.028240552 -0.00041534106
-0.013735009 -0.0117241945 0.084708594 -0.006319959 0.3458929 0.28561163 -0.20445201 0.344968
-0.016298102 -1.2169336 1.4991602e-06 0.0074370126 -0.0034716467 0.029013932 -0.013500117 0.010738775
0.2611546 0.23326658 -0.0017757477 -1.5091139 1.8503672 3.4970548 -0.1526403 0.034369305
-0.019281823 -0.013182591 -0.016179835 -0.037920546 0.030791154 -0.2740007 -0.04772632 -0.22255953
-0.36840543 0.3120379 -0.29421273 -0.041988496 0.04176472 0.016869504 -0.020234609 -0.024299346
-0.031339455 -1.8910196 1.5734224 0.9110797 2.0562901 2.1719556 -0.2449351 0.9771803
-0.0073604994 0.00920976 -0.022082062 0.036106523 -0.00043538547 -0.04407913 0.89108986 -0.113958344
0.18849385 -0.7020592 -1.4586965 1.7566224 0.004680998 -0.012445656 0.020388188 -0.013731795
0.028417557 0.0020341692 0.10212435 -0.056589387 0.26898417 1.2124653 0.95191294 0.14901598
1.5641181 -0.012588879 -0.015497654 0.003915959 0.037850004 0.0007956527 -0.002594859 -0.4828924
1.0022568 -0.916876 1.0357953 1.9468836 -1.1498059 -0.017542025 0.00339964 -0.012615835
0.03315173 -0.020995902 -0.008063342 0.50348943 -0.53567255 -0.11718202 2.208082 0.9846993
-1.9033984 -2.1446042 -0.01154776 0.012377621 -0.0018156033 -0.0079134 0.05071453 -0.030180257
0.3242681 1.1294074 -1.7153096 1.9362309 0.6329506 -1.4453318 0.019939309 0.109876715
-0.13746718 0.037362635 -0.0064323363 -0.05278053 -0.051612206 0.2015035 0.3847419 0.68714696
1.5430354 0.5721323 -0.27842602 -0.008045523 -0.02434301 -0.041352004 0.02179694 0.056896567
0.032632932 0.053816564 -0.44434673 0.7509465 -1.3975836 -0.20307028 -1.7999805 0.030243177
-0.09218828 0.059709117 0.0059623155 0.015323371 -0.0037569874 0.053907186 -0.24815653 0.75440925
0.52356374 1.5331088 -0.0037240642 -2.6627672 -0.0017165787 -0.008772318 9.703561e-06 -0.025347367
0.013111754 -0.04206772 0.98644733 0.44106016 -0.33603156 -0.7950343 0.32673326 -0.52827454

critic.0.bias f4 [128]
00000000: 90c7 38c0 ce69 f8c0 ebb8 ddc0 8c25 22c0
00000010: 4e36 3dc0 61f2 79c0 9965 ddbf 575f 85c0
00000020: 7d51 5ec0 7b65 cdbf 998a 8fc0 7f2c bbc0
00000030: c267 99c0 661e 8bc0 4c45 18c0 7b3b 2cc0
00000040: 28bf 76c0 e4a9 afc0 df6d 61bf 6138 45c0
00000050: 3286 92c0 0a08 25c0 e5fb 88c0 6a98 86c0
00000060: 3c3b 4ac0 9184 0ac1 00a7 0540 a638 45c0
00000070: 68a5 b7c0 af1d 3cc0 ad99 93c0 26e2 f2c0
00000080: e214 92c0 2677 1ec0 2160 c8c0 1ab1 ca3f
00000090: 10d2 ffbf 3e62 93c0 1cac 72c0 a956 8fc0
000000a0: 02d8 d1c0 f8f3 99c0 a6dc 9cc0 da31 2740
000000b0: 086b b8c0 322d a5c0 2670 83c0 26d6 d8bf
000000c0: 672b a8c0 33a9 1ebd 89bc b2c0 af01 29c0
000000d0: 1cdb 41c0 5481 f8bf 53cd 40c0 47c5 03c1
000000e0: f5ae 75c0 79c8 a5c0 e261 45c0 325d aac0
000000f0: 47a1 98c0 cf4a 90c0 1391 8fc0 6f1b 0ac0
00000100: 2684 23bf 17ce 1340 996a 93c0 66d4 fec0
00000110: 7d3f 18c1 1b9f 19c0 b60a e6c0 0e84 f9c0
00000120: e444 e8c0 26fc 23c0 265e ecbf 8d39 71c0
00000130: 6b35 f7bd 4442 91c0 51ea 63c0 1fa2 cbc0
00000140: ea6f 74c0 cee6 45c0 6ff6 13c0 21c2 10bf
00000150: 406f 25c0 ceef c7c0 9289 4fc0 5930 24c0
00000160: fd50 53c0 f5d1 c0c0 7460 b0bf b12f 09c0
00000170: a716 01c0 855a b9c0 5c21 c1c0 adf2 1dbf
00000180: 65cd 3ec0 8e41 a7c0 0466 60c0 fdf0 22c0
00000190: e5dd 213f 35a0 12c0 7b0a 8ac0 0827 9dc0
000001a0: 4d83 2ac0 7b71 35c0 0463 f4c0 7a95 d8c0
000001b0: b32a 1dc0 a352 dac0 3747 d1c0 f1a4 81c0
000001c0: 6fbe f0c0 fa49 99c0 6ba8 80c0 d3fe 52c0
000001d0: bf06 40c0 f471 99c0 5979 25c0 7cdf 80c0
000001e0: c7b4 fcc0 ba25 74c0 664a 6dc0 eaa8 78c0
000001f0: 2219 2bc0 3c4d ddc0 f4ed 56c0 0a80 30c0
-2.8871803 -7.7629156 -6.928823 -2.5335417 -2.9564395 -3.9054186 -1.729663 -4.167888
-3.4737236 -1.6046594 -4.4856687 -5.8491817 -4.7939157 -4.3474607 -2.3792295 -2.6911304
-3.8554173 -5.4894886 -0.88058275 -3.081566 -4.5788813 -2.5786157 -4.280749 -4.206105
-3.1598654 -8.657365 2.0883179 -3.0815825 -5.738941 -2.9393117 -4.6125093 -7.590106
-4.565049 -2.4760222 -6.2617345 1.5835297 -1.9985981 -4.6057425 -3.7917547 -4.4793286
-6.557618 -4.8110313 -4.9019346 2.6124177 -5.7630653 -5.161767 -4.10744 -1.6940353
-5.255298 -0.03873558 -5.5855145 -2.6407278 -3.0289984 -1.9414468 -3.012532 -8.235663
-3.8388035 -5.1807218 -3.0840993 -5.3238764 -4.769687 -4.509132 -4.4864593 -2.1579244
-0.6387352 2.3094537 -4.6067624 -7.9634275 -9.5155 -2.400336 -7.1888075 -7.79737
-7.2584095 -2.562265 -1.8466232 -3.7691376 -0.120707355 -4.539339 -3.5611765 -6.36354
-3.8193307 -3.0922122 -2.311916 -0.5654622 -2.5849152 -6.248023 -3.2427716 -2.565451
-3.3018181 -6.0256295 -1.3779435 -2.1435359 -2.0170076 -5.7922997 -6.035322 -0.6169842
-2.9812863 -5.2267523 -3.5062265 -2.5459588 0.6322921 -2.2910283 -4.3137794 -4.9110146
-2.664264 -2.8350513 -7.637087 -6.7682467 -2.4557312 -6.8225875 -6.539943 -4.0513844
-7.5232463 -4.7902803 -4.020559 -3.2968032 -3.0004117 -4.7951603 -2.5855315 -4.027281
-7.8970675 -3.8148026 -3.707666 -3.8853097 -2.673409 -6.915678 -3.3582735 -2.757815

critic.2.weight f4 [128, 128]
00000000: 15db 4c3f b0a1 ce3f edc9 663f 3252 13be
00000010: 4849 6ebf 9736 03c0 2144 2fbf 46b9 05bf
00000020: b870 86c0 d4ae bb3f 5ad7 88bd e4a1 b23f
00000030: ddef a33f e36b 6fbf 6539 cbbe 86af fcbf
00000040: dd42 253d 756a 85be 214a efbe a155 713f
00000050: 9f5e 993f f7f6 a5bd e260 613f d12d f83f
00000060: c972 a43f 0897 933f 81d8 cac0 a2b7 a03f
00000070: ec84 f33e 857b f1be f97b 86be 6fad 5340
00000080: 6304 b0bf 7483 a83f e824 0440 ebd1 04c0
00000090: 3d76 24be 961d f33f aaac aa3d d450 2ebe
000000a0: e255 4040 83b1 0540 2b27 43be 4fea 36c0
000000b0: 6dfd 903f 909c 9a3e 9530 0a3f 9945 d4be
000000c0: 8972 753f 2dfe 16bf da9f 923f 74d2 d33d
000000d0: 73f7 02be 4083 debe 8ccb 2bc0 d698 3e40
000000e0: 87aa 2440 87a2 e33f 5139 0540 361d 67bf
000000f0: 364b b0bf ee5b 553e 4434 fcbf afe9 59bf
00000100: 0712 8fbd 75c9 1f3e 613b c9be 0855 0040
00000110: 5c31 0540 612c 823f 7bce 14bf 438f fd3e
00000120: c53b 4dbe 1d3f 753e 2690 5ec0 be42 3ebf
00000130: 7071 1cc0 6b84 cfbe 578e e5bf c8d5 cdbf
00000140: d7e5 abbf 1381 a9bf 473e 853f 1bef 8fbf
00000150: 11e0 ae3f a7d3 adbf 00f6 e03e d93d b13e
00000160: 5a4f 763d 456e d7bf aaf0 d6bf a4d9 03c0
00000170: a0ef 94bf 69a3 aebf 3982 4d3e b2d6 4b3e
00000180: 327f b9be 431a 0f3f 2f40 e63c b466 70bf
00000190: 8c5a e3be f645 55bf 4dbb d63e 0af0 e83e
000001a0: 9270 3fbf 615b 78bf d19b 3440 03d5 c83e
000001b0: 2724 0240 5185 bf3e 63de 2c40 7956 3abe
000001c0: b99f 3e40 6436 52bf 2ba8 1dc0 a364 153f
000001d0: de43 10bf 52a3 d43f 0a45 443f 02ee a2bf
000001e0: 3f37 da40 8c3c 6abf 2f88 0940 59e6 873f
000001f0: b72d 20bf 7dbf cf3f 2502 3ebf 8cad ccbf
00000200: fa6c 8b3f 620f b23f f8c7 ad3f 14b2 003e
00000210: 393c e13c 32c7 223f 14e5 bbbe 8739 62be
00000220: 7b62 6b3e c41a 1fbf 529d c83f fc9c a93f
00000230: 750f 103f 3162 303e 6295 7cbd ed84 cebf
00000240: 9e42 3d3f 62ee bb3c b266 653f 8212 763e
00000250: e743 e3be e7e7 19bf 4ce1 253e 9a40 c53d
00000260: b751 0d3f 9d5f 853e 17e0 9abf 6fd1 80bd
00000270: f18e b23e 3afa 9ebf 6e49 d83d 8e23 a83f
00000280: d50d 963e c1ed 87bf 93d4 583f 5638 6b3e
00000290: 2424 243f 6f79 4abf 6223 b0bf 769e b9be
000002a0: fba1 f63e 7a64 9a3e bff5 8b3e 795b 3ebf
000002b0: 66e3 a33f b4aa dc3f c527 7ebf 013b ac3d
000002c0: 7232 273f 4813 fcbe e8c4 993e 4dae 41bf
000002d0: 7c38 fb3e 6c44 73bf c26c 1abe 769c 0b40
000002e0: 855d 9a3f 696b 1c40 dc39 06bd d773 5d3f
000002f0: a460 703f 8aba 803f 0aa1 0f40 9ce4 08bf
00000300: 2982 20bd 6910 88be 67ab 6f3c 311b 0640
00000310: 4bf2 d43f 7f46 563f beda c0be 0277 ee3e
00000320: a1fd 213e 94cf 07bf 3911 0fbf 98ac 71bf
00000330: 864e 34be 9766 8c3f 0792 733f 05f8 993c
00000340: 7136 b53f 70f3 04bf de26 a53e e97c 8abf
00000350: aeea 6ebe 5378 8abf f705 1dbd ebce a1be
00000360: ce5c b03e d681 10bf 6828 043f 9fb9 c6be
00000370: 428d 063f b1ff 0d3e 2eaf 78bd ad7a 5f3d
00000380: e059 2cbe 344a f93e fcdc b8bf da94 87bf
00000390: 609b 073e 0e21 93bf c4e2 69bf 1894 2d3f
000003a0: d2e2 053e ad52 ca3e da01 513f e994 fa3f
000003b0: c2b8 3bbf 3901 1d3f eaba 1f3f 6443 51bf
000003c0: 725d 803f f2ed 5e3f 3110 8dbf 3f93 c4bf
000003d0: e0be 9a3e 64a1 d73f 434a 7a3f b235 c23d
000003e0: 7d09 9d3e 5f61 273f bc92 f4be 1448 803e
000003f0: 4483 703f 7cf5 26bf 81e5 5abf cae5 91bf
0.8002179 1.6143093 0.90151864 -0.14386824 -0.9308057 -2.050207 -0.6846333 -0.5223583
-4.2012596 1.4662728 -0.066817 1.3955655 1.2807575 -0.93524 -0.39692226 -1.9741066
0.04034697 -0.26057783 -0.46736243 0.94271284 1.1982001 -0.081037454 0.88038456 1.9388982
1.284753 1.1530466 -6.3389287 1.255604 0.4756235 -0.4716455 -0.2626646 3.3074605
-1.3751339 1.3165116 2.0647526 -2.0753124 -0.1606073 1.8993404 0.08333714 -0.17023021
3.0052419 2.0889595 -0.1905791 -2.858051 1.132734 0.30197573 0.5398038 -0.4145935
0.9587789 -0.5898159 1.1455033 0.10342875 -0.12789707 -0.4345951 -2.6842985 2.9780784
2.5729082 1.7783974 2.0816233 -0.9027895 -1.3772953 0.2083585 -1.970345 -0.851222
-0.0698586 0.15604194 -0.39303115 2.00519 2.0811377 1.0169793 -0.58127564 0.49523363
-0.20042332 0.23949857 -3.4775481 -0.7432059 -2.4444237 -0.40530714 -1.7934064 -1.6080866
-1.3429517 -1.3242515 1.040963 -1.1244844 1.366213 -1.3580216 0.43937683 0.346175
0.06013427 -1.6830527 -1.6792195 -2.0601587 -1.1635628 -1.3643619 0.20069207 0.19906119
-0.36229855 0.5589945 0.028106777 -0.9390671 -0.4440502 -0.83309877 0.41939774 0.45495635
-0.74781144 -0.97014433 2.8220103 0.39225015 2.0334566 0.374064 2.7010734 -0.18197049
2.9784987 -0.82114244 -2.4633892 0.58356684 -0.5635356 1.6612341 0.76667845 -1.2728884
6.819244 -0.9149864 2.148937 1.0617172 -0.62569755 1.6230313 -0.7422202 -1.5990462
1.0892632 1.3910944 1.3576651 0.12567931 0.027494537 0.635852 -0.3669821 -0.22092257
0.22986786 -0.62150216 1.567301 1.3251033 0.56273586 0.17224957 -0.0616659 -1.6134316
0.73929775 0.022940818 0.89609826 0.24030498 -0.44387743 -0.6011948 0.16199225 0.096314624
0.5520281 0.2604951 -1.2099637 -0.06289946 0.3487468 -1.2420113 0.105608806 1.313585
0.29307428 -1.0619432 0.8469936 0.22970709 0.64117646 -0.7909154 -1.3760798 -0.3625371
0.48170456 0.30154783 0.27335927 -0.74358326 1.2803771 1.7239594 -0.99279433 0.084096916
0.6531135 -0.4923346 0.3003304 -0.75656587 0.49066532 -0.9502628 -0.1508055 2.1814246
1.205979 2.4440558 -0.032770023 0.8650488 0.9389746 1.0056927 2.244204 -0.5347383
-0.03918663 -0.2657502 0.014628268 2.0954096 1.6636442 0.8370132 -0.37666887 0.4657517
0.15819408 -0.53051114 -0.55885655 -0.9440398 -0.1760808 1.0968808 0.95144695 0.018795023
1.4157239 -0.51933956 0.32256216 -1.081937 -0.2333171 -1.081797 -0.038335767 -0.31603178
0.34445804 -0.56448114 0.51624155 -0.38813493 0.5255929 0.1386707 -0.06071394 0.054560352
-0.1683116 0.48689425 -1.4442439 -1.0592301 0.13242865 -1.1494462 -0.9136164 0.678041
0.13074806 0.39516202 0.8164345 1.9576694 -0.73328793 0.6132999 0.62394583 -0.81743455
1.0028517 0.87081826 -1.1020566 -1.5357436 0.3022375 1.6846128 0.97769564 0.09482898
0.306713 0.6538295 -0.477682 0.2505499 0.93950295 -0.6521833 -0.85506445 -1.1398251

critic.2.bias f4 [128]
00000000: 87c0 40c0 f810 1bc0 d54c e3bf dbc2 2ac0
00000010: 3ecf 48c0 f6ef 04c0 74ca 1ec0 900e 34c0
00000020: 4f4f 42c0 f4b6 2bc0 3c14 74c0 9905 25c0
00000030: 03ac 1ac0 42a4 e7c0 a550 28c0 bb34 6fc0
00000040: 0cad 37c0 d300 07c0 527b 58c0 a5d4 22c0
00000050: 8fd0 54c0 39a7 2cc0 59e7 3dc0 7ffc 37c0
00000060: 1ba3 48c0 91b2 29c0 cc09 1fc0 28dc 35c0
00000070: f004 34c0 304b edbf a879 4dc0 2a43 37c0
00000080: 4e33 0ac0 b554 3ec0 99c3 12c0 ca37 42c0
00000090: 8cdf 14c0 6576 83bf 01ee f1bf f5f8 5bc0
000000a0: e858 45c0 c975 3bc0 e2a7 2fc0 f9ec 41c0
000000b0: b8c9 53c0 f086 44c0 25df 2cc0 80e6 3bc0
000000c0: dbee 29c0 6abe 1dc0 1b59 1fc0 6737 34c0
000000d0: 6201 2cc0 f21a 2bc0 5b24 2dc0 c625 5ec0
000000e0: a9e2 15c0 e21c 61c0 a18a 3ec0 21bb 24c0
000000f0: ebc5 32c0 0aa4 0bc0 2d8c 41c0 d9d4 38c0
00000100: 6fe4 0ec0 2302 30c0 ac25 2bc0 1f06 ecbf
00000110: 8176 16c0 b4c2 29c0 a260 3bc0 0a89 7ebf
00000120: 4a92 43c0 b285 64c0 43c4 28c0 ddfc 43c0
00000130: f9c2 3ac0 2bdf 20c0 c145 0bc0 905a 38c0
00000140: 97fb 19c0 2a81 babf 6162 1ac0 88f2 19c0
00000150: a0ab 1bc0 10aa f4bf 0dd6 15c0 357e 1bc0
00000160: 6c71 5dc0 71e0 12c0 7cc4 11c0 d818 26c0
00000170: 6aa4 51c0 c405 09c0 3950 1dc0 e0a7 25c0
00000180: bbd0 29c0 8cfb 1dc0 6e00 2ec0 7302 dfc0
00000190: 24a3 5ec0 bc42 1ac0 ee58 1ec0 035f 46c0
000001a0: d9ba 4fc0 1b60 4ec0 1771 0bc1 bdc4 1cc0
000001b0: b080 19c0 8905 46c0 5b21 2ec0 d315 38c0
000001c0: f308 bfbf 3e9a 2dc0 df66 24c0 9efd 11c0
000001d0: e7fc 0ec0 f246 07c0 c769 18c0 4235 4bc0
000001e0: b622 57c0 92b1 26c0 dc5b 23c0 d8e1 6cc0
000001f0: 16b2 2dc0 c1d7 6dc0 7e20 51c0 1b6e 3dc0
-3.011751 -2.4229107 -1.7757822 -2.668143 -3.137649 -2.077146 -2.4811068 -2.8133888
-3.0360906 -2.6830416 -3.813735 -2.5784667 -2.4167488 -7.238801 -2.6299222 -3.7375934
-2.869937 -2.1094253 -3.3825269 -2.5442288 -3.3252294 -2.6977065 -2.9672453 -2.8747861
-3.1349552 -2.6515238 -2.484973 -2.8415623 -2.8128014 -1.853857 -3.2105503 -2.8634744
-2.1593814 -2.97392 -2.2931883 -3.034655 -2.3261442 -1.0270506 -1.8900758 -3.4370701
-3.0835514 -2.929064 -2.7446218 -3.0300887 -3.309187 -3.070736 -2.7011197 -2.9359436
-2.6552036 -2.464747 -2.4898136 -2.8158815 -2.6875844 -2.6735196 -2.705344 -3.4710555
-2.3419592 -3.5173879 -2.9772112 -2.5739214 -2.79333 -2.1818871 -3.0241807 -2.8879912
-2.2326925 -2.7501304 -2.6741743 -1.8439368 -2.350983 -2.6525087 -2.927773 -0.99427855
-3.0558038 -3.57066 -2.6369789 -3.0623085 -2.9181502 -2.513621 -2.1761324 -2.8805275
-2.4059808 -1.4570668 -2.4122546 -2.405428 -2.4323502 -1.9114399 -2.3411896 -2.429578
-3.4600477 -2.2949488 -2.2776175 -2.5952663 -3.27566 -2.140977 -2.4580214 -2.5883713
-2.653365 -2.4684782 -2.7187762 -6.969049 -3.4787073 -2.4103231 -2.4741778 -3.099549
-3.2457793 -3.2246158 -8.71511 -2.449508 -2.3984795 -3.0940878 -2.7207859 -2.876332
-1.4924606 -2.7125392 -2.5687788 -2.2811046 -2.234186 -2.1137052 -2.3814561 -3.1751256
-3.3614936 -2.604588 -2.5524817 -3.7012844 -2.7139945 -3.7162936 -3.2676082 -2.9598453

critic.4.weight f4 [1, 128]
00000000: c0fa cebc 22e6 4ebc 1522 433c 1eb3 a03c
00000010: 6fa4 d13b 65e3 763c 48e4 aebc 8e8b e0bb
00000020: bfc0 8bbc c733 753c 06f6 b4bb c0c2 293c
00000030: 1cfd b8bc dc65 2e3c 47da 6abc 6417 f93d
00000040: a7d5 893c d260 8b3c d49d f0bb b8d1 89bc
00000050: 4614 213c 2e5e 703c 9f93 673c 2baa 233c
00000060: ba81 a0bc 2495 04bd 8155 7a3c 4cf1 00bd
00000070: 0bb1 febc 4a76 503e 9414 7abc 07b2 bfbc
00000080: 6416 66bc 54ff b0bc d8ae 893c c939 05bd
00000090: 80e6 673c b884 c13d 84f9 9dbc b20b 5b3c
000000a0: 5de6 d5bb 0ca7 84bc 36e6 34bc 531b d6bc
000000b0: 1895 a4bc 3d51 0fbc 4480 73bc 7aa6 06bc
000000c0: b59c 2d3c fe00 b13c 0724 443c 810a 573c
000000d0: 7a6f 3d3c e9ff 4a3c 9759 95bc 4edf 79bc
000000e0: df9c 8a3c f6c5 84bc 9c0b 0abc f692 183c
000000f0: da32 9539 5994 a6bc ed12 623b 8b12 333c
00000100: 5e74 9f3c 9113 67bc 45e2 043c e6f1 a5bc
00000110: 50d5 6a3c 9b7a 283d 8154 84bc f6f5 ca3d
00000120: 0c26 13bc 47f8 a3bc ecb3 613c fab9 e83d
00000130: 6ad5 443c 5d83 3a3c 1e10 2e3e 446c b53d
00000140: 146f 993c ff52 8bbc 3dd5 323c 66a7 a5bc
00000150: ae8b 353c e50e 4b3c a4f0 a73c 9449 503c
00000160: 8185 98bc ee7e 113c b1fb 4ebc d931 a73c
00000170: b437 e5bb e6d3 733c 9962 863c 32e6 f23b
00000180: 080c 1f3c 23e5 8b3c 5f0d 453c e30b 073e
00000190: b14a b03b 5f13 403c ad50 9d3b 489f e4bb
000001a0: 964f 6fbc 873b 5dbc 0474 453e 3a83 a43c
000001b0: 056a 343c aebc 76bc 2b8f 3e3c 67da 9a3c
000001c0: d77b 8fbc c91d 863c 0095 933c 3e2f 103c
000001d0: 9196 73bc 1151 d93d e269 c2bc 6da1 3c3c
000001e0: e96a 66bb e08f 14bc c79f 87bc ab02 44bc
000001f0: 7030 e13c ac74 20bc 42c4 cf3c 241d b8bc
-0.025266051 -0.01262811 0.011909981 0.01961666 0.006397776 0.0150688635 -0.021349087 -0.0068525737
-0.017059682 0.014965958 -0.0055224923 0.010361373 -0.02258163 0.010644402 -0.014334268 0.121626645
0.01682551 0.017013941 -0.0073430333 -0.016823635 0.009831494 0.014670892 0.014134317 0.009989302
-0.019593108 -0.032368794 0.015279175 -0.03148012 -0.03109028 0.20357624 -0.015263695 -0.02340032
-0.014043424 -0.021606125 0.016807005 -0.03252581 0.014154077 0.09449142 -0.019284017 0.013369488
-0.0065277056 -0.016192935 -0.011041215 -0.026136076 -0.020090625 -0.008747396 -0.014862124 -0.008218402
0.010596444 0.021606918 0.01197148 0.013125063 0.011562223 0.012390115 -0.018231196 -0.015250994
0.016920505 -0.016207676 -0.008425619 0.009312382 0.00028457382 -0.02033441 0.0034496144 0.010929714
0.019464668 -0.014103786 0.0081105875 -0.020256948 0.014333084 0.04113255 -0.016153576 0.099101946
-0.008981239 -0.020015849 0.013775807 0.11363597 0.0120137725 0.0113838585 0.16998336 0.08858541
0.018729724 -0.017007349 0.010915098 -0.020221423 0.0110806655 0.012393688 0.020500489 0.012712855
-0.018618347 0.00888036 -0.01263325 0.020409511 -0.0069951657 0.0148820635 0.016404437 0.0074126953
0.009707458 0.017077034 0.012027114 0.13188128 0.0053799977 0.011723368 0.004800877 -0.0069769956
-0.014606377 -0.013502962 0.19282538 0.020082105 0.011011605 -0.015059633 0.011630814 0.01890297
-0.017515106 0.016371625 0.018015385 0.008800326 -0.014867441 0.10611165 -0.02373213 0.011513096
-0.0035158938 -0.009067506 -0.01655568 -0.011963527 0.027488917 -0.009793442 0.025362138 -0.022474833

exp_avg f4 [6]
00000000: 80a2 8739 d1d3 3a3a d58c 433b 8eb8 c73b
00000010: b043 20bb afbe 533b
0.00025870278 0.00071269 0.002983858 0.0060949987 -0.0024454407 0.0032309701

exp_avg_sq f4 [6]
00000000: 610b d739 62fc 113a 0085 7b39 7166 8639
00000010: 8fd0 8139 165e 6839
0.00041016474 0.0005568919 0.00023986772 0.00025634796 0.00024760186 0.00022160294
