Train_notes/2025-10-13_00-31-18/model_1000.pt (torch, 505506 bytes, 42 tensors)

std f4 [6]
0	0x3f797a57	0.974523
1	0x3f4fe746	0.8121227
2	0x3fa3dbdf	1.2801474
3	0x3fbb2cc7	1.462304
4	0x3fc8c5e3	1.568539
5	0x3fbf3989	1.4939433

actor.0.weight f4 [128, 25]
0	0xbc5d4666	-0.013505554
1	0xbc681088	-0.014164098
2	0x3a5412b0	0.0008089943
3	0xbbffbd4e	-0.0078045493
4	0x3c6e5e99	0.014548921
5	0x3c5dc299	0.013535165
6	0x3a32e787	0.00068246614
7	0xbc881ac5	-0.016614327
8	0xbc64595a	-0.013937319
9	0xbcc3f8c3	-0.02392233
10	0x3bacebe6	0.0052771447
11	0xbc61ac3c	-0.013773974
12	0x3bb88349	0.005630885
13	0x3cc7ca17	0.024388356
14	0x3ca00c70	0.01953718
15	0xbbc7d2c0	-0.0060981214
16	0xbaef98a1	-0.001827974
17	0xbc7394f0	-0.014867052
18	0x3b828c52	0.0039840126
19	0xbc49cdc6	-0.012317127
20	0xbc4a2a5a	-0.012339199
21	0x3bfa6a9b	0.007642103
22	0xbba5f643	-0.005064757
23	0xbb6533d8	-0.0034973528
24	0x3c50db71	0.012747631
25	0x3f8ae9b3	1.0852569
26	0xbeda07d9	-0.42584112
27	0x3c2b25db	0.010446037
28	0xbe1ae8b7	-0.15127836
29	0xbfa79a3c	-1.3093944
30	0xbe9aeb00	-0.30257416
31	0x3e32e0d4	0.17468578
32	0x3ea24eb6	0.31700677
33	0x3d4e96c6	0.050436758
34	0xbeae53d6	-0.34048337
35	0xbd434976	-0.04767748
36	0x3c2802f3	0.010254609
37	0x3e159b5c	0.14610046
38	0xbe461d41	-0.19347097
39	0x3e0df560	0.13863134
40	0x3f4a4111	0.79005533
41	0x40175fbb	2.365218
42	0xc00efa7e	-2.2340388
43	0x4012af2e	2.2919421
44	0xbdd28e8a	-0.102810934
45	0xbe88936f	-0.26674983
46	0x3d8b7a85	0.06810478
47	0xbeadbe99	-0.33934477
48	0xbc78500a	-0.015155802
49	0xbf27b197	-0.65505356
50	0x3c958518	0.01825194
51	0x3c9a4a4f	0.018834261
52	0xbc691c57	-0.014227948
53	0xbaf9cf77	-0.0019059022
54	0xbc57cbb2	-0.013171123
55	0x3ac37d3b	0.0014914641
56	0x3be42f5c	0.0069636535
57	0x3c0d6796	0.008630654
58	0xbc565507	-0.013081796
59	0x3cf04e72	0.02933428
60	0x3c09351c	0.008374479
61	0x3a45fdcb	0.0007552772
62	0xbbf4e361	-0.0074733947
63	0xbc99b32b	-0.018762192
64	0xbc8fd25f	-0.017556367
65	0xbc33eda8	-0.010981955
66	0x3c3e53d7	0.011616669
67	0x3c3a45b7	0.01136916
68	0xbcb020df	-0.02150005
69	0x3ce513a9	0.027963476
70	0x3c8628ef	0.01637694
71	0xbc592eb9	-0.013255768
72	0xba7cc429	-0.0009642267
73	0x3b2792c6	0.0025569662
74	0x3b969ae2	0.0045961
75	0xbeda2816	-0.42608708
76	0x3fab86f4	1.340056
77	0xbefab3ed	-0.48965397
78	0x3dba68ae	0.09101997
79	0x3ea155fd	0.31510916
80	0x3ee3e34b	0.44509348
81	0x3dddeb8b	0.10835942
82	0x3e870aa2	0.263753
83	0x3d25081f	0.040290948
84	0x3f853288	1.0406046
85	0x3dc9a410	0.098457456
86	0x3f421276	0.7580942
87	0x3ea4804e	0.3212914
88	0xbdb4ea9e	-0.08833812
89	0x3f311111	0.69166666
90	0xbeba3280	-0.36366653
91	0xbf83b515	-1.0289637
92	0xbf2f2006	-0.6840824
93	0x3f0c19b2	0.5472671
94	0xbed04048	-0.40674043
95	0xbe2d5c2f	-0.16929697
96	0xbf2586e0	-0.6465893
97	0xbeb210be	-0.34778398
98	0xbeaf3d0c	-0.34226263
99	0xbf28a226	-0.6587242
100	0x3af5d2be	0.0018754823
101	0xb983f5de	-0.00025169452
102	0xbb92fd5d	-0.0044857697
103	0x3c72d91d	0.014822272
104	0x3b8e8e27	0.004350442
105	0x3b925928	0.0044661947
106	0xbc452077	-0.012031666
107	0xbc3692eb	-0.011143426
108	0x39b1216f	0.0003378498
109	0xbbe68d04	-0.0070358533
110	0x3c81ea3e	0.015858766
111	0x3c361530	0.01111345
112	0xbc9013c9	-0.01758756
113	0x3a90ef84	0.0011057709
114	0xbb9f8388	-0.0048679747
115	0x3c810e6f	0.015753953
116	0xbc77d5f6	-0.015126696
117	0xbce3de94	-0.027816094
118	0x3ca8a590	0.020586759
119	0xbc42bbc4	-0.011885587
120	0xbb0bd942	-0.0021339213
121	0x3c39fa33	0.011351156
122	0x3c77559a	0.015096093
123	0x3c10370a	0.008802185
124	0xbbf98665	-0.007614898
125	0xbf158f9a	-0.58422244
126	0x3dd69f45	0.10479597
127	0x3d3539b8	0.044244498
128	0x3e90ddfa	0.28294355
129	0x3f557b5c	0.83391356
130	0x3f03f50c	0.51545787
131	0xbd44d8e6	-0.048058413
132	0xbea9c816	-0.33160466
133	0xbf0de0ae	-0.5542096
134	0x3e1ca649	0.15297808
135	0x3e198904	0.14993674
136	0xbce7f371	-0.028314324
137	0xbe8f4ef9	-0.2798994
138	0x3dbc8fa6	0.09207086
139	0x3e85062d	0.25981274
140	0xbd70bdf1	-0.058774892
141	0x3f8b66de	1.0890768
142	0x3fb8a76b	1.4426092
143	0x3f300599	0.6875854
144	0x3d168aa0	0.036753297
145	0xbe00ab60	-0.12565374
146	0xbd964f9c	-0.07339403
147	0x3f9ab61d	1.2086827
148	0x3ec7a0ab	0.38989767
149	0x3da1dd72	0.079035655
150	0xbe1e2f69	-0.15447773
151	0xc027a6a4	-2.619546
152	0x4015c0f3	2.3399017
153	0xbfae59c5	-1.3621145
154	0xbe07b52f	-0.1325271
155	0xbf182c4f	-0.5944261
156	0xbe9ad1ab	-0.3023809
157	0xbf30444f	-0.6885423
158	0x3f1b2919	0.60609585
159	0xbf14a84e	-0.5806931
160	0xbcc892d5	-0.024484077
161	0x3ca1eee0	0.019767225
162	0x3e9be034	0.3044449
163	0xbef21f5b	-0.47289547
164	0xbf4bb3e7	-0.79571384
165	0x3f9f1d35	1.2430788
166	0xbfbaf1d3	-1.4605049
167	0x3fbaadfa	1.4584343
168	0x3f395da9	0.7240854
169	0x3e1498fd	0.14511485
170	0xbd8d4bd0	-0.06899226
171	0xbe3efd21	-0.18651249
172	0x3f075002	0.5285646
173	0x3f18c22a	0.5967127
174	0x3eaff59f	0.34367082
175	0x3ba2d47a	0.004969177
176	0x3c3ef1fd	0.011654374
177	0xbc4bd7ae	-0.012441559
178	0x3c4647eb	0.0121021075
179	0x3b3a1f1b	0.0028399888
180	0x3ba79094	0.0051136706
181	0xbb8e3fec	-0.004341116
182	0x3be99894	0.0071287844
183	0xbbe90a93	-0.0071118562
184	0x3c9a706e	0.018852439
185	0x3bf685da	0.0075232806
186	0x3bca0cf9	0.0061660972
187	0xbb5d0057	-0.0033722126
188	0xbc4185d2	-0.01181169
189	0xbbf85804	-0.0075788517
190	0x3a576faa	0.00082182384
191	0xbbbb7dc2	-0.0057217786
192	0xb8b374a7	-8.557113e-05
193	0x3b778a08	0.0037771482
194	0x3b7ec157	0.0038872564
195	0x3c0aba14	0.008467216
196	0xbbb19d96	-0.005420397
197	0x3b168532	0.0022967574
198	0x3be78e19	0.0070665
199	0xbb1a5038	-0.002354635
200	0x3c815aa2	0.015790287
201	0x3cb42857	0.021991892
202	0xbd665e3d	-0.056242216
203	0x3ab4d212	0.0013795516
204	0x3b29261c	0.0025810068
205	0x3beb4ec8	0.0071810223
206	0xbc6ba7d6	-0.014383277
207	0x3c860922	0.016361777
208	0xbcf7fd6b	-0.030272206
209	0x3c9b8f31	0.018989177
210	0x3b9b04c0	0.004730791
211	0x3c3f0063	0.011657807
212	0x3c251ecc	0.010078143
213	0x3b92df53	0.0044821887
214	0x3d013010	0.031539977
215	0xbcb3b437	-0.02193652
216	0xbbd0ac93	-0.0063682287
217	0xbc0b9046	-0.008518284
218	0x3b1f8202	0.0024338965
219	0xbb65035f	-0.0034944636
220	0x3c61e5da	0.013787711
221	0x3b884618	0.0041587465
222	0x3c053f75	0.008132805
223	0x3b94efe9	0.004545201
224	0x3bba01dd	0.0056764917
225	0x3c7af638	0.015317492
226	0x3c2a72f4	0.0104033835
227	0xbb8d2ce8	-0.0043083318
228	0x3a9ec615	0.0012113476
229	0xbbdc7de7	-0.006728876
230	0x3a8b9b90	0.001065122
231	0xbc1632f0	-0.009167418
232	0x3ca1e21f	0.019761143
233	0xbc8154bd	-0.015787477
234	0x3d133a94	0.035944536
235	0x3cf385ac	0.029726826
236	0x3b8ed6b9	0.004359093
237	0xbc9eaa32	-0.019368265
238	0xbca0fca9	-0.019651728
239	0xbc81c87d	-0.01584267
240	0xbc8b6168	-0.01701422
241	0xbc5156dd	-0.0127770575
242	0xbc428b6f	-0.011874064
243	0xbbac56d2	-0.005259373
244	0x3c6a998f	0.014318838
245	0x3c9f8945	0.019474635
246	0xbc8cf197	-0.017205043
247	0x3bb7edc0	0.005613059
248	0xbabc19e0	-0.0014350973
249	0xbbc53364	-0.006018089
250	0x3b2d255b	0.002641997
251	0x3bb34dc1	0.0054719155
252	0x3b7dba57	0.0038715804
253	0xbc7be960	-0.015375465
254	0x3c309c85	0.010779505
255	0x3cdcb267	0.026940538

actor.0.bias f4 [128]
0	0xbc586eab	-0.013209979
1	0xc04b2a21	-3.1744463
2	0x3afcda37	0.0019291107
3	0xc0004e49	-2.0047781
4	0xbb9f062f	-0.004853032
5	0xc0136560	-2.3030624
6	0xbf8968a4	-1.0735059
7	0x3a0fb4b3	0.00054819434
8	0x3a9d1e9e	0.0011987274
9	0x3bb0b645	0.005392822
10	0xbbb00d25	-0.0053726607
11	0x3b8e3b14	0.0043405388
12	0xc03ca66f	-2.9476583
13	0xc0b3ef27	-5.6229434
14	0x3bba1dd6	0.0056798263
15	0x3bb30e1d	0.005464329
16	0xc030d6bd	-2.7631066
17	0xbfc70060	-1.554699
18	0xbb2db010	-0.0026502647
19	0xbed128b7	-0.40851375
20	0xbfb33050	-1.3999119
21	0x3b8e2e24	0.0043389965
22	0xbb111430	-0.0022137277
23	0xc0144c26	-2.3171477
24	0xbb50c4f9	-0.0031855686
25	0xc08b0ce5	-4.345324
26	0xc08bb272	-4.365533
27	0xbc760ce9	-0.015017726
28	0xc0843f17	-4.1327014
29	0xbbd21755	-0.006411473
30	0xbf13e7e3	-0.57775706
31	0xbb3c31bb	-0.0028716165
32	0xbfdb7ae6	-1.7146881
33	0xbbc7cb52	-0.0060972357
34	0xbebf42a0	-0.37355518
35	0xbbcf8515	-0.0063330033
36	0x39d30b82	0.0004025363
37	0xc0065981	-2.099213
38	0xbc720375	-0.014771332
39	0xbbe5381c	-0.006995214
40	0xbb84ef91	-0.004056879
41	0x3a141824	0.0005649349
42	0xbf76fcb3	-0.9647934
43	0xbc525439	-0.012837463
44	0xbba7856f	-0.005112342
45	0xbbe5dd18	-0.007014882
46	0xbfa8430b	-1.314546
47	0xbc55f300	-0.013058424
48	0xba5f962b	-0.00085291517
49	0xbbb51399	-0.005526018
50	0xbf33ea3f	-0.70279306
51	0xc0844354	-4.133219
52	0xc00aa995	-2.1666005
53	0xbaa354e2	-0.001246121
54	0xbbe86217	-0.0070917713
55	0x3b9d29a5	0.004796224
56	0xbaa25ec5	-0.0012387863
57	0xba623ca4	-0.0008630252
58	0xba55b52a	-0.0008152301
59	0xc01d3518	-2.4563656
60	0xbbb7cc8c	-0.0056091007
61	0xbc350fcd	-0.0110511305
62	0xbcbf327d	-0.023339504
63	0xbc48e08e	-0.012260569
64	0x3b46d5d5	0.0030339856
65	0xbe49390f	-0.19650672
66	0xbb61a7d6	-0.0034432313
67	0xbbaa0387	-0.005188409
68	0xbbabffff	-0.005249023
69	0x3ba43491	0.005011149
70	0x3a8d2db6	0.0010771069
71	0xc003711c	-2.0537786
72	0xbbdcaaa3	-0.0067342087
73	0xbdd2c95b	-0.10292312
74	0xbc530009	-0.012878426
75	0xc090f770	-4.530205
76	0xbf76712a	-0.96266425
77	0xbfd114c4	-1.6334462
78	0xbc3f8438	-0.011689238
79	0xbc6f543c	-0.014607485
80	0xbc3b85ea	-0.011445502
81	0xc0286cea	-2.6316476
82	0xbc065cee	-0.008200867
83	0xbaab760d	-0.0013081447
84	0xbb9557d5	-0.0045575895
85	0xbc139eb5	-0.009010007
86	0xbb86eda9	-0.0041176868
87	0xbc38d14a	-0.011280367
88	0xbc10f644	-0.008847777
89	0xc05c5229	-3.4425147
90	0xc00dbcda	-2.2146516
91	0xbf97c042	-1.1855547
92	0xbf8eca13	-1.1155418
93	0xbf482708	-0.78184557
94	0xc0402f15	-3.0028737
95	0xbb4fc6df	-0.003170423
96	0xc05df09b	-3.4678104
97	0xbae3e7e2	-0.0017387832
98	0xc09ec5b3	-4.961633
99	0xbbdd06ab	-0.0067451796
100	0x3c50ad4d	0.012736631
101	0xbec29e22	-0.3801127
102	0x3b750197	0.003738498
103	0xbf2961f0	-0.66165066
104	0xbfcd3cf2	-1.6034224
105	0xbf7555db	-0.9583413
106	0xbc17555c	-0.00923666
107	0x3be0eba4	0.006864028
108	0xc002e2c3	-2.0450904
109	0xbaecca57	-0.0018065673
110	0xbc029b9c	-0.0079716705
111	0xbd47c178	-0.04876849
112	0xc023d65f	-2.5599592
113	0xbaf26321	-0.0018492677
114	0xb966ef86	-0.00022023739
115	0xbb93a6ab	-0.0045059524
116	0xbfb7787b	-1.4333643
117	0xc0661a12	-3.5953412
118	0xbc547a89	-0.012968668
119	0xbb909d1c	-0.00441326
120	0x3b8d467d	0.0043113814
121	0xc0026084	-2.0371408
122	0xbf9c1afe	-1.2195737
123	0xc0365259	-2.848776
124	0xbb0eb8ee	-0.0021777707
125	0xbb1c9d3f	-0.0023897437
126	0xc01755eb	-2.364619
127	0xbf90d00b	-1.131349

actor.2.weight f4 [128, 128]
0	0x3d18373c	0.03716205
1	0x3c29b08f	0.010357036
2	0xbcd13285	-0.025536785
3	0x3a07a9a9	0.00051751226
4	0xbcf0ba43	-0.029385692
5	0xbc420a92	-0.0118433405
6	0xbbb1cf94	-0.0054263566
7	0xbcdd89cc	-0.027043246
8	0xbc126e5a	-0.008937443
9	0xbca7ddbb	-0.020491472
10	0x3c8ef448	0.017450467
11	0xbb4a82a2	-0.0030900617
12	0x3c3b6896	0.011438509
13	0x3a9ffc2c	0.001220589
14	0x3c95b44d	0.01827445
15	0x3d8e1e4c	0.069393724
16	0xbc25e2c7	-0.010124869
17	0xbcebd4b8	-0.028787956
18	0x3b7317f0	0.0037093125
19	0xbd33939b	-0.04384194
20	0xbc2dfa12	-0.010618703
21	0x3b73fe52	0.0037230444
22	0xbd2804bf	-0.04102015
23	0x3c14a753	0.009073096
24	0xbc369fb4	-0.011146475
25	0x3d0282e8	0.031863123
26	0x3c106904	0.0088141
27	0x3c922a36	0.017842393
28	0xbcb10516	-0.02160887
29	0x3cc257b0	0.023723453
30	0xb9764f8b	-0.0002349002
31	0xbc35afde	-0.011089293
32	0xbcc0a119	-0.023514317
33	0xbcfbe58d	-0.030749107
34	0xbb3837b9	-0.0028109385
35	0x3ccaae05	0.024741182
36	0x3bf5d95b	0.0075027174
37	0xbc3bf1dd	-0.011471239
38	0x3d07acc2	0.03312374
39	0x3d6faa47	0.058512
40	0x3d5a89a7	0.05335393
41	0xbd5d14d9	-0.05397496
42	0x3c319116	0.010837814
43	0xbc14a63d	-0.009072837
44	0xbb60c488	-0.003429683
45	0x3d0a7ba5	0.033809323
46	0xbcb9c91a	-0.0226789
47	0x3cf18616	0.029482882
48	0xbc2efca3	-0.0106803505
49	0xbc43b591	-0.011945144
50	0x3c18ef8f	0.009334459
51	0x3a340c5d	0.00068682974
52	0xbc60ef52	-0.013728933
53	0xbb2bdef3	-0.0026225417
54	0x3d9fb23e	0.07797669
55	0xbcb28df5	-0.021796206
56	0x3c5919ff	0.013250827
57	0x3ccd3817	0.02505116
58	0x3cb3f533	0.021967506
59	0x3d17a4e8	0.0370225
60	0x3bb03243	0.0053770854
61	0x3d537d03	0.051632892
62	0xbb2fb9b9	-0.002681358
63	0x3c87dbb9	0.016584264
64	0xbcfcab73	-0.030843472
65	0xbd61983b	-0.05507682
66	0xbc899a55	-0.016797224
67	0x3d063b3d	0.032771338
68	0x3beede51	0.007289686
69	0x3b4c644e	0.0031187716
70	0x3d09ed66	0.033673666
71	0x3a55592d	0.00081385934
72	0x3c28924a	0.010288784
73	0xbcda8637	-0.026675327
74	0xbb5fbd39	-0.0034139885
75	0x3abb0fed	0.0014271714
76	0xbcd97cd5	-0.026548782
77	0x3c2b0139	0.010437303
78	0xbd514015	-0.051086504
79	0xbc2a85e7	-0.010407901
80	0xbb3b7cf5	-0.0028608416
81	0xbb8f3c70	-0.0043712184
82	0xb9d4c2f7	-0.0004058105
83	0xbd0d20e8	-0.03445521
84	0x3d256176	0.04037615
85	0xbd0ddc3d	-0.034633864
86	0x3d39924b	0.04530553
87	0x3c7d54b5	0.01546209
88	0x3cfd4798	0.030917928
89	0x3bd70471	0.0065618088
90	0xbb433bb8	-0.0029790234
91	0xbc52fa35	-0.012877037
92	0xbc00ec14	-0.007868785
93	0xb94a8442	-0.00019313491
94	0xbb9ba0a4	-0.0047493745
95	0xbc16f030	-0.009212539
96	0xbb2eafb3	-0.0026655018
97	0xbd054432	-0.03253574
98	0xbaaf72a5	-0.0013385607
99	0xbbff4ba1	-0.007790998
100	0x3d680dd2	0.056653805
101	0x3bee9733	0.007281208
102	0xbcec6609	-0.028857248
103	0xbc7500c2	-0.014953794
104	0xbc948924	-0.0181318
105	0xbc83f051	-0.016105803
106	0xbcc4ac19	-0.024007844
107	0xbcb1ec2c	-0.02171906
108	0x3c55c208	0.013046749
109	0x3bc8f466	0.00613265
110	0x3d3c3c56	0.04595598
111	0x3bb31429	0.0054650498
112	0x3bba89d4	0.0056927
113	0xbca20776	-0.019778948
114	0x3c28a374	0.0102928765
115	0xbca6de46	-0.02036966
116	0x3c304cd1	0.010760502
117	0xbc580998	-0.013185881
118	0x399991bc	0.00029291015
119	0x3d2bc0f8	0.041932076
120	0xbc42fce7	-0.011901117
121	0xbbb14bd6	-0.0054106517
122	0x3c4c6951	0.012476281
123	0x3c7d8fda	0.015476191
124	0x3c9d54d4	0.019205488
125	0xbc3e6bcc	-0.01162238
126	0xbba8b7d0	-0.0051488653
127	0x3c88df23	0.016707962
128	0x3c60881b	0.013704325
129	0x3bc1152d	0.005892417
130	0xbd2dc6ae	-0.042425804
131	0xbc9cf7ce	-0.019161131
132	0x3ce5a965	0.028034875
133	0xbb667549	-0.0035165122
134	0x3c32c910	0.010912195
135	0x3b9af16b	0.0047284863
136	0xbd0658f2	-0.03279967
137	0xbd6fa5fa	-0.058507897
138	0x3bb60e60	0.005555913
139	0x3b924bb5	0.0044645914
140	0x3c257853	0.010099488
141	0x3c9b476c	0.018954955
142	0x3c03ae92	0.008037226
143	0x3c9db4c6	0.019251239
144	0xbbc59043	-0.00602916
145	0xbc476ec2	-0.012172403
146	0x3b7a21e2	0.0038167168
147	0xbc6cb768	-0.014448024
148	0xbd10522f	-0.035234626
149	0x3d1b66e5	0.037939925
150	0xbcbadb65	-0.022809694
151	0xbc1e0755	-0.009645303
152	0xbd2dd987	-0.04244378
153	0x3cbffcb5	0.02343593
154	0x3c3692b9	0.01114338
155	0xbd3f7d1a	-0.046750166
156	0x3ba33757	0.0049809623
157	0x3c7921a1	0.015205772
158	0xbc850201	-0.016236307
159	0xb960ef99	-0.00021451562
160	0x3c2c0db0	0.01050131
161	0xbbdbb055	-0.00670437
162	0xbbec94dc	-0.007219894
163	0xbbc68cde	-0.006059273
164	0xbc0b993f	-0.008520423
165	0x3c0953e3	0.008381817
166	0xbca894e3	-0.020578807
167	0xbca6d950	-0.020367295
168	0x3d098032	0.033569522
169	0x3d39ac74	0.04533048
170	0xbc60648a	-0.013695845
171	0x3cfad72c	0.03062018
172	0xbc1032d1	-0.008801178
173	0x3aa5a1d1	0.0012636726
174	0xbc115237	-0.008869699
175	0x396c49b9	0.00022534178
176	0x3c8093e5	0.015695522
177	0xbb10c353	-0.0022089079
178	0xbb38268f	-0.0028099155
179	0xba2453c8	-0.0006268588
180	0xbc3a3bf7	-0.011366836
181	0xbc899361	-0.016793909
182	0x3d4a4c68	0.049389273
183	0xbbeb6342	-0.0071834633
184	0x3cd44fac	0.025916897
185	0x3d72443f	0.059147116
186	0x3c2dc44d	0.010605884
187	0xbc33a9fc	-0.01096582
188	0xbc5d4e48	-0.013507433
189	0x3b4a6392	0.0030882102
190	0xbc9e440b	-0.019319555
191	0x3c2c29a0	0.010507971
192	0x3c8d3a85	0.017239818
193	0xbaa4b386	-0.0012565709
194	0x3d5288c6	0.05139997
195	0x3d2fd62d	0.042928863
196	0xbd15e93c	-0.036599383
197	0x3bd0b064	0.0063686837
198	0xbba7d8e6	-0.005122292
199	0xbc146a24	-0.009058509
200	0x3d06c0db	0.032898765
201	0xbc68a23f	-0.014198839
202	0x3cc98280	0.02459836
203	0x3b63591c	0.0034690564
204	0xbc4a9fe8	-0.012367226
205	0xbc3ecdf9	-0.011645787
206	0xbd27b6da	-0.040945865
207	0xbcae7a7f	-0.021298645
208	0xbc5da0b7	-0.013527087
209	0x3a882e61	0.0010389799
210	0x3c372767	0.011178828
211	0xbcdcb61d	-0.026942307
212	0x3d96158e	0.0732833
213	0xbc7c8e24	-0.015414748
214	0xbc97b9b5	-0.01852117
215	0x3cc8719c	0.024468236
216	0xbcaf348d	-0.021387363
217	0xbbebcd08	-0.0071960725
218	0xbc8bf919	-0.017086552
219	0x3cc654a4	0.024210282
220	0x3c867a75	0.016415814
221	0xbc2bb2cb	-0.010479639
222	0x3c0873a3	0.008328351
223	0x3b55f57f	0.0032647548
224	0x3c1948e3	0.009355756
225	0x3c873fd4	0.016509928
226	0x3c0e8115	0.008697768
227	0x3c77563f	0.015096246
228	0x3c953e52	0.018218193
229	0x3a10bbb1	0.0005521132
230	0xbbff077d	-0.007782875
231	0xbc99179c	-0.018688016
232	0x3c2b89cd	0.010469866
233	0x3ace5749	0.0015742566
234	0xbc4242cb	-0.011856745
235	0x3d013686	0.03154614
236	0x3cb82ab2	0.022481296
237	0xba5c4f0a	-0.0008404112
238	0x3d5dd236	0.05415555
239	0x3cb65f71	0.022262307
240	0xbc977cd4	-0.01849214
241	0x3ca83c5d	0.020536596
242	0x3ac42fa7	0.0014967815
243	0xbc62c7d8	-0.013841592
244	0xbd10c35c	-0.03534256
245	0x3c945be4	0.018110223
246	0x3cab8c87	0.020941032
247	0xbcdbf0d4	-0.026848234
248	0xbd17f349	-0.03709725
249	0xbc84efb4	-0.01622758
250	0x3c5a6b07	0.013331181
251	0x3cc60b0f	0.024175195
252	0xbc9119b1	-0.017712446
253	0xbcd11e10	-0.02552703
254	0xbc8c1f54	-0.017104782
255	0x3c9b76af	0.018977491

actor.2.bias f4 [128]
0	0xbd021658	-0.03175959
1	0xbc23a0ad	-0.009987039
2	0xbcd2a8f3	-0.025715327
3	0xbc83b78e	-0.016078737
4	0xbaccec0b	-0.0015634311
5	0xbd3b81d5	-0.045778114
6	0xbca6a653	-0.020342981
7	0xbce4fb9d	-0.02795201
8	0x3c8456c4	0.016154654
9	0x3bc92154	0.006138006
10	0xbd352eb4	-0.044233993
11	0xbc9d2581	-0.019182922
12	0xbd687a30	-0.056757152
13	0xbd348c96	-0.044079386
14	0x3bcd420c	0.006263977
15	0xbd837cf5	-0.06420318
16	0xbc608107	-0.0137026375
17	0xbd300f48	-0.042983323
18	0xbc0d470d	-0.008622897
19	0xbcf69370	-0.0300996
20	0xbd1974de	-0.03746497
21	0xbc246ceb	-0.010035734
22	0xbcfb2d33	-0.030661201
23	0xbc987579	-0.018610703
24	0xbd3f71a8	-0.04673925
25	0xbb8379bf	-0.004012316
26	0xbd0e7641	-0.034780744
27	0xbc5a8af5	-0.013338794
28	0x3c06df82	0.008231999
29	0xbc3a7a47	-0.011381692
30	0xbd751c29	-0.05984131
31	0xbcbfc4b5	-0.023409227
32	0x3c15abec	0.009135228
33	0xbb60fa95	-0.0034329046
34	0xbccd8b59	-0.02509086
35	0xbfe8748f	-1.8160571
36	0xbcddd117	-0.02707724
37	0x3be9ef81	0.007139147
38	0xbcd0fbd6	-0.02551071
39	0xbc220783	-0.009889486
40	0x3a6d0f5e	0.00090431224
41	0xbc55cf7c	-0.013049956
42	0xbc4cfa45	-0.012510841
43	0xbcce9d24	-0.025221415
44	0xbfc6bd59	-1.5526534
45	0xbcd78f59	-0.02631347
46	0x3c35a933	0.0110877035
47	0xc04c4a8d	-3.1920502
48	0xbc4c8135	-0.012481977
49	0xbcc9231e	-0.024552878
50	0xbb325622	-0.0027211984
51	0xbd0d9a28	-0.034570843
52	0xbd4c8b0e	-0.0499373
53	0xbbc98b48	-0.006150637
54	0xbffe4681	-1.9865266
55	0xbfe3bd43	-1.7792133
56	0xbcdb9116	-0.02680258
57	0xbca7974c	-0.020457886
58	0xbcce5043	-0.025184756
59	0xbc5f5168	-0.013630249
60	0xbd3007e0	-0.04297626
61	0xbcf19e8c	-0.029494546
62	0xbcaeebcb	-0.02135267
63	0xbced1aee	-0.028943505
64	0xbac75751	-0.0015208517
65	0xbbce0872	-0.006287628
66	0xbd1d5da8	-0.038419396
67	0xbf037810	-0.51355076
68	0xbbdf161d	-0.006808056
69	0xbcb6b44f	-0.022302775
70	0xbc45c022	-0.012069734
71	0xbc80d00b	-0.015724203
72	0xbea4a6bb	-0.32158455
73	0xbc8068ca	-0.015674967
74	0xbd4c9961	-0.04995096
75	0xbfb30abc	-1.3987651
76	0xbcc9f00a	-0.024650592
77	0xbcb00249	-0.021485465
78	0xbd5ec580	-0.05438757
79	0xbca4a61c	-0.020098738
80	0xb9e978a6	-0.00044531113
81	0xbccb0ec5	-0.024787316
82	0xbd09d2eb	-0.033648413
83	0x3b4ee470	0.0031569265
84	0xbba0c07d	-0.004905759
85	0xbbeab476	-0.007162626
86	0x3c694d1e	0.014239578
87	0xbd1b5806	-0.037925743
88	0xbd09aada	-0.033610202
89	0xbd5df9b7	-0.054193225
90	0xbd0654cd	-0.032795716
91	0xbb4b1f9b	-0.003099418
92	0xbd00c45b	-0.03143726
93	0xc0b47435	-5.6391854
94	0xbcfc2e0f	-0.030783681
95	0x3b0bd661	0.0021337497
96	0xbcca1688	-0.024668947
97	0xbca9340c	-0.0206547
98	0xbd59eb8a	-0.053203143
99	0xbd04606b	-0.032318514
100	0xbd655bc8	-0.055995733
101	0xbceae64e	-0.028674271
102	0x3e6d4fb7	0.2317494
103	0xbf8f434d	-1.1192414
104	0xbf94a548	-1.161294
105	0xbd2903f0	-0.04126352
106	0xbd6e6c4d	-0.058208752
107	0xbcbdcb13	-0.023168122
108	0xbfa3aadf	-1.2786521
109	0xbd800be6	-0.062522694
110	0xbd10b024	-0.03532423
111	0xbcf3cb42	-0.029760007
112	0xbd0d352f	-0.034474548
113	0xbcdd9d81	-0.027052643
114	0xc0022361	-2.0334094
115	0xbd0d921e	-0.034563176
116	0xbc8bd432	-0.017068956
117	0xbd21a482	-0.039463528
118	0xbf468774	-0.77550435
119	0xbd39e65e	-0.04538571
120	0xbca4a146	-0.020096432
121	0xbcb144fb	-0.021639338
122	0xbd281678	-0.041037053
123	0xbd3b2de2	-0.045698054
124	0xbcc6146c	-0.02417966
125	0xbccac4cd	-0.024752045
126	0xbcde4172	-0.027130816
127	0xbd26ab6d	-0.040690828

actor.4.weight f4 [6, 128]
0	0x3a78b0d4	0.00094867987
1	0xbc0bd70f	-0.008535161
2	0x3b829c80	0.0039859414
3	0xbbe79a4f	-0.0070679556
4	0x3b24d034	0.0025148513
5	0x3bb4167e	0.0054958453
6	0x3abe5454	0.0014520981
7	0xbc19e55a	-0.009393061
8	0xbb9a0517	-0.004700314
9	0xbb9c5c65	-0.0047717565
10	0x39d83a35	0.00041242098
11	0x3b879f76	0.0041388823
12	0xbad072e5	-0.0015903382
13	0xba8fbe03	-0.0010966662
14	0xbc022af2	-0.007944809
15	0xba465c46	-0.00075668504
16	0xbb3fb8be	-0.0029254402
17	0x38dd0b59	0.00010540215
18	0xbb2b4f5d	-0.0026139833
19	0xbc100943	-0.008791271
20	0x3b398643	0.0028308786
21	0x3b37c5f0	0.0028041564
22	0x3c24ec20	0.010066062
23	0xbb7bd86d	-0.003842856
24	0x3b26880b	0.0025410678
25	0xbc19382d	-0.009351772
26	0xbb318373	-0.0027086406
27	0xb810559f	-3.4412016e-05
28	0xb9ca1b1b	-0.00038548638
29	0xbb4f259e	-0.0031608115
30	0x3b814b98	0.003945779
31	0xbb90ce21	-0.0044191037
32	0xbab32046	-0.0013666234
33	0xbb6a25c0	-0.0035728067
34	0xba95f176	-0.0011439759
35	0xbe0d5371	-0.13801362
36	0xba1e84c6	-0.00060470065
37	0xbbb68fba	-0.0055713328
38	0x3b4f8c93	0.0031669482
39	0xbc08220e	-0.0083089005
40	0xbbe1b83b	-0.006888417
41	0x3ab5d3c0	0.001387231
42	0xbba6de27	-0.0050924006
43	0x3b5f6826	0.0034089177
44	0xbdab060a	-0.08350761
45	0xba752453	-0.0009351421
46	0xbac83304	-0.0015273993
47	0x3c5757e0	0.01314351
48	0xba9e8049	-0.0012092675
49	0xb931bf12	-0.00016951215
50	0xbbbbe961	-0.005734608
51	0x3a3b5c10	0.0007147202
52	0x3c1fe3ca	0.009758899
53	0xbc39e631	-0.011346386
54	0x3c787be4	0.015166257
55	0x3da37697	0.079816036
56	0xbb5d286b	-0.0033746015
57	0xb9807482	-0.00024500868
58	0xbb9a5585	-0.0047099018
59	0x3bc089de	0.00587581
60	0x3b27a8bf	0.0025582758
61	0x3ba456d5	0.005015234
62	0xbbe8b84d	-0.0071020485
63	0x3a7a7293	0.0009553816
64	0xba219e2d	-0.00061652326
65	0xbb92bde9	-0.0044782055
66	0xbada403f	-0.0016651227
67	0xbdfdbf0d	-0.12389956
68	0x3b72cb02	0.0037047272
69	0xbbfc1e9c	-0.0076940786
70	0xbc0030c2	-0.007824125
71	0x39f0c231	0.0004592105
72	0x3d0a26a2	0.03372825
73	0x3b5aba31	0.003337514
74	0xb967d6b3	-0.00022109858
75	0x3dbc7468	0.0920189
76	0xbb6d2fca	-0.0036191815
77	0x3bcc49b2	0.006234371
78	0x3b448a01	0.0029989483
79	0xb9d49179	-0.00040544177
80	0xbc1fbb79	-0.009749287
81	0x3b8ac2d5	0.0042346516
82	0x3b7c691e	0.0038514803
83	0xbbf5114d	-0.007478869
84	0xbab29bfa	-0.0013626807
85	0x3b54354f	0.0032380407
86	0x3bc85d73	0.0061146556
87	0x3b97742f	0.0046220045
88	0xbb2be1fe	-0.002622723
89	0xb96609e3	-0.00021938192
90	0x3ac289d6	0.0014842104
91	0x39ba9aae	0.0003559193
92	0xbb03fd86	-0.0020140125
93	0xbed0de50	-0.4079461
94	0x396dc286	0.00022674547
95	0x3bbed37f	0.005823552
96	0x390f9183	0.0001369175
97	0x3c2e278b	0.010629545
98	0xb9a25c1c	-0.00030967675
99	0xbb8ff1c9	-0.0043928367
100	0xbb483415	-0.0030548621
101	0x3b3dc4b8	0.0028956365
102	0x3de4e747	0.11176925
103	0x3da1de24	0.07903698
104	0xbd7e1634	-0.062032893
105	0x3baf850f	0.005356438
106	0x3b9c5c48	0.004771743
107	0xba65a383	-0.0008760022
108	0xbead4666	-0.33842772
109	0xbafd8c33	-0.0019344151
110	0xbbbffea1	-0.0058592116
111	0x3b06cae7	0.0020567717
112	0x3b09d1ff	0.0021029708
113	0x3adb69cb	0.0016739903
114	0xbda8c36e	-0.082404
115	0xbbd0e592	-0.006375023
116	0x38158042	3.5643818e-05
117	0xb8e350ad	-0.000108392305
118	0x3da8c8ab	0.082413994
119	0xbaf08aba	-0.0018351891
120	0xbb8ba27e	-0.004261314
121	0xb8fc50d8	-0.00012031355
122	0xba12fad7	-0.0005606836
123	0x3a563f36	0.00081728713
124	0xba974737	-0.001154161
125	0x3a194bd5	0.00058477867
126	0xbb06cdd9	-0.0020569472
127	0x3aa6de52	0.0012731052
128	0xbb0fe539	-0.0021956696
129	0x3bc962a2	0.006145791
130	0x3b38db22	0.0028206785
131	0x3b1a4edd	0.0023545541
132	0xbbba270c	-0.0056809243
133	0x3a8a7c0b	0.0010565532
134	0xbc038ea9	-0.008029618
135	0x3b04e5b2	0.002027851
136	0x39d03d57	0.00039718553
137	0x3baf2a0d	0.005345589
138	0xbb0a187e	-0.0021071727
139	0xbb02d77f	-0.0019964871
140	0x3b882b46	0.004155549
141	0xbbdb68f1	-0.0066958596
142	0x3c34ba60	0.011030763
143	0xbacf2281	-0.001580313
144	0x38d1d475	0.0001000547
145	0x3b5daae9	0.0033823794
146	0xbbd71a36	-0.006564404
147	0xbba43283	-0.0050109043
148	0x3b5db08d	0.0033827156
149	0xbb62a6e8	-0.0034584347
150	0xbb0e4d52	-0.0021713567
151	0x3c3f35b2	0.011670517
152	0x3b3c5214	0.0028735446
153	0x3a6dcc42	0.00090712693
154	0xbbdaa114	-0.006672034
155	0xbb15a4d6	-0.0022833846
156	0x3b15b1d4	0.002284159
157	0xba5c05bc	-0.00083931885
158	0x3b60c945	0.0034299653
159	0x3b686bbf	0.0035464612
160	0x3ab11919	0.0013511508
161	0xbb80f28a	-0.003935163
162	0x3be35d1b	0.0069385893
163	0x3ac2b887	0.0014856019
164	0x3c124cf0	0.008929476
165	0x3c26612f	0.010155006
166	0x3b657cd5	0.0035017033
167	0x3bf4a13e	0.0074655106
168	0x3c0fa77f	0.0087679615
169	0xbbc24817	-0.005929004
170	0xba30114c	-0.00067164446
171	0xbb39cebc	-0.0028351983
172	0x3d540e62	0.05177153
173	0xbc274c48	-0.010211058
174	0xbc055822	-0.008138688
175	0xbc3425d0	-0.010995343
176	0xbacdd8ce	-0.0015704872
177	0xb9deea63	-0.0004251777
178	0xb82d335a	-4.129424e-05
179	0x3bb400d7	0.005493264
180	0xbc05943a	-0.008153016
181	0x3c439300	0.011936903
182	0x3d3c3c53	0.045955967
183	0x3c3e8731	0.011628912
184	0xb9e370d7	-0.00043380886
185	0xbbee7a5f	-0.0072777714
186	0x3ba323ac	0.0049786177
187	0xbaa3a5a8	-0.0012485282
188	0xbb9c2b9d	-0.0047659413
189	0xbb9b2933	-0.004735136
190	0x3c236c77	0.0099745905
191	0xba7781c4	-0.0009441639
192	0xbbade633	-0.005306983
193	0xbb021514	-0.001984899
194	0x3b1d3a70	0.002399113
195	0x3ae1f360	0.0017238669
196	0x3b3c6d02	0.0028751497
197	0x3b4b9829	0.0031066036
198	0x3ba92cec	0.005162826
199	0xbb58d2f0	-0.0033084713
200	0x3bd0b95a	0.006369752
201	0x3b97b3ff	0.0046296115
202	0x3c061b6f	0.008185252
203	0x3a36b877	0.00069702364
204	0x3b9d80bb	0.0048066056
205	0xbbf9e8d4	-0.007626632
206	0xb9aee553	-0.00033358726
207	0xbc1b9097	-0.009494922
208	0xbbff83d7	-0.007797699
209	0xbbe5f5c9	-0.0070178253
210	0xba53fcae	-0.00080866634
211	0xba9d3562	-0.0011994059
212	0xbb69eacc	-0.0035692928
213	0x3adc3ac7	0.0016802185
214	0xbbd54b63	-0.006509231
215	0x3bd5864a	0.0065162526
216	0xbc418997	-0.011812589
217	0x3bf628cb	0.007512187
218	0x3c0d2947	0.008615798
219	0x3b15cd11	0.0022857825
220	0x3897e4a6	7.24283e-05
221	0x3d79550d	0.060872126
222	0xbb5dbfd1	-0.0033836255
223	0xbc4d4b4f	-0.012530162
224	0x39c67499	0.00037852375
225	0x3ade2f48	0.0016951347
226	0x3c04c8f5	0.0081045525
227	0x3ba6c483	0.005089344
228	0x3bacd476	0.0052743508
229	0x3b9364e7	0.0044981125
230	0x3e80d991	0.2516599
231	0xbd95fb9d	-0.07323382
232	0x3e290449	0.16505541
233	0x3b0ce279	0.0021497293
234	0xbbb67f54	-0.005569378
235	0xbb812725	-0.003941434
236	0x3c9295df	0.01789373
237	0x3b9e83d1	0.004837491
238	0x3c0e1fb4	0.008674551
239	0x3c22514a	0.009907076
240	0xbc354470	-0.01106368
241	0xbbaecbb4	-0.005334342
242	0xbd75c7e1	-0.060005073
243	0x3c02e558	0.00798925
244	0xbc532352	-0.012886839
245	0x3b120651	0.0022281597
246	0xbe07dce7	-0.13267861
247	0x3b9b9386	0.004747811
248	0x3be91493	0.0071130483
249	0x3bd833fc	0.006597994
250	0x3aa53e1e	0.0012607013
251	0x3b82becf	0.0039900313
252	0x3ba732dc	0.0051024985
253	0xbb8441e9	-0.0040361774
254	0xbc0f6120	-0.008751184
255	0x3b729c00	0.0037019253

actor.4.bias f4 [6]
0	0x3f93529b	1.1509584
1	0xbe96edc8	-0.29478288
2	0x3dd304c5	0.10303644
3	0x3f651210	0.89480686
4	0x3e8f55f2	0.2799526
5	0x3e2de0a1	0.1698022

critic.0.weight f4 [128, 25]
0	0xbef45242	-0.47719008
1	0xbe70a69f	-0.23501061
2	0x3f498c0d	0.78729326
3	0xbf2599d5	-0.64687854
4	0x3f957a9f	1.1678046
5	0x3fb2385e	1.3923452
6	0x3ca8c3e1	0.020601215
7	0x3b61b032	0.0034437296
8	0x3d1c419d	0.03814851
9	0xbd48e7bd	-0.049049128
10	0xbbe28fd1	-0.006914117
11	0xbd057fbc	-0.03259252
12	0xbf7bbd0c	-0.9833534
13	0xbfcdda5b	-1.6082262
14	0x3feb036b	1.8360418
15	0x3ecaea3b	0.3963183
16	0xbffa7721	-1.9567605
17	0x3f296dbf	0.66183084
18	0x3f8e722f	1.1128596
19	0xbca6dc69	-0.020368772
20	0xbb57f09e	-0.0032949816
21	0x3d3a95a3	0.04555286
22	0xbd32e934	-0.04367943
23	0x3d178af6	0.036997758
24	0xbc8c3e3e	-0.017119523
25	0x3e08fe2e	0.13378212
26	0xbf03c219	-0.51468045
27	0xbe345014	-0.17608672
28	0xbf3eb53b	-0.74495286
29	0x3fd31892	1.6491873
30	0xbf162135	-0.5864442
31	0xbd4a740f	-0.04942709
32	0xbccdc0ca	-0.025116343
33	0x3dc46f94	0.09591594
34	0x3b053901	0.0020328166
35	0x3c2a3c00	0.010390282
36	0x3a98b9ce	0.0011652054
37	0x3fe65b1c	1.7996554
38	0x3f88cd48	1.0687647
39	0x3ead3927	0.33832666
40	0xbe9b4abf	-0.30330464
41	0x3f35f67d	0.71079236
42	0xbf52bfc6	-0.82323873
43	0x3fb2e3e5	1.3975798
44	0xbc197fff	-0.009368896
45	0x3c9c73f7	0.019098265
46	0xbc09489a	-0.008379126
47	0xbb44c2de	-0.0030023376
48	0xbd0721e8	-0.03299132
49	0x3d5705b9	0.052495692
50	0x3e2eeade	0.17081782
51	0x3f486593	0.7827999
52	0xbf123519	-0.5711227
53	0x3f78f4ab	0.97248334
54	0x3f1548f7	0.5831446
55	0xbfdd0dd3	-1.7269844
56	0xbd3d2045	-0.046173353
57	0x3c5042c9	0.012711235
58	0xbce3ffd4	-0.02783195
59	0xbcc6f6c2	-0.024287585
60	0x3cde3be7	0.027128173
61	0x3bca1913	0.00616754
62	0xbed7ee9e	-0.42174238
63	0xbee69f07	-0.45043203
64	0x3e232b72	0.15934542
65	0xbf288927	-0.6583428
66	0xbe8e8631	-0.27836755
67	0xbf9e3728	-1.2360582
68	0x3f893492	1.0719168
69	0x3d0ea9fa	0.03483007
70	0x3c8171d1	0.015801342
71	0x3b8006bf	0.003907054
72	0xbc066403	-0.008202556
73	0xbcf9eef5	-0.030509451
74	0x3d83e725	0.06440572
75	0xbe07c4c2	-0.13258651
76	0x3eb94c3e	0.3619098
77	0xbe9727a3	-0.29522428
78	0x3ddc3617	0.10752504
79	0x3e3d8b1a	0.18510094
80	0xbe41ccdf	-0.18925808
81	0xbd132eef	-0.03593343
82	0xbcfe9a23	-0.031079357
83	0x3d7c4234	0.061586574
84	0xbc0b6ada	-0.008509362
85	0xbba4415a	-0.0050126733
86	0x3d007b13	0.031367373
87	0x3d8aab82	0.06770994
88	0xc0438b7c	-3.0553885
89	0xbe4f6428	-0.2025305
90	0xc013f56e	-2.3118548
91	0xbf875e5c	-1.0575671
92	0x3fd1a708	1.6379099
93	0x400d5180	2.2080994
94	0x3d114b9d	0.0354725
95	0x3c9ec146	0.01937927
96	0xbc27087b	-0.010194893
97	0x3d3d05fc	0.046148285
98	0x3c8cb2c2	0.017175082
99	0x3cb7f4a5	0.022455523
100	0x3f3acdf5	0.72970515
101	0x3ea8e33a	0.3298586
102	0xbf3e441b	-0.7432267
103	0x3fb5a395	1.4190546
104	0xbf08adad	-0.5339001
105	0xc00ace03	-2.168824
106	0xbc870f2c	-0.016486727
107	0x3cc891e7	0.024483634
108	0xba7de7a3	-0.00096857006
109	0xbaf0a84e	-0.0018360706
110	0x3bc92879	0.006138858
111	0x3ce5ab27	0.028035713
112	0x3d117f7e	0.035521977
113	0x3e276371	0.16346528
114	0x3e050211	0.1298907
115	0xbf9a322e	-1.2046564
116	0x3f7561bb	0.9585225
117	0x403b1466	2.92312
118	0xbabbf0a6	-0.0014338687
119	0xbcc06c96	-0.023489278
120	0xbb9bc0c1	-0.0047532027
121	0xbc20364f	-0.009778573
122	0x3d5f74c1	0.054554705
123	0xbb0bb2fc	-0.00213164
124	0x3cdbd5dc	0.026835375
125	0xbd53a264	-0.05166854
126	0xbf55b17a	-0.8347393
127	0x3f3a36bb	0.7273976
128	0xbfc34c0b	-1.5257581
129	0x3f32b350	0.6980486
130	0xbe8aa814	-0.27081358
131	0x3d8927e4	0.06697062
132	0xbd87de44	-0.06634191
133	0x3c8b486c	0.017002307
134	0xbd01f589	-0.0317283
135	0xbcde1be8	-0.027112916
136	0x3c2ff911	0.010740534
137	0xbfcf2b5b	-1.6185106
138	0xbdd94d4b	-0.106104456
139	0x3f87c393	1.060656
140	0x400e8345	2.226762
141	0x3f1ed32f	0.6204099
142	0x3a584638	0.00082502095
143	0x3f8e1f7a	1.1103356
144	0x3cefdf6c	0.02928134
145	0xbc695b41	-0.014242948
146	0x3bbb4aba	0.005715695
147	0xbc9a395f	-0.018826185
148	0xbdd239c4	-0.10264924
149	0xbd08ef34	-0.033431247
150	0x3f6715f4	0.9026787
151	0x3e58fef7	0.21191011
152	0x3e9b2a97	0.3030593
153	0xbf63e0e3	-0.89015025
154	0xbfd0ac91	-1.6302663
155	0x3f873bea	1.0565159
156	0xbbc0dc5a	-0.005885643
157	0xbd18a73b	-0.03726886
158	0x3a6dd61e	0.00090727385
159	0x3c236753	0.009973365
160	0x3c0db71b	0.008649613
161	0x3c6c5bb9	0.014426165
162	0xbe5a4d95	-0.21318658
163	0xbd69096d	-0.056893755
164	0x3c8bb6fc	0.017055027
165	0x3fdc8cd0	1.7230473
166	0x40076edf	2.116142
167	0xbfab9c32	-1.3407042
168	0x3f9f5d59	1.2450362
169	0x3cee0197	0.029053492
170	0x3b46f2ad	0.0030357048
171	0x3b0718d3	0.0020614162
172	0xbb6c28ff	-0.0036035178
173	0xbcbc9cf6	-0.023024064
174	0x3c9ac081	0.018890621
175	0x3a5aebfe	0.00083512056
176	0x3eb5cc0c	0.35507238
177	0xbf134256	-0.57523096
178	0x3bca51d5	0.006174306
179	0x3f268568	0.6504731
180	0xbfe389cd	-1.7776428
181	0x3da61a0d	0.081104375
182	0x3bdf1d53	0.0068089156
183	0x3c09e609	0.008416661
184	0xbb1dd42a	-0.0024082758
185	0x3cb4a39e	0.022050675
186	0xbccbd179	-0.024880158
187	0x3e9827f7	0.2971799
188	0x3f82a0c9	1.0205318
189	0x3ec43ad2	0.38326126
190	0x3fcbfcdc	1.5936542
191	0x3cd866af	0.02641615
192	0xbfd39582	-1.6530001
193	0xbff66a4e	-1.9251192
194	0x3caebe2e	0.02133092
195	0xbd1fac1b	-0.038982492
196	0xbd0fd3fe	-0.03511428
197	0xbbc24d70	-0.0059296414
198	0x3c0e58a8	0.0086881295
199	0xbd772726	-0.06034007
200	0x3e306abb	0.17228214
201	0x3fae80bc	1.3633037
202	0xbfe5aa29	-1.7942554
203	0x3fce5233	1.6118835
204	0x3f9faded	1.2474953
205	0xbf9324bf	-1.1495589
206	0xbd036ccd	-0.032086182
207	0x3cce3209	0.025170343
208	0xbda67bb2	-0.08129062
209	0x3b888d46	0.0041672317
210	0xbce149b6	-0.027500968
211	0xbd2746b9	-0.04083893
212	0x3d26dd41	0.040738348
213	0xbbd0df12	-0.0063742483
214	0xbdafff5f	-0.0859363
215	0x3f1638eb	0.586806
216	0x3fdd8b70	1.7308178
217	0x3efaf9d3	0.49018726
218	0x3ec03689	0.37541607
219	0x3c05b820	0.008161575
220	0x3d16e3b7	0.03683826
221	0x3c6fa5de	0.014626948
222	0xbc68df65	-0.014213418
223	0x3d8d4a02	0.068988815
224	0xbdadcd08	-0.08486372
225	0x3e85b130	0.26111746
226	0xbcdeb598	-0.0271862
227	0x3f190a3f	0.5978126
228	0xbf21e3ec	-0.63238406
229	0x3f548494	0.830148
230	0xbfb2cb8c	-1.3968368
231	0xbb1ee350	-0.0024244376
232	0xbca8bf7d	-0.020599121
233	0x37959fcc	1.7836595e-05
234	0xbcf01d19	-0.02931075
235	0xbcda4285	-0.026643047
236	0xbbced2ed	-0.0063117654
237	0x3e8cde6d	0.27513447
238	0xbf4e0ee6	-0.80491483
239	0xbe0e2064	-0.13879544
240	0xbf0b8c35	-0.54510814
241	0x3fa342b1	1.2754728
242	0x3ffd9700	1.9811707
243	0xc0339ad1	-2.8063242
244	0x3b9f0e48	0.0048539974
245	0x3d0d401d	0.03448497
246	0x3cb7698f	0.022389201
247	0xbc4dd6a2	-0.0125633795
248	0x3c5e5219	0.013569378
249	0xbc9c120b	-0.019051572
250	0xbf2d77f7	-0.67761177
251	0x3dc7ae3f	0.09750032
252	0xbe790a65	-0.24320371
253	0xbea810d8	-0.3282535
254	0x3e83deb1	0.25755838
255	0xbea83efb	-0.3286055

critic.0.bias f4 [128]
0	0xc0248e4d	-2.5711854
1	0xc0d3e844	-6.6221027
2	0xc0acdc3c	-5.401884
3	0xbfc80177	-1.5625447
4	0xc081e05b	-4.058637
5	0xc03dc181	-2.9649355
6	0xc01b223f	-2.4239652
7	0xc082f538	-4.092434
8	0xc0172864	-2.3618402
9	0xbf65cc3d	-0.8976477
10	0xc07811ce	-3.8760867
11	0xc089d1c6	-4.306857
12	0xc0370315	-2.859563
13	0xc06a159b	-3.6575687
14	0xc02d545b	-2.7082736
15	0xbfeb4cc1	-1.8382798
16	0xc0817658	-4.0456963
17	0xc0804611	-4.008553
18	0xbea19faf	-0.3156714
19	0xbf8cca31	-1.0999204
20	0xc094384a	-4.631871
21	0xc0162d94	-2.3465319
22	0xc00613ca	-2.0949578
23	0xc0457e28	-3.085825
24	0xc03c3877	-2.9409463
25	0xc0ed2d9f	-7.411819
26	0x3f89e23c	1.0772166
27	0xc054f71f	-3.327583
28	0xc08e82e3	-4.4534774
29	0xc015a838	-2.3383923
30	0xc0544cd4	-3.3171892
31	0xc0e0b919	-7.022595
32	0xc0506418	-3.2561092
33	0xbfab6818	-1.3391142
34	0xc0a23de3	-5.0700545
35	0x3f993679	1.1969749
36	0xc02335c9	-2.5501578
37	0xc039c4bc	-2.9026327
38	0xc05c00ab	-3.4375408
39	0xc097d1b3	-4.744348
40	0xc0da0ae0	-6.8138275
41	0xc080ffe4	-4.0312366
42	0xc0893cd0	-4.2886734
43	0x40171dbc	2.3611898
44	0xc07e575e	-3.9740825
45	0xc0aa7e87	-5.327945
46	0xc083fb60	-4.1244354
47	0xbfafd1b3	-1.373587
48	0xc07db5ec	-3.9642286
49	0xbc9fe29e	-0.01951724
50	0xc056cccf	-3.3562505
51	0xc046d68e	-3.1068454
52	0xbffd9238	-1.9810247
53	0xc02595ad	-2.5872605
54	0xc029f672	-2.6556668
55	0xc1017c13	-8.092792
56	0xc07c837a	-3.9455247
57	0xc08b1377	-4.346126
58	0xc0368ae8	-2.8522282
59	0xc070ab5c	-3.760459
60	0xc0b17086	-5.544986
61	0xc05f39e0	-3.4879074
62	0xc026ec47	-2.6081712
63	0xbfb97d86	-1.4491432
64	0xbf3dc6bd	-0.74131376
65	0x3f92c95f	1.1467704
66	0xc06cb565	-3.6985714
67	0xc0c582f2	-6.1722345
68	0xc10f81ad	-8.969159
69	0xbfe161ae	-1.7607934
70	0xc0e40e61	-7.126755
71	0xc0df1ee2	-6.97252
72	0xc0a7b4a8	-5.240803
73	0xbfdbff67	-1.7187318
74	0xbfc87e1d	-1.5663487
75	0xc048e34b	-3.1388729
76	0x3dcd2a7e	0.1001787
77	0xc05e6747	-3.4750535
78	0xc0089428	-2.1340427
79	0xc0a44218	-5.133068
80	0xc05d2f63	-3.4560173
81	0xc03ef5ac	-2.9837446
82	0xc023a4d7	-2.556936
83	0x3f1f3477	0.6218943
84	0xc034f27f	-2.8273008
85	0xc0c8afd1	-6.271462
86	0xc05a7689	-3.4134848
87	0xc00a59bd	-2.1617272
88	0xc01f7171	-2.491299
89	0xc088859f	-4.266311
90	0xbfad2fe9	-1.3530246
91	0xbfc54800	-1.5412598
92	0xbf843d4c	-1.0331206
93	0xc09db922	-4.928849
94	0xc0b0a526	-5.5201597
95	0xbee8b3b9	-0.45449618
96	0xc03a38d2	-2.909718
97	0xc0bc8da0	-5.892288
98	0xc02dad70	-2.7137108
99	0xc0052248	-2.0802174
100	0x3f05c770	0.5225744
101	0xbff79375	-1.9341875
102	0xc052e9ee	-3.295528
103	0xc081a20c	-4.051031
104	0xc009578e	-2.145969
105	0xc026fd4b	-2.6092098
106	0xc0c84aa5	-6.259112
107	0xc0aa3314	-5.318735
108	0xc024bec9	-2.5741446
109	0xc0a5ad38	-5.177395
110	0xc0cb4e63	-6.3533187
111	0xc04f54d0	-3.2395515
112	0xc0c7f558	-6.248699
113	0xc06bea5a	-3.6861787
114	0xc058cc8a	-3.387484
115	0xc0290dc0	-2.6414642
116	0xc0370d51	-2.8601878
117	0xc089e0fa	-4.308713
118	0xc00628ab	-2.0962322
119	0xc01b3ed6	-2.4257102
120	0xc0d0423b	-6.508085
121	0xc02ac893	-2.668492
122	0xc0895cd9	-4.292584
123	0xbfe0e3fe	-1.7569578
124	0xc0207759	-2.5072844
125	0xc0d34315	-6.6019387
126	0xc014011a	-2.3125672
127	0xc00dfde7	-2.218622

critic.2.weight f4 [128, 128]
0	0x3e4f663c	0.20253843
1	0x3f98bbe5	1.1932341
2	0x3ef163f6	0.47146577
3	0xbf7922cd	-0.97318727
4	0xc0590558	-3.3909512
5	0xc0207644	-2.5072184
6	0xbf018ba7	-0.5060372
7	0x404e577a	3.2240891
8	0xbfb97bf7	-1.4490956
9	0xbcfd584f	-0.030925898
10	0xbe1a381a	-0.15060464
11	0x3f19077f	0.59777063
12	0x3f7c370a	0.9852148
13	0x3fa0d332	1.2564452
14	0x3f14dbc8	0.5814786
15	0xc01e9fbe	-2.4785
16	0x3e3b9b80	0.18321037
17	0xbeab61b8	-0.3347299
18	0xbe382ca5	-0.1798578
19	0xbecd2876	-0.40069932
20	0xbf9eba47	-1.2400597
21	0x3f53f2b1	0.8279219
22	0x3de467dc	0.11152622
23	0x3f503cc6	0.8134273
24	0x3fe0937f	1.7545012
25	0x3fa06bc4	1.2532887
26	0xc033b1e4	-2.8077326
27	0x3ee9ca5b	0.45662197
28	0x3ec0ad70	0.37632322
29	0xbf4824f3	-0.7818138
30	0xbf04897d	-0.5177229
31	0x402defdc	2.7177649
32	0xbf21e240	-0.63235855
33	0x3eb098bc	0.34491527
34	0x3fd24df4	1.643004
35	0x3ec47afc	0.3837508
36	0x3f0769a1	0.5289555
37	0x3f11cf10	0.5695658
38	0x3e886037	0.26635906
39	0xbe7e5090	-0.2483542
40	0x4029019e	2.6407237
41	0x400e2ce0	2.221489
42	0xbf464b55	-0.774587
43	0xbf5bb012	-0.85815537
44	0x3f57790b	0.8416907
45	0xbeefae75	-0.46812788
46	0x3f21dd87	0.6322865
47	0x3e753968	0.2394768
48	0xbe8b1764	-0.27166283
49	0xbf8d7e73	-1.1054214
50	0xbc9bef4f	-0.01903501
51	0x3ead68b6	0.3386895
52	0xbeb53dbd	-0.35398665
53	0xbf34e912	-0.7066814
54	0xbfcf8942	-1.6213763
55	0x4028949e	2.6340709
56	0x40120e4c	2.2821226
57	0x3f80ed90	1.0072498
58	0x400cf078	2.202177
59	0xbf4ea0be	-0.80714023
60	0x3e9628d5	0.29328027
61	0x3ebbaeb7	0.36656734
62	0xc03d7369	-2.960169
63	0xbfd8b850	-1.6931248
64	0xbf430eaa	-0.7619425
65	0x3d96ee53	0.073696755
66	0xbf5fa633	-0.87362975
67	0x3f870151	1.0547277
68	0x3fd2f3a3	1.6480602
69	0x3ed26d49	0.41099003
70	0x401d3931	2.4566157
71	0x3d690ff2	0.056899972
72	0x3fbe1ea4	1.4853101
73	0x3ead2a22	0.33821207
74	0xbdb6222f	-0.08893239
75	0x3e417870	0.188936
76	0xbf870c72	-1.0550673
77	0xbbd9f2bd	-0.006651251
78	0xbfa8b090	-1.3178883
79	0xbfbb0176	-1.4609821
80	0xbf349c3c	-0.70550895
81	0x3f43dd75	0.7650979
82	0x3efd58ec	0.49481905
83	0xc00f05e1	-2.2347338
84	0x3f6ceb50	0.9254656
85	0xb9c866a1	-0.00038223437
86	0xbe60243b	-0.21888821
87	0x3fc09e8d	1.5048386
88	0x3f74ce13	0.95626944
89	0xbf6dbc6c	-0.92865634
90	0xbfbd8974	-1.4807572
91	0xbf6800bf	-0.9062614
92	0xc04086cc	-3.0082273
93	0x3d88685b	0.06660529
94	0x3ebff8d5	0.3749453
95	0x3ea2c86d	0.31793538
96	0xc0164754	-2.3481035
97	0x3f677a3d	0.90420896
98	0x3e55967b	0.20858185
99	0x3fb8e3bf	1.4444503
100	0xbe73523b	-0.23761837
101	0xbf9d7eba	-1.2304299
102	0xbf479799	-0.77965695
103	0x3f9030ea	1.1264927
104	0xbf95c41c	-1.1700473
105	0x3fa49272	1.2857192
106	0x400fa39f	2.2443616
107	0xbf60be66	-0.87790525
108	0x3fedb37a	1.8570397
109	0x3e425cd6	0.18980727
110	0x4015f8fa	2.3433213
111	0xbe7ace41	-0.24492742
112	0x40222a9d	2.533851
113	0xbfa61177	-1.297408
114	0xbf5c2f4c	-0.8600967
115	0x3ffe3679	1.9860374
116	0xbf3b4692	-0.73154557
117	0x403af27e	2.9210505
118	0x3effeaf0	0.4998393
119	0xbeb6efae	-0.35729736
120	0x4055aef0	3.3388023
121	0xbf617b39	-0.8807865
122	0x3f809b39	1.004737
123	0xbdb36c12	-0.08760847
124	0x3ee508c7	0.4473326
125	0x3f1beabb	0.60905045
126	0xc016f208	-2.3585224
127	0xbfdda89c	-1.731708
128	0x3e8a672a	0.27031833
129	0x3f4e5728	0.8060174
130	0x3fa1f5a2	1.2653086
131	0xbf7cb320	-0.98710823
132	0xbed0228b	-0.40651354
133	0x3efd7a1a	0.4950722
134	0xbf279ea8	-0.65476465
135	0x3ed52ec2	0.41637236
136	0xbeb2f42c	-0.34951913
137	0x3f30ab16	0.69011056
138	0x3eeb7ab6	0.4599206
139	0xbd6f6aeb	-0.058451574
140	0xbf2707e0	-0.6524639
141	0x3ec201d9	0.37892035
142	0xbf1a05a3	-0.6016485
143	0xbf219d83	-0.6313097
144	0x3f35fc1a	0.710878
145	0xbf38a7b0	-0.7213087
146	0x3c625cad	0.013816041
147	0x3f395b7a	0.7240521
148	0x3e643106	0.22284326
149	0xbf24026e	-0.6406621
150	0x3eced909	0.4039996
151	0xbfb61656	-1.4225566
152	0xbba1766b	-0.0049274466
153	0x3f50a73a	0.8150517
154	0xc0137acc	-2.30437
155	0x3ee6e162	0.45093828
156	0xbec1292d	-0.37726727
157	0x3dee66bc	0.11640689
158	0xbf1660e7	-0.5874161
159	0x3fd4d589	1.6627666
160	0xbea94104	-0.33057415
161	0x3bedac70	0.007253222
162	0x3f4451e2	0.76687443
163	0x3edce956	0.4314677
164	0xbf34536a	-0.7043978
165	0xbf6fe962	-0.9371549
166	0xbfd87b6f	-1.6912669
167	0xbe04aedd	-0.1295733
168	0x3f410ea8	0.7541299
169	0xbf37226e	-0.7153691
170	0xbdf3d14f	-0.11905157
171	0xbe8b0ffa	-0.27160627
172	0xbe50f6dc	-0.2040667
173	0x3f7d3fcd	0.9892548
174	0xbe6a9ae4	-0.22910649
175	0xbc0199c2	-0.007910194
176	0x3f04cc48	0.5187421
177	0xbf620b39	-0.88298374
178	0x3f084a7b	0.5323865
179	0xc00128dc	-2.0181189
180	0xbf61e4f3	-0.88239974
181	0xbcea92d5	-0.028634468
182	0xbe8f5690	-0.2799573
183	0x3ff3aa90	1.9036427
184	0x3f9a1f98	1.2040892
185	0x3f63060a	0.8868109
186	0x3f71513f	0.94264597
187	0xbfbb20d2	-1.4619391
188	0xbe87eebf	-0.26549336
189	0x3db749c0	0.089496136
190	0x3fc9493c	1.5725474
191	0xbf441eac	-0.766093
192	0xbd99c23e	-0.07507752
193	0x3ea64209	0.32472256
194	0xbeecbee4	-0.46239388
195	0x3fa52e8e	1.2904832
196	0x3f7f15a5	0.996424
197	0x3edc2a80	0.43001175
198	0xbcf69cf9	-0.030104147
199	0x3ddc32cc	0.10751876
200	0x3f1e3dcf	0.6181306
201	0x3d693957	0.05693945
202	0x3d503aa2	0.050837167
203	0xc0077d95	-2.11704
204	0xbf18b412	-0.59649765
205	0xbf9874a8	-1.1910601
206	0xbf230186	-0.636742
207	0xbd17af8a	-0.03703264
208	0x3f459fce	0.7719697
209	0xbf1d3f1c	-0.6142442
210	0xbe6142f2	-0.21998194
211	0x3e2d197a	0.1690425
212	0xbf35ce4e	-0.7101792
213	0xbebcc9d5	-0.36872736
214	0xbe9d895c	-0.3076886
215	0xbb332d7f	-0.002734035
216	0xbf31781f	-0.69323915
217	0x3f0641b4	0.52444005
218	0x3bcf4e5b	0.0063264794
219	0xbef589d3	-0.47956714
220	0x3e29a4e8	0.16566813
221	0xbe4bfa76	-0.19919762
222	0xbed2972b	-0.41130957
223	0xbf8f7e8f	-1.1210498
224	0xbf69c54b	-0.9131667
225	0x3f54a174	0.8305886
226	0xbf2bffda	-0.67187274
227	0x3f79213b	0.9731633
228	0x3e825208	0.2545321
229	0x3eea72ca	0.45790702
230	0x3fb88855	1.4416605
231	0x3f492cbe	0.78583896
232	0xbeffe1b9	-0.499769
233	0x3e06c60c	0.13161486
234	0x3dc8e509	0.0980931
235	0x3f8c2904	1.0950017
236	0x3c388f2e	0.011264605
237	0x3e95510a	0.2916339
238	0x3efbe508	0.49198174
239	0xbf7375de	-0.95101726
240	0x3f5a1264	0.8518431
241	0x3d9c4f6c	0.07632336
242	0xbef0742d	-0.46963635
243	0xbdd4d26d	-0.10391698
244	0x3f85438d	1.041124
245	0x3ec65f70	0.38744688
246	0x3f1b2a2e	0.60611236
247	0xbee8693f	-0.45392796
248	0xbee20ffc	-0.4415282
249	0x3e7207da	0.23635808
250	0x3f8f7e03	1.1210331
251	0xbf7da7a6	-0.99083936
252	0x3f9da91c	1.2317233
253	0xbf0338da	-0.51258624
254	0x3d048e3e	0.032362215
255	0x3e0ad0e6	0.13556251

critic.2.bias f4 [128]
0	0xc024cd05	-2.5750134
1	0xbfd826b7	-1.6886815
2	0xbf9dd8e4	-1.2331815
3	0xc003e675	-2.060941
4	0xc00effc3	-2.2343605
5	0xbfd4622c	-1.659246
6	0xbfa6e12a	-1.3037465
7	0xc00ca393	-2.1974838
8	0xbfeb48f5	-1.838164
9	0xc00b1e07	-2.1737077
10	0xc032c846	-2.7934737
11	0xc0066371	-2.0998194
12	0xbfa7a430	-1.3096981
13	0xc0b56073	-5.6680236
14	0xbfcaaf42	-1.5834734
15	0xc00736b3	-2.1127136
16	0xbfe0d65c	-1.7565417
17	0xbfbc0058	-1.4687605
18	0xc0286a81	-2.6315005
19	0xbfd369c5	-1.6516653
20	0xc02cd283	-2.7003486
21	0xbfc94871	-1.5725232
22	0xc01bec88	-2.4363117
23	0xc000400c	-2.003909
24	0xc01675db	-2.3509433
25	0xbfc0a5af	-1.5050563
26	0xbfb546a1	-1.4162179
27	0xbfe346d0	-1.7755985
28	0xbfbd0cb7	-1.4769505
29	0xbfeb35c9	-1.8375789
30	0xc00c39eb	-2.191035
31	0xbfee33fd	-1.8609616
32	0xbfde6d93	-1.7377189
33	0xbfe5d329	-1.7955066
34	0xbfd1a4be	-1.63784
35	0xbfe51a01	-1.7898561
36	0xbfacd2de	-1.3501852
37	0xbf4fdb36	-0.81193864
38	0xbf88b756	-1.068095
39	0xc03ab7ec	-2.9174757
40	0xc00e0030	-2.2187614
41	0xc002753b	-2.0384052
42	0xbff92eaa	-1.9467366
43	0xbfcf2459	-1.6182967
44	0xc01337bc	-2.3002768
45	0xc013c175	-2.3086827
46	0xbff6ff03	-1.9296573
47	0xc019d4c0	-2.4036102
48	0xc0223cec	-2.5349684
49	0xbfb01346	-1.3755882
50	0xc001dfb6	-2.0292792
51	0xc00143aa	-2.019755
52	0xc0005cf9	-2.0056746
53	0xc02218f8	-2.532774
54	0xbfbe7944	-1.4880757
55	0xc020ef38	-2.5146008
56	0xbfd5c954	-1.6702065
57	0xc0066e51	-2.1004832
58	0xc0107adb	-2.2574985
59	0xbfe177e6	-1.7614715
60	0xbfd4be61	-1.6620599
61	0xbfb56b1c	-1.4173312
62	0xc02af8d1	-2.6714365
63	0xc0099cad	-2.1501877
64	0xbfb8c800	-1.4436035
65	0xbfdee1cd	-1.7412659
66	0xc00652dc	-2.0988073
67	0xbfcc3c2f	-1.5955867
68	0xbfc79e69	-1.5595218
69	0xc00e03e5	-2.2189877
70	0xc0081a76	-2.126615
71	0xbf41b011	-0.7565928
72	0xbfe5a858	-1.7942
73	0xc0254671	-2.5824244
74	0xbfee28ed	-1.860624
75	0xc01d24e0	-2.4553757
76	0xc01c22d5	-2.439626
77	0xbff5d0cc	-1.9204345
78	0xbfca69c8	-1.5813532
79	0xc02289d1	-2.5396616
80	0xbff47cac	-1.9100547
81	0xbf123404	-0.5711062
82	0xbfe191c4	-1.7622609
83	0xbf965850	-1.1745701
84	0xbfcb4cf9	-1.5882865
85	0xbfcae13a	-1.5849984
86	0xbfd587aa	-1.6682026
87	0xbff26403	-1.8936771
88	0xc00190f8	-2.0244732
89	0xbfdf8110	-1.7461262
90	0xbfe82caf	-1.8138636
91	0xbfef404c	-1.8691497
92	0xc01cd3fd	-2.4504387
93	0xbfdf7ac8	-1.7459345
94	0xbfe2bae1	-1.7713281
95	0xbfee6cbb	-1.8626932
96	0xbffa69cc	-1.9563537
97	0xbfdc9277	-1.7232198
98	0xc0031012	-2.0478559
99	0xc0af9860	-5.4873505
100	0xc01fec9f	-2.4988172
101	0xc00f3a21	-2.237923
102	0xbffba4cc	-1.9659667
103	0xc025ede3	-2.5926445
104	0xc003c92c	-2.0591536
105	0xc0097d94	-2.1482897
106	0xc0e33b2b	-7.1009727
107	0xbfe2da84	-1.7722936
108	0xc00e090e	-2.2193027
109	0xc01814f6	-2.3762794
110	0xbffb582a	-1.963628
111	0xc004e3dd	-2.0764077
112	0xbf3f0b58	-0.74626684
113	0xbfedd1e1	-1.8579675
114	0xbfeec82a	-1.8654835
115	0xbfafb30c	-1.3726516
116	0xbf85eafd	-1.0462338
117	0xbff6b29d	-1.9273258
118	0xbf985f81	-1.1904145
119	0xc0027812	-2.0385785
120	0xc01558ef	-2.333553
121	0xc00b72d6	-2.178884
122	0xc00549f1	-2.082638
123	0xc04fbd25	-3.2459195
124	0xbff30faa	-1.8989155
125	0xc02d109d	-2.704139
126	0xc023fc67	-2.5622804
127	0xbfe5abb2	-1.7943022
