logs/rsl_rl/arm_t_reach_ik/2025-10-14_14-40-34/model_0.pt (torch, 505058 bytes, 42 tensors)

std f4 [6]
0	0x3e96d351	0.29458097
1	0x3e978fc4	0.29601872
2	0x3e96ec6d	0.29477254
3	0x3e97dfa8	0.29662824
4	0x3e9b0530	0.30277395
5	0x3e983717	0.2972953

actor.0.weight f4 [128, 25]
0	0x3e22bf0c	0.15893191
1	0x3e30c99c	0.17264408
2	0xbd2fe1ad	-0.04293983
3	0x3e374002	0.17895511
4	0xbd1a357c	-0.037648663
5	0x3d10d2d7	0.035357323
6	0xbdd21b66	-0.10259132
7	0x3ddf3826	0.10899381
8	0x3e2debe2	0.16984513
9	0xbe18bc1b	-0.14915507
10	0x3e2e6143	0.1702929
11	0x3d28ff16	0.041258894
12	0x3e13a8ab	0.1441981
13	0x3ca216c1	0.01978624
14	0x3dc40de6	0.095729634
15	0xbd0b3a0f	-0.033990916
16	0x3e218bee	0.15776035
17	0x3d069594	0.032857493
18	0xbdb6101f	-0.088897936
19	0x3d6290ec	0.05531399
20	0xbdc4d4bc	-0.09610888
21	0xbd036d27	-0.032086518
22	0xbd9cadd3	-0.07650342
23	0x3e033f72	0.12817171
24	0xbe1e6ce5	-0.15471227
25	0xbdc80039	-0.097656675
26	0xbd73ea93	-0.05954988
27	0xbdeb0c39	-0.11476941
28	0x3ce3bf0f	0.027801065
29	0xbe4e6a15	-0.20157655
30	0x3e3d27cc	0.18472213
31	0xbe2f22b6	-0.17103085
32	0x3e1817af	0.14852785
33	0x3ce6ad1e	0.02815872
34	0xbd7256c6	-0.059164785
35	0x3dfb242b	0.12262758
36	0x3d03dcc2	0.032192953
37	0x3e2ae6a4	0.16689545
38	0x3c6561ba	0.014000351
39	0xbd7160ef	-0.058930334
40	0x3d3dc01f	0.0463258
41	0xbd5c4154	-0.05377324
42	0x3daa80ca	0.08325346
43	0x3e3bca33	0.18338852
44	0x3dde0969	0.108416386
45	0xbdb030d3	-0.086030625
46	0x3de55a48	0.111988604
47	0x3d24d11c	0.040238485
48	0x3dc367ec	0.09541306
49	0xbdf16f61	-0.11788822
50	0xbe4c7229	-0.19965424
51	0xbda92d4a	-0.08260591
52	0xbe21dc78	-0.15806758
53	0x3e2185a9	0.15773644
54	0x3d630d7f	0.055432793
55	0x3dafbc96	0.08580892
56	0x3d6fde35	0.058561523
57	0xbbc048a2	-0.0058680335
58	0x3e251b35	0.1612366
59	0xbe0eb70a	-0.13937011
60	0x3c16769f	0.009183555
61	0xbe07e9fe	-0.13272855
62	0x3d6271bd	0.05528425
63	0xbd829ff6	-0.063781664
64	0x3d875e95	0.06609837
65	0xbd3e9206	-0.046525978
66	0x3e318369	0.17335285
67	0xbe012599	-0.12611999
68	0xbde5d476	-0.11222164
69	0xbe004f75	-0.1253031
70	0x3e3e9547	0.18611632
71	0x3d97e027	0.074158005
72	0x3e432fc0	0.19061184
73	0xbe223bb2	-0.15843084
74	0xbe4ad977	-0.19809519
75	0xbe1bb3d4	-0.15205318
76	0xbe04165f	-0.12899159
77	0x3da04be1	0.07826973
78	0x3d9d6b04	0.07686427
79	0x3e2ebc30	0.17063975
80	0xbdc9e96a	-0.09858973
81	0xbe0727ee	-0.13198826
82	0x3de9cf2c	0.11416468
83	0xbdab6219	-0.0836832
84	0x3df0a2f5	0.117498316
85	0xbd3382a6	-0.043825768
86	0x3de24082	0.1104746
87	0xbe25c0aa	-0.16186777
88	0xbdc0a072	-0.094056025
89	0x3d847658	0.06467885
90	0x3d2cb34a	0.04216317
91	0xbd6f7f66	-0.058471106
92	0x3df36cef	0.11886012
93	0x3e0578fd	0.13034435
94	0xbe1099fd	-0.14121242
95	0xbdd03623	-0.10166576
96	0x3e42edac	0.19035977
97	0xbd7d2b84	-0.061809078
98	0xbd84b256	-0.064793274
99	0xbe41107f	-0.18853949
100	0xbde05097	-0.10952871
101	0x3d3bd5ea	0.0458583
102	0xbca6fce9	-0.020384269
103	0xbe0ddf09	-0.13854612
104	0x3c1cd663	0.009572598
105	0xbe10ca93	-0.14139776
106	0xbe33b332	-0.17548826
107	0xbdde339a	-0.10849686
108	0xbe393ca8	-0.18089545
109	0xbe04333c	-0.1291017
110	0x3e4b5f9d	0.19860692
111	0x3d1b943b	0.03798316
112	0x3d6f262e	0.05838602
113	0xbe3b3b99	-0.18284453
114	0xbe0b6ac6	-0.1361495
115	0xbd82a6cd	-0.06379471
116	0x3d1fec53	0.039043736
117	0xbe2e8bc0	-0.17045498
118	0xbdbadfe7	-0.09124737
119	0xbdea4d13	-0.11440482
120	0xbbc743e9	-0.0060810936
121	0xbda64387	-0.081183486
122	0xbc2d002e	-0.010559125
123	0xbe045753	-0.12923937
124	0xbe12d8bb	-0.14340489
125	0xbdf88c6c	-0.12136158
126	0xbd8eaebe	-0.06966923
127	0xbe1afade	-0.1513476
128	0x3e33b226	0.17548427
129	0xbd3c7219	-0.04600725
130	0x3e3739bc	0.17893118
131	0x3d65da32	0.05611629
132	0xbe2edba1	-0.1707597
133	0x3e0db17d	0.13837238
134	0xbd405fef	-0.04696649
135	0xbdabb15d	-0.08383439
136	0xbe22b6d6	-0.15890059
137	0xbe45e03d	-0.19323821
138	0x3d5e8a4b	0.054331105
139	0xbd4bd512	-0.049763747
140	0x3da9f6bf	0.08299016
141	0xbe2a7e4a	-0.16649738
142	0x3e11206d	0.14172526
143	0xbe0fa9d1	-0.14029624
144	0xbd30b8ca	-0.04314498
145	0x3d4d7734	0.05016251
146	0x3dd1a8da	0.10237284
147	0x3e2b42fb	0.1672477
148	0x3e38e4ea	0.18056074
149	0xbe1bb63c	-0.15206236
150	0x3d39a3cc	0.045322224
151	0xbda51391	-0.080603726
152	0xbc9f2a78	-0.01942943
153	0xbe15a1b9	-0.14612474
154	0x3e35d0f9	0.17755498
155	0xbe11d870	-0.1424272
156	0x3de33525	0.11094121
157	0x3d8f325c	0.06992027
158	0x3d6f84e8	0.05847636
159	0xbdedba8e	-0.11607848
160	0x3e3ab250	0.18232083
161	0x3d36c8de	0.044625156
162	0x3c9af203	0.018914228
163	0xbe36d2ff	-0.17853926
164	0x3db5ade5	0.088710584
165	0xbce5b84d	-0.028041983
166	0xbdad018d	-0.084475614
167	0x3e27ce35	0.16387255
168	0x3d57af4d	0.052657414
169	0xbdd23131	-0.10263289
170	0xbdd580f0	-0.104249835
171	0xbc6bc9be	-0.014391361
172	0x3def3db3	0.1168169
173	0xbd36a305	-0.04458906
174	0xbdf08a36	-0.11745112
175	0xbd933a0d	-0.07188807
176	0xbe1e1c2f	-0.15440439
177	0x3d9c4e92	0.076321736
178	0x3e20f88d	0.15719815
179	0xbe4667a1	-0.19375469
180	0x3d5571ba	0.05211041
181	0x3dc857e6	0.0978239
182	0x3d019235	0.031633575
183	0xbd85e0c0	-0.06537008
184	0x3ddc74ce	0.10764466
185	0x3dce2e42	0.10067417
186	0x3da36b71	0.07979477
187	0xbce9be18	-0.028533027
188	0xbd734996	-0.05939635
189	0x3cb2870f	0.021792917
190	0xbd2e63dc	-0.042575702
191	0xbd84ce20	-0.06484628
192	0x3e0b5e62	0.13610223
193	0x3e347fb0	0.17626834
194	0xbcd40a1a	-0.025883723
195	0xbd1c0123	-0.03808702
196	0x3c310533	0.010804462
197	0xbc5a19b9	-0.013311797
198	0x3d287aba	0.041132666
199	0x3d709d92	0.05874402
200	0xbe3cdca1	-0.18443538
201	0xbd98c63b	-0.074596845
202	0x3e30560d	0.17220326
203	0x3db16193	0.08661189
204	0xbb635595	-0.0034688462
205	0xbe00d188	-0.1257993
206	0xbdefa248	-0.117008746
207	0xbe30c14f	-0.17261241
208	0xbd8eb6cc	-0.069684595
209	0x3d7fcc10	0.06245047
210	0x3e020108	0.12695706
211	0x3dbd42d2	0.092412606
212	0xbe33c8f4	-0.17557126
213	0xbdeea1bd	-0.11651943
214	0xbcf0552e	-0.029337492
215	0x3e43da5d	0.19126268
216	0x3d0ebb02	0.034846313
217	0xbd6f54d2	-0.0584305
218	0x3da70541	0.08155299
219	0xbd91810e	-0.07104693
220	0xbe03a1f1	-0.12854744
221	0x3e14c2d3	0.14527445
222	0xbdae7ecf	-0.085202806
223	0xbd3bb68a	-0.04582838
224	0xbe44990e	-0.1919901
225	0x3e0f4ebd	0.1399488
226	0x3e1ceac5	0.15323932
227	0x3d96286a	0.07331927
228	0xbe14f1e3	-0.14545397
229	0xbe43a664	-0.19106442
230	0xbe2d3e60	-0.16918325
231	0x3e1f92aa	0.15583292
232	0x3dc6957a	0.09696479
233	0x3e2627b8	0.16226089
234	0x3dcbeb4e	0.0995699
235	0x3d4be8a7	0.04978242
236	0xbad87e2a	-0.0016517092
237	0xbe2039a0	-0.15646982
238	0xbe2b6501	-0.16737749
239	0xbe423c38	-0.18968284
240	0x3db51583	0.08841994
241	0xbdc7bf60	-0.09753299
242	0xbd15042a	-0.036380924
243	0xbdf83a0a	-0.12120445
244	0xbcfd4e82	-0.030921225
245	0xbe0e83d3	-0.13917474
246	0xbe0a781f	-0.13522385
247	0x3d92b2a5	0.0716298
248	0xbd5eb1fd	-0.05436896
249	0x3df87a09	0.12132651
250	0xbd6b9efc	-0.057524666
251	0xbe1ed435	-0.15510638
252	0xbd2d851a	-0.042363264
253	0xbdd76a8a	-0.105183676
254	0xbd6a75d9	-0.057241295
255	0xbe479d49	-0.19493593

actor.0.bias f4 [128]
0	0xbe1e395a	-0.15451565
1	0x3d9da70a	0.07697876
2	0x3dee37dd	0.11631749
3	0x3e3b60af	0.182986
4	0xbe473d2d	-0.1945693
5	0x3e3459d8	0.17612398
6	0x3e14f98f	0.14548324
7	0x3e4e57e8	0.20150721
8	0x3dda540e	0.106605634
9	0xbdbb5f04	-0.09148982
10	0x3e210b6d	0.15727015
11	0x3e3850a3	0.1799951
12	0xbda7bbbf	-0.081901066
13	0xbd1a207e	-0.037628643
14	0x3e1d1bab	0.15342586
15	0x3e248da8	0.16069663
16	0x3e041439	0.1289834
17	0x3e165a11	0.14682795
18	0xbdc5ba3c	-0.09654662
19	0xbcf80fac	-0.03028091
20	0xbda8960e	-0.08231746
21	0x3dd4c78b	0.10389622
22	0x3d3cc314	0.04608448
23	0xbe25fd61	-0.16209938
24	0xbcfac04b	-0.03060927
25	0xbe22406e	-0.1584489
26	0xbe49b747	-0.19698821
27	0x3e3ad59b	0.18245547
28	0xbdd7648f	-0.10517227
29	0x3db8d4fc	0.090249985
30	0xbd2bf80d	-0.041984607
31	0xbd04f706	-0.032462142
32	0x3bb52415	0.005527983
33	0x3e222630	0.1583488
34	0xbd0ea6d1	-0.034827057
35	0x3e248dc8	0.1606971
36	0x3df724da	0.12067576
37	0x3e083b64	0.13303906
38	0xbe3ff8cd	-0.18747254
39	0xbdc3c822	-0.09559657
40	0xbe2c3ff5	-0.16821273
41	0xbd1c0833	-0.038093757
42	0xbd3df018	-0.04637155
43	0x3d3704a1	0.04468215
44	0x3e3cbdc8	0.18431771
45	0x3dc0ab71	0.094077
46	0xbe08d79c	-0.13363498
47	0xbe026d73	-0.12737064
48	0x3e14281a	0.14468423
49	0x3c3fc04f	0.011703565
50	0x3d7c9bce	0.061672024
51	0xbdcf501e	-0.10122703
52	0xbd0568a2	-0.03257049
53	0x3d52f7ad	0.051505733
54	0xbe01b608	-0.12667096
55	0x3e017759	0.12643184
56	0x3dc5c4bf	0.09656667
57	0xbdfafee9	-0.122556515
58	0xbda46f7d	-0.08029077
59	0xbd59d875	-0.053184945
60	0x3d0c14c0	0.034199476
61	0xbd88e2e0	-0.06683898
62	0x3e4271fd	0.18988796
63	0xbe4d3d34	-0.20042878
64	0xbdf63aed	-0.12022958
65	0xbdfd5def	-0.12371432
66	0x3d3f93d5	0.046771843
67	0x3cc04589	0.023470657
68	0xbd759b21	-0.059962396
69	0x3e299130	0.16559291
70	0xbe37f17a	-0.1796321
71	0x3d85ec50	0.06539214
72	0xbdddf611	-0.10837949
73	0xbd3227d5	-0.043495018
74	0xbe497c1b	-0.19676249
75	0xbe126c91	-0.14299227
76	0xbe2f1b43	-0.17100243
77	0x3db87aab	0.09007772
78	0xbd9c97b7	-0.07646125
79	0x3ddbbd2e	0.107294425
80	0xbddeff74	-0.108885676
81	0xbd3e9618	-0.04652986
82	0x3c836bee	0.016042676
83	0x3e31acd6	0.17351088
84	0xbd4d4185	-0.050111312
85	0x3df4cebb	0.11953493
86	0x3d5260a5	0.0513617
87	0x3ded683e	0.11592148
88	0x3e03f5fb	0.12886803
89	0x3db525f5	0.0884513
90	0xbd78f90e	-0.060784392
91	0xbd6d1afd	-0.057887066
92	0x3da554b0	0.080727935
93	0x3dea5022	0.11441065
94	0xbc8b21fa	-0.016983975
95	0x3dc64ec8	0.09682995
96	0xbdfcbf63	-0.123411916
97	0x3ddba23d	0.10724304
98	0xbc97a6bd	-0.018512124
99	0xbe1040f6	-0.1408728
100	0xbdbfa366	-0.09357338
101	0xbe18b10f	-0.14911292
102	0x3d30e16a	0.04318372
103	0xbde7bb28	-0.11314994
104	0xbd563c1d	-0.052303422
105	0xbc474827	-0.012163199
106	0xbdefc8c8	-0.11708218
107	0x3ba5a95d	0.00505559
108	0xbd077760	-0.03307283
109	0x3d681e7e	0.056669705
110	0x3e0cee74	0.13762838
111	0xbdffc038	-0.12487835
112	0x3ddac9cf	0.10683023
113	0xbc06bd72	-0.008223878
114	0xbdf78c37	-0.12087291
115	0xbdc908f0	-0.09816158
116	0x3d38df3f	0.04513478
117	0x3d17192f	0.03688925
118	0xbbfac508	-0.0076528825
119	0xbdd84970	-0.10560882
120	0x3dc1e846	0.09468131
121	0x3d07d222	0.033159383
122	0xbe4e88e9	-0.20169415
123	0xbd2219ae	-0.03957527
124	0xbd6910a8	-0.05690065
125	0xbdac91bf	-0.08426236
126	0xbddc5253	-0.107578896
127	0xbe25a25c	-0.16175216

actor.2.weight f4 [128, 128]
0	0x3db9a500	0.090646744
1	0xbdb30fe7	-0.087432675
2	0x3db2e58a	0.08735187
3	0xbd8d55cb	-0.06901129
4	0xbcc14293	-0.023591315
5	0xbd0f7c2b	-0.035030525
6	0xbd52ee1a	-0.051496603
7	0x3ccf7b4b	0.025327345
8	0x3d5564b1	0.05209798
9	0xbd63f1b5	-0.05565043
10	0xbd23464d	-0.039861966
11	0x3d4a52ba	0.0493953
12	0xbc7e7db6	-0.0155329015
13	0x3cce27a5	0.025165388
14	0x3d423fef	0.047424253
15	0xbd03c404	-0.032169357
16	0xbd3c44e6	-0.045964144
17	0x3cea1b1b	0.028577378
18	0xbd0ef242	-0.034899004
19	0xbd829c0a	-0.06377418
20	0xbd432427	-0.0476419
21	0xbd3dbf6f	-0.046325143
22	0x3db34af1	0.08754528
23	0x3c29571c	0.01033571
24	0x3d029f97	0.031890478
25	0x3bb94428	0.005653877
26	0xbd8526a0	-0.06501508
27	0x3d92f9c4	0.07176545
28	0xbc694a7a	-0.014238948
29	0xbcf15eda	-0.029464174
30	0x3d9d69b9	0.076861806
31	0xbd29fbde	-0.041499965
32	0x3c40a191	0.01175727
33	0xbd99a106	-0.07501416
34	0x3d43cb8a	0.04780153
35	0x3ce4c32c	0.027925096
36	0xbd9c8baa	-0.07643826
37	0x3d3a416a	0.04547254
38	0x3bc166b6	0.0059021367
39	0xbd26cd9b	-0.040723424
40	0x3d94698d	0.07246695
41	0x3d0e093f	0.034676787
42	0x3cf4fe98	0.029906556
43	0xbd1c4331	-0.038150016
44	0xbd5f1c1c	-0.054470167
45	0xbd39126f	-0.045183595
46	0x3d11b97c	0.035577282
47	0x3cd9767d	0.026545757
48	0xbd48a3b1	-0.048984233
49	0x3d9b00e0	0.07568526
50	0x3d384a41	0.04499269
51	0xbd07cf6c	-0.033156797
52	0x3d42d4a4	0.04756607
53	0xbd32ec9b	-0.043682676
54	0x3cbe5433	0.023233509
55	0x3d9fc7e7	0.078018
56	0xbd982fcb	-0.07430991
57	0xbd44a325	-0.04800715
58	0xbbe6e32c	-0.007046124
59	0x3c08b80e	0.008344663
60	0xbda1cc76	-0.07900326
61	0xbd798169	-0.06091443
62	0xbc2d2607	-0.010568148
63	0xbbe4667a	-0.006970224
64	0x3c6ad123	0.014332089
65	0x3bb2d90e	0.005458004
66	0x3cc3b961	0.023892106
67	0xba603b78	-0.00085537834
68	0x3b8d866c	0.004319003
69	0xbb5ec73b	-0.0033993262
70	0x3d0d3d9d	0.034482587
71	0x3d5b9f58	0.05361876
72	0xbd2b8999	-0.04187927
73	0xbd2304a0	-0.039799333
74	0x3d3b994b	0.04580049
75	0xbd68ad3f	-0.056805845
76	0x3d53c650	0.051702797
77	0x3d2fb548	0.042897493
78	0x3be1c89d	0.00689037
79	0xbd130fdb	-0.035903793
80	0x3c33d8ca	0.0109769795
81	0xbd97578d	-0.07389746
82	0xbdabd874	-0.083908945
83	0x3db1faed	0.086904384
84	0xbda1c5b3	-0.07899036
85	0xbda4f64f	-0.08054792
86	0xbd1f1a33	-0.038843345
87	0x3a4641e3	0.00075629185
88	0x3c609ec3	0.013709727
89	0xbd292a11	-0.041299883
90	0xbc726c25	-0.0147962915
91	0xbc918caa	-0.01776727
92	0x3d8b913b	0.0681481
93	0x3d9ee6b3	0.07758846
94	0x3d19f76e	0.037589483
95	0x3bbe67c0	0.005810708
96	0x3d8a9b23	0.06767871
97	0xbd86f42c	-0.06589541
98	0x3d297dbb	0.04137967
99	0xbd39a955	-0.045327503
100	0x3d81b76b	0.06333812
101	0xbda7eab5	-0.08199064
102	0x3d1f16ea	0.038840212
103	0xbd93aaef	-0.07210337
104	0x3d57363a	0.05254195
105	0x3c127b31	0.008940504
106	0x3d8d165c	0.0688903
107	0xbd88aae3	-0.06673219
108	0x3d65be2b	0.05608956
109	0xbd7f433d	-0.062319983
110	0xbd36bd75	-0.044614274
111	0x3d222feb	0.03959648
112	0xbc39ebc1	-0.011347712
113	0xbd99f4d5	-0.07517401
114	0xbd9111a2	-0.07083441
115	0xbca77eab	-0.020446142
116	0x3cc693d0	0.024240404
117	0x3d97adaa	0.07406171
118	0x3d8d4f85	0.06899933
119	0xbb16826c	-0.002296592
120	0xbd68a948	-0.056802064
121	0xbdad4432	-0.08460273
122	0x3d968d63	0.07351186
123	0xbd55535b	-0.052081447
124	0xbc2220fa	-0.009895558
125	0xbd8b0074	-0.06787196
126	0xbd7b9740	-0.06142354
127	0x3c579244	0.013157431
128	0xbcf2b9a1	-0.02962953
129	0x3c353f53	0.011062461
130	0x3a93a775	0.0011265116
131	0x3ba3e949	0.005002175
132	0xbca0a825	-0.019611428
133	0xbac3a38a	-0.0014926058
134	0x3d068830	0.032844722
135	0x3d84905c	0.06472847
136	0x3d9b5aba	0.07585664
137	0xbd9918ab	-0.07475408
138	0xbd99190d	-0.07475481
139	0xbc5df8a4	-0.01354805
140	0xbbddedae	-0.0067727184
141	0x3d494fff	0.049148556
142	0x3da9f287	0.082982115
143	0x3cb38df7	0.02191828
144	0xbd8da81a	-0.069168285
145	0xbc01d507	-0.007924325
146	0x3d725140	0.059159517
147	0x3d1318b5	0.035912234
148	0xbd765895	-0.060143072
149	0x3bfe26c8	0.007756088
150	0xbdb00239	-0.08594174
151	0xbd0c6345	-0.03427436
152	0x3d787fc5	0.060668726
153	0xbd3a1803	-0.045433056
154	0x3d6e143c	0.058124766
155	0xbd8ef33e	-0.069799885
156	0x3d9e9b3e	0.07744454
157	0x3d2da2c0	0.04239154
158	0x3d63c85f	0.05561101
159	0x3cc51b34	0.024060823
160	0xba01f44b	-0.0004957362
161	0xbd2ee3c7	-0.042697694
162	0xbd38bc2b	-0.045101326
163	0xbd7bda9a	-0.06148777
164	0x3d8af687	0.067853026
165	0xbd010c80	-0.03150606
166	0x3be5e363	0.007015632
167	0xbdb703a5	-0.08936242
168	0x3ca7b705	0.020473013
169	0xbcea4be2	-0.028600637
170	0xbd91a0ed	-0.07110772
171	0x3c510160	0.0127566755
172	0xbda85df8	-0.08221048
173	0xbc47cc73	-0.012194741
174	0xbd9a00b5	-0.07519666
175	0x3d47b9a7	0.048761036
176	0xbd85d0c6	-0.06533961
177	0x3c5552d8	0.01302024
178	0x3d35b2bf	0.04435992
179	0xbd95e29d	-0.07318614
180	0x3d67f9b8	0.056634635
181	0x3d8fff16	0.07031076
182	0xbd770c99	-0.06031475
183	0x3a8681e8	0.0010262104
184	0x3ce28646	0.027651917
185	0x3d9aef55	0.0756518
186	0x3d7d8914	0.061898306
187	0xbd9e4888	-0.07728678
188	0xbd9f6b95	-0.077841915
189	0xbd9c7ed2	-0.076413766
190	0xbd2f328f	-0.042772826
191	0xbca404d7	-0.020021839
192	0xbcf12b36	-0.02943955
193	0x3d6e3d5a	0.05816398
194	0xbd831966	-0.06401329
195	0xbd9e2e23	-0.07723644
196	0xbd9e8b8e	-0.07741462
197	0xbd4dfd75	-0.050290544
198	0x3da824e7	0.082101636
199	0x3c382451	0.011239127
200	0xbc99ef75	-0.01879094
201	0xbd05b038	-0.03263876
202	0xbd8cdc03	-0.068779014
203	0xbcd5751a	-0.026056815
204	0x3d4d815c	0.050172195
205	0x3d5d9f14	0.054106787
206	0x3d80cc72	0.06288995
207	0x39246271	0.00015676931
208	0xbd5075d3	-0.050893616
209	0xbd413fbc	-0.047179922
210	0x3da1fd33	0.07909622
211	0xbdaec6a2	-0.0853398
212	0x3ca7e47f	0.020494698
213	0xbbf54e89	-0.0074861688
214	0x3da09937	0.078417234
215	0x3d47f69d	0.048819173
216	0xbcab09f1	-0.020878764
217	0xbd9465da	-0.07245989
218	0x3c5fc513	0.013657826
219	0xbd7bb572	-0.061452337
220	0xbbd2caef	-0.006432883
221	0x3cbb2154	0.02284304
222	0x3d252a0f	0.040323313
223	0xbca9b807	-0.020717634
224	0xbd80346c	-0.06259999
225	0xbd9d0300	-0.07666588
226	0xbdbb575e	-0.09147523
227	0x3c371634	0.011174727
228	0xbd775747	-0.06038597
229	0x3b6c4319	0.0036050736
230	0xbd438344	-0.047732607
231	0xbd7da622	-0.061926015
232	0x3d7117b2	0.05886049
233	0x3d4afa9b	0.049555402
234	0x3d615962	0.055016883
235	0x3dae5713	0.08512702
236	0xbd8a1ae8	-0.06743413
237	0xbd36f2b2	-0.044665046
238	0xbd8fada8	-0.07015544
239	0x3d6aae37	0.05729505
240	0x3d3472e3	0.044054877
241	0x3d9dd49f	0.0770657
242	0xbd713cf0	-0.058896005
243	0xbd46289a	-0.048378564
244	0x3db43ed0	0.08801043
245	0xbd85a30c	-0.06525239
246	0xbd73d14b	-0.05952577
247	0x3cfb2214	0.030655898
248	0xbdaa8398	-0.08325881
249	0xbcbaf05e	-0.022819694
250	0x3d0e3762	0.034720786
251	0x3d979ea5	0.07403306
252	0xbc38ebc9	-0.011286684
253	0xbdaa7662	-0.08323361
254	0x3d5fb165	0.054612536
255	0x3dbde310	0.09271824

actor.2.bias f4 [128]
0	0xbd8d2fdb	-0.06893893
1	0x3d2427bb	0.040076952
2	0xbbc760a7	-0.00608452
3	0xbda8b2a2	-0.082371965
4	0xbda85f4c	-0.082213014
5	0x3b823770	0.003973894
6	0x3d062402	0.032749183
7	0xbbb8efc8	-0.0056438185
8	0xbcf182ba	-0.02948128
9	0x3d752608	0.059850723
10	0x39a7d73d	0.00032013087
11	0xbd4f9fe1	-0.05068958
12	0x3d9bf291	0.07614625
13	0xbc9a669e	-0.01884776
14	0xbccff75c	-0.025386505
15	0xbc4a89e2	-0.012361975
16	0xbc4758ff	-0.012167214
17	0xbb5f7a21	-0.0034099894
18	0xbd2ce52c	-0.042210743
19	0x3d512fd5	0.051071007
20	0x3bfb3092	0.007665702
21	0x3d309c78	0.04311797
22	0x3c447cfc	0.011992689
23	0x3d5fedd4	0.05467017
24	0xbd63362f	-0.055471595
25	0x3d34f97f	0.04418325
26	0x3cf4afeb	0.02986904
27	0x3d2c9289	0.042131934
28	0xbd4660bf	-0.048432108
29	0x3b37ca30	0.0028044097
30	0xbd10d269	-0.035356913
31	0xbccdfa72	-0.025143836
32	0xbc94cdaf	-0.018164484
33	0xbcae35c7	-0.021265877
34	0x3d408b29	0.047007713
35	0x3daba67b	0.08381363
36	0xbca8ee5e	-0.020621475
37	0x3da1cb6a	0.07900126
38	0x3d55ba56	0.052179657
39	0xbdb159c9	-0.08659703
40	0x3d8b38dd	0.06797955
41	0xbd9612cf	-0.07327806
42	0xbd27dd7f	-0.04098272
43	0xbce134a0	-0.027490914
44	0x3aa58246	0.0012627325
45	0xbdbc72f1	-0.09201611
46	0xbd9998c9	-0.074998446
47	0xbd93abdf	-0.07210516
48	0xbd1b628a	-0.03793577
49	0x3b58ea43	0.0033098615
50	0x3d70c5f7	0.058782544
51	0xbda94599	-0.08265228
52	0x3c6589f8	0.014009945
53	0x3d919943	0.071093105
54	0x3cab12f8	0.020883068
55	0x3cc76590	0.024340421
56	0xbda8b23a	-0.08237119
57	0x3d605478	0.054768056
58	0xbc86af94	-0.016441144
59	0x3d221c8d	0.03957801
60	0xbd855a48	-0.065113604
61	0xbc2dd8f9	-0.010610812
62	0x3d483eaa	0.048887886
63	0xbd54c7c5	-0.051948328
64	0xbd8dc2bd	-0.06921909
65	0xbc6b9dd7	-0.014380894
66	0x3d1dcb5e	0.038524024
67	0xbd63d74f	-0.055625256
68	0x3c03ca0b	0.008043776
69	0xbd2f6c4b	-0.042827886
70	0x3c4dc08d	0.012558115
71	0x3c380889	0.011232504
72	0x3d651d56	0.05593618
73	0xbd509d3c	-0.0509312
74	0xbda1ba45	-0.07896856
75	0x3b8a74c5	0.004225346
76	0x3d4e4bbc	0.050365195
77	0xbd11d3a5	-0.03560223
78	0x3ceb6f26	0.028739523
79	0xbdb35963	-0.087572835
80	0x3d433a9b	0.047663312
81	0x3d321f9a	0.04348717
82	0xbda8ab57	-0.082358055
83	0xbc9bb315	-0.019006291
84	0x3d095a8e	0.033533625
85	0x3d187e15	0.037229616
86	0x3d00f7c5	0.03148629
87	0xbd83f359	-0.06442899
88	0x3d9abfa5	0.075560845
89	0xbda92ada	-0.082601264
90	0xbb09130e	-0.0020915898
91	0xbd479e04	-0.04873468
92	0xbd84f033	-0.06491127
93	0xbd0f742b	-0.035022896
94	0x3db08138	0.086183965
95	0xbda8d339	-0.082434125
96	0x3d81ba64	0.06334379
97	0x3d90cd99	0.07070465
98	0xbd566075	-0.052338082
99	0x3cbe147b	0.023203125
100	0xbd02c4d0	-0.031925976
101	0xbdb38be4	-0.087669164
102	0xbd9b559c	-0.07584688
103	0xbc96a497	-0.01838903
104	0xbd81efb4	-0.06344548
105	0xbc73dacc	-0.014883708
106	0x3d589827	0.05287948
107	0x3d245008	0.040115386
108	0xbdab9f77	-0.08380025
109	0x3d21587d	0.03939103
110	0x3b3bfeb7	0.0028685757
111	0x3cfbd313	0.030740296
112	0x3d5c74f2	0.053822465
113	0xbd9d6ef8	-0.07687181
114	0xbd50e83a	-0.05100272
115	0x3d23143a	0.03981421
116	0x3c3f829e	0.011688856
117	0xbcfae61a	-0.0306273
118	0xbd296f3e	-0.041365854
119	0x3bfa82ea	0.0076450007
120	0xbce197cf	-0.027538208
121	0x3caae93b	0.020863166
122	0xbd15d1ab	-0.036576908
123	0x3db17435	0.08664743
124	0x3bcca0d5	0.0062447586
125	0xbcf24e39	-0.029578315
126	0xbd8fb97c	-0.070178
127	0x3da7f657	0.082012825

actor.4.weight f4 [6, 128]
0	0xbd94c10b	-0.072633825
1	0xbda50a66	-0.08058624
2	0x3d26f510	0.040761054
3	0xbd3cbbb1	-0.046077434
4	0x3d7c9578	0.061665982
5	0x3c652e44	0.013988081
6	0xbd3b473a	-0.045722224
7	0xbda7d0fe	-0.08194159
8	0xbd7f15cc	-0.062276646
9	0x3db7bcac	0.08971533
10	0x3bf463f0	0.0074582025
11	0xbd3cb851	-0.046074215
12	0x3da2e6e5	0.07954196
13	0x3d125cda	0.03573308
14	0x3d8e101e	0.06936668
15	0x3d653d3d	0.055966605
16	0x3d7b8b5d	0.061412204
17	0x3d4ec743	0.050483
18	0x3d1b58ff	0.03792667
19	0x3d296126	0.041352414
20	0x3d4b42a3	0.049624097
21	0xbcb0f4c0	-0.02160108
22	0xbc833ca4	-0.016020127
23	0xbd04aef7	-0.032393422
24	0xbd32bc47	-0.043636587
25	0x3da254f1	0.079263575
26	0x3d6c6146	0.057709955
27	0x3d8e2cee	0.069421634
28	0x3d0dc30f	0.03460985
29	0x3d6e52be	0.058184378
30	0x3d701605	0.05861475
31	0xbc523b9a	-0.012831593
32	0xbda05c6e	-0.078301296
33	0x3cf37220	0.029717505
34	0xbd07e215	-0.033174593
35	0xbd5b913e	-0.05360531
36	0x3d8c9231	0.06863821
37	0x3d996aff	0.07491111
38	0x3d6ea631	0.05826396
39	0xbcb0f14a	-0.02159943
40	0xbd0c3948	-0.034234315
41	0x3d926b57	0.0714938
42	0x3d65e35d	0.056125034
43	0xbc384644	-0.011247221
44	0xbd8e2707	-0.069410376
45	0xbd0a0eb0	-0.033705413
46	0xbcfde3ff	-0.030992506
47	0xbd651c86	-0.055935405
48	0xbda3de4e	-0.08001386
49	0xbc7b4f0a	-0.015338669
50	0x3d84f430	0.064918876
51	0xbc9c0262	-0.019044105
52	0x3d26ce93	0.04072435
53	0x3b930e1f	0.0044877673
54	0xbd90321b	-0.07040807
55	0x3d9ada09	0.07561118
56	0x3d90846f	0.0705651
57	0xbc790053	-0.015197831
58	0x3d146392	0.03622777
59	0x3d281a99	0.04104099
60	0xbd4f619e	-0.050630204
61	0x3ca1e42f	0.019762127
62	0xbd5cb177	-0.05388018
63	0x3d3bbd6d	0.045834947
64	0xbd85b5bc	-0.06528804
65	0x3c215df1	0.0098490575
66	0xbcf61048	-0.03003706
67	0xbd927564	-0.07151297
68	0x3b88b1df	0.0041715945
69	0xbc952641	-0.018206717
70	0xbacef489	-0.001578943
71	0x3c1765fc	0.009240624
72	0x3d8c1ecc	0.068418115
73	0xbd6ab051	-0.057297055
74	0x3d30d933	0.043175887
75	0xbd3725e8	-0.044713885
76	0x3d365d28	0.044522434
77	0x3ce9890c	0.028507732
78	0x3d9a6cf8	0.075403154
79	0xbd075d92	-0.03304822
80	0x3c635b75	0.0138767855
81	0xbc85f3cd	-0.016351605
82	0xbd870302	-0.065923706
83	0xbd869c97	-0.06572836
84	0x3da50fca	0.08059652
85	0x3bfe5997	0.007762145
86	0x3d67bea4	0.056578293
87	0xbda2cdf2	-0.07949437
88	0x3d975c30	0.0739063
89	0x3d6736fe	0.05644893
90	0x3d1f1712	0.03884036
91	0x3d5f146f	0.054462846
92	0xbd83c8bb	-0.06434771
93	0x3c1b9865	0.009496783
94	0xbda64c43	-0.081200145
95	0xbc1c15f1	-0.009526716
96	0x3d9b32b4	0.0757803
97	0x3d49bc34	0.04925175
98	0x3d422f0d	0.047408152
99	0xbd3a4954	-0.045480087
100	0xbd959ea6	-0.073056504
101	0xbca2dcdd	-0.019880706
102	0x3d91c554	0.071177155
103	0x3d8649a9	0.06557018
104	0x3db8ff0d	0.09033022
105	0x3d13e31e	0.036105268
106	0xb9b6b1cf	-0.00034846223
107	0xbda2b4e0	-0.079446554
108	0xb9f558f0	-0.00046796305
109	0x3d4de929	0.050271187
110	0x3d0c4fd4	0.034255818
111	0xbcc35234	-0.023842908
112	0xbd24d7ab	-0.04024474
113	0x3d6460d3	0.0557564
114	0x3a554c32	0.0008136659
115	0x3b924ba4	0.0044645835
116	0xbca8f975	-0.020626763
117	0x3cfef36c	0.031121932
118	0xbc8d44d5	-0.017244736
119	0x3d73e893	0.059547972
120	0x3c604b0a	0.013689766
121	0xbcb210f7	-0.021736605
122	0xbb905961	-0.004405186
123	0xbd34a007	-0.044097926
124	0x3d906423	0.070503496
125	0xbcedf6eb	-0.029048404
126	0x3da0b53b	0.07847067
127	0xbda82f0a	-0.08212097
128	0x3d66198f	0.05617672
129	0x3d1c1ccc	0.0381134
130	0x3d9fe2c5	0.07806925
131	0xbd026b52	-0.03184063
132	0xbd74d172	-0.059770055
133	0x3d120ad9	0.035654876
134	0xbd9879e6	-0.07445125
135	0x3d988290	0.07446778
136	0x3be910ab	0.0071125827
137	0x3d84a966	0.06477623
138	0x3d8447c6	0.06459002
139	0xbc9612bd	-0.018319482
140	0xbd0ff0ac	-0.035141632
141	0xbca8333f	-0.020532249
142	0xbd2d2349	-0.04226998
143	0x3cf53e35	0.02993689
144	0x3c2e81d6	0.0106510725
145	0xbd6534d4	-0.055958584
146	0x3ca42dbe	0.020041343
147	0x3db0953b	0.086222135
148	0x3d9cd2e0	0.07657409
149	0x3d25de80	0.040495396
150	0x3b37fbbd	0.0028073632
151	0x3d31d406	0.043415092
152	0x3d313989	0.04326776
153	0xbd12eb9a	-0.03586922
154	0xbcd82a56	-0.026387375
155	0xbac47c00	-0.0014990568
156	0x3d3af3a3	0.045642506
157	0xbd94c95a	-0.07264967
158	0x3c8b5feb	0.01701351
159	0x3d8d148c	0.06888685
160	0x3d080d74	0.033215955
161	0xbd83c2bf	-0.06433629
162	0xbd62463f	-0.055242773
163	0xbd92cb51	-0.07167686
164	0xbd9572be	-0.07297276
165	0xbd8d72bf	-0.06906652
166	0xbc2f9f83	-0.010719183
167	0xbd10ae70	-0.035322607
168	0xbda7603d	-0.08172653
169	0x3d9de6b5	0.077100195
170	0x3cdf576d	0.027263368
171	0xbd691c85	-0.056911964
172	0xbd559221	-0.052141313
173	0x38adc12a	8.2852624e-05
174	0x3d804755	0.062636055
175	0xbcd2c2ec	-0.025727712
176	0xbd021622	-0.03175939
177	0x3d45623f	0.048189398
178	0xbc0c37ba	-0.008558208
179	0xbcde307b	-0.027122727
180	0x3d64ab42	0.055827387
181	0xbd97ecc5	-0.07418207
182	0x3c9e8ca0	0.019354165
183	0xbda903d1	-0.08252681
184	0x3c1d8d98	0.009616278
185	0xbc446db7	-0.011989049
186	0xbd884d68	-0.06655389
187	0xbd2c97e8	-0.042137057
188	0x3d4c63b4	0.04989977
189	0x3d947ed1	0.07250751
190	0x3cb4da53	0.022076761
191	0x3d182401	0.03714371
192	0x3d63708e	0.055527262
193	0xbc27f616	-0.010251543
194	0xbaef8fc9	-0.0018277104
195	0x3d914978	0.07094091
196	0x3d6c8401	0.057743076
197	0xbce94728	-0.028476313
198	0x3ca63f2d	0.020293796
199	0x3d026e6c	0.031843588
200	0xbcfe63f7	-0.031053526
201	0x3d691d57	0.056912746
202	0xbd2f27ed	-0.042762686
203	0x3d1a5110	0.037674963
204	0x3d56bc88	0.05242589
205	0xbc65864b	-0.014009069
206	0xbd84afcf	-0.06478845
207	0xbd9d5319	-0.07681865
208	0xbca05d3f	-0.019575713
209	0x3d68b299	0.05681095
210	0x3da48278	0.080326974
211	0x3d5ee916	0.054421507
212	0x3b96d924	0.004603522
213	0xbc890f22	-0.016730849
214	0x3c2e9ccb	0.0106575
215	0xbd00e152	-0.031464882
216	0xbc4b1abd	-0.012396512
217	0x3d34def0	0.044157922
218	0xbd90704a	-0.070526674
219	0xbd5d08c7	-0.05396345
220	0xbcf8d7be	-0.030376311
221	0xbd5307e2	-0.05152119
222	0xbd83df84	-0.064391166
223	0x3d11562c	0.03548257
224	0x3d2c99a4	0.04213871
225	0x3d28446d	0.04108088
226	0xbd7d2697	-0.06180438
227	0x3cfd25a4	0.030901738
228	0x3d3b30f5	0.045700986
229	0x3cbe51f5	0.02323244
230	0xbd1e4c0e	-0.03864675
231	0xbd2363a5	-0.03988995
232	0x3d51f60a	0.05126003
233	0x3d0bc1a0	0.034120202
234	0x3ca7b7c9	0.020473378
235	0xbd8ee85a	-0.06977911
236	0xbdad3944	-0.08458188
237	0x3d93a01a	0.07208271
238	0x3b944ce3	0.004525767
239	0x3d895c65	0.06707076
240	0xbdacdabf	-0.0844016
241	0xbd19f354	-0.03758557
242	0xbdb3d17a	-0.08780189
243	0x3dad9357	0.084753685
244	0x3c6d78fa	0.014494175
245	0x3d24e4ca	0.040257253
246	0x3d8bef19	0.06832714
247	0x3ba06c3e	0.004895716
248	0x3cb7f6f1	0.022456618
249	0xbd7449c8	-0.059640676
250	0x3c117e06	0.008880144
251	0x3d7a0675	0.061041314
252	0xbca1acf0	-0.019735783
253	0xbd67c293	-0.056582045
254	0xbd54131c	-0.051776037
255	0x3c013e8f	0.00788845

actor.4.bias f4 [6]
0	0xbd497401	-0.049182896
1	0x3ce1a144	0.027542718
2	0xbcabcf2b	-0.020972809
3	0x3d92791a	0.071520045
4	0xbb47c2f1	-0.0030481184
5	0x3d9c6afc	0.07637593

critic.0.weight f4 [128, 25]
0	0xbd858515	-0.06519524
1	0xbe1b5ecb	-0.1517288
2	0xbb736ee8	-0.0037144963
3	0xbde815e6	-0.11332302
4	0xbdde32f0	-0.10849559
5	0x3e0eaf57	0.13934074
6	0x3e3fa82f	0.187165
7	0xbe040230	-0.1289146
8	0xbe52db3a	-0.20591441
9	0x3d692449	0.05691937
10	0xbe293c74	-0.16526967
11	0xbd74f58c	-0.059804484
12	0x3d9e6626	0.07734327
13	0x3d9a4424	0.07532528
14	0x3ce03058	0.027366802
15	0x3dada510	0.08478749
16	0xbddac2fe	-0.10681723
17	0xbd767893	-0.060173582
18	0xbd8fcf76	-0.07021992
19	0xbe476f42	-0.19476035
20	0xbdf3e657	-0.11909168
21	0x3ccfe6f9	0.025378691
22	0x3d3bd360	0.04585588
23	0xbdaf8fa1	-0.08572317
24	0x3e056d98	0.13030088
25	0xbdd4aee9	-0.10384924
26	0x3c6d5f67	0.014488078
27	0x3e374b38	0.17899787
28	0x3e07b6c3	0.13253312
29	0x3e4879c3	0.19577698
30	0x3d4fd9db	0.050744873
31	0xbe09ed57	-0.13469444
32	0xbd7eeaa3	-0.062235486
33	0xbd7b5a52	-0.061365433
34	0xbe1c5abd	-0.15268989
35	0xbd8f5c47	-0.070000224
36	0xbe4311f7	-0.19049822
37	0xbdb8892b	-0.09010538
38	0xbe48f9a0	-0.19626474
39	0x3e42a000	0.19006348
40	0x3d004cff	0.03132343
41	0x3e3edc98	0.18638837
42	0x3defa383	0.11701109
43	0x3e476a01	0.19474031
44	0xbd676588	-0.056493312
45	0xbdc66f3d	-0.09689186
46	0xbdb2bca1	-0.08727384
47	0xbe353bba	-0.17698565
48	0xbc461bd1	-0.012091593
49	0x3d0e2465	0.034702677
50	0x3de13789	0.109969206
51	0xbd1a1e71	-0.037626687
52	0x3d830ae7	0.06398564
53	0x3dab3479	0.08359618
54	0x3d2dd2b6	0.042437278
55	0x3d41b1c6	0.04728868
56	0xbd94e088	-0.072693884
57	0x3de5fa68	0.11229402
58	0xbe4b4997	-0.19852291
59	0x3c9939dc	0.018704347
60	0x3ddb3917	0.107042484
61	0x3df95441	0.12174273
62	0x3db5605b	0.08856269
63	0xbd03e4cc	-0.03220062
64	0x3e10afd0	0.14129567
65	0xbe3a99c7	-0.18222724
66	0xbd45e1eb	-0.048311155
67	0xbd980d64	-0.07424429
68	0x3df5abd2	0.11995663
69	0x3e378f7c	0.17925829
70	0xbd42f5b5	-0.047597606
71	0x3d3cec4c	0.046123788
72	0xbcfe03a8	-0.031007603
73	0xbd755238	-0.059892863
74	0x3da98418	0.08277148
75	0x3d379afc	0.04482554
76	0xbdcd933c	-0.10037848
77	0x3d2628f4	0.0405664
78	0x3e3f17a7	0.18661366
79	0xbe110348	-0.14161408
80	0xbcf591ab	-0.029976686
81	0xbe345b10	-0.17612863
82	0xbd52f935	-0.051507194
83	0x3e48e0d7	0.1961702
84	0x3e0af0f9	0.13568486
85	0xbe3c9b06	-0.18418512
86	0xbe3c2d2c	-0.18376607
87	0x3c2e1120	0.0106242
88	0xbc7d5597	-0.015462301
89	0x3e1fcd09	0.15605558
90	0xbd7024b8	-0.058628768
91	0x3e1f68a6	0.15567264
92	0xbdfd85da	-0.12379046
93	0xbcfb2cf9	-0.030661093
94	0xbc2f1626	-0.010686433
95	0xbdde5423	-0.108558916
96	0x3c202d88	0.0097764805
97	0xbd11b65d	-0.035574306
98	0xbdb2cc70	-0.087303996
99	0xbe1a8405	-0.15089424
100	0xbba8e92b	-0.005154749
101	0x3e43b753	0.19112901
102	0x3d959de8	0.07305509
103	0xbe17af74	-0.14813024
104	0xbdd6946d	-0.10477529
105	0x3e0a13f9	0.13484181
106	0xbd965d98	-0.0734207
107	0xbc84a964	-0.016194053
108	0xbdca0660	-0.09864497
109	0x3dba784a	0.091049746
110	0xbe083e14	-0.13304931
111	0xbe436f8f	-0.19085525
112	0xbe1fbf86	-0.15600404
113	0xbe2aca1a	-0.16678658
114	0x3cdb3133	0.026756858
115	0x3cc96b75	0.024587372
116	0xbd7b110b	-0.06129555
117	0x3db31856	0.08744876
118	0x3c74870e	0.014924778
119	0x3d4ee57b	0.05051182
120	0x3dc708dd	0.097184874
121	0x3d29e050	0.041473687
122	0x3e45d6e9	0.19320263
123	0x3e12600a	0.14294448
124	0xbde67b46	-0.11253981
125	0x3e174675	0.14772971
126	0xbcbe9b36	-0.02326737
127	0xbb5b3768	-0.0033449773
128	0x3ca8d918	0.02061133
129	0xbe33f96c	-0.17575616
130	0x3e06633d	0.13123794
131	0x3e02015d	0.12695833
132	0x3e433a5f	0.19065236
133	0x3d366825	0.044532914
134	0xbd56bb48	-0.0524247
135	0xbd10f839	-0.035392974
136	0xbd7381ef	-0.059450086
137	0xbe359497	-0.17732464
138	0x3d8eaaeb	0.06966194
139	0x3ce7d929	0.028301792
140	0xbd6a3330	-0.057177722
141	0xbdf42d17	-0.11922663
142	0xbd2d79ff	-0.042352673
143	0x3d69c780	0.057075024
144	0x3e139d6b	0.14415519
145	0x3da6cc22	0.08144404
146	0x3e18fe41	0.1494074
147	0x3e2a7de8	0.16649592
148	0xbdb9b2a6	-0.090672776
149	0xbb020603	-0.001984001
150	0xbe2b481e	-0.1672673
151	0xbdea2b4c	-0.114340395
152	0x3d9fe19b	0.07806703
153	0x3d892ccd	0.06697998
154	0x3dc19a46	0.094532534
155	0x3e2ea3b3	0.17054634
156	0x3dad48f0	0.08461177
157	0xbdc530f8	-0.09628481
158	0xbd263a66	-0.040583037
159	0x3c74dff1	0.01494597
160	0x3dd73a68	0.10509187
161	0xbdd9ad43	-0.1062875
162	0xbda5b634	-0.08091393
163	0x3da39812	0.079879895
164	0x3d8d452c	0.06897959
165	0x3e425ceb	0.18980758
166	0x3e21810e	0.15771887
167	0xbdbed500	-0.0931797
168	0x3d8d5d33	0.06902542
169	0xbdfa4b00	-0.12221336
170	0xbc5f63fb	-0.013634677
171	0xbc7caaa3	-0.015421542
172	0x3d3474cf	0.04405671
173	0x3e3951d7	0.18097626
174	0xbe1f39a2	-0.15549329
175	0x3e38513a	0.17999735
176	0x3e0d23e6	0.13783225
177	0xbdc3afee	-0.0955504
178	0xbd763e3b	-0.06011794
179	0xbd4744d8	-0.04864964
180	0x3e04c7f9	0.12966909
181	0xbd56bcae	-0.052426033
182	0x3d87bf15	0.06628243
183	0xbd984a6c	-0.0743607
184	0x3e2560a6	0.1615015
185	0xbd043a44	-0.03228213
186	0x3e43d459	0.19123973
187	0xbe1a4ba4	-0.15067917
188	0xbd8ae201	-0.06781388
189	0x3e0b7a55	0.13620885
190	0x3d6e2aee	0.05814641
191	0xbdbdc0bc	-0.09265277
192	0xbe2d237f	-0.16908072
193	0xbe1275e7	-0.14302789
194	0xbe2bee76	-0.16790184
195	0xbdd73347	-0.10507827
196	0xbde68490	-0.11255753
197	0xbd6e892a	-0.05823628
198	0x3e3636bf	0.17794321
199	0xbd5b917f	-0.053605553
200	0xbe002702	-0.1251488
201	0x3dcede13	0.10100951
202	0xbdf1d4c7	-0.11808162
203	0xbdcd805c	-0.10034248
204	0xbd185c33	-0.037197303
205	0xbcb4d7b0	-0.022075504
206	0xbe00a906	-0.12564477
207	0xbe232b77	-0.1593455
208	0xbe489485	-0.19587906
209	0xbdbbde61	-0.09173275
210	0x3dcb6054	0.099304825
211	0x3c951867	0.018200113
212	0x3e1ebd81	0.15501978
213	0x3d0dd924	0.03463091
214	0xbe1f0846	-0.155305
215	0x3c9f607e	0.01945519
216	0xbd532c2d	-0.0515558
217	0x3de6caf7	0.11269181
218	0x3d5c76ea	0.053824343
219	0x3e51b869	0.20480503
220	0xbe3fde54	-0.18737155
221	0xbdd50a1d	-0.104023196
222	0xbe2aed4a	-0.16692081
223	0x3c3ba363	0.011452529
224	0xbdfd8936	-0.123796865
225	0xbdb3b492	-0.087746754
226	0x3e440ad7	0.1914476
227	0xbd853563	-0.06504323
228	0x3db9b5b7	0.090678625
229	0x3dfca1aa	0.123355225
230	0x3e18e4c7	0.14931022
231	0x3e23cd1e	0.15996215
232	0x3df41371	0.11917771
233	0x3c9b001f	0.018920956
234	0x3e2e819e	0.17041633
235	0x3e4228b6	0.18960842
236	0xbe09714e	-0.13422129
237	0x3d3b901f	0.04579174
238	0x3e099b7e	0.13438222
239	0xbe04fd24	-0.1298719
240	0x3d983fd9	0.07434053
241	0x3e0526bc	0.13003057
242	0x3abfc043	0.0014629442
243	0xbd559a79	-0.05214927
244	0xbc9981ac	-0.01873859
245	0x3e2a6a5b	0.16642134
246	0xbe27a81f	-0.16372727
247	0x3dab42bd	0.08362339
248	0xbde1057f	-0.109873764
249	0x3e0de77b	0.13857834
250	0xbda861ef	-0.08221804
251	0x3d556475	0.052097756
252	0x3e0185eb	0.12648742
253	0xbcd7818b	-0.026306888
254	0xbd06cb50	-0.032908738
255	0x3e39b990	0.18137193

critic.0.bias f4 [128]
0	0xbd8a6457	-0.067574196
1	0xbdda6c09	-0.10665137
2	0xbe392a51	-0.18082549
3	0xbe269c79	-0.16270627
4	0x3e005b47	0.1253482
5	0xbe037b1a	-0.12839928
6	0xbdf9b60f	-0.12192928
7	0xbdb3058b	-0.087412916
8	0xbcb719c4	-0.022351153
9	0x3de490f5	0.11160461
10	0xbe524a35	-0.2053612
11	0xbdb304c0	-0.0874114
12	0xbd28d73e	-0.041220896
13	0x3d616b6e	0.055034094
14	0xbde16e85	-0.11007408
15	0xbd5c811b	-0.053834062
16	0xbdddea3e	-0.10835694
17	0xbd577606	-0.05260279
18	0x3dcc53dd	0.09976933
19	0xbdbc8324	-0.092047006
20	0xbcedcc22	-0.029028002
21	0xbe06693e	-0.13126084
22	0x3d6498a8	0.055809647
23	0xbe01b8ef	-0.12668203
24	0x3d187756	0.037223183
25	0xbe52d225	-0.20587976
26	0x3d961a6f	0.073292606
27	0x3d8f6961	0.07002521
28	0xbe1e96d2	-0.15487221
29	0xbd0c6c8f	-0.034283217
30	0xbe038d13	-0.12846784
31	0xbdc1ad34	-0.09456864
32	0x3db49e00	0.088191986
33	0xbdeb6312	-0.114935055
34	0x3ddd659c	0.10810396
35	0x3dd3da7a	0.103444055
36	0x3e3610ca	0.17779842
37	0xbda1b2eb	-0.07895454
38	0xbe3d4329	-0.18482651
39	0x3e01c97c	0.12674516
40	0xbd5f4e70	-0.054518163
41	0xbda27792	-0.079329625
42	0xbdbfb5a2	-0.093608156
43	0x3e3cb556	0.18428549
44	0xbe2227cc	-0.15835494
45	0x3d2bdb32	0.041957088
46	0x3d02045f	0.03174245
47	0xbda6eb62	-0.081503645
48	0x3de5d6a6	0.112225816
49	0x3de9f96f	0.11424529
50	0x3e09a231	0.13440777
51	0x3d57dae6	0.052698992
52	0x3d53403e	0.051574938
53	0x3d60ac08	0.05485156
54	0xbd8acfcb	-0.067779146
55	0xbe1fde29	-0.15612091
56	0x3b2a5b15	0.002599423
57	0x3c5bce0b	0.013415824
58	0x3deb4132	0.114870444
59	0x3d1589e5	0.03650846
60	0x3bcfaae9	0.0063375128
61	0xbd9034f1	-0.07041348
62	0x3e2b6165	0.16736372
63	0x3e2fb5f1	0.17159249
64	0x3e4ad550	0.19807935
65	0xbc9194c6	-0.017771136
66	0xbdd82d13	-0.10555472
67	0xbe241af1	-0.16025902
68	0xbe482a12	-0.19547299
69	0xbe2dfafd	-0.16990276
70	0xbd81c4d2	-0.063363686
71	0x3e1e5e02	0.15465549
72	0xbe400867	-0.18753205
73	0xbd7485a9	-0.05969778
74	0x3da7ce67	0.08193665
75	0x3db8cddb	0.09023639
76	0x3c0316ea	0.008001069
77	0xbd5788a9	-0.052620564
78	0x3c46d4b9	0.012135678
79	0xbe06250b	-0.13100068
80	0x3dc0aea3	0.09408309
81	0x3ddbe5be	0.10737179
82	0x3d0b51ff	0.034013744
83	0x3e082c0a	0.1329805
84	0x3df1f388	0.11814028
85	0xbe4667a0	-0.19375467
86	0xbda476ee	-0.080304965
87	0xbe352a68	-0.17691958
88	0x3d964e8a	0.07339199
89	0xbe3712c4	-0.17878252
90	0x3d39a71b	0.04532538
91	0xbe25d942	-0.16196159
92	0x3dc4585c	0.09587166
93	0xbe09fe29	-0.1347586
94	0xbe373f23	-0.17895178
95	0xbda97211	-0.082737096
96	0x3d8c73fd	0.068580605
97	0xbdb95513	-0.0904943
98	0x3d9b4516	0.075815365
99	0x3b371cbe	0.0027940716
100	0xbde2d78b	-0.11076268
101	0xbc72a07b	-0.014808769
102	0x3e039cef	0.12852834
103	0xbdff3b2f	-0.1246246
104	0x3e299337	0.16560064
105	0x3d6cc2d2	0.057802983
106	0x3dc05869	0.09391863
107	0xbd1dfb17	-0.038569536
108	0x3e16ea05	0.14737709
109	0xbe207ddd	-0.15673013
110	0xbdad6efd	-0.08468435
111	0x3df1ef77	0.118132524
112	0xbde6f81d	-0.112777926
113	0x3e2a0349	0.16602816
114	0xbd97aada	-0.07405634
115	0xbe423c9b	-0.18968432
116	0x3e3ee96a	0.18643728
117	0x3e23b3b0	0.15986514
118	0x3d97f497	0.07419699
119	0xbe309cd6	-0.17247328
120	0x3d135499	0.03596935
121	0xbd44584a	-0.04793576
122	0x3e45b137	0.19305883
123	0x3d4d356d	0.05009978
124	0xbca3f25f	-0.020013032
125	0xbe4bc159	-0.19897975
126	0xbd8ffd3c	-0.070307225
127	0x3e1222c1	0.1427107

critic.2.weight f4 [128, 128]
0	0xbd8cf84b	-0.068832956
1	0x3bee2eee	0.007268778
2	0xbd901fb8	-0.070373
3	0xbc232c1d	-0.009959248
4	0xbcb9f547	-0.022699965
5	0xbc5a3b80	-0.01331985
6	0xbbb25aa2	-0.005442933
7	0xbcc5d778	-0.024150595
8	0xbd038c3c	-0.03211616
9	0x3d302cb4	0.043011382
10	0x3c301855	0.010747989
11	0xbd3c37e5	-0.045951743
12	0x3d362193	0.044465613
13	0x3db36a9d	0.08760569
14	0x3d3d9eac	0.0462939
15	0x3d176b61	0.03696764
16	0xbc89c09e	-0.01681548
17	0x3d84d0bc	0.064851254
18	0xbd1514ee	-0.036396913
19	0x3d300427	0.04297271
20	0x3da5cf8c	0.08096227
21	0xbc2f9bb1	-0.010718272
22	0xbd4c3b8d	-0.04986148
23	0x3cd4952e	0.02595004
24	0xbc60948d	-0.013707292
25	0x3d52fb84	0.051509395
26	0xbd259002	-0.04042054
27	0x3d788944	0.06067778
28	0x3d736842	0.0594256
29	0x3d3750bc	0.04475473
30	0x3c4fb6f6	0.012677899
31	0xbcfec64f	-0.03110042
32	0x3d7b9161	0.06141794
33	0xbc698b98	-0.014254473
34	0xbd01d80a	-0.03170017
35	0x3d8ab238	0.06772274
36	0xbcbfa956	-0.023396175
37	0x3d19b017	0.037521448
38	0x3d0d2483	0.03445865
39	0xbd10e1a9	-0.035371456
40	0x3d615c86	0.055019878
41	0xbbc65fed	-0.0060539157
42	0x3d395cbc	0.045254454
43	0xbd73b291	-0.059496466
44	0x3cebf5b9	0.028803693
45	0x3d8eeafe	0.06978415
46	0xbd26aa75	-0.040689904
47	0x3da9d72b	0.08292993
48	0xbd66a275	-0.056307275
49	0x3cd4118e	0.025887277
50	0x3cdccf18	0.026954219
51	0xb678a1f8	-3.7049158e-06
52	0x3cf0d914	0.029400386
53	0x3cba24bf	0.0227226
54	0xbd2b1a6c	-0.041773245
55	0xbd95171d	-0.07279799
56	0xbd83b38b	-0.064307295
57	0xbb3720ce	-0.0027943137
58	0xb99a1ee0	-0.00029396173
59	0xbc4bc975	-0.012438168
60	0xbb6c5211	-0.0036059658
61	0xbd9d7152	-0.0768763
62	0xbda893ef	-0.08231341
63	0xbd0845c5	-0.033269662
64	0xbda05252	-0.07828201
65	0x3d2e87c6	0.042609952
66	0xbce6de39	-0.028182136
67	0xbd270dae	-0.04078453
68	0x3c113a0e	0.008863939
69	0x3c7de14a	0.015495608
70	0x3d3942bf	0.04522967
71	0x3b1160b1	0.0022182877
72	0x3ce50485	0.027956257
73	0x3c9e28db	0.01930659
74	0x3d99b60a	0.07505424
75	0x3cc8e79a	0.024524499
76	0x3d00815e	0.031373374
77	0xba80a741	-0.000981547
78	0x3d1d0e78	0.038343877
79	0xbb9631e0	-0.0045835823
80	0xbd2df5a3	-0.042470586
81	0xbd574150	-0.05255252
82	0x3d599aad	0.053126026
83	0x3bc156da	0.005900246
84	0x3dae930b	0.0852414
85	0x3d4f8014	0.050659254
86	0x3d9de70e	0.07710086
87	0xbc4aa31b	-0.012367989
88	0x3d66d304	0.056353584
89	0x3c2a106f	0.010379895
90	0x3c8be792	0.017078195
91	0x3cbf8529	0.023378925
92	0xbd5ed969	-0.054406557
93	0x3d9d4c51	0.07680572
94	0x3d02f01d	0.03196727
95	0xbca84db7	-0.02054487
96	0xbd8833c8	-0.066505015
97	0xbd502b42	-0.050822504
98	0xbbfc4870	-0.007699065
99	0x3c66f7ba	0.014097149
100	0x3d094894	0.03351648
101	0x3dacd96e	0.08439909
102	0x3d832c50	0.06404936
103	0xbb8f608b	-0.0043755225
104	0xbc8f36e8	-0.017482236
105	0x3d8fed9d	0.07027743
106	0x3a999307	0.0011716791
107	0x3c7a7428	0.015286483
108	0xbba88edb	-0.005143983
109	0x3d9c216b	0.076235615
110	0x3d41797a	0.04723499
111	0x3d21227a	0.03933952
112	0x3d06684a	0.0328143
113	0xbc3f4d25	-0.0116761075
114	0x3cdfacf2	0.027304146
115	0xbd79fc4d	-0.06103163
116	0xbd725702	-0.05916501
117	0x3cdcde60	0.026961505
118	0x3c88a256	0.01667897
119	0xbd72ddf1	-0.05929369
120	0x3d093495	0.03349741
121	0x3d1eb5ae	0.038747482
122	0x3d500f40	0.050795794
123	0xbd2a9980	-0.041650295
124	0xbd4880c4	-0.048950925
125	0xba3cdf16	-0.0007204873
126	0xbbd66041	-0.006542236
127	0xbaf7ea45	-0.0018914422
128	0xbd83bb1b	-0.06432172
129	0x3d84b761	0.06480289
130	0x3db2fd1e	0.087396845
131	0xbd222bea	-0.03959266
132	0x3d84de4c	0.06487712
133	0x3cb51ac4	0.02210749
134	0x3cbb4476	0.022859793
135	0xbc0c598b	-0.008566271
136	0x3d9b50b3	0.075837515
137	0xbcb7465a	-0.022372413
138	0x3ca184dd	0.019716674
139	0xb9a2aa5d	-0.00031025978
140	0x3c2d3a9a	0.010573054
141	0xbd334fb6	-0.04377719
142	0xbd811f21	-0.063047655
143	0x3d5e2e32	0.054243274
144	0xbda85acf	-0.08220445
145	0xbd6f6652	-0.05844719
146	0x3da906af	0.08253228
147	0xbd2ab76f	-0.041678842
148	0xbc13555a	-0.008992517
149	0xbda1c5c1	-0.07899047
150	0xbcc92f7a	-0.024558771
151	0xbd1381cd	-0.03601246
152	0x3d0f6730	0.035010517
153	0x3d41ff06	0.04736235
154	0x3da54698	0.08070105
155	0xbcfc9d67	-0.030836774
156	0x3d9bc5f3	0.07606115
157	0x3d056604	0.032567993
158	0xbd93a2a5	-0.07208756
159	0xbd9ddd70	-0.077082515
160	0xbc709992	-0.0146850515
161	0x3d9aa895	0.07551686
162	0xbb4e6f45	-0.0031499427
163	0xbd75ce68	-0.060011297
164	0x3d49adb3	0.049237918
165	0xbdb6bb42	-0.08922435
166	0x3d822365	0.06354407
167	0xbb468220	-0.0030289963
168	0x3aa8ad99	0.0012869119
169	0xbd1100ff	-0.03540134
170	0x3c325efe	0.010886906
171	0x3a51dc12	0.00080055103
172	0x3d89dadf	0.067311995
173	0x3d9e5353	0.077307366
174	0x3d1af3fc	0.037830338
175	0xbc47d02f	-0.012195631
176	0xbb2ab32d	-0.0026046738
177	0xbd6e9619	-0.058248613
178	0x3d52f891	0.051506583
179	0xbcb82d81	-0.022482635
180	0xbdbcb31f	-0.09213852
181	0xbd0984e3	-0.033573996
182	0xbd834991	-0.06410516
183	0xbd93e090	-0.07220566
184	0x3c4d7030	0.012538955
185	0x3ba20d50	0.0049454346
186	0xbd5308a9	-0.05152193
187	0xbd8ab2b9	-0.0677237
188	0x3cc1817c	0.023621313
189	0x3c8abee4	0.016936727
190	0x3d6995d0	0.057027638
191	0x3d2f1d4a	0.04275254
192	0xbd6d8568	-0.057988554
193	0x3d2e944f	0.042621907
194	0xbdaa8784	-0.08326629
195	0xbd9dd74e	-0.07707082
196	0x3d04b38a	0.032397784
197	0x3d9f4274	0.07776347
198	0x3d209e99	0.03921375
199	0xbbcaa2d5	-0.006183962
200	0xbd2df270	-0.042467535
201	0x3dacc79f	0.08436512
202	0xbd798f75	-0.060927827
203	0x3da275e2	0.079326406
204	0xbd62d91c	-0.055382833
205	0xbdafb7a7	-0.08579951
206	0xb9f57b4a	-0.000468219
207	0x3cc41176	0.023934107
208	0xbd9badf6	-0.0760154
209	0xbd00383a	-0.03130362
210	0xbb9172d8	-0.0044387393
211	0xbc1bbe16	-0.009505769
212	0xbd39c2ed	-0.04535191
213	0x3da66ccd	0.08126221
214	0xbd883b2c	-0.06651911
215	0x3d4d6d74	0.05015321
216	0x3cac4422	0.021028582
217	0xbd192542	-0.037389047
218	0x3d0c2c7f	0.034222122
219	0xbd9951ea	-0.07486327
220	0xbd845b5b	-0.06462737
221	0x3d3f619f	0.046723958
222	0xbd3e8433	-0.046512794
223	0x3d302969	0.04300824
224	0xbdb4296a	-0.087969616
225	0x3c7c95f8	0.015416615
226	0xbdb275f3	-0.08713903
227	0x3d1d9e0f	0.038480815
228	0x3da418dd	0.08012555
229	0x3d49fef4	0.049315408
230	0x3c9d77f0	0.01922223
231	0x3d6a0c9a	0.057140924
232	0x3d9c7f83	0.076415084
233	0x3d3fae66	0.04679718
234	0x3d0df621	0.034658555
235	0x3ccbf4e8	0.024897054
236	0x3c96c8c8	0.018406287
237	0x3d6dd364	0.058062926
238	0x3d88881a	0.06666584
239	0xbcd7f310	-0.026361018
240	0x3c8452ce	0.016152766
241	0x3d355198	0.044267267
242	0xbd9b37f6	-0.07579033
243	0xbd91151b	-0.07084104
244	0xbce5c3dd	-0.028047496
245	0x3bfef541	0.0077807014
246	0x3d68d932	0.05684776
247	0x3d2aeeb0	0.041731536
248	0x3d3081f1	0.04309267
249	0xbcac0a66	-0.021001052
250	0xbcda6292	-0.02665833
251	0xbdb8fb7e	-0.09032343
252	0xbaac6d43	-0.0013155121
253	0xbca07d73	-0.019591069
254	0xbd887a35	-0.06663934
255	0x3d2677b7	0.040641513

critic.2.bias f4 [128]
0	0xbc70ae71	-0.014690028
1	0x3d43e22d	0.04782312
2	0x3d936ac9	0.07198102
3	0x3bf57e00	0.007491827
4	0x3cfe3e15	0.031035462
5	0x3dad856d	0.084727146
6	0xbd1b239e	-0.037875764
7	0xbc110392	-0.008850949
8	0x3c950a07	0.018193258
9	0x3d3b043a	0.045658328
10	0x3d55ad1f	0.052167054
11	0xbcf9c10c	-0.03048756
12	0x3d3748e5	0.044747252
13	0x3c26cf14	0.010181207
14	0xbd87a9e0	-0.06624198
15	0xbd18b0d9	-0.03727803
16	0xbc5e77fb	-0.01357841
17	0xbdb1a327	-0.08673697
18	0x3cbec95b	0.023289373
19	0xbd22c985	-0.039742965
20	0xbd29e9ce	-0.04148274
21	0x3cc77d29	0.024351673
22	0xbc8ef434	-0.01745043
23	0x3d6e38a4	0.058159485
24	0x3babca81	0.005242646
25	0xbc8e7b1c	-0.017392687
26	0x3d8e9879	0.069626756
27	0xbd242f8b	-0.040084403
28	0x3d8ecafa	0.069723085
29	0xbb9222ec	-0.0044597294
30	0x3d7762ef	0.060397085
31	0x3d668f90	0.056289256
32	0xbd218e57	-0.039442386
33	0xbc8dc85d	-0.017307455
34	0xbb9176e6	-0.0044392226
35	0x3d1f83d9	0.0389441
36	0xbc9c8d5c	-0.019110374
37	0xbcf3685e	-0.029712852
38	0xbc0fda77	-0.008780113
39	0xbcccb08a	-0.024986524
40	0x3d91a655	0.071118034
41	0x3da90414	0.08252731
42	0xbd38435b	-0.04498611
43	0x3d9d4b98	0.07680434
44	0x3db07da1	0.08617712
45	0xbd83333e	-0.06406258
46	0x3c8c8ae7	0.017156078
47	0xbd9e0875	-0.07716457
48	0xbda62353	-0.08112206
49	0x3d552be9	0.05204383
50	0xbca9c189	-0.020722168
51	0xbd5caa2e	-0.053873233
52	0xbcd5ef12	-0.026114974
53	0xbc87fc72	-0.016599867
54	0xbd85dcce	-0.06536256
55	0x3d0c90e0	0.03431785
56	0x3cf89fa1	0.030349554
57	0x3cc39831	0.023876281
58	0xbcd795d8	-0.026316568
59	0xbd645729	-0.055747185
60	0xbd132ae8	-0.03592959
61	0x3ca91334	0.02063904
62	0xbd5eea68	-0.054422766
63	0x3d5d7301	0.054064754
64	0xbd003eb0	-0.031309783
65	0xbd446bdf	-0.047954436
66	0x3c695055	0.014240344
67	0xbdaf01c3	-0.08545258
68	0x3db15bf7	0.08660119
69	0x3da0a04c	0.07843074
70	0xbdac1f4b	-0.08404406
71	0xbd874d75	-0.06606571
72	0x3db1879b	0.08668443
73	0xbd4e840f	-0.05041891
74	0xbcd3a724	-0.025836535
75	0xbcfd169b	-0.030894568
76	0xbd709644	-0.058737054
77	0x3d203567	0.03911343
78	0x3d5903a2	0.05298198
79	0x3d24965b	0.040182453
80	0xbb33aad6	-0.0027415059
81	0x3d72c55d	0.05927025
82	0xbd8563aa	-0.0651315
83	0xbc99fdc6	-0.018797766
84	0x3d2552c8	0.04036215
85	0x3d3f90d4	0.04676898
86	0xbc30ab03	-0.01078296
87	0xbd63c74d	-0.05560999
88	0x3d37b5fa	0.04485128
89	0x3d8513a8	0.0649789
90	0xbd9c0e31	-0.07619894
91	0xbdb0d87a	-0.0863504
92	0xbd5f9666	-0.05458679
93	0xbae0fc68	-0.0017165067
94	0x39263c98	0.00015853567
95	0xbdad022a	-0.084476784
96	0xbd8a9f11	-0.06768621
97	0xbd4595d5	-0.048238594
98	0x3c84b91b	0.016201546
99	0xbd39e4c9	-0.045384202
100	0xbc591155	-0.013248761
101	0x3da6897c	0.08131692
102	0xbd190d98	-0.03736648
103	0xbd3b2904	-0.045693412
104	0x3d4b58f6	0.049645387
105	0xbd2010ff	-0.03907871
106	0xbd6a2c91	-0.057171408
107	0x3cb8673f	0.02251017
108	0xbb0a0bcc	-0.002106416
109	0xbd7d11e5	-0.061784644
110	0x3d95bc9b	0.07311364
111	0xbc32b089	-0.010906347
112	0x3d9be9d8	0.076129615
113	0xbd87e786	-0.066359565
114	0xbc8a4e55	-0.016883055
115	0x3cc0055c	0.023440056
116	0x3d328eca	0.043593206
117	0x3d8f42e5	0.06995181
118	0xbd6430c6	-0.055710576
119	0xbcb3cf8d	-0.021949554
120	0xbd4ac1e5	-0.04950132
121	0x3d8168ff	0.063188545
122	0x3d4e5d6c	0.050382063
123	0xbd6830e1	-0.05668724
124	0x3b6baac0	0.003595993
125	0xbd63e915	-0.055642206
126	0xbca2c481	-0.019869091
127	0x3b831521	0.0040003215
