logs/rsl_rl/arm_t_reach_ik/2025-10-14_14-40-34/model_2.pt (torch, 505058 bytes, 42 tensors)

std f4 [6]
000000 e1 94 97 3e 6f 73 98 3e ef 11 96 3e 4b 24 98 3e
       0.29605773 0.2977557 0.29310557 0.2971519
000010 32 63 9b 3e b0 9d 96 3e
       0.30349118 0.2941718

actor.0.weight f4 [128, 25]
000000 08 94 28 3e 0c fe 31 3e 37 5e 30 bd fc 0a 38 3e
       0.1646272 0.17382067 -0.0430586 0.1797294
000010 10 d7 f8 bc 62 92 f7 3c fa 5a ca bd df 5a d9 3d
       -0.030375987 0.030221168 -0.09880634 0.106130354
000020 ab 82 31 3e 99 24 17 be 7d 84 33 3e a6 84 19 3d
       0.17335002 -0.14760055 0.17531009 0.03748002
000030 b0 88 12 3e f0 ac 93 3c 60 a9 c2 3d cc c3 29 bd
       0.14309955 0.018026799 0.09504962 -0.041446492
000040 69 6f 20 3e d2 5b 1d 3d 41 9d be bd 5b 43 5c 3d
       0.156675 0.038417645 -0.093073376 0.053775173
000050 66 35 c5 bd d4 7e 0c bd 00 e8 9a bd 66 58 fe 3d
       -0.096293256 -0.03430064 -0.07563782 0.124192044
000060 2d a6 1a be 1c 80 c4 bd 7b 9c 51 bd 2d ce ea bd
       -0.15102454 -0.095947474 -0.051174622 -0.11465106
000070 90 31 a8 3c 10 b0 4a be fd 63 3b 3e ff 4e 2e be
       0.020531446 -0.19793725 0.18299861 -0.17022322
000080 1d 97 1c 3e 2b 3e d1 3c ff db 84 bd 06 83 fc 3d
       0.1529202 0.02554234 -0.064872734 0.12329678
000090 d0 11 f8 3c 1a dd 27 3e 73 1b 0f 3c 02 30 75 bd
       0.030281931 0.16392937 0.008734572 -0.059860237
0000a0 99 18 43 3d b1 55 58 bd ba 14 a5 3d 95 ba 37 3e
       0.04763088 -0.052816097 0.08060594 0.17942269
0000b0 71 ee e8 3d af 92 aa bd 4b fd e0 3d a9 be 0f 3d
       0.11373604 -0.08328759 0.10985812 0.035093937
0000c0 79 d5 c1 3d aa 90 ed bd d1 54 4d be 17 c2 ac bd
       0.09464545 -0.11599858 -0.20051886 -0.08435457
0000d0 ee b0 19 be 60 e9 20 3e b9 09 67 3d ab 89 ad 3d
       -0.150089 0.15714025 0.056405757 0.08473524
0000e0 0a e6 61 3d 32 eb 1e bb 34 ae 24 3e 98 52 0a be
       0.055151023 -0.0024249074 0.16082078 -0.1350807
0000f0 64 1e 04 3c 1c 50 08 be 52 16 52 3d 7d 05 83 bd
       0.008063886 -0.1331181 0.051290818 -0.06397531
000100 d2 ff 8a 3d 57 71 4d bd d5 93 36 3e 41 c4 01 be
       0.06787075 -0.050156917 0.17829831 -0.12672521
000110 8f f4 db bd 11 4e 03 be 96 2c 34 3e fa 85 a2 3d
       -0.10740005 -0.12822749 0.17595133 0.0793571
000120 ec 59 45 3e 11 f9 22 be 99 4b 52 be 85 84 17 be
       0.19272584 -0.15915324 -0.2053665 -0.14796646
000130 98 2a ff bd c2 13 a0 3d f2 2a 9e 3d 98 4e 30 3e
       -0.12459296 0.078162685 0.07723035 0.17217481
000140 06 47 cf bd 20 35 09 be 0c 26 fd 3d 75 e1 a3 bd
       -0.101209685 -0.13399172 0.123607725 -0.08001987
000150 de 84 e3 3d 55 98 42 bd ca 40 e7 3d 58 60 29 be
       0.11109327 -0.047508556 0.112916544 -0.16540658
000160 1d 63 ca bd bf 66 8b 3d 54 c2 26 3d 27 e0 67 bd
       -0.098821856 0.06806707 0.04071267 -0.056610253
000170 a6 59 fc 3d d6 2c 07 3e c3 b2 0c be b1 54 d4 bd
       0.123217866 0.13200697 -0.13740067 -0.10367716
000180 01 45 49 3e 1a 73 80 bd cf f4 81 bd b6 54 3c be
       0.19655229 -0.06271954 -0.06345522 -0.1839169
000190 db 45 e1 bd 74 4a 3a 3d b6 6e a5 bc 1e c3 0a be
       -0.10999652 0.04548116 -0.020194393 -0.13550994
0001a0 8f 8e ed 3b 54 1f 0f be b6 39 3d be 9c 49 e5 bd
       0.0072496603 -0.13976794 -0.18479046 -0.111956805
0001b0 a6 d4 3d be d7 68 0c be 08 9e 41 3e a7 e3 3a 3d
       -0.1853815 -0.13711868 0.1890794 0.045627262
0001c0 8c 6c 73 3d 66 67 3c be c6 04 09 be b8 80 85 bd
       0.05942969 -0.18398818 -0.13380727 -0.06518692
0001d0 d2 08 28 3d ef fc 2d be d0 98 bb bd a3 bf e8 bd
       0.041024037 -0.16991018 -0.09160006 -0.11364677
0001e0 05 3f 37 bc 46 98 a7 bd ad 9e 4a bc 69 f6 06 be
       -0.011184459 -0.08183341 -0.012366933 -0.13179936
0001f0 c0 e3 17 be 26 85 f1 bd eb 97 8d bd 30 3a 1d be
       -0.14832973 -0.11792974 -0.06913742 -0.15354228
000200 21 57 34 3e ef 4b 32 bd 1c f6 34 3e d8 19 6e 3d
       0.17611362 -0.043529447 0.17672008 0.058130115
000210 e8 33 2f be c5 7e 0d 3e c7 53 44 bd 73 ca a6 bd
       -0.17109644 0.1381789 -0.04793146 -0.08144083
000220 57 ca 22 be 44 52 45 be 65 86 60 3d a7 a6 3c bd
       -0.15897499 -0.19269663 0.05481567 -0.04605737
000230 36 59 a1 3d 57 3b 29 be c2 ed 12 3e 88 77 0b be
       0.07878344 -0.16526543 0.1434851 -0.13619816
000240 11 3d 31 bd b8 df 4a 3d 6b 03 d8 3d e4 b6 2a 3e
       -0.043271128 0.04952976 0.10547527 0.1667133
000250 04 d0 35 3e 4e 71 1a be 9a a2 18 3d 4e 44 b7 bd
       0.17755133 -0.15082285 0.037264444 -0.08948575
000260 d8 49 76 bc cd 3b 12 be 96 a9 2f 3e 5a 13 0b be
       -0.015032254 -0.14280625 0.17154536 -0.13581601
000270 a9 58 e5 3d d4 1a 8d 3d 24 76 5d 3d 8c d2 ee bd
       0.11198551 0.06889883 0.054067746 -0.116612524
000280 7c 49 3b 3e 8b 95 38 3d f3 8b c3 3c 17 d2 31 be
       0.18289751 0.04506449 0.023870444 -0.17365299
000290 a9 58 b7 3d 87 03 ff bc 61 f8 ad bd 0a fb 28 3e
       0.089524575 -0.031129612 -0.0849464 0.16502014
0002a0 14 c6 54 3d bb 0b cd bd 2c 36 d8 bd 1b 75 56 bc
       0.051946715 -0.10012003 -0.105572075 -0.013089444
0002b0 08 d7 f9 3d eb 4e 22 bd 35 85 f3 bd 4d bd 8f bd
       0.12199217 -0.039626043 -0.118906416 -0.07018528
0002c0 ee 5c 1d be 7f 4f 99 3d 23 be 20 3e e1 f5 45 be
       -0.15367481 0.07485866 0.15697531 -0.19332077
0002d0 4b ef 58 3d 15 b2 c5 3d 5b f3 ef 3c 50 63 86 bd
       0.052962583 0.09653107 0.029290846 -0.06561911
0002e0 57 68 da 3d 15 04 d1 3d 15 5d a3 3d 6f 1f 02 bd
       0.106644325 0.10205857 0.07976738 -0.03176826
0002f0 d5 64 84 bd c7 ec a1 3c 10 2c 35 bd dd 78 83 bd
       -0.06464545 0.019766225 -0.044231474 -0.06419537
000300 38 79 0a 3e 48 32 38 3e 71 59 f2 bc 56 be 1e bd
       0.13522804 0.17987931 -0.029583665 -0.038755737
000310 bd ea 0b 3c 36 a7 44 bc 46 84 12 3d 7f d6 75 3d
       0.008539853 -0.012002757 0.035770677 0.060019013
000320 68 d6 41 be ee 0a 9a bd 3f 39 2c 3e 3e 01 ba 3d
       -0.18929446 -0.07521616 0.16818713 0.09082268
000330 93 52 19 bc d3 c7 fe bd 29 f0 ed bd 82 a3 2e be
       -0.009358066 -0.12440457 -0.116180725 -0.17054561
000340 36 53 8a bd 70 e6 79 3d 65 a1 03 3e 94 82 b6 3d
       -0.067541525 0.061010778 0.12854536 0.089116246
000350 58 2d 37 be 65 74 e3 bd 9a d1 0b bd 46 62 47 3e
       -0.17888391 -0.11106185 -0.03413544 0.19471082
000360 05 31 10 3d 3e 94 76 bd 3c 4f a1 3d 05 05 97 bd
       0.035203 -0.06019997 0.07876441 -0.07374004
000370 6e fd 01 be 83 28 16 3e d2 dc a8 bd 44 8b 35 bd
       -0.12694332 0.14663891 -0.08245243 -0.044322267
000380 e7 7a 48 be 1f d9 10 3e d3 72 22 3e 77 00 8f 3d
       -0.19578134 0.14145325 0.15864114 0.069825105
000390 28 21 15 be f7 a6 44 be cd 2c 2e be b3 65 1b 3e
       -0.1456343 -0.19204317 -0.17009278 0.15175514
0003a0 c2 dd c9 3d 75 61 29 3e 33 a3 d3 3d c2 b0 3f 3d
       0.0985675 0.16541083 0.10333862 0.04679943
0003b0 ed 5f 80 3a af b2 1e be 99 95 28 be fd 91 4a be
       0.0009794213 -0.1549785 -0.16463317 -0.19782253
0003c0 e5 fa b5 3d b7 49 d5 bd 0a 58 07 bd ab 23 f5 bd
       0.08885745 -0.104144506 -0.033042945 -0.11969694
0003d0 d9 3b 0f bd 25 b0 0f be b4 ae 0b be bc a8 85 3d
       -0.034969185 -0.14032038 -0.13640863 0.06526324
0003e0 d1 ea 58 bd 21 a7 f4 3d d6 11 64 bd 74 12 24 be
       -0.052958313 0.1194594 -0.055681072 -0.16022664
0003f0 3a 94 47 bd 64 7f d1 bd 85 1b 70 bd 42 05 47 be
       -0.048725344 -0.10229376 -0.058619995 -0.194356

actor.0.bias f4 [128]
000000 0b 2f 1d be 59 e1 9d 3d 07 2b e8 3d 26 1c 3e 3e
       -0.15349977 0.07708997 0.11336332 0.18565425
000010 3f b1 42 be 90 38 33 3e a2 12 12 3e a0 f9 4d 3e
       -0.19012927 0.17502046 0.1426492 0.20114756
000020 2d b9 d6 3d 95 94 b8 bd f1 1a 21 3e f7 e2 37 3e
       0.10484538 -0.09012715 0.15732934 0.17957674
000030 90 56 a8 bd eb ab 1c bd 79 81 1c 3e 7b 59 20 3e
       -0.082196355 -0.03824989 0.15283765 0.15659134
000040 fb 4d 03 3e b3 b0 17 3e c4 45 c8 bd e2 d9 04 bd
       0.12822716 0.14813499 -0.09778932 -0.03243435
000050 27 40 ab bd e3 c3 d7 3d 84 11 3f 3d 3e a9 28 be
       -0.083618455 0.10535409 0.046647564 -0.16470811
000060 72 b1 0a bd 7d 1c 22 be ba 28 4e be ea 01 3c 3e
       -0.03386063 -0.1583118 -0.20132723 0.18360105
000070 8a 86 da bd 7a f6 b2 3d 17 62 38 bd 5e 27 0f bd
       -0.106701925 0.08738418 -0.04501542 -0.034949653
000080 b5 e0 0b 3c 50 c1 1d 3e 89 b6 03 bd e5 b5 20 3e
       0.008537461 0.15405774 -0.0321565 0.15694387
000090 7a 6c f2 3d 3d 67 07 3e a3 9e 43 be 8a 3c cf bd
       0.118370965 0.13222976 -0.19103484 -0.10118969
0000a0 ea 75 2a be 8c 79 11 bd c5 c5 32 bd c8 53 3a 3d
       -0.16646543 -0.035516307 -0.04364564 0.045490056
0000b0 0b be 3b 3e 5a be b7 3d af b2 09 be 1e dc 03 be
       0.18334214 0.089718536 -0.13447069 -0.12876937
0000c0 6c 87 14 3e 8d 5b 13 3c f8 16 75 3d 41 e0 d5 bd
       0.14504784 0.008993995 0.059836358 -0.10443164
0000d0 1a c6 07 bd 80 c3 5d 3d a6 ad 00 be 73 27 03 3e
       -0.03314791 0.05414152 -0.12566242 0.12808017
0000e0 3b 11 c8 3d 0e 63 fd bd f4 a7 ab bd 1c cd 5a bd
       0.097689115 -0.12372409 -0.08381644 -0.053418264
0000f0 1b 04 0a 3d d1 58 84 bd 0c 4e 42 3e f4 a2 50 be
       0.03369532 -0.06462253 0.18975085 -0.20374662
000100 d7 b9 f6 bd 5b 5c 01 be 60 93 4c 3d 44 e2 97 3c
       -0.12047165 -0.12632887 0.049945235 0.018540509
000110 a0 a1 7a bd 04 b9 29 3e a4 00 37 be 41 f6 88 3d
       -0.061189294 0.16574484 -0.17871338 0.06687594
000120 2a 11 e2 bd 51 90 40 bd 57 15 4b be af 6c 11 be
       -0.1103843 -0.04701263 -0.19832359 -0.14201616
000130 20 8b 31 be 45 a9 af 3d 1e 58 95 bd 4a b2 d2 3d
       -0.17338228 0.085772075 -0.07292198 0.10287912
000140 33 48 d9 bd 5f cf 34 bd a8 2a 74 3c 8f 94 30 3e
       -0.10609474 -0.044143077 0.014902748 0.1724417
000150 3d df 62 bd cb 32 f0 3d ba 3c 4c 3d 7d b3 e9 3d
       -0.055388678 0.11728438 0.0498626 0.11411188
000160 77 b7 04 3e ea 21 b3 3d a4 99 7d bd 71 b8 5f bd
       0.12960611 0.08746703 -0.0619141 -0.054619256
000170 bb b1 a8 3d bc d6 e6 3d 79 d3 8a bc 15 fe ba 3d
       0.082370244 0.11271426 -0.016946541 0.091304936
000180 5c 40 00 be ec 03 d8 3d 10 dc ad bc de 21 11 be
       -0.12524551 0.10547623 -0.021223098 -0.14173076
000190 4c 4a b6 bd 87 f0 17 be 02 2a 37 3d ed 3d ed bd
       -0.0890089 -0.14837848 0.044717796 -0.11584077
0001a0 99 b8 5a bd e7 d7 89 bc b8 7b e2 bd 1f c4 c4 3b
       -0.053398702 -0.016826583 -0.11058754 0.006004825
0001b0 62 5c ea bc ef aa 5d 3d 39 e1 0e 3e 72 73 01 be
       -0.028608505 0.054118093 0.13953103 -0.12641695
0001c0 e4 cf d4 3d fa 79 21 bc d9 10 fc bd f7 88 cc bd
       0.103912145 -0.009855742 -0.12307901 -0.099870615
0001d0 01 c5 3e 3d 41 91 29 3d 78 ff ac bb 73 3e df bd
       0.046574596 0.04139829 -0.0052794777 -0.10900583
0001e0 10 a5 bb 3d 75 9b 00 3d 68 2c 4e be 26 9d 1c bd
       0.091623425 0.031398255 -0.20134127 -0.038235806
0001f0 65 a3 6c bd 05 12 b9 bd 35 e5 de bd 70 eb 25 be
       -0.057773013 -0.0903664 -0.108835615 -0.16203094

actor.2.weight f4 [128, 128]
000000 d1 f5 b9 3d 97 12 ab bd 8e 09 b4 3d 43 d1 89 bd
       0.09080089 -0.08353155 0.08790885 -0.06729367
000010 c3 55 c3 bc 6c 32 08 bd 90 70 55 bd 23 44 dc 3c
       -0.023844605 -0.03325121 -0.0521093 0.026887959
000020 8e 6a 63 3d db 19 60 bd 5c 88 2a bd 31 d1 55 3d
       0.05552154 -0.054712158 -0.04163395 0.052201454
000030 30 d6 49 bc 1d 04 ce 3c 2f 93 44 3d 7b 0d f3 bc
       -0.012319133 0.025148446 0.047991928 -0.029669514
000040 14 db 33 bd 67 15 f8 3c 1f 67 0c bd 7b 26 5d bd
       -0.0439101 0.030283643 -0.03427803 -0.053991776
000050 3a 1e 33 bd 21 6b 2c bd 00 ed b3 3d ac b4 88 3c
       -0.04373 -0.042094354 0.087854385 0.016687714
000060 26 14 0d 3d 10 9b 54 3b fc 31 70 bd 41 4e 8b 3d
       0.034443043 0.0032441057 -0.05864142 0.06802035
000070 9b b0 4c bc f7 ba 06 bd 22 6d a5 3d 56 18 1c bd
       -0.012493278 -0.032893147 0.08077456 -0.038109146
000080 36 98 33 3c cf 36 9c bd 65 97 40 3d 70 79 ee 3c
       0.010961583 -0.076276414 0.04701938 0.02911064
000090 0d 22 98 bd 7e 45 3d 3d c6 6e 63 3c b9 66 1d bd
       -0.0742837 0.04620885 0.013881391 -0.038428042
0000a0 5f e3 93 3d d5 c6 0f 3d e6 c5 10 3d 7c 23 fc bc
       0.07221102 0.03510173 0.03534498 -0.030778639
0000b0 9b d8 5d bd d0 2b 31 bd 18 b6 15 3d df 96 e4 3c
       -0.05416165 -0.043254673 0.03655061 0.027903972
0000c0 71 1d 42 bd 89 2e a2 3d 04 c8 42 3d 65 e1 f6 bc
       -0.04739136 0.07919032 0.04755403 -0.030136773
0000d0 5f 6b 4e 3d d3 6a 33 bd 57 2b f2 3c da 44 a4 3d
       0.050395366 -0.043803047 0.029561682 0.08020945
0000e0 7d b9 93 bd 7e 60 40 bd 90 18 7d 3a 55 14 38 3c
       -0.072131135 -0.046967022 0.0009654844 0.011235316
0000f0 87 07 9c bd 12 45 73 bd c2 12 03 bc a7 47 55 bb
       -0.07618623 -0.059392042 -0.008000078 -0.0032543929
000100 a8 b4 78 3c b4 b4 10 3c 2a 8c d1 3c ff d5 41 bb
       0.015179791 0.0088321455 0.02557953 -0.0029577015
000110 34 d4 a2 3b 2c 61 ab bb 7d 4e 0b 3d e1 51 62 3d
       0.0049691442 -0.0052300896 0.0340104 0.055253867
000120 1c 56 08 bd 18 1e 26 bd 66 a2 4c 3d 87 29 42 bd
       -0.033285245 -0.040556043 0.049959563 -0.047402885
000130 28 e2 69 3d 93 46 42 3d b0 bf 0a 3c cf d2 08 bd
       0.057100445 0.047430586 0.008468553 -0.033404168
000140 8f 99 6d 3c 3e 04 8e bd d2 c3 ae bd ca 74 b1 3d
       0.014501943 -0.06934403 -0.085334435 0.08664854
000150 43 bd bc bd 54 fd a5 bd 57 a5 0c bd 59 8a 92 3b
       -0.09215786 -0.08104959 -0.034337368 0.0044720587
000160 3c bb 8a 3c 09 f3 1e bd 92 63 6c bc 2d 6f 4d bc
       0.016934983 -0.038805995 -0.014428036 -0.012538713
000170 f8 cc 8e 3d 92 0f ab 3d 73 20 17 3d da fb d3 3b
       0.069726884 0.08352579 0.03689618 0.006469232
000180 53 08 8f 3d 6c 65 81 bd 71 74 2b 3d a1 fa 30 bd
       0.069840096 -0.06318173 0.041859094 -0.04320777
000190 f3 68 88 3d b1 55 9a bd 39 09 28 3d a4 04 94 bd
       0.066606425 -0.075358756 0.04102442 -0.07227448
0001a0 50 e7 58 3d ad 66 2d 3c 30 e2 89 3d b6 b2 8a bd
       0.05295497 0.010583562 0.06732595 -0.06772368
0001b0 64 d4 5b 3d 48 a7 6f bd 93 e3 32 bd 03 58 33 3d
       0.05366935 -0.05850914 -0.043674063 0.043785106
0001c0 c4 2d 17 bc 0e 22 91 bd 27 94 92 bd b0 b2 8c bc
       -0.00922722 -0.070865735 -0.07157164 -0.017175049
0001d0 58 19 e0 3c ce b8 a8 3d 4f 25 91 3d 28 45 f4 b9
       0.027355835 0.08238374 0.07087194 -0.00046590832
0001e0 99 72 41 bd d3 da ab bd 34 b0 98 3d 89 ca 50 bd
       -0.04722843 -0.08391347 0.07455483 -0.050974403
0001f0 86 18 f4 bb 7b a5 89 bd fe c7 81 bd 35 82 6a 3c
       -0.0074492125 -0.06721016 -0.063369736 0.01431327
000200 9a b4 c7 bc 82 3c 37 3c 7b dd 95 3b 7b 39 b9 3b
       -0.02437811 0.01118386 0.0045735217 0.005652604
000210 00 cb b2 bc e4 d3 08 bb 02 ec 04 3d 68 3e 82 3d
       -0.021825314 -0.002087825 0.032451637 0.06359559
000220 87 36 a0 3d 40 32 9b bd ff da 9a bd c5 00 90 bc
       0.078229 -0.07577944 -0.075613014 -0.017578492
000230 a2 26 0a bc 02 66 3c 3d 6e 64 ae 3d 48 43 b5 3c
       -0.008432062 0.04599572 0.08515249 0.022126809
000240 c1 db 8f bd d6 29 dc bb bc 6a 6d 3d 04 7c 08 3d
       -0.070243366 -0.0067188544 0.057963118 0.033321396
000250 78 97 6a bd 9f 6a 35 3c e3 f4 ad bd 73 99 02 bd
       -0.057273358 0.011072784 -0.08493974 -0.03188462
000260 51 e7 70 3d b6 36 38 bd af 37 6e 3d 43 3c 90 bd
       0.05881435 -0.04497405 0.058158573 -0.07042744
000270 62 14 9f 3d 2b 9c 22 3d a6 9a 61 3d 7b de a0 3c
       0.077675596 0.039699715 0.055079125 0.019637337
000280 9b 78 14 3a 93 c6 37 bd bf 2c 22 bd fa 20 72 bd
       0.00056637236 -0.04486711 -0.039593454 -0.05911348
000290 a5 e9 84 3d b6 66 0a bd 93 89 dd 3b 7f 2d b0 bd
       0.06489877 -0.03378936 0.006760785 -0.08602428
0002a0 bd 8a 98 3c e4 6d eb bc 4e 14 92 bd 2e a8 b5 3b
       0.018620843 -0.028738923 -0.07132779 0.00554373
0002b0 21 23 ab bd 95 f4 18 bc c0 dc 9e bd 84 3e 4c 3d
       -0.0835631 -0.009335657 -0.077569485 0.049864307
0002c0 7b 08 7f bd 0e b4 4c 3c 3e 75 39 3d aa 99 96 bd
       -0.062263947 0.0124941 0.045277826 -0.07353528
0002d0 c0 32 60 3d 88 61 91 3d c8 77 84 bd 5a c4 6b 3b
       0.0547359 0.07098681 -0.06468159 0.003597519
0002e0 b2 2f bb 3c 4f f8 9b 3d a3 44 82 3d 12 a1 a2 bd
       0.022849891 0.076157205 0.06360748 -0.07940878
0002f0 50 49 a7 bd 1e dc 9e bd ff 1a 3b bd 5e 82 c8 bc
       -0.0816828 -0.07756828 -0.045680042 -0.024476226
000300 cd 32 ee bc 44 e8 71 3d dc 12 7b bd ae c3 94 bd
       -0.029076958 0.059059396 -0.061297283 -0.072638854
000310 e3 aa a0 bd 08 ee 48 bd e7 78 ab 3d 0b 94 27 3c
       -0.07845094 -0.04905513 0.0837267 0.010228167
000320 ad f1 9a bc cf 05 10 bd 69 03 8b bd 35 80 c7 bc
       -0.018914068 -0.03516179 -0.0678776 -0.024353126
000330 27 df 4a 3d 0d 9e 56 3d ef c3 7a 3d a9 e8 95 3a
       0.04952922 0.052396823 0.061222013 0.0011437136
000340 e9 a2 61 bd 4d 66 55 bd 96 0d a1 3d 6f e7 a6 bd
       -0.055087004 -0.052099515 0.078639194 -0.08149611
000350 bf 04 c3 3c 5f 9f d4 bb a9 c6 97 3d 97 13 3e 3d
       0.023805974 -0.006488725 0.07410938 0.0464054
000360 9a 9c b5 bc be f6 94 bd 0c 3e 36 3c db cb 81 bd
       -0.0221694 -0.07273625 0.011123192 -0.063377105
000370 27 b2 58 bc 14 56 b0 3c 0d f5 31 3d 27 d3 cd bc
       -0.013226069 0.02152542 0.04344659 -0.0251251
000380 c1 87 80 bd fe f3 a4 bd 68 24 b5 bd 47 6e 45 3c
       -0.06275893 -0.0805435 -0.088448346 0.012050218
000390 42 d3 86 bd fa c8 84 3b 06 20 46 bd 6e 4b 80 bd
       -0.06583263 0.0040522786 -0.048370384 -0.06264387
0003a0 dc f0 7e 3d 16 9f 46 3d a9 a6 61 3d 19 cc b4 3d
       0.06224142 0.04849156 0.05509058 0.08827991
0003b0 f9 87 83 bd 14 a3 40 bd 44 d8 90 bd 80 b0 72 3d
       -0.06422419 -0.047030523 -0.070724994 0.059250355
0003c0 c7 d8 3c 3d 80 27 9f 3d 9d 21 69 bd 45 e5 46 bd
       0.046105172 0.07771206 -0.05691682 -0.048558492
0003d0 c5 bf b6 3d e2 90 87 bd 9b 36 7f bd 7d 76 b1 3c
       0.08923296 -0.06619431 -0.062307935 0.021662945
0003e0 c1 d8 b3 bd aa 88 ac bc e3 b3 0e 3d 34 e3 8f 3d
       -0.08781577 -0.02106126 0.034839522 0.070257574
0003f0 27 c5 4e bc 5f 0c b0 bd 5e a1 5d 3d a6 69 c5 3d
       -0.012620247 -0.085961096 0.05410897 0.096392915

actor.2.bias f4 [128]
000000 e8 5c 88 bd 37 f5 23 3d 69 9b 04 ba e7 58 a9 bd
       -0.066583455 0.040028777 -0.00050585583 -0.0826891
000010 54 c3 aa bd 41 86 bb 3b 72 c9 07 3d a5 27 12 bc
       -0.08338037 0.0057227914 0.033151098 -0.008920585
000020 82 23 f9 bc 32 db 71 3d 0a e3 3e 39 86 e0 53 bd
       -0.03041244 0.05904693 0.0001820439 -0.051727794
000030 ff 01 98 3d 4d aa 9c bc b8 ad e2 bc c0 11 59 bc
       0.07422256 -0.019124174 -0.027670726 -0.013248861
000040 13 62 3d bc d9 6c a2 bb e0 8c 2d bd 18 2a 52 3d
       -0.011559027 -0.0049568233 -0.042370677 0.051309675
000050 cf b0 e3 3b b5 99 37 3d 79 c7 51 3c 93 4e 5e 3d
       0.0069485675 0.04482432 0.012803906 0.054274153
000060 d4 b6 62 bd d8 68 35 3d 46 bf fe 3c 1c a2 20 3d
       -0.05535014 0.04428944 0.031097066 0.0392171
000070 37 ef 3b bd a4 eb b4 3b c9 af 0b bd 96 87 d3 bc
       -0.04588243 0.0055212546 -0.03410319 -0.025821488
000080 d3 dc 9b bc 68 2f ae bc e1 9b 3a 3d 74 e6 a6 3d
       -0.019026196 -0.02126284 0.045558814 0.08149424
000090 82 c9 b9 bc 1c e8 a1 3d 4f b0 51 3d 53 98 b3 bd
       -0.022679094 0.079055995 0.05119353 -0.08769288
0000a0 c6 64 89 3d de 60 97 bd 84 4b 19 bd b3 a8 e8 bc
       0.06708674 -0.07391523 -0.037425533 -0.028400755
0000b0 58 1c 02 3b 29 0b c3 bd 71 fe 97 bd 66 c3 97 bd
       0.001985332 -0.09523613 -0.07421578 -0.07410316
0000c0 be f9 1f bd 07 65 98 3b 36 0d 6e 3d 26 aa ae bd
       -0.039056532 0.0046507153 0.058118068 -0.08528547
0000d0 0d e3 64 3c f0 48 8f 3d dd b3 b1 3c b7 14 c5 3c
       0.013970149 0.069963336 0.02169221 0.02405773
0000e0 9a 15 a6 bd 19 91 61 3d 26 c4 7b bc e3 c5 1d 3d
       -0.08109589 0.055070017 -0.01536659 0.038518798
0000f0 d9 10 83 bd 31 f6 10 bc 0b 02 43 3d 8a c0 5a bd
       -0.06399698 -0.008847759 0.04760937 -0.053406276
000100 d2 01 8c bd 05 76 57 bc 99 f5 25 3d 9c 38 64 bd
       -0.06836285 -0.013150697 0.040517423 -0.05571805
000110 33 d9 34 3c 6e 1e 20 bd 9f ee 50 3c 0b 3f 02 3c
       0.011038112 -0.03909152 0.012752204 0.007949601
000120 dc 9f 64 3d ad 19 5c bd 27 f5 a7 bd b7 56 ba 3b
       0.055816516 -0.053735424 -0.08201056 0.0056866067
000130 1c 6b 46 3d 28 7c 04 bd bb 46 ee 3c 75 cb af bd
       0.04844199 -0.032344967 0.029086461 -0.08583728
000140 6f 05 3f 3d 3e 8a 3e 3d 3f d1 ab bd 79 24 9b bc
       0.04663604 0.046518557 -0.0838952 -0.01893829
000150 bb 4e 03 3d 3f 96 1c 3d 17 34 04 3d e5 ea 86 bd
       0.032057505 0.038229223 0.03227624 -0.06587771
000160 ae 2c 97 3d 98 91 a1 bd e0 59 0d bb 09 f9 46 bd
       0.07381569 -0.07889098 -0.0021568462 -0.048577342
000170 fa 7b 7c bd 03 7c 14 bd d2 00 a8 3d 31 68 aa bd
       -0.06164167 -0.03625108 0.082032815 -0.08320654
000180 9e 67 80 3d 4b da 92 3d b9 0c 53 bd 28 d9 bb 3c
       0.062697634 0.07170542 -0.051525805 0.022930697
000190 97 00 05 bd fc 90 b1 bd 3e 69 a6 bd ba 8c a0 bc
       -0.032471266 -0.08670232 -0.08125542 -0.019598354
0001a0 40 c9 7a bd 41 fe 6c bc 59 bf 5b 3d a1 dd 17 3d
       -0.061227083 -0.014464916 0.05364928 0.037076596
0001b0 4d 8f b0 bd d2 1a 29 3d 91 65 ea 3a 8c ff ea 3c
       -0.086210825 0.041285343 0.0017883052 0.028686307
0001c0 7b a0 5d 3d 86 b0 9f bd 58 45 46 bd bb 99 25 3d
       0.054108124 -0.07797341 -0.048405975 0.040429812
0001d0 e6 39 2e 3c 16 4a ea bc d7 23 25 bd f3 de be 3b
       0.010633921 -0.02859978 -0.040317383 0.0058249175
0001e0 e9 1c d9 bc 1b cb bf 3c 1c 2f 12 bd 27 8c b3 3d
       -0.026503043 0.023412278 -0.03568946 0.08766966
0001f0 ed 8b a9 3b 75 3c ee bc 6c 1c 95 bd 5e 0b a7 3d
       0.005174151 -0.029081563 -0.07280812 0.08156465

actor.4.weight f4 [6, 128]
000000 b1 a3 91 bd ae 3a ab bd a8 59 16 3d 5e 97 33 bd
       -0.071113 -0.08360802 0.036706597 -0.043845527
000010 ab 72 83 3d af fc 7a 3c 24 97 3d bd 30 8d a3 bd
       0.064183556 0.0153190335 -0.046286717 -0.07985914
000020 f0 c5 77 bd fd c6 b8 3d 51 91 02 3c 4d a5 31 bd
       -0.060491502 0.09022329 0.007969216 -0.043370534
000030 87 de a0 3d 19 22 12 3d 1c 4d 88 3d 8f 30 58 3d
       0.07854944 0.03567705 0.066553324 0.052780684
000040 0c c1 78 3d 8c c5 50 3d 5e 62 09 3d 3f 90 2b 3d
       0.06073098 0.050969645 0.033541076 0.04188561
000050 00 e0 5b 3d 24 44 c2 bc 99 0d 61 bc dd eb fb bc
       0.05368042 -0.023714133 -0.013736152 -0.030752117
000060 0a ae 33 bd f4 c0 a0 3d b0 e3 65 3d f6 bf 90 3d
       -0.04386715 0.07849303 0.056125343 0.07067864
000070 22 a6 f4 3c 3d 1f 68 3d de 55 78 3d 14 86 47 bc
       0.029864375 0.056670416 0.060628764 -0.012177963
000080 c9 f0 a0 bd 4a 34 02 3d 06 d3 0a bd d8 b4 4f bd
       -0.07858426 0.031788148 -0.033892654 -0.050709575
000090 3e 44 8e 3d 33 9a 91 3d 42 9a 69 3d 47 78 a0 bc
       0.0694661 0.07109489 0.057031877 -0.019588603
0000a0 43 55 16 bd 65 27 93 3d e6 42 6f 3d 6f 2c 2e bc
       -0.036702406 0.07185248 0.05841341 -0.010630711
0000b0 fb a0 8d bd c5 d0 03 bd c8 5c 01 bd 18 be 55 bd
       -0.0691547 -0.03218152 -0.031582624 -0.05218324
0000c0 63 d4 a4 bd ff e1 92 bc e1 e0 89 3d cd 1b a4 bc
       -0.08048322 -0.017930029 0.06732345 -0.020032788
0000d0 fa 89 2a 3d 25 a3 d1 3b 42 e3 8e bd 42 07 9b 3d
       0.04163549 0.006397622 -0.0697694 0.07569744
0000e0 7f 81 8f 3d 4c da 82 bc f8 1b 11 3d 23 0f 37 3d
       0.07007121 -0.015973233 0.035427064 0.04469217
0000f0 b4 6a 4b bd 46 c5 86 3c 1f 75 5f bd f5 58 48 3d
       -0.049662307 0.01645149 -0.054555055 0.04891296
000100 a6 e9 82 bd 6c d7 31 3c ae 49 cb bc 08 cd 92 bd
       -0.06392221 0.010854583 -0.024815407 -0.07168013
000110 65 2a c6 3a a4 5f c6 bc 6a db 9a bb a7 f5 13 3c
       0.0015118836 -0.024215527 -0.004725863 0.009030736
000120 8d fd 8b 3d 86 fd 64 bd 4f 12 37 3d 01 89 3e bd
       0.0683547 -0.05590584 0.044695195 -0.046517376
000130 71 37 24 3d 70 ff e9 3c 5b 47 a1 3d a8 5a 05 bd
       0.040091936 0.028564185 0.07874938 -0.03255716
000140 ff 4e 6e 3c e8 2f 91 bc fe f1 84 bd 55 4e 84 bd
       0.014545201 -0.017723039 -0.06491469 -0.06460253
000150 af 33 a3 3d e8 a9 09 3c df 42 6b 3d a1 0e a8 bd
       0.07968842 0.008402325 0.05743682 -0.08205915
000160 9f 24 97 3d 3e d6 70 3d 7f 03 1b 3d f1 c2 67 3d
       0.07380032 0.058798067 0.03784513 0.056582395
000170 73 76 84 bd 59 81 12 3c 51 8c a4 bd 1c 43 02 bc
       -0.06467905 0.008941972 -0.08034576 -0.00795057
000180 fb 13 9e 3d a1 d3 33 3d 8c a7 3b 3d ec 3e 3c bd
       0.07718655 0.043902997 0.045814082 -0.045958444
000190 c7 ea 98 bd 13 2c 90 bc ff 63 8c 3d 14 a1 83 3d
       -0.07466655 -0.017599141 0.0685501 0.064272076
0001a0 f7 ed be 3d 6b ce 19 3d 26 4b 51 bb c3 54 9e bd
       0.09322732 0.03755037 -0.003193566 -0.07731011
0001b0 8a 10 20 3a cc 17 4e 3d 7a 5b 12 3d 2a 5e cb bc
       0.000610598 0.050315663 0.03573177 -0.024825174
0001c0 5f ea 1c bd 6f 09 66 3d c6 85 9b ba 11 50 7b 3b
       -0.03830945 0.05616134 -0.0011865429 0.0038347284
0001d0 35 ee a9 bc f5 d1 0e 3d ac 44 4e bc 12 e2 6a 3d
       -0.020743469 0.0348682 -0.012589615 0.057344504
0001e0 2f 51 a1 3b 39 c3 ce bc be 2b 72 bb fc 60 39 bd
       0.004923008 -0.025239574 -0.0036952342 -0.045258507
0001f0 53 b7 93 3d c7 4b e7 bc 68 1c 9f 3d ca 39 a2 bd
       0.07212701 -0.028234376 0.0776909 -0.07921179
000200 95 c9 69 3d 6d 10 1a 3d 49 83 ab 3d 31 9b f8 bc
       0.05707701 0.03761332 0.0837465 -0.030347439
000210 2e 8b 6a bd fd 46 18 3d 67 c9 94 bd 46 d0 9c 3d
       -0.05726164 0.037177075 -0.07264977 0.076569125
000220 cc a1 0f 3c a7 cf 84 3d 12 1c 82 3d 22 3f 8b bc
       0.008766603 0.06484919 0.0635301 -0.016997878
000230 77 16 17 bd d4 74 a8 bc 99 f3 2d bd b8 fe fb 3c
       -0.03688666 -0.02056352 -0.04246864 0.030761108
000240 d9 54 71 3c f8 00 66 bd cb 65 a9 3c ff e5 b4 3d
       0.014729702 -0.056153268 0.020678421 0.08832931
000250 c7 b8 97 3d c0 23 3b 3d 40 89 52 b6 9c 02 30 3d
       0.0740829 0.04568839 -3.1372329e-06 0.04297124
000260 f6 61 35 3d 3e 14 0b bd 87 d0 d5 bc a0 b4 bd bb
       0.044282876 -0.03395485 -0.02610041 -0.0057893544
000270 52 44 46 3d 6f ea 9c bd 35 7b 79 3c ba e3 89 3d
       0.048405 -0.07661902 0.015227129 0.067328885
000280 5d 70 05 3d 57 da 8f bd db 37 67 bd 37 b6 94 bd
       0.03257786 -0.07024067 -0.056449752 -0.07261317
000290 9a c2 96 bd 8d 88 92 bd 20 68 37 bc 75 16 0f bd
       -0.07361336 -0.07154951 -0.011194259 -0.034933526
0002a0 db 32 a0 bd c2 6d 9c 3d 41 83 f9 3c 96 93 64 bd
       -0.078222 0.07638122 0.030458095 -0.05580481
0002b0 d2 5f 5b bd 10 49 71 3a e8 f8 7b 3d b2 0b df bc
       -0.05355818 0.00092043076 0.061516672 -0.027227256
0002c0 d5 88 f8 bc 1d d7 4f 3d 38 ba d7 bb eb 35 ed bc
       -0.030338684 0.050742257 -0.0065834783 -0.028956374
0002d0 61 0b 66 3d 6e e1 97 bd 7b 05 8b 3c 6d b8 a4 bd
       0.056163196 -0.07416044 0.016970387 -0.08042989
0002e0 e6 78 76 3b 96 af 4a bc 6e 44 8a bd 99 df 2d bd
       0.0037608682 -0.0123709645 -0.06751333 -0.042449567
0002f0 ca 4a 47 3d e6 00 96 3d c0 4b bd 3c 6b c0 1b 3d
       0.04865531 0.0732439 0.02310741 0.0380253
000300 ca 94 66 3d 39 08 03 bc 08 44 e0 ba 90 0a 94 3d
       0.05629424 -0.007997566 -0.0017110119 0.07228577
000310 b2 6b 50 3d e2 69 1d bd 52 39 9b 3c dd ca 01 3d
       0.050883956 -0.038431056 0.01894823 0.031687606
000320 69 8b 0a bd e7 9a 66 3d 96 cf 37 bd a1 82 20 3d
       -0.033824358 0.05630007 -0.044875704 0.039187077
000330 81 50 54 3d ce c7 6c bc ad 45 83 bd 9e 35 9f bd
       0.051834587 -0.014451934 -0.06409774 -0.077738985
000340 d0 5d 95 bc e6 3c 75 3d 84 65 a8 3d bd 9d 5a 3d
       -0.01823321 0.05987253 0.082224876 0.053373087
000350 32 fb 9d 3b 87 8c 92 bc 63 d1 67 3c 77 2b ab bc
       0.0048212046 -0.017889274 0.014149043 -0.02089475
000360 ee 8a 3e bc 33 f7 49 3d 61 e9 93 bd a0 94 5c bd
       -0.011629803 0.049308013 -0.07222248 -0.053852677
000370 20 65 0e bd 60 d7 4a bd db e6 78 bd 66 ed 0b 3d
       -0.03476441 -0.049521804 -0.060767036 0.034161948
000380 c5 68 2b 3d 6a 1f 3a 3d 6f 38 7b bd ab 11 04 3d
       0.041847963 0.045440115 -0.061333116 0.032243412
000390 e1 8b 34 3d 8f e8 a3 3c 69 ed 0e bd c6 02 1f bd
       0.04407871 0.020008354 -0.03489438 -0.038821004
0003a0 5c a5 48 3d dd e8 12 3d f1 f4 ba 3c 9b b5 8f bd
       0.048985824 0.035866607 0.022821875 -0.0701706
0003b0 5c b1 ad bd c9 4b 94 3d 25 38 2d 3c c7 6f 86 3d
       -0.08481094 0.07241017 0.010572468 0.065642886
0003c0 a1 c5 ab bd 79 4f 0e bd 69 68 b1 bd d4 e3 ad 3d
       -0.08387304 -0.03474376 -0.08662493 0.084907204
0003d0 0e 4a 24 3c 16 d5 1f 3d 43 8c 91 3d 9d f2 bc 3b
       0.010027422 0.039021574 0.07106831 0.0057662264
0003e0 73 a2 a5 3c ed c7 7c bd d7 a3 14 3c 05 2b 77 3d
       0.020219063 -0.0617141 0.009072266 0.06034376
0003f0 87 06 98 bc eb 11 78 bd 5a fc 5c bd d3 ef 1f 3c
       -0.0185578 -0.060563963 -0.0539516 0.009761768

actor.4.bias f4 [6]
000000 ef a3 4a bd d3 4a ee 3c 20 83 a4 bc 7b cd 92 3d
       -0.049472746 0.029088413 -0.020082057 0.071680985
000010 d1 e1 25 bb ce 43 9a 3d
       -0.00253116 0.07532464

critic.0.weight f4 [128, 25]
000000 7d 44 8a bd c7 42 1c be ae d5 9f bb 65 da d1 bd
       -0.06751344 -0.15259849 -0.0048777675 -0.102467336
000010 14 5d e3 bd 85 73 10 3e 6e f8 41 3e bc 02 03 be
       -0.111017376 0.14106567 0.18942425 -0.12794012
000020 b5 e8 50 be f8 f3 67 3d c1 eb 2a be d3 cc 6b bd
       -0.2040127 0.05662915 -0.16691495 -0.057568382
000030 89 36 9d 3d 75 34 89 3d 9d 24 f0 3c 12 7f ab 3d
       0.076764174 0.066994585 0.029314334 0.08373846
000040 f0 ad dc bd b6 7d 6b bd a5 4e 8e bd 61 11 42 be
       -0.107753634 -0.057492934 -0.06948594 -0.18951942
000050 ff 59 f0 bd 87 40 d1 3c 0c 98 5d 3d 71 4c a9 bd
       -0.117359154 0.025543464 0.05410008 -0.08266533
000060 a9 72 02 3e 1e 98 d5 bd f5 3b 81 3c 8c b9 2c 3e
       0.12739052 -0.10429405 0.01577566 0.16867656
000070 fd 4e 00 3e de 02 43 3e 7c fe 54 3d ee 1e 07 be
       0.12530132 0.19044062 0.052000508 -0.13195392
000080 ce 2f 6e bd 80 c5 8e bd 8c 86 26 be e6 d8 8c bd
       -0.05815106 -0.06971264 -0.16262263 -0.068773076
000090 4a 0c 45 be bb 9b b8 bd 1d c5 3d be 0f df 43 3e
       -0.19242969 -0.09014078 -0.18532224 0.19128059
0000a0 2e 3b 0f 3d 14 e1 3c 3e 5f 77 f4 3d 80 67 44 3e
       0.034968548 0.18445235 0.11936831 0.19180107
0000b0 62 db 4f bd 39 fe c9 bd 14 f9 ab bd 72 7a 35 be
       -0.05074633 -0.09862942 -0.08397117 -0.1772249
0000c0 f0 90 2c bc e6 67 12 3d 8c 24 df 3d d8 fd 33 bd
       -0.010532603 0.035743617 0.10895643 -0.043943256
0000d0 93 9e 84 3d 53 c7 aa 3d 4a 58 20 3d d6 93 48 3d
       0.06475558 0.08338799 0.0391467 0.048969112
0000e0 33 e9 94 bd 0e 12 ee 3d a6 7d 50 be 50 81 88 3c
       -0.07271042 0.116245374 -0.20360431 0.016663224
0000f0 82 74 da 3d 11 47 f6 3d d8 fb be 3d 8e b5 c8 bc
       0.10666753 0.120252736 0.09325379 -0.024500635
000100 09 ad 15 3e c8 66 35 be e0 cc 51 bd f7 71 85 bd
       0.14616789 -0.17714989 -0.051220775 -0.06515878
000110 73 e0 f4 3d b9 96 33 3e bb 39 2e bd 47 a4 50 3d
       0.11956873 0.17537965 -0.042535525 0.050937917
000120 ac 42 05 bd 6d 2b 5a bd 52 b9 ab 3d b1 68 50 3d
       -0.032534286 -0.05326407 0.083849564 0.05088109
000130 0d a9 c8 bd e0 f7 22 3d 9f e8 3d 3e a5 cf 0a be
       -0.09797869 0.039787173 0.18545769 -0.13555773
000140 fa c0 17 bd 18 46 31 be 96 bc 5c bd e0 85 48 3e
       -0.03704927 -0.17311895 -0.053890787 0.1958232
000150 4c ef 0a 3e 02 cf 38 be 61 7a 3f be e5 f3 ee 3b
       0.13567847 -0.18047717 -0.18699028 0.007292258
000160 ee 90 a3 bc a5 f9 1d 3e fd 69 63 bd c6 ef 23 3e
       -0.019966569 0.15427263 -0.055521 0.16009435
000170 83 21 fe bd 8a 42 05 bd dd 26 d4 bb 87 e6 dc bd
       -0.124087356 -0.03253416 -0.0064743594 -0.10786157
000180 44 d0 2f 3c 30 b4 10 bd 9d c0 af bd 78 b5 17 be
       0.010730807 -0.03532809 -0.0858166 -0.14815319
000190 35 9c 42 bc df f7 38 3e 1f b9 96 3d 61 ac 16 be
       -0.011878063 0.18063305 0.07359528 -0.14714195
0001a0 1a 1c dd bd 6b 2a 0a 3e 98 80 99 bd 2d 60 71 bc
       -0.107963756 0.13492744 -0.074952304 -0.014732403
0001b0 2e 4a c6 bd 50 d6 bd 3d ee b4 06 be a9 16 44 be
       -0.096821174 0.092693925 -0.13154957 -0.19149269
0001c0 f0 51 1f be a3 fe 21 be 03 3f ac 3c 03 9a b5 3c
       -0.155586 -0.15819792 0.02102614 0.022168165
0001d0 08 8a 87 bd fb 45 b8 3d 6e ee 1a 3c 6f 16 3d 3d
       -0.06618124 0.08997723 0.00945626 0.046163972
0001e0 69 8e bd 3d f1 41 2c 3d d8 cd 43 3e 28 77 12 3e
       0.09255678 0.042055074 0.19121492 0.14303267
0001f0 e6 12 dd bd bd 6c 1e 3e 6c be f2 bc 7f f3 86 3b
       -0.1079462 0.15471168 -0.029631816 0.0041183825
000200 c6 e6 c8 3c b1 74 2e be 03 02 00 3e c4 d5 00 3e
       0.024524104 -0.17036702 0.12500767 0.12581545
000210 a3 42 42 3e 78 2a 1a 3d 0f a3 63 bd 08 e0 12 bd
       0.18970732 0.037638158 -0.055575427 -0.035858184
000220 c8 89 77 bd d7 d4 38 be 9f 10 85 3d 64 76 ef 3c
       -0.060434133 -0.18049942 0.06497311 0.029231258
000230 61 35 7a bd e0 aa ea bd fc d4 2c bd dc 2c 80 3d
       -0.061086062 -0.11458373 -0.042195305 0.06258556
000240 8f e8 12 3e 1b a9 a5 3d 8a 80 19 3e b9 a5 28 3e
       0.14346527 0.08088895 0.1499044 0.16469468
000250 e1 d5 bc bd 70 84 89 3b 5b ef 24 be e5 c9 e4 bd
       -0.09220482 0.004196696 -0.16106932 -0.11171321
000260 25 bb a1 3d fc 1e 7e 3d 99 7c cc 3d b5 0d 29 3e
       0.07897023 0.062041268 0.099847026 0.16509135
000270 34 9e a6 3d 81 c0 c3 bd bb fc 28 bd 73 72 78 3c
       0.081356436 -0.095582016 -0.041256648 0.015164006
000280 92 2f d9 3d d0 16 de bd 26 fb 9e bd 44 95 a7 3d
       0.106047764 -0.10844195 -0.077627465 0.08182767
000290 0a 26 90 3d 27 bb 44 3e 6e 9a 21 3e 0f 64 be bd
       0.070385054 0.19212018 0.15781567 -0.092964284
0002a0 66 de 8b 3d 36 93 fc bd 80 96 51 bc 8b 2d 84 bc
       0.068295285 -0.12332766 -0.01279223 -0.016134998
0002b0 fb 30 23 3d b8 a5 40 3e c0 2f 1d be 90 e6 37 3e
       0.039841633 0.18813217 -0.15350246 0.17959046
0002c0 15 3c 07 3e 7b a2 c3 bd a1 c1 56 bd ca 8c 4c bd
       0.13206513 -0.09552475 -0.052430753 -0.049938954
0002d0 fe 23 08 3e a4 2d 5e bd f1 09 85 3d 47 be 96 bd
       0.1329498 -0.054242745 0.06496037 -0.07360511
0002e0 1d 53 25 3e 2f 4b 04 bd 40 29 43 3e 12 89 1e be
       0.16144986 -0.032298263 0.19058704 -0.15481976
0002f0 65 ba 9d bd 13 1c 0d 3e 67 99 82 3d 7f 33 bf bd
       -0.077015676 0.1378024 0.063769154 -0.09335994
000300 da 24 31 be af ac 10 be 26 db 2e be 72 cd c7 bd
       -0.17299214 -0.14128374 -0.17075786 -0.097559825
000310 16 01 e3 bd 3b 2c 79 bd fa 8c 38 3e c6 6f 5d bd
       -0.110841915 -0.060833197 0.18022528 -0.054061674
000320 dc 30 01 be 1e 81 e5 3d 56 c9 ec bd fb 58 d5 bd
       -0.12616295 0.11206268 -0.11561839 -0.10417362
000330 36 a9 1f bd 1c de ac bc 93 5a 01 be 73 4a 1e be
       -0.03897973 -0.021102004 -0.12632208 -0.15458088
000340 8c a1 3f be 6f f7 a8 bd fa df c7 3d 4c 57 a8 3c
       -0.18713969 -0.08250319 0.09759517 0.020549439
000350 cd e1 1b 3e fc ca 0c 3d 1a 11 24 be 1f 14 8c 3c
       0.15222855 0.03437327 -0.16022149 0.017099438
000360 f1 28 44 bd a3 11 de 3d 06 0b 5e 3d b5 9f 4a 3e
       -0.047890607 0.10843208 0.05420973 0.19787486
000370 51 4c 3f be f8 47 cc bd 73 0a 29 be 02 4c 49 3c
       -0.18681456 -0.099746644 -0.16507892 0.012286188
000380 7c 99 fb bd 78 d9 b3 bd 72 cc 43 3e 9f 47 6c bd
       -0.12285134 -0.08781713 0.19120958 -0.05768549
000390 6d b8 b8 3d b8 c1 fc 3d f0 92 18 3e 6d 9d 1f 3e
       0.090195514 0.123416364 0.14899802 0.15587397
0003a0 f3 0d f1 3d 67 b7 8a 3c 50 58 30 3e 0b 6a 3e 3e
       0.11770239 0.016933156 0.17221189 0.1859514
0003b0 da 9e 06 be 13 78 36 3d 92 3e 08 3e cf 7a 08 be
       -0.13146535 0.044548105 0.13305119 -0.13328098
0003c0 c2 0c 8e 3d e1 26 08 3e df fa b0 39 d1 93 5a bd
       0.06936027 0.13296081 0.0003375625 -0.053363625
0003d0 91 8d 9f bc b9 70 29 3e f4 05 29 be 20 e6 a2 3d
       -0.019476684 0.16546907 -0.16506177 0.07954049
0003e0 6d 91 e4 bd f2 44 0b 3e 60 af 9f bd e4 e2 35 3d
       -0.1116055 0.1360052 -0.07797122 0.044405833
0003f0 e1 e2 04 3e b7 a0 f4 bc fa 0e d8 bc 23 ca 33 3e
       0.12977172 -0.029861791 -0.026374329 0.17557578

critic.0.bias f4 [128]
000000 f2 49 96 bd 86 d6 e0 bd c4 6c 38 be fb d0 27 be
       -0.07338323 -0.10978417 -0.18010241 -0.16388313
000010 fd 89 f6 3d d3 a5 04 be 28 4a f4 bd 1d 25 a9 bd
       0.12038038 -0.12953882 -0.11928207 -0.08259032
000020 ea 4f ed bc 0c c0 dc 3d 0b 9d 56 be 39 f1 b0 bd
       -0.02896877 0.107788175 -0.20958345 -0.086397596
000030 03 bb 4c bd 3e 24 44 3d fc f2 d9 bd fe ba 52 bd
       -0.049983036 0.047886126 -0.10642049 -0.05144786
000040 3f 1f e9 bd 6d 53 5a bd 09 42 c1 3d 2b 28 ba bd
       -0.11382913 -0.053302217 0.09436423 -0.09089693
000050 08 1e 01 bd cb d0 08 be 77 bc 50 3d 62 05 01 be
       -0.03152278 -0.13360898 0.050960984 -0.1259971
000060 f1 7a 0e 3d 7c 3c 5b be a2 18 81 3d 57 f3 85 3d
       0.034785215 -0.21409792 0.063035265 0.06540554
000070 87 74 21 be 40 21 1e bd d8 4a 01 be 7b 1d b7 bd
       -0.15767108 -0.03860593 -0.12626207 -0.0894117
000080 bd 53 ae 3d 26 09 f7 bd 2a 55 d9 3d c4 b1 db 3d
       0.085120656 -0.12062292 0.10611947 0.107272655
000090 d6 06 30 3e 3c 4d af bd 76 91 44 be 0e 5b f5 3d
       0.17190108 -0.08559653 -0.19196114 0.11980258
0000a0 e4 2f 4b bd 6c 3d 9d bd 85 57 b7 bd 45 1e 3c 3e
       -0.04960622 -0.07677731 -0.0895224 0.18370922
0000b0 17 a1 27 be a4 d7 01 3d 63 11 c1 3c 6a 2f b2 bd
       -0.16370045 0.03169979 0.023567861 -0.0870045
0000c0 b1 87 e6 3d ab b4 e0 3d 8e 68 09 3e 9f 67 47 3d
       0.1125635 0.1097196 0.1341879 0.048682805
0000d0 02 45 40 3d 2c 3e 6d 3d f3 b4 8d bd ff 9e 20 be
       0.04694081 0.05792062 -0.06919279 -0.15685652
0000e0 eb 36 6c bb 98 05 9a 3b 57 dc dc 3d e9 1e 2d 3d
       -0.0036043476 0.004700374 0.10784214 0.042265806
0000f0 ee ff e8 3b 47 68 8b bd 35 a8 2e 3e c5 fa 28 3e
       0.0071105873 -0.06806999 0.17056353 0.16501911
000100 34 a6 50 3e ba fe eb bc ec fe d6 bd 47 a6 22 be
       0.20375901 -0.028807987 -0.10497841 -0.15883742
000110 de d8 47 be 87 26 2e be 1e c0 76 bd 84 67 1c 3e
       -0.19516322 -0.17006885 -0.06024181 0.15273863
000120 12 af 43 be 2a 81 80 bd 52 58 ab 3d da d4 9d 3d
       -0.19109753 -0.06274636 0.08366455 0.07706614
000130 34 e7 22 3c b5 fe 52 bd 7c a0 89 3c e2 36 0c be
       0.009942818 -0.05151244 0.016800158 -0.13692811
000140 5e 0a bf 3d 5d 26 db 3d 88 cf 1f 3d 55 13 00 3e
       0.09328149 0.107006766 0.039016277 0.12507375
000150 40 6b fa 3d 6c ab 4c be 3e 4d b0 bd 77 f1 36 be
       0.122274876 -0.19987267 -0.08608483 -0.17865549
000160 63 75 9e 3d 98 c2 2d be 72 ec 34 3d fd c3 23 be
       0.077372335 -0.16968763 0.044170804 -0.15992732
000170 27 39 c3 3d c7 05 0e be 4f 72 33 be 5a 60 a3 bd
       0.09532385 -0.13869391 -0.17524074 -0.07977362
000180 88 19 97 3d 37 8c be bd b0 3e a7 3d 8b 86 96 bb
       0.073779166 -0.093040876 0.081662536 -0.0045936755
000190 06 eb f4 bd 69 36 ce bc 47 ac 04 3e 6b cd 02 be
       -0.1195889 -0.02517243 0.12956344 -0.12773673
0001a0 fe 70 29 3e b3 8a 78 3d a8 12 ad 3d 90 98 20 bd
       0.1654701 0.06067915 0.08450824 -0.039207995
0001b0 80 c9 15 3e 3e 96 28 be a2 47 b8 bd e9 df e9 3d
       0.14627647 -0.16463563 -0.08998038 0.114196606
0001c0 a3 20 fe bd df fb 2c 3e c1 5e a6 bd 8a 7f 3e be
       -0.12408569 0.16892956 -0.081235416 -0.1860334
0001d0 49 3b 40 3e 02 05 1d 3e 64 74 98 3d e2 b1 30 be
       0.18772615 0.15333942 0.07444075 -0.17255357
0001e0 f1 4f 07 3d eb 0a 36 bd cd 46 49 3e 30 d2 5f 3d
       0.033035222 -0.044444006 0.19655915 0.05464381
0001f0 a6 24 c6 bc d3 2e 46 be fc 42 87 bd d5 94 12 3e
       -0.024187397 -0.193538 -0.06604573 0.14314587

critic.2.weight f4 [128, 128]
000000 f1 f0 93 bd f9 12 5f 3a ff eb 9c bd b3 a6 81 bc
       -0.0722369 0.0008509602 -0.076622 -0.015826559
000010 7e 18 cf bc 69 00 a4 bc 24 9b 1b bc b0 d1 c5 bc
       -0.025280233 -0.020019727 -0.009497438 -0.024147838
000020 4a 09 13 bd 87 35 25 3d 40 27 2c 3c 08 da 54 bd
       -0.03589753 0.04033425 0.010507405 -0.051965743
000030 7c db 2e 3d 0e da ad 3d 5d 1c 3d 3d 07 4f 17 3d
       0.042689785 0.08488856 0.046169627 0.0369406
000040 c5 df 94 bc d3 b3 82 3d 3e a1 22 bd 5e 83 1d 3d
       -0.018173108 0.06381955 -0.039704554 0.03845536
000050 a5 0d 9a 3d 87 4d 7c bc e2 2b 55 bd 3a f4 c1 3c
       0.07522134 -0.015399343 -0.052043803 0.023676027
000060 4f 4c 8c bc 41 67 48 3d 4e 73 45 bd 7a 34 7a 3d
       -0.01712623 0.048926596 -0.048205666 0.0610852
000070 19 28 6d 3d 39 d7 36 3d b2 ac 18 3c 5c f6 14 bd
       0.05789957 0.044638846 0.0093185175 -0.03636776
000080 db 2c 75 3d c4 37 79 bc d6 10 1c bd 30 42 7f 3d
       0.05985723 -0.0152110495 -0.038101994 0.06231898
000090 ff c8 08 bd 5c 3d 18 3d a4 2b 05 3d 30 63 19 bd
       -0.03339481 0.03716789 0.032512322 -0.03744811
0000a0 a5 22 45 3d 72 e9 b1 bb a0 e9 1c 3d 78 e0 6f bd
       0.048128743 -0.00542944 0.03830874 -0.05856368
0000b0 e7 17 f3 3c dc 86 8a 3d 89 01 38 bd 46 3a a1 3d
       0.029674483 0.06764004 -0.04492334 0.07872443
0000c0 50 4b 75 bd d5 39 95 3c c8 7b be 3c ff d0 b6 bb
       -0.059886277 0.018216053 0.023252383 -0.0055791135
0000d0 69 6f be 3c e5 12 9f 3c 5c 5e 2c bd 3f c8 9c bd
       0.023246484 0.01941819 -0.042082176 -0.076553814
0000e0 8a 8b 8c bd 4e 21 79 bb 58 4e 5a bb e6 96 8e bc
       -0.068625525 -0.0038014236 -0.0033310857 -0.017405938
0000f0 1a 79 bc bb 52 e0 95 bd c4 63 ad bd 47 c9 1b bd
       -0.005751741 -0.07318176 -0.084662944 -0.03803375
000100 aa 56 af bd d5 9c 2f 3d 67 88 f4 bc f5 dc 26 bd
       -0.08561452 0.042874176 -0.029850198 -0.040738065
000110 83 df c9 3b e3 60 80 3c ce a2 2f 3d a4 71 72 bb
       0.006160678 0.0156712 0.042879872 -0.0036994005
000120 22 e8 d8 3c be 73 3a 3c e8 ad 8e 3d 1e 21 a6 3c
       0.026477877 0.011380134 0.06966764 0.020279463
000130 ff c0 cd 3c 45 80 30 bb c0 87 12 3d aa 06 2f bc
       0.025116442 -0.0026931923 0.035773993 -0.010682741
000140 3c 8e 2f bd a0 c8 64 bd d9 07 4d 3d fb 02 de 3a
       -0.042860255 -0.055855393 0.050056312 0.0016938144
000150 5e bf a6 3d be 86 45 3d a0 a5 97 3d 1e 0c 04 bc
       0.08141969 0.048224203 0.07404637 -0.00805953
000160 38 58 64 3d 81 1c cf 3b 58 76 4d 3c 8f b0 cc 3c
       0.055748194 0.0063205366 0.012540422 0.024986533
000170 a5 dd 6d bd 51 cf a1 3d a8 8f fb 3c 39 a1 b7 bc
       -0.058072705 0.079008706 0.03070815 -0.022415744
000180 53 2a 90 bd e4 36 62 bd 5b 59 3e bc 49 78 ec 3b
       -0.07039323 -0.05522813 -0.011617984 0.0072164875
000190 21 d8 03 3d bd 6c a8 3d 6b f5 83 3d 77 62 0f bc
       0.03218854 0.08223865 0.06443294 -0.008751503
0001a0 c6 e1 a5 bc 03 86 85 3d 80 25 94 bb 2a c2 65 3c
       -0.020249259 0.06519701 -0.004521072 0.014023343
0001b0 52 ee 8e bb 68 d4 96 3d de fa 3a 3d 5d 98 11 3d
       -0.004361906 0.07364732 0.0456494 0.035545696
0001c0 72 9d dd 3c 53 6c 52 bc 3c b2 d6 3c 03 f4 83 bd
       0.027052615 -0.012843209 0.026208036 -0.06443026
0001d0 a1 15 83 bd 0f b3 ce 3c c0 77 47 3c 68 e9 81 bd
       -0.0640061 0.025231866 0.012174547 -0.06343347
0001e0 71 92 f1 3c 77 51 13 3d 05 f2 49 3d fb 29 35 bd
       0.029488774 0.035966363 0.049303073 -0.04422949
0001f0 04 27 4d bd 4a 05 50 bb 22 a0 05 bc ef cd d6 bb
       -0.050086036 -0.0031741434 -0.008155854 -0.006555311
000200 0b 54 88 bd 55 59 68 3d e9 f2 a8 3d 41 8f 3c bd
       -0.06656655 0.05672582 0.082494564 -0.046035055
000210 72 73 7e 3d 8e cd 77 3c 61 e7 a9 3c ef 13 0b bc
       0.062121816 0.015124692 0.020740213 -0.008488639
000220 1b f8 97 3d 50 d5 cb bc 7c 5d 93 3c 05 0a f3 bb
       0.07420369 -0.024881989 0.017988913 -0.007416966
000230 bf a1 20 3c 9c 81 42 bd 41 22 88 bd a0 0a 54 3d
       0.009804188 -0.047486886 -0.066471584 0.051767945
000240 1b 01 aa bd 88 36 8b bd e4 35 9d 3d 2a 2e 3e bd
       -0.08300992 -0.067975104 0.076762944 -0.046430744
000250 ea 70 6d bc d3 29 a7 bd b5 58 f7 bc 8b a6 32 bd
       -0.014492253 -0.08162274 -0.030193666 -0.04361586
000260 34 47 f5 3c 2b 74 38 3d 5e a5 96 3d be 4e fa bc
       0.029941179 0.04503266 0.0735576 -0.030555125
000270 b9 e5 90 3d 51 54 08 3d 4a 58 a4 bd bf 33 aa bd
       0.07075066 0.033283535 -0.08024652 -0.08310651
000280 85 0f 97 bc 49 e8 9b 3d 3c a7 30 bc 61 ad 87 bd
       -0.018440017 0.07612664 -0.010782059 -0.06624866
000290 d8 16 32 3d a3 c5 c0 bd 54 18 68 3d bd 1d 10 bc
       0.043478817 -0.09412696 0.056663826 -0.008796153
0002a0 5e 8d 8e bb 26 ed 09 bd 41 75 95 3b 4a 65 c2 b9
       -0.0043503484 -0.033673428 0.004561097 -0.0003707803
0002b0 ce 89 86 3d 00 ff 95 3d 3f 6f 03 3d dd df 94 bc
       0.06569253 0.07324028 0.032088514 -0.018173153
0002c0 c5 6c b7 bb 3d fc 84 bd 15 c0 22 3d da cc f1 bc
       -0.005597683 -0.06493423 0.039733965 -0.029516626
0002d0 aa 26 cc bd d8 b8 2a bd ae 88 84 bd b7 cc a2 bd
       -0.09968312 -0.041680187 -0.06471382 -0.079492025
0002e0 cb 1b f7 3b 11 50 09 3a fe 36 7a bd 4c 32 95 bd
       0.007541155 0.0005238066 -0.0610876 -0.07284984
0002f0 77 bd 94 3c 21 2c a3 3c bf 26 47 3d 94 e9 19 3d
       0.01815675 0.019918503 0.048620936 0.037576273
000300 62 42 89 bd dc 04 25 3d 59 d5 b1 bd 6f c7 ac bd
       -0.06702115 0.040287837 -0.08683271 -0.084364764
000310 86 36 d3 3c d9 05 9c 3d 65 d6 00 3d 18 13 3f bc
       0.025782835 0.07618303 0.031454463 -0.011662267
000320 e1 68 33 bd 35 46 9a 3d d3 99 8b bd 11 33 97 3d
       -0.043801192 0.07532922 -0.06816449 0.07382787
000330 3c 7f 70 bd 81 28 b5 bd a6 9e 91 bb 1c 6f 84 3c
       -0.05871509 -0.08845616 -0.004443961 0.016166262
000340 f4 cd 9e bd f4 65 18 bd fe 81 26 bc f4 2a 89 bc
       -0.07754126 -0.037206605 -0.0101628285 -0.016744114
000350 10 c7 51 bd 44 dd 9a 3d 0f 5f 93 bd db 45 5a 3d
       -0.05121523 0.07561734 -0.07195865 0.053289276
000360 84 a7 a5 3c 1b 6b 40 bd 7b e7 de 3c f9 71 9e bd
       0.02022148 -0.046977144 0.027209988 -0.07736582
000370 fe 7b 9b bd f3 f2 3d 3d 36 a2 4f bd 25 ce 1f 3d
       -0.07592009 0.046374273 -0.050691806 0.039014954
000380 92 2f be bd 4b 22 1f 3c 85 cf c4 bd 23 21 02 3d
       -0.09286417 0.009712766 -0.09609894 0.031769883
000390 a5 5b 9a 3d 82 77 35 3d c0 78 9c 3c 42 4e 64 3d
       0.07537011 0.044303425 0.019100547 0.055738695
0003a0 b1 a8 91 3d ec b1 29 3d 17 eb e5 3c 77 45 d3 3c
       0.071122535 0.041429445 0.028066201 0.02578996
0003b0 ae 0a 80 3c 46 0b 4d 3d f0 3b 81 3d 5e cd 00 bd
       0.015630092 0.05005958 0.0631026 -0.031445853
0003c0 38 1a 2a 3c 6c 3f 26 3d 9c fe 98 bd 53 59 9d bd
       0.010382228 0.040587828 -0.07470438 -0.07683053
0003d0 64 0c 0b bd 8e e9 1d 3b 6f c8 4d 3d 33 2f 10 3d
       -0.033947363 0.0024095508 0.050239976 0.035201263
0003e0 30 28 17 3d fa 42 c3 bc 93 68 f4 bc 53 9a cc bd
       0.03690356 -0.023835648 -0.029835021 -0.099903725
0003f0 71 71 86 bb 54 59 d3 bc 34 6b 89 bd b8 8a 14 3d
       -0.0041028787 -0.02579943 -0.067099005 0.036265105

critic.2.bias f4 [128]
000000 7f 1e ae bc 40 c1 20 3d 7b 1d 9d 3d c7 00 48 3c
       -0.021254776 0.039246798 0.076716386 0.012207217
000010 5a 5d c4 3c e9 8c a6 3d ee 69 35 bd 4c 0b 8b bc
       0.023970295 0.08132345 -0.044290476 -0.01697316
000020 fe 3a 55 3c 1d 4b 51 3d f0 0a 44 3d 4e b8 14 bd
       0.013014553 0.051097024 0.047861993 -0.03630858
000030 6a e8 1b 3d 20 1a 5c 3c ee 8e 80 bd 6d 1a 34 bd
       0.038063444 0.013433963 -0.06277262 -0.043970514
000040 54 4f 82 bc 03 6b b2 bd fa c1 fd 3c e5 fd 36 bd
       -0.015906967 -0.08711817 0.030976284 -0.044675726
000050 19 3b 33 bd 6d e7 9b 3c 0f b5 50 bc 04 47 83 3d
       -0.04375753 0.01903125 -0.01273848 0.064100295
000060 2a d7 98 b9 d4 54 46 bc 54 b2 9a 3d fb d1 34 bd
       -0.0002915201 -0.012105186 0.07553545 -0.044145565
000070 b6 8d 80 3d 35 9b 44 bc 28 69 87 3d c2 57 77 3d
       0.06277029 -0.011999895 0.06611854 0.060386427
000080 0a bf 1d bd e0 40 8f bc 21 12 22 bb 0f 27 36 3d
       -0.038512267 -0.01748699 -0.0024730044 0.044470843
000090 df 46 82 bc 1a 38 14 bd c5 fd 50 bc ea 4a dd bc
       -0.015902935 -0.036186315 -0.012755816 -0.02701326
0000a0 86 dc 84 3d a1 57 b4 3d 64 2f 56 bd 73 eb 8e 3d
       0.06487374 0.088057764 -0.05229129 0.06978502
0000b0 af ee b9 3d 18 94 8b bd 26 f1 b9 3c e6 dc 9c bd
       0.090787284 -0.06815356 0.022697996 -0.076593205
0000c0 47 77 ab bd b4 cc 3b 3d 7a 6d dd bc 72 70 73 bd
       -0.0837236 0.045849517 -0.027029742 -0.059433408
0000d0 30 38 a2 bc 2b eb 6c bc 8e e6 91 bd 11 f2 ec 3c
       -0.019802183 -0.014460365 -0.07124053 0.02892402
0000e0 72 1b ad 3c 1d 62 f3 3c c4 30 0b bd 59 bf 70 bd
       0.021131251 0.02970987 -0.033982053 -0.058776233
0000f0 8c 42 29 bd 16 e6 92 3c 8c 67 6f bd e1 f1 39 3d
       -0.04132323 0.01793198 -0.05844836 0.04539669
000100 d4 58 d7 bc 5a 06 52 bd ce 3b 15 3c 18 e5 b0 bd
       -0.026287474 -0.05127559 0.009108497 -0.08637446
000110 51 7b a3 3d d0 8f a7 3d 0e 08 b3 bd 01 28 8c bd
       0.07982505 0.08181727 -0.08741771 -0.06843568
000120 e9 c0 ba 3d 60 d7 5a bd 5d 96 00 bd 8d 19 13 bd
       0.09118826 -0.053428054 -0.031393398 -0.03591304
000130 2f a9 84 bd 48 ed 30 3d c1 a5 3d 3d 13 2f 3a 3d
       -0.06477582 0.04319504 0.046300653 0.04545505
000140 fd b2 0b bc dd ca 7d 3d fb 1f 91 bd a0 95 6b bc
       -0.008526561 0.061961044 -0.07086178 -0.014378935
000150 51 fa 0b 3d 87 d5 1f 3d af 82 8c bc 9d 08 59 bd
       0.034174267 0.039021995 -0.017152159 -0.05298673
000160 37 92 1e 3d 94 ff 90 3d ff 9a a2 bd ce 4f bc bd
       0.03871366 0.07079998 -0.079397194 -0.09194909
000170 b1 b0 50 bd 6d fb e3 ba d5 74 9a 3b d2 1b b0 bd
       -0.050949756 -0.0017393656 0.0047136345 -0.08599056
000180 74 34 8a bd dd ed 3d bd 79 1d 4b 3c 98 b6 57 bd
       -0.06748286 -0.046369422 0.012397164 -0.05266437
000190 b3 23 a1 bc 24 38 ad 3d 39 e1 36 bd 69 62 30 bd
       -0.019670343 0.084579736 -0.044648383 -0.0430626
0001a0 af 2f 31 3d 95 a5 0c bd ed 76 7f bd 96 4e ea 3c
       0.043258365 -0.0343376 -0.062369276 0.028601926
0001b0 44 f3 0e bc 11 c3 6c bd a1 3c 89 3d 7c d6 4b bc
       -0.008724991 -0.057803217 0.06701017 -0.012441274
0001c0 dc fd a8 3d 94 52 91 bd 50 9a 34 bc 63 81 f1 3c
       0.08251545 -0.07095829 -0.011023119 0.029480642
0001d0 e5 35 1a 3d 57 6f 83 3d d6 5f 7d bd 9c 1f d6 bc
       0.037649054 0.06417721 -0.061858974 -0.02613812
0001e0 31 38 64 bd d4 57 8e 3d 39 ed 3b 3d ab c5 6d bd
       -0.05571765 0.06950346 0.04588053 -0.05804984
0001f0 b4 e0 2a bb 69 b7 4b bd 03 ba 76 bc ad 1a 0c 3c
       -0.0026073875 -0.04973546 -0.015058997 0.008551282
